…
I0804 12:49:28.028699 21779 net.cpp:58] Initializing net from parameters: 
name: "got"
state {
  phase: TRAIN
  level: 0
  stage: ""
}
layer {
  name: "got_data"
  type: "GOTData"
  top: "data"
  top: "label"
  include {
    phase: TRAIN
  }
  transform_param {
    mirror: true
    crop_size: 256
    corner_perturb_ratio: 0.2
    crop_margin: 0.25
    perturb_frequency: 0.5
    blur_mask: true
    blur_winsize: 41
    blur_sigma: 20
  }
  data_param {
    source: "/raid/xuehan/ILSVRC2015_tracking_train_split"
    batch_size: 128
    backend: LMDB
  }
}
layer {
  name: "conv1_1"
  type: "Convolution"
  bottom: "data"
  top: "conv1_1"
  param {
    lr_mult: 1
    decay_mult: 1
  }
  convolution_param {
    num_output: 8
    bias_term: false
    pad: 1
    kernel_size: 3
    stride: 1
    weight_filler {
      type: "gaussian"
      std: 0.01
    }
  }
}
layer {
  name: "conv1_1_bn"
  type: "BatchNorm"
  bottom: "conv1_1"
  top: "conv1_1_bn"
  param {
    lr_mult: 0
  }
  param {
    lr_mult: 0
  }
  param {
    lr_mult: 0
  }
}
layer {
  name: "conv1_1_bn_scale"
  type: "Scale"
  bottom: "conv1_1_bn"
  top: "conv1_1_bn"
  scale_param {
    bias_term: true
  }
}
layer {
  name: "conv1_1_relu"
  type: "ReLU"
  bottom: "conv1_1_bn"
  top: "conv1_1_bn"
}
layer {
  name: "conv1_2"
  type: "Convolution"
  bottom: "conv1_1_bn"
  top: "conv1_2"
  param {
    lr_mult: 1
    decay_mult: 1
  }
  convolution_param {
    num_output: 8
    bias_term: false
    pad: 1
    kernel_size: 3
    stride: 1
    weight_filler {
      type: "gaussian"
      std: 0.01
    }
  }
}
layer {
  name: "conv1_2_bn"
  type: "BatchNorm"
  bottom: "conv1_2"
  top: "conv1_2_bn"
  param {
    lr_mult: 0
  }
  param {
    lr_mult: 0
  }
  param {
    lr_mult: 0
  }
}
layer {
  name: "conv1_2_bn_scale"
  type: "Scale"
  bottom: "conv1_2_bn"
  top: "conv1_2_bn"
  scale_param {
    bias_term: true
  }
}
layer {
  name: "conv1_2_relu"
  type: "ReLU"
  bottom: "conv1_2_bn"
  top: "conv1_2_bn"
}
layer {
  name: "pool1"
  type: "Pooling"
  bottom: "conv1_2_bn"
  top: "pool1"
  pooling_param {
    pool: MAX
    kernel_size: 2
    stride: 2
  }
}
layer {
  name: "conv2_1"
  type: "Convolution"
  bottom: "pool1"
  top: "conv2_1"
  param {
    lr_mult: 1
    decay_mult: 1
  }
  convolution_param {
    num_output: 16
    bias_term: false
    pad: 1
    kernel_size: 3
    stride: 1
    weight_filler {
      type: "gaussian"
      std: 0.01
    }
  }
}
layer {
  name: "conv2_1_bn"
  type: "BatchNorm"
  bottom: "conv2_1"
  top: "conv2_1_bn"
  param {
    lr_mult: 0
  }
  param {
    lr_mult: 0
  }
  param {
    lr_mult: 0
  }
}
layer {
  name: "conv2_1_bn_scale"
  type: "Scale"
  bottom: "conv2_1_bn"
  top: "conv2_1_bn"
  scale_param {
    bias_term: true
  }
}
layer {
  name: "conv2_1_relu"
  type: "ReLU"
  bottom: "conv2_1_bn"
  top: "conv2_1_bn"
}
layer {
  name: "conv2_2"
  type: "Convolution"
  bottom: "conv2_1_bn"
  top: "conv2_2"
  param {
    lr_mult: 1
    decay_mult: 1
  }
  convolution_param {
    num_output: 16
    bias_term: false
    pad: 1
    kernel_size: 3
    stride: 1
    weight_filler {
      type: "gaussian"
      std: 0.01
    }
  }
}
layer {
  name: "conv2_2_bn"
  type: "BatchNorm"
  bottom: "conv2_2"
  top: "conv2_2_bn"
  param {
    lr_mult: 0
  }
  param {
    lr_mult: 0
  }
  param {
    lr_mult: 0
  }
}
layer {
  name: "conv2_2_bn_scale"
  type: "Scale"
  bottom: "conv2_2_bn"
  top: "conv2_2_bn"
  scale_param {
    bias_term: true
  }
}
layer {
  name: "conv2_2_relu"
  type: "ReLU"
  bottom: "conv2_2_bn"
  top: "conv2_2_bn"
}
layer {
  name: "pool2"
  type: "Pooling"
  bottom: "conv2_2_bn"
  top: "pool2"
  pooling_param {
    pool: MAX
    kernel_size: 2
    stride: 2
  }
}
layer {
  name: "conv3_1"
  type: "Convolution"
  bottom: "pool2"
  top: "conv3_1"
  param {
    lr_mult: 1
    decay_mult: 1
  }
  convolution_param {
    num_output: 32
    bias_term: false
    pad: 1
    kernel_size: 3
    stride: 1
    weight_filler {
      type: "gaussian"
      std: 0.01
    }
  }
}
layer {
  name: "conv3_1_bn"
  type: "BatchNorm"
  bottom: "conv3_1"
  top: "conv3_1_bn"
  param {
    lr_mult: 0
  }
  param {
    lr_mult: 0
  }
  param {
    lr_mult: 0
  }
}
layer {
  name: "conv3_1_bn_scale"
  type: "Scale"
  bottom: "conv3_1_bn"
  top: "conv3_1_bn"
  scale_param {
    bias_term: true
  }
}
layer {
  name: "conv3_1_relu"
  type: "ReLU"
  bottom: "conv3_1_bn"
  top: "conv3_1_bn"
}
layer {
  name: "conv3_2"
  type: "Convolution"
  bottom: "conv3_1_bn"
  top: "conv3_2"
  param {
    lr_mult: 1
    decay_mult: 1
  }
  convolution_param {
    num_output: 32
    bias_term: false
    pad: 1
    kernel_size: 3
    stride: 1
    weight_filler {
      type: "gaussian"
      std: 0.01
    }
  }
}
layer {
  name: "conv3_2_bn"
  type: "BatchNorm"
  bottom: "conv3_2"
  top: "conv3_2_bn"
  param {
    lr_mult: 0
  }
  param {
    lr_mult: 0
  }
  param {
    lr_mult: 0
  }
}
layer {
  name: "conv3_2_bn_scale"
  type: "Scale"
  bottom: "conv3_2_bn"
  top: "conv3_2_bn"
  scale_param {
    bias_term: true
  }
}
layer {
  name: "conv3_2_relu"
  type: "ReLU"
  bottom: "conv3_2_bn"
  top: "conv3_2_bn"
}
layer {
  name: "pool3"
  type: "Pooling"
  bottom: "conv3_2_bn"
  top: "pool3"
  pooling_param {
    pool: MAX
    kernel_size: 2
    stride: 2
  }
}
layer {
  name: "conv4_1"
  type: "Convolution"
  bottom: "pool3"
  top: "conv4_1"
  param {
    lr_mult: 1
    decay_mult: 1
  }
  convolution_param {
    num_output: 64
    bias_term: false
    pad: 1
    kernel_size: 3
    stride: 1
    weight_filler {
      type: "gaussian"
      std: 0.01
    }
  }
}
layer {
  name: "conv4_1_bn"
  type: "BatchNorm"
  bottom: "conv4_1"
  top: "conv4_1_bn"
  param {
    lr_mult: 0
  }
  param {
    lr_mult: 0
  }
  param {
    lr_mult: 0
  }
}
layer {
  name: "conv4_1_bn_scale"
  type: "Scale"
  bottom: "conv4_1_bn"
  top: "conv4_1_bn"
  scale_param {
    bias_term: true
  }
}
layer {
  name: "conv4_1_relu"
  type: "ReLU"
  bottom: "conv4_1_bn"
  top: "conv4_1_bn"
}
layer {
  name: "conv4_2"
  type: "Convolution"
  bottom: "conv4_1_bn"
  top: "conv4_2"
  param {
    lr_mult: 1
    decay_mult: 1
  }
  convolution_param {
    num_output: 64
    bias_term: false
    pad: 1
    kernel_size: 3
    stride: 1
    weight_filler {
      type: "gaussian"
      std: 0.01
    }
  }
}
layer {
  name: "conv4_2_bn"
  type: "BatchNorm"
  bottom: "conv4_2"
  top: "conv4_2_bn"
  param {
    lr_mult: 0
  }
  param {
    lr_mult: 0
  }
  param {
    lr_mult: 0
  }
}
layer {
  name: "conv4_2_bn_scale"
  type: "Scale"
  bottom: "conv4_2_bn"
  top: "conv4_2_bn"
  scale_param {
    bias_term: true
  }
}
layer {
  name: "conv4_2_relu"
  type: "ReLU"
  bottom: "conv4_2_bn"
  top: "conv4_2_bn"
}
layer {
  name: "pool4"
  type: "Pooling"
  bottom: "conv4_2_bn"
  top: "pool4"
  pooling_param {
    pool: MAX
    kernel_size: 2
    stride: 2
  }
}
layer {
  name: "ip1"
  type: "InnerProduct"
  bottom: "pool4"
  top: "ip1"
  param {
    lr_mult: 1
    decay_mult: 1
  }
  param {
    lr_mult: 2
    decay_mult: 0
  }
  inner_product_param {
    num_output: 4
    weight_filler {
      type: "xavier"
      std: 0.01
    }
    bias_filler {
      type: "constant"
      value: 1
    }
  }
}
layer {
  name: "loss"
  type: "EuclideanLoss"
  bottom: "ip1"
  bottom: "label"
  top: "loss"
  loss_weight: 1
}
I0804 12:49:28.028825 21779 layer_factory.hpp:77] Creating layer got_data
I0804 12:49:28.029276 21779 net.cpp:100] Creating Layer got_data
I0804 12:49:28.029292 21779 net.cpp:408] got_data -> data
I0804 12:49:28.029331 21779 net.cpp:408] got_data -> label
I0804 12:49:28.032918 21783 db_lmdb.cpp:35] Opened lmdb /raid/xuehan/ILSVRC2015_tracking_train_split
I0804 12:49:28.033370 21779 got_data_layer.cpp:38] 288 640 3
I0804 12:49:28.041399 21779 got_data_layer.cpp:51] output data size: 128,3,256,256
I0804 12:49:28.163892 21779 net.cpp:150] Setting up got_data
I0804 12:49:28.163924 21779 net.cpp:157] Top shape: 128 3 256 256 (25165824)
I0804 12:49:28.163930 21779 net.cpp:157] Top shape: 128 1 1 4 (512)
I0804 12:49:28.163933 21779 net.cpp:165] Memory required for data: 100665344
I0804 12:49:28.163944 21779 layer_factory.hpp:77] Creating layer conv1_1
I0804 12:49:28.163964 21779 net.cpp:100] Creating Layer conv1_1
I0804 12:49:28.163969 21779 net.cpp:434] conv1_1 <- data
I0804 12:49:28.163982 21779 net.cpp:408] conv1_1 -> conv1_1
I0804 12:49:28.164165 21779 net.cpp:150] Setting up conv1_1
I0804 12:49:28.164173 21779 net.cpp:157] Top shape: 128 8 256 256 (67108864)
I0804 12:49:28.164176 21779 net.cpp:165] Memory required for data: 369100800
I0804 12:49:28.164187 21779 layer_factory.hpp:77] Creating layer conv1_1_bn
I0804 12:49:28.164193 21779 net.cpp:100] Creating Layer conv1_1_bn
I0804 12:49:28.164197 21779 net.cpp:434] conv1_1_bn <- conv1_1
I0804 12:49:28.164201 21779 net.cpp:408] conv1_1_bn -> conv1_1_bn
I0804 12:49:28.164769 21779 net.cpp:150] Setting up conv1_1_bn
I0804 12:49:28.164780 21779 net.cpp:157] Top shape: 128 8 256 256 (67108864)
I0804 12:49:28.164783 21779 net.cpp:165] Memory required for data: 637536256
I0804 12:49:28.164795 21779 layer_factory.hpp:77] Creating layer conv1_1_bn_scale
I0804 12:49:28.164803 21779 net.cpp:100] Creating Layer conv1_1_bn_scale
I0804 12:49:28.164806 21779 net.cpp:434] conv1_1_bn_scale <- conv1_1_bn
I0804 12:49:28.164811 21779 net.cpp:395] conv1_1_bn_scale -> conv1_1_bn (in-place)
I0804 12:49:28.164846 21779 layer_factory.hpp:77] Creating layer conv1_1_bn_scale
I0804 12:49:28.164975 21779 net.cpp:150] Setting up conv1_1_bn_scale
I0804 12:49:28.164983 21779 net.cpp:157] Top shape: 128 8 256 256 (67108864)
I0804 12:49:28.164985 21779 net.cpp:165] Memory required for data: 905971712
I0804 12:49:28.164993 21779 layer_factory.hpp:77] Creating layer conv1_1_relu
I0804 12:49:28.165000 21779 net.cpp:100] Creating Layer conv1_1_relu
I0804 12:49:28.165004 21779 net.cpp:434] conv1_1_relu <- conv1_1_bn
I0804 12:49:28.165009 21779 net.cpp:395] conv1_1_relu -> conv1_1_bn (in-place)
I0804 12:49:28.165014 21779 net.cpp:150] Setting up conv1_1_relu
I0804 12:49:28.165019 21779 net.cpp:157] Top shape: 128 8 256 256 (67108864)
I0804 12:49:28.165021 21779 net.cpp:165] Memory required for data: 1174407168
I0804 12:49:28.165024 21779 layer_factory.hpp:77] Creating layer conv1_2
I0804 12:49:28.165033 21779 net.cpp:100] Creating Layer conv1_2
I0804 12:49:28.165037 21779 net.cpp:434] conv1_2 <- conv1_1_bn
I0804 12:49:28.165042 21779 net.cpp:408] conv1_2 -> conv1_2
I0804 12:49:28.173115 21779 net.cpp:150] Setting up conv1_2
I0804 12:49:28.173135 21779 net.cpp:157] Top shape: 128 8 256 256 (67108864)
I0804 12:49:28.173138 21779 net.cpp:165] Memory required for data: 1442842624
I0804 12:49:28.173146 21779 layer_factory.hpp:77] Creating layer conv1_2_bn
I0804 12:49:28.173154 21779 net.cpp:100] Creating Layer conv1_2_bn
I0804 12:49:28.173158 21779 net.cpp:434] conv1_2_bn <- conv1_2
I0804 12:49:28.173166 21779 net.cpp:408] conv1_2_bn -> conv1_2_bn
I0804 12:49:28.173331 21779 net.cpp:150] Setting up conv1_2_bn
I0804 12:49:28.173338 21779 net.cpp:157] Top shape: 128 8 256 256 (67108864)
I0804 12:49:28.173341 21779 net.cpp:165] Memory required for data: 1711278080
I0804 12:49:28.173352 21779 layer_factory.hpp:77] Creating layer conv1_2_bn_scale
I0804 12:49:28.173358 21779 net.cpp:100] Creating Layer conv1_2_bn_scale
I0804 12:49:28.173362 21779 net.cpp:434] conv1_2_bn_scale <- conv1_2_bn
I0804 12:49:28.173365 21779 net.cpp:395] conv1_2_bn_scale -> conv1_2_bn (in-place)
I0804 12:49:28.173390 21779 layer_factory.hpp:77] Creating layer conv1_2_bn_scale
I0804 12:49:28.173985 21779 net.cpp:150] Setting up conv1_2_bn_scale
I0804 12:49:28.174005 21779 net.cpp:157] Top shape: 128 8 256 256 (67108864)
I0804 12:49:28.174008 21779 net.cpp:165] Memory required for data: 1979713536
I0804 12:49:28.174015 21779 layer_factory.hpp:77] Creating layer conv1_2_relu
I0804 12:49:28.174022 21779 net.cpp:100] Creating Layer conv1_2_relu
I0804 12:49:28.174028 21779 net.cpp:434] conv1_2_relu <- conv1_2_bn
I0804 12:49:28.174032 21779 net.cpp:395] conv1_2_relu -> conv1_2_bn (in-place)
I0804 12:49:28.174038 21779 net.cpp:150] Setting up conv1_2_relu
I0804 12:49:28.174042 21779 net.cpp:157] Top shape: 128 8 256 256 (67108864)
I0804 12:49:28.174046 21779 net.cpp:165] Memory required for data: 2248148992
I0804 12:49:28.174049 21779 layer_factory.hpp:77] Creating layer pool1
I0804 12:49:28.174055 21779 net.cpp:100] Creating Layer pool1
I0804 12:49:28.174058 21779 net.cpp:434] pool1 <- conv1_2_bn
I0804 12:49:28.174063 21779 net.cpp:408] pool1 -> pool1
I0804 12:49:28.174098 21779 net.cpp:150] Setting up pool1
I0804 12:49:28.174103 21779 net.cpp:157] Top shape: 128 8 128 128 (16777216)
I0804 12:49:28.174106 21779 net.cpp:165] Memory required for data: 2315257856
I0804 12:49:28.174109 21779 layer_factory.hpp:77] Creating layer conv2_1
I0804 12:49:28.174118 21779 net.cpp:100] Creating Layer conv2_1
I0804 12:49:28.174123 21779 net.cpp:434] conv2_1 <- pool1
I0804 12:49:28.174127 21779 net.cpp:408] conv2_1 -> conv2_1
I0804 12:49:28.174643 21779 net.cpp:150] Setting up conv2_1
I0804 12:49:28.174654 21779 net.cpp:157] Top shape: 128 16 128 128 (33554432)
I0804 12:49:28.174657 21779 net.cpp:165] Memory required for data: 2449475584
I0804 12:49:28.174662 21779 layer_factory.hpp:77] Creating layer conv2_1_bn
I0804 12:49:28.174670 21779 net.cpp:100] Creating Layer conv2_1_bn
I0804 12:49:28.174674 21779 net.cpp:434] conv2_1_bn <- conv2_1
I0804 12:49:28.174679 21779 net.cpp:408] conv2_1_bn -> conv2_1_bn
I0804 12:49:28.175191 21779 net.cpp:150] Setting up conv2_1_bn
I0804 12:49:28.175202 21779 net.cpp:157] Top shape: 128 16 128 128 (33554432)
I0804 12:49:28.175205 21779 net.cpp:165] Memory required for data: 2583693312
I0804 12:49:28.175212 21779 layer_factory.hpp:77] Creating layer conv2_1_bn_scale
I0804 12:49:28.175220 21779 net.cpp:100] Creating Layer conv2_1_bn_scale
I0804 12:49:28.175223 21779 net.cpp:434] conv2_1_bn_scale <- conv2_1_bn
I0804 12:49:28.175227 21779 net.cpp:395] conv2_1_bn_scale -> conv2_1_bn (in-place)
I0804 12:49:28.175256 21779 layer_factory.hpp:77] Creating layer conv2_1_bn_scale
I0804 12:49:28.175350 21779 net.cpp:150] Setting up conv2_1_bn_scale
I0804 12:49:28.175359 21779 net.cpp:157] Top shape: 128 16 128 128 (33554432)
I0804 12:49:28.175361 21779 net.cpp:165] Memory required for data: 2717911040
I0804 12:49:28.175369 21779 layer_factory.hpp:77] Creating layer conv2_1_relu
I0804 12:49:28.175376 21779 net.cpp:100] Creating Layer conv2_1_relu
I0804 12:49:28.175380 21779 net.cpp:434] conv2_1_relu <- conv2_1_bn
I0804 12:49:28.175384 21779 net.cpp:395] conv2_1_relu -> conv2_1_bn (in-place)
I0804 12:49:28.175390 21779 net.cpp:150] Setting up conv2_1_relu
I0804 12:49:28.175393 21779 net.cpp:157] Top shape: 128 16 128 128 (33554432)
I0804 12:49:28.175396 21779 net.cpp:165] Memory required for data: 2852128768
I0804 12:49:28.175400 21779 layer_factory.hpp:77] Creating layer conv2_2
I0804 12:49:28.175408 21779 net.cpp:100] Creating Layer conv2_2
I0804 12:49:28.175412 21779 net.cpp:434] conv2_2 <- conv2_1_bn
I0804 12:49:28.175416 21779 net.cpp:408] conv2_2 -> conv2_2
I0804 12:49:28.175582 21779 net.cpp:150] Setting up conv2_2
I0804 12:49:28.175590 21779 net.cpp:157] Top shape: 128 16 128 128 (33554432)
I0804 12:49:28.175592 21779 net.cpp:165] Memory required for data: 2986346496
I0804 12:49:28.175596 21779 layer_factory.hpp:77] Creating layer conv2_2_bn
I0804 12:49:28.175602 21779 net.cpp:100] Creating Layer conv2_2_bn
I0804 12:49:28.175606 21779 net.cpp:434] conv2_2_bn <- conv2_2
I0804 12:49:28.175611 21779 net.cpp:408] conv2_2_bn -> conv2_2_bn
I0804 12:49:28.175756 21779 net.cpp:150] Setting up conv2_2_bn
I0804 12:49:28.175768 21779 net.cpp:157] Top shape: 128 16 128 128 (33554432)
I0804 12:49:28.175777 21779 net.cpp:165] Memory required for data: 3120564224
I0804 12:49:28.175784 21779 layer_factory.hpp:77] Creating layer conv2_2_bn_scale
I0804 12:49:28.175791 21779 net.cpp:100] Creating Layer conv2_2_bn_scale
I0804 12:49:28.175794 21779 net.cpp:434] conv2_2_bn_scale <- conv2_2_bn
I0804 12:49:28.175798 21779 net.cpp:395] conv2_2_bn_scale -> conv2_2_bn (in-place)
I0804 12:49:28.175824 21779 layer_factory.hpp:77] Creating layer conv2_2_bn_scale
I0804 12:49:28.175907 21779 net.cpp:150] Setting up conv2_2_bn_scale
I0804 12:49:28.175915 21779 net.cpp:157] Top shape: 128 16 128 128 (33554432)
I0804 12:49:28.175917 21779 net.cpp:165] Memory required for data: 3254781952
I0804 12:49:28.175922 21779 layer_factory.hpp:77] Creating layer conv2_2_relu
I0804 12:49:28.175928 21779 net.cpp:100] Creating Layer conv2_2_relu
I0804 12:49:28.175932 21779 net.cpp:434] conv2_2_relu <- conv2_2_bn
I0804 12:49:28.175936 21779 net.cpp:395] conv2_2_relu -> conv2_2_bn (in-place)
I0804 12:49:28.175940 21779 net.cpp:150] Setting up conv2_2_relu
I0804 12:49:28.175945 21779 net.cpp:157] Top shape: 128 16 128 128 (33554432)
I0804 12:49:28.175947 21779 net.cpp:165] Memory required for data: 3388999680
I0804 12:49:28.175951 21779 layer_factory.hpp:77] Creating layer pool2
I0804 12:49:28.175957 21779 net.cpp:100] Creating Layer pool2
I0804 12:49:28.175961 21779 net.cpp:434] pool2 <- conv2_2_bn
I0804 12:49:28.175964 21779 net.cpp:408] pool2 -> pool2
I0804 12:49:28.175989 21779 net.cpp:150] Setting up pool2
I0804 12:49:28.175994 21779 net.cpp:157] Top shape: 128 16 64 64 (8388608)
I0804 12:49:28.175997 21779 net.cpp:165] Memory required for data: 3422554112
I0804 12:49:28.176000 21779 layer_factory.hpp:77] Creating layer conv3_1
I0804 12:49:28.176008 21779 net.cpp:100] Creating Layer conv3_1
I0804 12:49:28.176012 21779 net.cpp:434] conv3_1 <- pool2
I0804 12:49:28.176017 21779 net.cpp:408] conv3_1 -> conv3_1
I0804 12:49:28.176223 21779 net.cpp:150] Setting up conv3_1
I0804 12:49:28.176229 21779 net.cpp:157] Top shape: 128 32 64 64 (16777216)
I0804 12:49:28.176232 21779 net.cpp:165] Memory required for data: 3489662976
I0804 12:49:28.176237 21779 layer_factory.hpp:77] Creating layer conv3_1_bn
I0804 12:49:28.176242 21779 net.cpp:100] Creating Layer conv3_1_bn
I0804 12:49:28.176245 21779 net.cpp:434] conv3_1_bn <- conv3_1
I0804 12:49:28.176249 21779 net.cpp:408] conv3_1_bn -> conv3_1_bn
I0804 12:49:28.176390 21779 net.cpp:150] Setting up conv3_1_bn
I0804 12:49:28.176398 21779 net.cpp:157] Top shape: 128 32 64 64 (16777216)
I0804 12:49:28.176400 21779 net.cpp:165] Memory required for data: 3556771840
I0804 12:49:28.176406 21779 layer_factory.hpp:77] Creating layer conv3_1_bn_scale
I0804 12:49:28.176411 21779 net.cpp:100] Creating Layer conv3_1_bn_scale
I0804 12:49:28.176415 21779 net.cpp:434] conv3_1_bn_scale <- conv3_1_bn
I0804 12:49:28.176420 21779 net.cpp:395] conv3_1_bn_scale -> conv3_1_bn (in-place)
I0804 12:49:28.176446 21779 layer_factory.hpp:77] Creating layer conv3_1_bn_scale
I0804 12:49:28.176520 21779 net.cpp:150] Setting up conv3_1_bn_scale
I0804 12:49:28.176527 21779 net.cpp:157] Top shape: 128 32 64 64 (16777216)
I0804 12:49:28.176529 21779 net.cpp:165] Memory required for data: 3623880704
I0804 12:49:28.176534 21779 layer_factory.hpp:77] Creating layer conv3_1_relu
I0804 12:49:28.176540 21779 net.cpp:100] Creating Layer conv3_1_relu
I0804 12:49:28.176543 21779 net.cpp:434] conv3_1_relu <- conv3_1_bn
I0804 12:49:28.176548 21779 net.cpp:395] conv3_1_relu -> conv3_1_bn (in-place)
I0804 12:49:28.176553 21779 net.cpp:150] Setting up conv3_1_relu
I0804 12:49:28.176556 21779 net.cpp:157] Top shape: 128 32 64 64 (16777216)
I0804 12:49:28.176559 21779 net.cpp:165] Memory required for data: 3690989568
I0804 12:49:28.176563 21779 layer_factory.hpp:77] Creating layer conv3_2
I0804 12:49:28.176569 21779 net.cpp:100] Creating Layer conv3_2
I0804 12:49:28.176573 21779 net.cpp:434] conv3_2 <- conv3_1_bn
I0804 12:49:28.176578 21779 net.cpp:408] conv3_2 -> conv3_2
I0804 12:49:28.176892 21779 net.cpp:150] Setting up conv3_2
I0804 12:49:28.176904 21779 net.cpp:157] Top shape: 128 32 64 64 (16777216)
I0804 12:49:28.176908 21779 net.cpp:165] Memory required for data: 3758098432
I0804 12:49:28.176911 21779 layer_factory.hpp:77] Creating layer conv3_2_bn
I0804 12:49:28.176916 21779 net.cpp:100] Creating Layer conv3_2_bn
I0804 12:49:28.176920 21779 net.cpp:434] conv3_2_bn <- conv3_2
I0804 12:49:28.176924 21779 net.cpp:408] conv3_2_bn -> conv3_2_bn
I0804 12:49:28.177048 21779 net.cpp:150] Setting up conv3_2_bn
I0804 12:49:28.177054 21779 net.cpp:157] Top shape: 128 32 64 64 (16777216)
I0804 12:49:28.177057 21779 net.cpp:165] Memory required for data: 3825207296
I0804 12:49:28.177068 21779 layer_factory.hpp:77] Creating layer conv3_2_bn_scale
I0804 12:49:28.177073 21779 net.cpp:100] Creating Layer conv3_2_bn_scale
I0804 12:49:28.177076 21779 net.cpp:434] conv3_2_bn_scale <- conv3_2_bn
I0804 12:49:28.177083 21779 net.cpp:395] conv3_2_bn_scale -> conv3_2_bn (in-place)
I0804 12:49:28.177106 21779 layer_factory.hpp:77] Creating layer conv3_2_bn_scale
I0804 12:49:28.177176 21779 net.cpp:150] Setting up conv3_2_bn_scale
I0804 12:49:28.177181 21779 net.cpp:157] Top shape: 128 32 64 64 (16777216)
I0804 12:49:28.177184 21779 net.cpp:165] Memory required for data: 3892316160
I0804 12:49:28.177191 21779 layer_factory.hpp:77] Creating layer conv3_2_relu
I0804 12:49:28.177194 21779 net.cpp:100] Creating Layer conv3_2_relu
I0804 12:49:28.177197 21779 net.cpp:434] conv3_2_relu <- conv3_2_bn
I0804 12:49:28.177203 21779 net.cpp:395] conv3_2_relu -> conv3_2_bn (in-place)
I0804 12:49:28.177207 21779 net.cpp:150] Setting up conv3_2_relu
I0804 12:49:28.177212 21779 net.cpp:157] Top shape: 128 32 64 64 (16777216)
I0804 12:49:28.177215 21779 net.cpp:165] Memory required for data: 3959425024
I0804 12:49:28.177218 21779 layer_factory.hpp:77] Creating layer pool3
I0804 12:49:28.177223 21779 net.cpp:100] Creating Layer pool3
I0804 12:49:28.177227 21779 net.cpp:434] pool3 <- conv3_2_bn
I0804 12:49:28.177232 21779 net.cpp:408] pool3 -> pool3
I0804 12:49:28.177258 21779 net.cpp:150] Setting up pool3
I0804 12:49:28.177263 21779 net.cpp:157] Top shape: 128 32 32 32 (4194304)
I0804 12:49:28.177266 21779 net.cpp:165] Memory required for data: 3976202240
I0804 12:49:28.177269 21779 layer_factory.hpp:77] Creating layer conv4_1
I0804 12:49:28.177275 21779 net.cpp:100] Creating Layer conv4_1
I0804 12:49:28.177279 21779 net.cpp:434] conv4_1 <- pool3
I0804 12:49:28.177284 21779 net.cpp:408] conv4_1 -> conv4_1
I0804 12:49:28.177800 21779 net.cpp:150] Setting up conv4_1
I0804 12:49:28.177809 21779 net.cpp:157] Top shape: 128 64 32 32 (8388608)
I0804 12:49:28.177811 21779 net.cpp:165] Memory required for data: 4009756672
I0804 12:49:28.177816 21779 layer_factory.hpp:77] Creating layer conv4_1_bn
I0804 12:49:28.177830 21779 net.cpp:100] Creating Layer conv4_1_bn
I0804 12:49:28.177834 21779 net.cpp:434] conv4_1_bn <- conv4_1
I0804 12:49:28.177839 21779 net.cpp:408] conv4_1_bn -> conv4_1_bn
I0804 12:49:28.177966 21779 net.cpp:150] Setting up conv4_1_bn
I0804 12:49:28.177973 21779 net.cpp:157] Top shape: 128 64 32 32 (8388608)
I0804 12:49:28.177975 21779 net.cpp:165] Memory required for data: 4043311104
I0804 12:49:28.177981 21779 layer_factory.hpp:77] Creating layer conv4_1_bn_scale
I0804 12:49:28.177988 21779 net.cpp:100] Creating Layer conv4_1_bn_scale
I0804 12:49:28.177990 21779 net.cpp:434] conv4_1_bn_scale <- conv4_1_bn
I0804 12:49:28.177995 21779 net.cpp:395] conv4_1_bn_scale -> conv4_1_bn (in-place)
I0804 12:49:28.178020 21779 layer_factory.hpp:77] Creating layer conv4_1_bn_scale
I0804 12:49:28.178088 21779 net.cpp:150] Setting up conv4_1_bn_scale
I0804 12:49:28.178093 21779 net.cpp:157] Top shape: 128 64 32 32 (8388608)
I0804 12:49:28.178097 21779 net.cpp:165] Memory required for data: 4076865536
I0804 12:49:28.178102 21779 layer_factory.hpp:77] Creating layer conv4_1_relu
I0804 12:49:28.178107 21779 net.cpp:100] Creating Layer conv4_1_relu
I0804 12:49:28.178110 21779 net.cpp:434] conv4_1_relu <- conv4_1_bn
I0804 12:49:28.178114 21779 net.cpp:395] conv4_1_relu -> conv4_1_bn (in-place)
I0804 12:49:28.178128 21779 net.cpp:150] Setting up conv4_1_relu
I0804 12:49:28.178133 21779 net.cpp:157] Top shape: 128 64 32 32 (8388608)
I0804 12:49:28.178135 21779 net.cpp:165] Memory required for data: 4110419968
I0804 12:49:28.178138 21779 layer_factory.hpp:77] Creating layer conv4_2
I0804 12:49:28.178149 21779 net.cpp:100] Creating Layer conv4_2
I0804 12:49:28.178153 21779 net.cpp:434] conv4_2 <- conv4_1_bn
I0804 12:49:28.178158 21779 net.cpp:408] conv4_2 -> conv4_2
I0804 12:49:28.179054 21779 net.cpp:150] Setting up conv4_2
I0804 12:49:28.179060 21779 net.cpp:157] Top shape: 128 64 32 32 (8388608)
I0804 12:49:28.179064 21779 net.cpp:165] Memory required for data: 4143974400
I0804 12:49:28.179069 21779 layer_factory.hpp:77] Creating layer conv4_2_bn
I0804 12:49:28.179074 21779 net.cpp:100] Creating Layer conv4_2_bn
I0804 12:49:28.179076 21779 net.cpp:434] conv4_2_bn <- conv4_2
I0804 12:49:28.179080 21779 net.cpp:408] conv4_2_bn -> conv4_2_bn
I0804 12:49:28.179219 21779 net.cpp:150] Setting up conv4_2_bn
I0804 12:49:28.179226 21779 net.cpp:157] Top shape: 128 64 32 32 (8388608)
I0804 12:49:28.179229 21779 net.cpp:165] Memory required for data: 4177528832
I0804 12:49:28.179235 21779 layer_factory.hpp:77] Creating layer conv4_2_bn_scale
I0804 12:49:28.179241 21779 net.cpp:100] Creating Layer conv4_2_bn_scale
I0804 12:49:28.179245 21779 net.cpp:434] conv4_2_bn_scale <- conv4_2_bn
I0804 12:49:28.179250 21779 net.cpp:395] conv4_2_bn_scale -> conv4_2_bn (in-place)
I0804 12:49:28.179275 21779 layer_factory.hpp:77] Creating layer conv4_2_bn_scale
I0804 12:49:28.179350 21779 net.cpp:150] Setting up conv4_2_bn_scale
I0804 12:49:28.179357 21779 net.cpp:157] Top shape: 128 64 32 32 (8388608)
I0804 12:49:28.179359 21779 net.cpp:165] Memory required for data: 4211083264
I0804 12:49:28.179364 21779 layer_factory.hpp:77] Creating layer conv4_2_relu
I0804 12:49:28.179368 21779 net.cpp:100] Creating Layer conv4_2_relu
I0804 12:49:28.179373 21779 net.cpp:434] conv4_2_relu <- conv4_2_bn
I0804 12:49:28.179375 21779 net.cpp:395] conv4_2_relu -> conv4_2_bn (in-place)
I0804 12:49:28.179380 21779 net.cpp:150] Setting up conv4_2_relu
I0804 12:49:28.179384 21779 net.cpp:157] Top shape: 128 64 32 32 (8388608)
I0804 12:49:28.179388 21779 net.cpp:165] Memory required for data: 4244637696
I0804 12:49:28.179390 21779 layer_factory.hpp:77] Creating layer pool4
I0804 12:49:28.179396 21779 net.cpp:100] Creating Layer pool4
I0804 12:49:28.179399 21779 net.cpp:434] pool4 <- conv4_2_bn
I0804 12:49:28.179404 21779 net.cpp:408] pool4 -> pool4
I0804 12:49:28.179443 21779 net.cpp:150] Setting up pool4
I0804 12:49:28.179450 21779 net.cpp:157] Top shape: 128 64 16 16 (2097152)
I0804 12:49:28.179452 21779 net.cpp:165] Memory required for data: 4253026304
I0804 12:49:28.179455 21779 layer_factory.hpp:77] Creating layer ip1
I0804 12:49:28.179462 21779 net.cpp:100] Creating Layer ip1
I0804 12:49:28.179466 21779 net.cpp:434] ip1 <- pool4
I0804 12:49:28.179471 21779 net.cpp:408] ip1 -> ip1
I0804 12:49:28.179863 21779 net.cpp:150] Setting up ip1
I0804 12:49:28.179870 21779 net.cpp:157] Top shape: 128 4 (512)
I0804 12:49:28.179873 21779 net.cpp:165] Memory required for data: 4253028352
I0804 12:49:28.179878 21779 layer_factory.hpp:77] Creating layer loss
I0804 12:49:28.179884 21779 net.cpp:100] Creating Layer loss
I0804 12:49:28.179888 21779 net.cpp:434] loss <- ip1
I0804 12:49:28.179891 21779 net.cpp:434] loss <- label
I0804 12:49:28.179898 21779 net.cpp:408] loss -> loss
I0804 12:49:28.179921 21779 net.cpp:150] Setting up loss
…
I0804 12:49:28.180742 21779 net.cpp:322] The NetState phase (1) differed from the phase (0) specified by a rule in layer got_data
I0804 12:49:28.180914 21779 net.cpp:58] Initializing net from parameters: 
name: "got"
state {
  phase: TEST
}
layer {
  name: "got_data"
  type: "GOTData"
  top: "data"
  top: "label"
  include {
    phase: TEST
  }
  transform_param {
    mirror: true
    crop_size: 256
    corner_perturb_ratio: 0.2
    crop_margin: 0.25
    blur_mask: true
    blur_winsize: 41
    blur_sigma: 20
  }
  data_param {
    source: "/raid/xuehan/ILSVRC2015_tracking_val_split"
    batch_size: 64
    backend: LMDB
  }
}
layer {
  name: "conv1_1"
  type: "Convolution"
  bottom: "data"
  top: "conv1_1"
  param {
    lr_mult: 1
    decay_mult: 1
  }
  convolution_param {
    num_output: 8
    bias_term: false
    pad: 1
    kernel_size: 3
    stride: 1
    weight_filler {
      type: "gaussian"
      std: 0.01
    }
  }
}
layer {
  name: "conv1_1_bn"
  type: "BatchNorm"
  bottom: "conv1_1"
  top: "conv1_1_bn"
  param {
    lr_mult: 0
  }
  param {
    lr_mult: 0
  }
  param {
    lr_mult: 0
  }
}
layer {
  name: "conv1_1_bn_scale"
  type: "Scale"
  bottom: "conv1_1_bn"
  top: "conv1_1_bn"
  scale_param {
    bias_term: true
  }
}
layer {
  name: "conv1_1_relu"
  type: "ReLU"
  bottom: "conv1_1_bn"
  top: "conv1_1_bn"
}
layer {
  name: "conv1_2"
  type: "Convolution"
  bottom: "conv1_1_bn"
  top: "conv1_2"
  param {
    lr_mult: 1
    decay_mult: 1
  }
  convolution_param {
    num_output: 8
    bias_term: false
    pad: 1
    kernel_size: 3
    stride: 1
    weight_filler {
      type: "gaussian"
      std: 0.01
    }
  }
}
layer {
  name: "conv1_2_bn"
  type: "BatchNorm"
  bottom: "conv1_2"
  top: "conv1_2_bn"
  param {
    lr_mult: 0
  }
  param {
    lr_mult: 0
  }
  param {
    lr_mult: 0
  }
}
layer {
  name: "conv1_2_bn_scale"
  type: "Scale"
  bottom: "conv1_2_bn"
  top: "conv1_2_bn"
  scale_param {
    bias_term: true
  }
}
layer {
  name: "conv1_2_relu"
  type: "ReLU"
  bottom: "conv1_2_bn"
  top: "conv1_2_bn"
}
layer {
  name: "pool1"
  type: "Pooling"
  bottom: "conv1_2_bn"
  top: "pool1"
  pooling_param {
    pool: MAX
    kernel_size: 2
    stride: 2
  }
}
layer {
  name: "conv2_1"
  type: "Convolution"
  bottom: "pool1"
  top: "conv2_1"
  param {
    lr_mult: 1
    decay_mult: 1
  }
  convolution_param {
    num_output: 16
    bias_term: false
    pad: 1
    kernel_size: 3
    stride: 1
    weight_filler {
      type: "gaussian"
      std: 0.01
    }
  }
}
layer {
  name: "conv2_1_bn"
  type: "BatchNorm"
  bottom: "conv2_1"
  top: "conv2_1_bn"
  param {
    lr_mult: 0
  }
  param {
    lr_mult: 0
  }
  param {
    lr_mult: 0
  }
}
layer {
  name: "conv2_1_bn_scale"
  type: "Scale"
  bottom: "conv2_1_bn"
  top: "conv2_1_bn"
  scale_param {
    bias_term: true
  }
}
layer {
  name: "conv2_1_relu"
  type: "ReLU"
  bottom: "conv2_1_bn"
  top: "conv2_1_bn"
}
layer {
  name: "conv2_2"
  type: "Convolution"
  bottom: "conv2_1_bn"
  top: "conv2_2"
  param {
    lr_mult: 1
    decay_mult: 1
  }
  convolution_param {
    num_output: 16
    bias_term: false
    pad: 1
    kernel_size: 3
    stride: 1
    weight_filler {
      type: "gaussian"
      std: 0.01
    }
  }
}
layer {
  name: "conv2_2_bn"
  type: "BatchNorm"
  bottom: "conv2_2"
  top: "conv2_2_bn"
  param {
    lr_mult: 0
  }
  param {
    lr_mult: 0
  }
  param {
    lr_mult: 0
  }
}
layer {
  name: "conv2_2_bn_scale"
  type: "Scale"
  bottom: "conv2_2_bn"
  top: "conv2_2_bn"
  scale_param {
    bias_term: true
  }
}
layer {
  name: "conv2_2_relu"
  type: "ReLU"
  bottom: "conv2_2_bn"
  top: "conv2_2_bn"
}
layer {
  name: "pool2"
  type: "Pooling"
  bottom: "conv2_2_bn"
  top: "pool2"
  pooling_param {
    pool: MAX
    kernel_size: 2
    stride: 2
  }
}
layer {
  name: "conv3_1"
  type: "Convolution"
  bottom: "pool2"
  top: "conv3_1"
  param {
    lr_mult: 1
    decay_mult: 1
  }
  convolution_param {
    num_output: 32
    bias_term: false
    pad: 1
    kernel_size: 3
    stride: 1
    weight_filler {
      type: "gaussian"
      std: 0.01
    }
  }
}
layer {
  name: "conv3_1_bn"
  type: "BatchNorm"
  bottom: "conv3_1"
  top: "conv3_1_bn"
  param {
    lr_mult: 0
  }
  param {
    lr_mult: 0
  }
  param {
    lr_mult: 0
  }
}
layer {
  name: "conv3_1_bn_scale"
  type: "Scale"
  bottom: "conv3_1_bn"
  top: "conv3_1_bn"
  scale_param {
    bias_term: true
  }
}
layer {
  name: "conv3_1_relu"
  type: "ReLU"
  bottom: "conv3_1_bn"
  top: "conv3_1_bn"
}
layer {
  name: "conv3_2"
  type: "Convolution"
  bottom: "conv3_1_bn"
  top: "conv3_2"
  param {
    lr_mult: 1
    decay_mult: 1
  }
  convolution_param {
    num_output: 32
    bias_term: false
    pad: 1
    kernel_size: 3
    stride: 1
    weight_filler {
      type: "gaussian"
      std: 0.01
    }
  }
}
layer {
  name: "conv3_2_bn"
  type: "BatchNorm"
  bottom: "conv3_2"
  top: "conv3_2_bn"
  param {
    lr_mult: 0
  }
  param {
    lr_mult: 0
  }
  param {
    lr_mult: 0
  }
}
layer {
  name: "conv3_2_bn_scale"
  type: "Scale"
  bottom: "conv3_2_bn"
  top: "conv3_2_bn"
  scale_param {
    bias_term: true
  }
}
layer {
  name: "conv3_2_relu"
  type: "ReLU"
  bottom: "conv3_2_bn"
  top: "conv3_2_bn"
}
layer {
  name: "pool3"
  type: "Pooling"
  bottom: "conv3_2_bn"
  top: "pool3"
  pooling_param {
    pool: MAX
    kernel_size: 2
    stride: 2
  }
}
layer {
  name: "conv4_1"
  type: "Convolution"
  bottom: "pool3"
  top: "conv4_1"
  param {
    lr_mult: 1
    decay_mult: 1
  }
  convolution_param {
    num_output: 64
    bias_term: false
    pad: 1
    kernel_size: 3
    stride: 1
    weight_filler {
      type: "gaussian"
      std: 0.01
    }
  }
}
layer {
  name: "conv4_1_bn"
  type: "BatchNorm"
  bottom: "conv4_1"
  top: "conv4_1_bn"
  param {
    lr_mult: 0
  }
  param {
    lr_mult: 0
  }
  param {
    lr_mult: 0
  }
}
layer {
  name: "conv4_1_bn_scale"
  type: "Scale"
  bottom: "conv4_1_bn"
  top: "conv4_1_bn"
  scale_param {
    bias_term: true
  }
}
layer {
  name: "conv4_1_relu"
  type: "ReLU"
  bottom: "conv4_1_bn"
  top: "conv4_1_bn"
}
layer {
  name: "conv4_2"
  type: "Convolution"
  bottom: "conv4_1_bn"
  top: "conv4_2"
  param {
    lr_mult: 1
    decay_mult: 1
  }
  convolution_param {
    num_output: 64
    bias_term: false
    pad: 1
    kernel_size: 3
    stride: 1
    weight_filler {
      type: "gaussian"
      std: 0.01
    }
  }
}
layer {
  name: "conv4_2_bn"
  type: "BatchNorm"
  bottom: "conv4_2"
  top: "conv4_2_bn"
  param {
    lr_mult: 0
  }
  param {
    lr_mult: 0
  }
  param {
    lr_mult: 0
  }
}
layer {
  name: "conv4_2_bn_scale"
  type: "Scale"
  bottom: "conv4_2_bn"
  top: "conv4_2_bn"
  scale_param {
    bias_term: true
  }
}
layer {
  name: "conv4_2_relu"
  type: "ReLU"
  bottom: "conv4_2_bn"
  top: "conv4_2_bn"
}
layer {
  name: "pool4"
  type: "Pooling"
  bottom: "conv4_2_bn"
  top: "pool4"
  pooling_param {
    pool: MAX
    kernel_size: 2
    stride: 2
  }
}
layer {
  name: "ip1"
  type: "InnerProduct"
  bottom: "pool4"
  top: "ip1"
  param {
    lr_mult: 1
    decay_mult: 1
  }
  param {
    lr_mult: 2
    decay_mult: 0
  }
  inner_product_param {
    num_output: 4
    weight_filler {
      type: "xavier"
      std: 0.01
    }
    bias_filler {
      type: "constant"
      value: 1
    }
  }
}
layer {
  name: "loss"
  type: "EuclideanLoss"
  bottom: "ip1"
  bottom: "label"
  top: "loss"
  loss_weight: 1
}
I0804 12:49:28.181015 21779 layer_factory.hpp:77] Creating layer got_data
I0804 12:49:28.181118 21779 net.cpp:100] Creating Layer got_data
I0804 12:49:28.181128 21779 net.cpp:408] got_data -> data
I0804 12:49:28.181148 21779 net.cpp:408] got_data -> label
I0804 12:49:28.183367 21785 db_lmdb.cpp:35] Opened lmdb /raid/xuehan/ILSVRC2015_tracking_val_split
I0804 12:49:28.184098 21779 got_data_layer.cpp:38] 360 640 3
I0804 12:49:28.184195 21779 got_data_layer.cpp:51] output data size: 64,3,256,256
I0804 12:49:28.245748 21779 net.cpp:150] Setting up got_data
I0804 12:49:28.245775 21779 net.cpp:157] Top shape: 64 3 256 256 (12582912)
I0804 12:49:28.245780 21779 net.cpp:157] Top shape: 64 1 1 4 (256)
I0804 12:49:28.245784 21779 net.cpp:165] Memory required for data: 50332672
I0804 12:49:28.245790 21779 layer_factory.hpp:77] Creating layer conv1_1
I0804 12:49:28.245805 21779 net.cpp:100] Creating Layer conv1_1
I0804 12:49:28.245810 21779 net.cpp:434] conv1_1 <- data
I0804 12:49:28.245818 21779 net.cpp:408] conv1_1 -> conv1_1
I0804 12:49:28.246062 21779 net.cpp:150] Setting up conv1_1
I0804 12:49:28.246070 21779 net.cpp:157] Top shape: 64 8 256 256 (33554432)
I0804 12:49:28.246074 21779 net.cpp:165] Memory required for data: 184550400
I0804 12:49:28.246081 21779 layer_factory.hpp:77] Creating layer conv1_1_bn
I0804 12:49:28.246089 21779 net.cpp:100] Creating Layer conv1_1_bn
I0804 12:49:28.246093 21779 net.cpp:434] conv1_1_bn <- conv1_1
I0804 12:49:28.246098 21779 net.cpp:408] conv1_1_bn -> conv1_1_bn
I0804 12:49:28.246714 21779 net.cpp:150] Setting up conv1_1_bn
I0804 12:49:28.246726 21779 net.cpp:157] Top shape: 64 8 256 256 (33554432)
I0804 12:49:28.246731 21779 net.cpp:165] Memory required for data: 318768128
I0804 12:49:28.246740 21779 layer_factory.hpp:77] Creating layer conv1_1_bn_scale
I0804 12:49:28.246755 21779 net.cpp:100] Creating Layer conv1_1_bn_scale
I0804 12:49:28.246767 21779 net.cpp:434] conv1_1_bn_scale <- conv1_1_bn
I0804 12:49:28.246773 21779 net.cpp:395] conv1_1_bn_scale -> conv1_1_bn (in-place)
I0804 12:49:28.246806 21779 layer_factory.hpp:77] Creating layer conv1_1_bn_scale
I0804 12:49:28.246964 21779 net.cpp:150] Setting up conv1_1_bn_scale
I0804 12:49:28.246973 21779 net.cpp:157] Top shape: 64 8 256 256 (33554432)
I0804 12:49:28.246976 21779 net.cpp:165] Memory required for data: 452985856
I0804 12:49:28.246984 21779 layer_factory.hpp:77] Creating layer conv1_1_relu
I0804 12:49:28.246991 21779 net.cpp:100] Creating Layer conv1_1_relu
I0804 12:49:28.246995 21779 net.cpp:434] conv1_1_relu <- conv1_1_bn
I0804 12:49:28.247002 21779 net.cpp:395] conv1_1_relu -> conv1_1_bn (in-place)
I0804 12:49:28.247009 21779 net.cpp:150] Setting up conv1_1_relu
I0804 12:49:28.247014 21779 net.cpp:157] Top shape: 64 8 256 256 (33554432)
I0804 12:49:28.247016 21779 net.cpp:165] Memory required for data: 587203584
I0804 12:49:28.247020 21779 layer_factory.hpp:77] Creating layer conv1_2
I0804 12:49:28.247028 21779 net.cpp:100] Creating Layer conv1_2
I0804 12:49:28.247032 21779 net.cpp:434] conv1_2 <- conv1_1_bn
I0804 12:49:28.247037 21779 net.cpp:408] conv1_2 -> conv1_2
I0804 12:49:28.251078 21779 net.cpp:150] Setting up conv1_2
I0804 12:49:28.251106 21779 net.cpp:157] Top shape: 64 8 256 256 (33554432)
I0804 12:49:28.251108 21779 net.cpp:165] Memory required for data: 721421312
I0804 12:49:28.251116 21779 layer_factory.hpp:77] Creating layer conv1_2_bn
I0804 12:49:28.251126 21779 net.cpp:100] Creating Layer conv1_2_bn
I0804 12:49:28.251130 21779 net.cpp:434] conv1_2_bn <- conv1_2
I0804 12:49:28.251138 21779 net.cpp:408] conv1_2_bn -> conv1_2_bn
I0804 12:49:28.251323 21779 net.cpp:150] Setting up conv1_2_bn
I0804 12:49:28.251332 21779 net.cpp:157] Top shape: 64 8 256 256 (33554432)
I0804 12:49:28.251334 21779 net.cpp:165] Memory required for data: 855639040
I0804 12:49:28.251344 21779 layer_factory.hpp:77] Creating layer conv1_2_bn_scale
I0804 12:49:28.251351 21779 net.cpp:100] Creating Layer conv1_2_bn_scale
I0804 12:49:28.251355 21779 net.cpp:434] conv1_2_bn_scale <- conv1_2_bn
I0804 12:49:28.251359 21779 net.cpp:395] conv1_2_bn_scale -> conv1_2_bn (in-place)
I0804 12:49:28.251389 21779 layer_factory.hpp:77] Creating layer conv1_2_bn_scale
I0804 12:49:28.251962 21779 net.cpp:150] Setting up conv1_2_bn_scale
I0804 12:49:28.251974 21779 net.cpp:157] Top shape: 64 8 256 256 (33554432)
I0804 12:49:28.251977 21779 net.cpp:165] Memory required for data: 989856768
I0804 12:49:28.251983 21779 layer_factory.hpp:77] Creating layer conv1_2_relu
I0804 12:49:28.251992 21779 net.cpp:100] Creating Layer conv1_2_relu
I0804 12:49:28.251996 21779 net.cpp:434] conv1_2_relu <- conv1_2_bn
I0804 12:49:28.252001 21779 net.cpp:395] conv1_2_relu -> conv1_2_bn (in-place)
I0804 12:49:28.252007 21779 net.cpp:150] Setting up conv1_2_relu
I0804 12:49:28.252010 21779 net.cpp:157] Top shape: 64 8 256 256 (33554432)
I0804 12:49:28.252013 21779 net.cpp:165] Memory required for data: 1124074496
I0804 12:49:28.252017 21779 layer_factory.hpp:77] Creating layer pool1
I0804 12:49:28.252022 21779 net.cpp:100] Creating Layer pool1
I0804 12:49:28.252025 21779 net.cpp:434] pool1 <- conv1_2_bn
I0804 12:49:28.252032 21779 net.cpp:408] pool1 -> pool1
I0804 12:49:28.252058 21779 net.cpp:150] Setting up pool1
I0804 12:49:28.252064 21779 net.cpp:157] Top shape: 64 8 128 128 (8388608)
I0804 12:49:28.252068 21779 net.cpp:165] Memory required for data: 1157628928
I0804 12:49:28.252070 21779 layer_factory.hpp:77] Creating layer conv2_1
I0804 12:49:28.252079 21779 net.cpp:100] Creating Layer conv2_1
I0804 12:49:28.252082 21779 net.cpp:434] conv2_1 <- pool1
I0804 12:49:28.252087 21779 net.cpp:408] conv2_1 -> conv2_1
I0804 12:49:28.252235 21779 net.cpp:150] Setting up conv2_1
I0804 12:49:28.252241 21779 net.cpp:157] Top shape: 64 16 128 128 (16777216)
I0804 12:49:28.252244 21779 net.cpp:165] Memory required for data: 1224737792
I0804 12:49:28.252259 21779 layer_factory.hpp:77] Creating layer conv2_1_bn
I0804 12:49:28.252271 21779 net.cpp:100] Creating Layer conv2_1_bn
I0804 12:49:28.252275 21779 net.cpp:434] conv2_1_bn <- conv2_1
I0804 12:49:28.252280 21779 net.cpp:408] conv2_1_bn -> conv2_1_bn
I0804 12:49:28.252429 21779 net.cpp:150] Setting up conv2_1_bn
I0804 12:49:28.252435 21779 net.cpp:157] Top shape: 64 16 128 128 (16777216)
I0804 12:49:28.252439 21779 net.cpp:165] Memory required for data: 1291846656
I0804 12:49:28.252444 21779 layer_factory.hpp:77] Creating layer conv2_1_bn_scale
I0804 12:49:28.252451 21779 net.cpp:100] Creating Layer conv2_1_bn_scale
I0804 12:49:28.252454 21779 net.cpp:434] conv2_1_bn_scale <- conv2_1_bn
I0804 12:49:28.252460 21779 net.cpp:395] conv2_1_bn_scale -> conv2_1_bn (in-place)
I0804 12:49:28.252486 21779 layer_factory.hpp:77] Creating layer conv2_1_bn_scale
I0804 12:49:28.252574 21779 net.cpp:150] Setting up conv2_1_bn_scale
I0804 12:49:28.252580 21779 net.cpp:157] Top shape: 64 16 128 128 (16777216)
I0804 12:49:28.252583 21779 net.cpp:165] Memory required for data: 1358955520
I0804 12:49:28.252593 21779 layer_factory.hpp:77] Creating layer conv2_1_relu
I0804 12:49:28.252599 21779 net.cpp:100] Creating Layer conv2_1_relu
I0804 12:49:28.252601 21779 net.cpp:434] conv2_1_relu <- conv2_1_bn
I0804 12:49:28.252606 21779 net.cpp:395] conv2_1_relu -> conv2_1_bn (in-place)
I0804 12:49:28.252611 21779 net.cpp:150] Setting up conv2_1_relu
I0804 12:49:28.252615 21779 net.cpp:157] Top shape: 64 16 128 128 (16777216)
I0804 12:49:28.252619 21779 net.cpp:165] Memory required for data: 1426064384
I0804 12:49:28.252621 21779 layer_factory.hpp:77] Creating layer conv2_2
I0804 12:49:28.252627 21779 net.cpp:100] Creating Layer conv2_2
I0804 12:49:28.252630 21779 net.cpp:434] conv2_2 <- conv2_1_bn
I0804 12:49:28.252636 21779 net.cpp:408] conv2_2 -> conv2_2
I0804 12:49:28.252817 21779 net.cpp:150] Setting up conv2_2
I0804 12:49:28.252825 21779 net.cpp:157] Top shape: 64 16 128 128 (16777216)
I0804 12:49:28.252827 21779 net.cpp:165] Memory required for data: 1493173248
I0804 12:49:28.252832 21779 layer_factory.hpp:77] Creating layer conv2_2_bn
I0804 12:49:28.252841 21779 net.cpp:100] Creating Layer conv2_2_bn
I0804 12:49:28.252845 21779 net.cpp:434] conv2_2_bn <- conv2_2
I0804 12:49:28.252848 21779 net.cpp:408] conv2_2_bn -> conv2_2_bn
I0804 12:49:28.252995 21779 net.cpp:150] Setting up conv2_2_bn
I0804 12:49:28.253002 21779 net.cpp:157] Top shape: 64 16 128 128 (16777216)
I0804 12:49:28.253005 21779 net.cpp:165] Memory required for data: 1560282112
I0804 12:49:28.253011 21779 layer_factory.hpp:77] Creating layer conv2_2_bn_scale
I0804 12:49:28.253018 21779 net.cpp:100] Creating Layer conv2_2_bn_scale
I0804 12:49:28.253021 21779 net.cpp:434] conv2_2_bn_scale <- conv2_2_bn
I0804 12:49:28.253026 21779 net.cpp:395] conv2_2_bn_scale -> conv2_2_bn (in-place)
I0804 12:49:28.253054 21779 layer_factory.hpp:77] Creating layer conv2_2_bn_scale
I0804 12:49:28.253144 21779 net.cpp:150] Setting up conv2_2_bn_scale
I0804 12:49:28.253149 21779 net.cpp:157] Top shape: 64 16 128 128 (16777216)
I0804 12:49:28.253152 21779 net.cpp:165] Memory required for data: 1627390976
I0804 12:49:28.253157 21779 layer_factory.hpp:77] Creating layer conv2_2_relu
I0804 12:49:28.253163 21779 net.cpp:100] Creating Layer conv2_2_relu
I0804 12:49:28.253167 21779 net.cpp:434] conv2_2_relu <- conv2_2_bn
I0804 12:49:28.253171 21779 net.cpp:395] conv2_2_relu -> conv2_2_bn (in-place)
I0804 12:49:28.253175 21779 net.cpp:150] Setting up conv2_2_relu
I0804 12:49:28.253180 21779 net.cpp:157] Top shape: 64 16 128 128 (16777216)
I0804 12:49:28.253182 21779 net.cpp:165] Memory required for data: 1694499840
I0804 12:49:28.253185 21779 layer_factory.hpp:77] Creating layer pool2
I0804 12:49:28.253191 21779 net.cpp:100] Creating Layer pool2
I0804 12:49:28.253195 21779 net.cpp:434] pool2 <- conv2_2_bn
I0804 12:49:28.253199 21779 net.cpp:408] pool2 -> pool2
I0804 12:49:28.253226 21779 net.cpp:150] Setting up pool2
I0804 12:49:28.253232 21779 net.cpp:157] Top shape: 64 16 64 64 (4194304)
I0804 12:49:28.253240 21779 net.cpp:165] Memory required for data: 1711277056
I0804 12:49:28.253250 21779 layer_factory.hpp:77] Creating layer conv3_1
I0804 12:49:28.253258 21779 net.cpp:100] Creating Layer conv3_1
I0804 12:49:28.253262 21779 net.cpp:434] conv3_1 <- pool2
I0804 12:49:28.253267 21779 net.cpp:408] conv3_1 -> conv3_1
I0804 12:49:28.253481 21779 net.cpp:150] Setting up conv3_1
I0804 12:49:28.253489 21779 net.cpp:157] Top shape: 64 32 64 64 (8388608)
I0804 12:49:28.253491 21779 net.cpp:165] Memory required for data: 1744831488
I0804 12:49:28.253495 21779 layer_factory.hpp:77] Creating layer conv3_1_bn
I0804 12:49:28.253501 21779 net.cpp:100] Creating Layer conv3_1_bn
I0804 12:49:28.253504 21779 net.cpp:434] conv3_1_bn <- conv3_1
I0804 12:49:28.253509 21779 net.cpp:408] conv3_1_bn -> conv3_1_bn
I0804 12:49:28.253649 21779 net.cpp:150] Setting up conv3_1_bn
I0804 12:49:28.253657 21779 net.cpp:157] Top shape: 64 32 64 64 (8388608)
I0804 12:49:28.253659 21779 net.cpp:165] Memory required for data: 1778385920
I0804 12:49:28.253665 21779 layer_factory.hpp:77] Creating layer conv3_1_bn_scale
I0804 12:49:28.253672 21779 net.cpp:100] Creating Layer conv3_1_bn_scale
I0804 12:49:28.253675 21779 net.cpp:434] conv3_1_bn_scale <- conv3_1_bn
I0804 12:49:28.253680 21779 net.cpp:395] conv3_1_bn_scale -> conv3_1_bn (in-place)
I0804 12:49:28.253706 21779 layer_factory.hpp:77] Creating layer conv3_1_bn_scale
I0804 12:49:28.253782 21779 net.cpp:150] Setting up conv3_1_bn_scale
I0804 12:49:28.253789 21779 net.cpp:157] Top shape: 64 32 64 64 (8388608)
I0804 12:49:28.253793 21779 net.cpp:165] Memory required for data: 1811940352
I0804 12:49:28.253798 21779 layer_factory.hpp:77] Creating layer conv3_1_relu
I0804 12:49:28.253801 21779 net.cpp:100] Creating Layer conv3_1_relu
I0804 12:49:28.253804 21779 net.cpp:434] conv3_1_relu <- conv3_1_bn
I0804 12:49:28.253809 21779 net.cpp:395] conv3_1_relu -> conv3_1_bn (in-place)
I0804 12:49:28.253814 21779 net.cpp:150] Setting up conv3_1_relu
I0804 12:49:28.253818 21779 net.cpp:157] Top shape: 64 32 64 64 (8388608)
I0804 12:49:28.253821 21779 net.cpp:165] Memory required for data: 1845494784
I0804 12:49:28.253824 21779 layer_factory.hpp:77] Creating layer conv3_2
I0804 12:49:28.253831 21779 net.cpp:100] Creating Layer conv3_2
I0804 12:49:28.253835 21779 net.cpp:434] conv3_2 <- conv3_1_bn
I0804 12:49:28.253839 21779 net.cpp:408] conv3_2 -> conv3_2
I0804 12:49:28.254153 21779 net.cpp:150] Setting up conv3_2
I0804 12:49:28.254158 21779 net.cpp:157] Top shape: 64 32 64 64 (8388608)
I0804 12:49:28.254161 21779 net.cpp:165] Memory required for data: 1879049216
I0804 12:49:28.254165 21779 layer_factory.hpp:77] Creating layer conv3_2_bn
I0804 12:49:28.254171 21779 net.cpp:100] Creating Layer conv3_2_bn
I0804 12:49:28.254174 21779 net.cpp:434] conv3_2_bn <- conv3_2
I0804 12:49:28.254197 21779 net.cpp:408] conv3_2_bn -> conv3_2_bn
I0804 12:49:28.254348 21779 net.cpp:150] Setting up conv3_2_bn
I0804 12:49:28.254356 21779 net.cpp:157] Top shape: 64 32 64 64 (8388608)
I0804 12:49:28.254359 21779 net.cpp:165] Memory required for data: 1912603648
I0804 12:49:28.254370 21779 layer_factory.hpp:77] Creating layer conv3_2_bn_scale
I0804 12:49:28.254376 21779 net.cpp:100] Creating Layer conv3_2_bn_scale
I0804 12:49:28.254380 21779 net.cpp:434] conv3_2_bn_scale <- conv3_2_bn
I0804 12:49:28.254389 21779 net.cpp:395] conv3_2_bn_scale -> conv3_2_bn (in-place)
I0804 12:49:28.254418 21779 layer_factory.hpp:77] Creating layer conv3_2_bn_scale
I0804 12:49:28.254492 21779 net.cpp:150] Setting up conv3_2_bn_scale
I0804 12:49:28.254498 21779 net.cpp:157] Top shape: 64 32 64 64 (8388608)
I0804 12:49:28.254501 21779 net.cpp:165] Memory required for data: 1946158080
I0804 12:49:28.254506 21779 layer_factory.hpp:77] Creating layer conv3_2_relu
I0804 12:49:28.254511 21779 net.cpp:100] Creating Layer conv3_2_relu
I0804 12:49:28.254514 21779 net.cpp:434] conv3_2_relu <- conv3_2_bn
I0804 12:49:28.254518 21779 net.cpp:395] conv3_2_relu -> conv3_2_bn (in-place)
I0804 12:49:28.254523 21779 net.cpp:150] Setting up conv3_2_relu
I0804 12:49:28.254534 21779 net.cpp:157] Top shape: 64 32 64 64 (8388608)
I0804 12:49:28.254544 21779 net.cpp:165] Memory required for data: 1979712512
I0804 12:49:28.254547 21779 layer_factory.hpp:77] Creating layer pool3
I0804 12:49:28.254555 21779 net.cpp:100] Creating Layer pool3
I0804 12:49:28.254559 21779 net.cpp:434] pool3 <- conv3_2_bn
I0804 12:49:28.254562 21779 net.cpp:408] pool3 -> pool3
I0804 12:49:28.254591 21779 net.cpp:150] Setting up pool3
I0804 12:49:28.254597 21779 net.cpp:157] Top shape: 64 32 32 32 (2097152)
I0804 12:49:28.254601 21779 net.cpp:165] Memory required for data: 1988101120
I0804 12:49:28.254603 21779 layer_factory.hpp:77] Creating layer conv4_1
I0804 12:49:28.254609 21779 net.cpp:100] Creating Layer conv4_1
I0804 12:49:28.254613 21779 net.cpp:434] conv4_1 <- pool3
I0804 12:49:28.254617 21779 net.cpp:408] conv4_1 -> conv4_1
I0804 12:49:28.255133 21779 net.cpp:150] Setting up conv4_1
I0804 12:49:28.255141 21779 net.cpp:157] Top shape: 64 64 32 32 (4194304)
I0804 12:49:28.255143 21779 net.cpp:165] Memory required for data: 2004878336
I0804 12:49:28.255147 21779 layer_factory.hpp:77] Creating layer conv4_1_bn
I0804 12:49:28.255154 21779 net.cpp:100] Creating Layer conv4_1_bn
I0804 12:49:28.255157 21779 net.cpp:434] conv4_1_bn <- conv4_1
I0804 12:49:28.255162 21779 net.cpp:408] conv4_1_bn -> conv4_1_bn
I0804 12:49:28.255309 21779 net.cpp:150] Setting up conv4_1_bn
I0804 12:49:28.255316 21779 net.cpp:157] Top shape: 64 64 32 32 (4194304)
I0804 12:49:28.255319 21779 net.cpp:165] Memory required for data: 2021655552
I0804 12:49:28.255326 21779 layer_factory.hpp:77] Creating layer conv4_1_bn_scale
I0804 12:49:28.255331 21779 net.cpp:100] Creating Layer conv4_1_bn_scale
I0804 12:49:28.255333 21779 net.cpp:434] conv4_1_bn_scale <- conv4_1_bn
I0804 12:49:28.255337 21779 net.cpp:395] conv4_1_bn_scale -> conv4_1_bn (in-place)
I0804 12:49:28.255365 21779 layer_factory.hpp:77] Creating layer conv4_1_bn_scale
I0804 12:49:28.255450 21779 net.cpp:150] Setting up conv4_1_bn_scale
I0804 12:49:28.255458 21779 net.cpp:157] Top shape: 64 64 32 32 (4194304)
I0804 12:49:28.255461 21779 net.cpp:165] Memory required for data: 2038432768
I0804 12:49:28.255466 21779 layer_factory.hpp:77] Creating layer conv4_1_relu
I0804 12:49:28.255471 21779 net.cpp:100] Creating Layer conv4_1_relu
I0804 12:49:28.255475 21779 net.cpp:434] conv4_1_relu <- conv4_1_bn
I0804 12:49:28.255480 21779 net.cpp:395] conv4_1_relu -> conv4_1_bn (in-place)
I0804 12:49:28.255484 21779 net.cpp:150] Setting up conv4_1_relu
I0804 12:49:28.255488 21779 net.cpp:157] Top shape: 64 64 32 32 (4194304)
I0804 12:49:28.255491 21779 net.cpp:165] Memory required for data: 2055209984
I0804 12:49:28.255494 21779 layer_factory.hpp:77] Creating layer conv4_2
I0804 12:49:28.255506 21779 net.cpp:100] Creating Layer conv4_2
I0804 12:49:28.255508 21779 net.cpp:434] conv4_2 <- conv4_1_bn
I0804 12:49:28.255513 21779 net.cpp:408] conv4_2 -> conv4_2
I0804 12:49:28.256445 21779 net.cpp:150] Setting up conv4_2
I0804 12:49:28.256456 21779 net.cpp:157] Top shape: 64 64 32 32 (4194304)
I0804 12:49:28.256459 21779 net.cpp:165] Memory required for data: 2071987200
I0804 12:49:28.256464 21779 layer_factory.hpp:77] Creating layer conv4_2_bn
I0804 12:49:28.256469 21779 net.cpp:100] Creating Layer conv4_2_bn
I0804 12:49:28.256474 21779 net.cpp:434] conv4_2_bn <- conv4_2
I0804 12:49:28.256477 21779 net.cpp:408] conv4_2_bn -> conv4_2_bn
I0804 12:49:28.256614 21779 net.cpp:150] Setting up conv4_2_bn
I0804 12:49:28.256620 21779 net.cpp:157] Top shape: 64 64 32 32 (4194304)
I0804 12:49:28.256623 21779 net.cpp:165] Memory required for data: 2088764416
I0804 12:49:28.256629 21779 layer_factory.hpp:77] Creating layer conv4_2_bn_scale
I0804 12:49:28.256634 21779 net.cpp:100] Creating Layer conv4_2_bn_scale
I0804 12:49:28.256639 21779 net.cpp:434] conv4_2_bn_scale <- conv4_2_bn
I0804 12:49:28.256644 21779 net.cpp:395] conv4_2_bn_scale -> conv4_2_bn (in-place)
I0804 12:49:28.256671 21779 layer_factory.hpp:77] Creating layer conv4_2_bn_scale
I0804 12:49:28.256747 21779 net.cpp:150] Setting up conv4_2_bn_scale
I0804 12:49:28.256762 21779 net.cpp:157] Top shape: 64 64 32 32 (4194304)
I0804 12:49:28.256772 21779 net.cpp:165] Memory required for data: 2105541632
I0804 12:49:28.256777 21779 layer_factory.hpp:77] Creating layer conv4_2_relu
I0804 12:49:28.256781 21779 net.cpp:100] Creating Layer conv4_2_relu
I0804 12:49:28.256784 21779 net.cpp:434] conv4_2_relu <- conv4_2_bn
I0804 12:49:28.256788 21779 net.cpp:395] conv4_2_relu -> conv4_2_bn (in-place)
I0804 12:49:28.256793 21779 net.cpp:150] Setting up conv4_2_relu
I0804 12:49:28.256796 21779 net.cpp:157] Top shape: 64 64 32 32 (4194304)
I0804 12:49:28.256799 21779 net.cpp:165] Memory required for data: 2122318848
I0804 12:49:28.256803 21779 layer_factory.hpp:77] Creating layer pool4
I0804 12:49:28.256809 21779 net.cpp:100] Creating Layer pool4
I0804 12:49:28.256813 21779 net.cpp:434] pool4 <- conv4_2_bn
I0804 12:49:28.256816 21779 net.cpp:408] pool4 -> pool4
I0804 12:49:28.256844 21779 net.cpp:150] Setting up pool4
I0804 12:49:28.256850 21779 net.cpp:157] Top shape: 64 64 16 16 (1048576)
I0804 12:49:28.256852 21779 net.cpp:165] Memory required for data: 2126513152
I0804 12:49:28.256855 21779 layer_factory.hpp:77] Creating layer ip1
I0804 12:49:28.256861 21779 net.cpp:100] Creating Layer ip1
I0804 12:49:28.256865 21779 net.cpp:434] ip1 <- pool4
I0804 12:49:28.256870 21779 net.cpp:408] ip1 -> ip1
I0804 12:49:28.257261 21779 net.cpp:150] Setting up ip1
I0804 12:49:28.257267 21779 net.cpp:157] Top shape: 64 4 (256)
I0804 12:49:28.257271 21779 net.cpp:165] Memory required for data: 2126514176
I0804 12:49:28.257275 21779 layer_factory.hpp:77] Creating layer loss
I0804 12:49:28.257282 21779 net.cpp:100] Creating Layer loss
I0804 12:49:28.257284 21779 net.cpp:434] loss <- ip1
I0804 12:49:28.257288 21779 net.cpp:434] loss <- label
I0804 12:49:28.257292 21779 net.cpp:408] loss -> loss
I0804 12:49:28.257334 21779 net.cpp:150] Setting up loss
…
