…
I0914 17:32:40.525516 15567 solver.cpp:91] Creating training net from net file: portrait_train_test_one_stage128.prototxt2
I0914 17:32:40.526334 15567 net.cpp:322] The NetState phase (0) differed from the phase (1) specified by a rule in layer data
I0914 17:32:40.526505 15567 net.cpp:58] Initializing net from parameters: 
name: "segmentation"
state {
  phase: TRAIN
  level: 0
  stage: ""
}
layer {
  name: "data"
  type: "SegData"
  top: "image"
  top: "label"
  include {
    phase: TRAIN
  }
  transform_param {
    mirror: true
    crop_size: 128
  }
  data_param {
    source: "/raid/xuehan/segmentation128_train_split"
    batch_size: 256
    backend: LMDB
  }
}
layer {
  name: "conv1_1"
  type: "Convolution"
  bottom: "image"
  top: "conv1_1"
  param {
    lr_mult: 1
    decay_mult: 1
  }
  convolution_param {
    num_output: 8
    bias_term: false
    pad: 30
    kernel_size: 3
    stride: 1
    weight_filler {
      type: "gaussian"
      std: 0.01
    }
  }
}
layer {
  name: "pool1"
  type: "Pooling"
  bottom: "conv1_1"
  top: "pool1"
  pooling_param {
    pool: MAX
    kernel_size: 2
    stride: 2
  }
}
layer {
  name: "conv1_1_bn"
  type: "BatchNorm"
  bottom: "pool1"
  top: "conv1_1_bn"
  param {
    lr_mult: 0
  }
  param {
    lr_mult: 0
  }
  param {
    lr_mult: 0
  }
}
layer {
  name: "conv1_1_bn_scale"
  type: "Scale"
  bottom: "conv1_1_bn"
  top: "conv1_1_bn"
  scale_param {
    bias_term: true
  }
}
layer {
  name: "conv1_1_relu"
  type: "ReLU"
  bottom: "conv1_1_bn"
  top: "conv1_1_bn"
}
layer {
  name: "conv2_1"
  type: "Convolution"
  bottom: "conv1_1_bn"
  top: "conv2_1"
  param {
    lr_mult: 1
    decay_mult: 1
  }
  convolution_param {
    num_output: 16
    bias_term: false
    pad: 1
    kernel_size: 3
    stride: 1
    weight_filler {
      type: "gaussian"
      std: 0.01
    }
  }
}
layer {
  name: "pool2"
  type: "Pooling"
  bottom: "conv2_1"
  top: "pool2"
  pooling_param {
    pool: MAX
    kernel_size: 2
    stride: 2
  }
}
layer {
  name: "conv2_1_bn"
  type: "BatchNorm"
  bottom: "pool2"
  top: "conv2_1_bn"
  param {
    lr_mult: 0
  }
  param {
    lr_mult: 0
  }
  param {
    lr_mult: 0
  }
}
layer {
  name: "conv2_1_bn_scale"
  type: "Scale"
  bottom: "conv2_1_bn"
  top: "conv2_1_bn"
  scale_param {
    bias_term: true
  }
}
layer {
  name: "conv2_1_relu"
  type: "ReLU"
  bottom: "conv2_1_bn"
  top: "conv2_1_bn"
}
layer {
  name: "conv3_1"
  type: "Convolution"
  bottom: "conv2_1_bn"
  top: "conv3_1"
  param {
    lr_mult: 1
    decay_mult: 1
  }
  convolution_param {
    num_output: 32
    bias_term: false
    pad: 1
    kernel_size: 3
    stride: 1
    weight_filler {
      type: "gaussian"
      std: 0.01
    }
  }
}
layer {
  name: "pool3"
  type: "Pooling"
  bottom: "conv3_1"
  top: "pool3"
  pooling_param {
    pool: MAX
    kernel_size: 2
    stride: 2
  }
}
layer {
  name: "conv3_1_bn"
  type: "BatchNorm"
  bottom: "pool3"
  top: "conv3_1_bn"
  param {
    lr_mult: 0
  }
  param {
    lr_mult: 0
  }
  param {
    lr_mult: 0
  }
}
layer {
  name: "conv3_1_bn_scale"
  type: "Scale"
  bottom: "conv3_1_bn"
  top: "conv3_1_bn"
  scale_param {
    bias_term: true
  }
}
layer {
  name: "conv3_1_relu"
  type: "ReLU"
  bottom: "conv3_1_bn"
  top: "conv3_1_bn"
}
layer {
  name: "conv4_1"
  type: "Convolution"
  bottom: "conv3_1_bn"
  top: "conv4_1"
  param {
    lr_mult: 1
    decay_mult: 1
  }
  convolution_param {
    num_output: 32
    bias_term: false
    pad: 0
    kernel_size: 3
    stride: 1
    weight_filler {
      type: "gaussian"
      std: 0.01
    }
  }
}
layer {
  name: "conv4_1_bn"
  type: "BatchNorm"
  bottom: "conv4_1"
  top: "conv4_1_bn"
  param {
    lr_mult: 0
  }
  param {
    lr_mult: 0
  }
  param {
    lr_mult: 0
  }
}
layer {
  name: "conv4_1_bn_scale"
  type: "Scale"
  bottom: "conv4_1_bn"
  top: "conv4_1_bn"
  scale_param {
    bias_term: true
  }
}
layer {
  name: "conv4_1_relu"
  type: "ReLU"
  bottom: "conv4_1_bn"
  top: "conv4_1_bn"
}
layer {
  name: "conv5_1"
  type: "Convolution"
  bottom: "conv4_1_bn"
  top: "conv5_1"
  param {
    lr_mult: 1
    decay_mult: 1
  }
  convolution_param {
    num_output: 64
    bias_term: false
    pad: 0
    kernel_size: 3
    stride: 1
    weight_filler {
      type: "gaussian"
      std: 0.01
    }
  }
}
layer {
  name: "conv5_1_bn"
  type: "BatchNorm"
  bottom: "conv5_1"
  top: "conv5_1_bn"
  param {
    lr_mult: 0
  }
  param {
    lr_mult: 0
  }
  param {
    lr_mult: 0
  }
}
layer {
  name: "conv5_1_bn_scale"
  type: "Scale"
  bottom: "conv5_1_bn"
  top: "conv5_1_bn"
  scale_param {
    bias_term: true
  }
}
layer {
  name: "conv5_1_relu"
  type: "ReLU"
  bottom: "conv5_1_bn"
  top: "conv5_1_bn"
}
layer {
  name: "conv6_1"
  type: "Convolution"
  bottom: "conv5_1_bn"
  top: "conv6_1"
  param {
    lr_mult: 1
    decay_mult: 1
  }
  convolution_param {
    num_output: 64
    bias_term: false
    pad: 0
    kernel_size: 3
    stride: 1
    weight_filler {
      type: "gaussian"
      std: 0.01
    }
  }
}
layer {
  name: "conv6_1_bn"
  type: "BatchNorm"
  bottom: "conv6_1"
  top: "conv6_1_bn"
  param {
    lr_mult: 0
  }
  param {
    lr_mult: 0
  }
  param {
    lr_mult: 0
  }
}
layer {
  name: "conv6_1_bn_scale"
  type: "Scale"
  bottom: "conv6_1_bn"
  top: "conv6_1_bn"
  scale_param {
    bias_term: true
  }
}
layer {
  name: "conv6_1_relu"
  type: "ReLU"
  bottom: "conv6_1_bn"
  top: "conv6_1_bn"
}
layer {
  name: "conv7_1"
  type: "Convolution"
  bottom: "conv6_1_bn"
  top: "conv7_1"
  param {
    lr_mult: 1
    decay_mult: 1
  }
  convolution_param {
    num_output: 128
    bias_term: false
    pad: 0
    kernel_size: 3
    stride: 1
    weight_filler {
      type: "gaussian"
      std: 0.01
    }
  }
}
layer {
  name: "conv7_1_bn"
  type: "BatchNorm"
  bottom: "conv7_1"
  top: "conv7_1_bn"
  param {
    lr_mult: 0
  }
  param {
    lr_mult: 0
  }
  param {
    lr_mult: 0
  }
}
layer {
  name: "conv7_1_bn_scale"
  type: "Scale"
  bottom: "conv7_1_bn"
  top: "conv7_1_bn"
  scale_param {
    bias_term: true
  }
}
layer {
  name: "conv7_1_relu"
  type: "ReLU"
  bottom: "conv7_1_bn"
  top: "conv7_1_bn"
}
layer {
  name: "score"
  type: "Convolution"
  bottom: "conv7_1_bn"
  top: "score"
  param {
    lr_mult: 1
    decay_mult: 1
  }
  param {
    lr_mult: 2
    decay_mult: 0
  }
  convolution_param {
    num_output: 4
    pad: 0
    kernel_size: 1
    stride: 1
    weight_filler {
      type: "gaussian"
      std: 0.01
    }
    bias_filler {
      type: "constant"
    }
  }
}
layer {
  name: "upscore"
  type: "Deconvolution"
  bottom: "score"
  top: "upscore"
  param {
    lr_mult: 1
    decay_mult: 1
  }
  convolution_param {
    num_output: 4
    bias_term: false
    pad: 0
    kernel_size: 16
    stride: 8
    weight_filler {
      type: "gaussian"
      std: 0.01
    }
  }
}
layer {
  name: "cropscore"
  type: "Crop"
  bottom: "upscore"
  bottom: "image"
  top: "cropscore"
  crop_param {
    axis: 2
    offset: 4
  }
}
layer {
  name: "loss"
  type: "SoftmaxWithLoss"
  bottom: "cropscore"
  bottom: "label"
  top: "loss"
  loss_weight: 1
  loss_param {
    normalize: false
  }
}
layer {
  name: "accuracy"
  type: "Accuracy"
  bottom: "cropscore"
  bottom: "label"
  top: "accuracy"
}
I0914 17:32:40.526661 15567 layer_factory.hpp:77] Creating layer data
I0914 17:32:40.527168 15567 net.cpp:100] Creating Layer data
I0914 17:32:40.527189 15567 net.cpp:408] data -> image
I0914 17:32:40.527206 15567 net.cpp:408] data -> label
I0914 17:32:40.528115 15571 db_lmdb.cpp:35] Opened lmdb /raid/xuehan/segmentation128_train_split
I0914 17:32:40.528228 15567 seg_data_layer.cpp:38] 128 128 4
I0914 17:32:40.535776 15567 seg_data_layer.cpp:51] output data size: 256,3,128,128
I0914 17:32:40.535851 15567 seg_data_layer.cpp:63] output label size: 256,1,128,128
I0914 17:32:40.629561 15567 net.cpp:150] Setting up data
I0914 17:32:40.629592 15567 net.cpp:157] Top shape: 256 3 128 128 (12582912)
I0914 17:32:40.629597 15567 net.cpp:157] Top shape: 256 1 128 128 (4194304)
I0914 17:32:40.629600 15567 net.cpp:165] Memory required for data: 67108864
I0914 17:32:40.629609 15567 layer_factory.hpp:77] Creating layer image_data_0_split
I0914 17:32:40.629624 15567 net.cpp:100] Creating Layer image_data_0_split
I0914 17:32:40.629629 15567 net.cpp:434] image_data_0_split <- image
I0914 17:32:40.629639 15567 net.cpp:408] image_data_0_split -> image_data_0_split_0
I0914 17:32:40.629652 15567 net.cpp:408] image_data_0_split -> image_data_0_split_1
I0914 17:32:40.629691 15567 net.cpp:150] Setting up image_data_0_split
I0914 17:32:40.629696 15567 net.cpp:157] Top shape: 256 3 128 128 (12582912)
I0914 17:32:40.629700 15567 net.cpp:157] Top shape: 256 3 128 128 (12582912)
I0914 17:32:40.629703 15567 net.cpp:165] Memory required for data: 167772160
I0914 17:32:40.629705 15567 layer_factory.hpp:77] Creating layer label_data_1_split
I0914 17:32:40.629711 15567 net.cpp:100] Creating Layer label_data_1_split
I0914 17:32:40.629714 15567 net.cpp:434] label_data_1_split <- label
I0914 17:32:40.629719 15567 net.cpp:408] label_data_1_split -> label_data_1_split_0
I0914 17:32:40.629722 15567 net.cpp:408] label_data_1_split -> label_data_1_split_1
I0914 17:32:40.629745 15567 net.cpp:150] Setting up label_data_1_split
I0914 17:32:40.629750 15567 net.cpp:157] Top shape: 256 1 128 128 (4194304)
I0914 17:32:40.629752 15567 net.cpp:157] Top shape: 256 1 128 128 (4194304)
I0914 17:32:40.629755 15567 net.cpp:165] Memory required for data: 201326592
I0914 17:32:40.629758 15567 layer_factory.hpp:77] Creating layer conv1_1
I0914 17:32:40.629771 15567 net.cpp:100] Creating Layer conv1_1
I0914 17:32:40.629775 15567 net.cpp:434] conv1_1 <- image_data_0_split_0
I0914 17:32:40.629779 15567 net.cpp:408] conv1_1 -> conv1_1
I0914 17:32:40.629938 15567 net.cpp:150] Setting up conv1_1
I0914 17:32:40.629945 15567 net.cpp:157] Top shape: 256 8 186 186 (70852608)
I0914 17:32:40.629948 15567 net.cpp:165] Memory required for data: 484737024
I0914 17:32:40.629957 15567 layer_factory.hpp:77] Creating layer pool1
I0914 17:32:40.629966 15567 net.cpp:100] Creating Layer pool1
I0914 17:32:40.629968 15567 net.cpp:434] pool1 <- conv1_1
I0914 17:32:40.629971 15567 net.cpp:408] pool1 -> pool1
I0914 17:32:40.630126 15567 net.cpp:150] Setting up pool1
I0914 17:32:40.630134 15567 net.cpp:157] Top shape: 256 8 93 93 (17713152)
I0914 17:32:40.630136 15567 net.cpp:165] Memory required for data: 555589632
I0914 17:32:40.630139 15567 layer_factory.hpp:77] Creating layer conv1_1_bn
I0914 17:32:40.630146 15567 net.cpp:100] Creating Layer conv1_1_bn
I0914 17:32:40.630148 15567 net.cpp:434] conv1_1_bn <- pool1
I0914 17:32:40.630152 15567 net.cpp:408] conv1_1_bn -> conv1_1_bn
I0914 17:32:40.630717 15567 net.cpp:150] Setting up conv1_1_bn
I0914 17:32:40.630728 15567 net.cpp:157] Top shape: 256 8 93 93 (17713152)
I0914 17:32:40.630730 15567 net.cpp:165] Memory required for data: 626442240
I0914 17:32:40.630740 15567 layer_factory.hpp:77] Creating layer conv1_1_bn_scale
I0914 17:32:40.630753 15567 net.cpp:100] Creating Layer conv1_1_bn_scale
I0914 17:32:40.630756 15567 net.cpp:434] conv1_1_bn_scale <- conv1_1_bn
I0914 17:32:40.630761 15567 net.cpp:395] conv1_1_bn_scale -> conv1_1_bn (in-place)
I0914 17:32:40.630790 15567 layer_factory.hpp:77] Creating layer conv1_1_bn_scale
I0914 17:32:40.630889 15567 net.cpp:150] Setting up conv1_1_bn_scale
I0914 17:32:40.630897 15567 net.cpp:157] Top shape: 256 8 93 93 (17713152)
I0914 17:32:40.630899 15567 net.cpp:165] Memory required for data: 697294848
I0914 17:32:40.630906 15567 layer_factory.hpp:77] Creating layer conv1_1_relu
I0914 17:32:40.630913 15567 net.cpp:100] Creating Layer conv1_1_relu
I0914 17:32:40.630918 15567 net.cpp:434] conv1_1_relu <- conv1_1_bn
I0914 17:32:40.630920 15567 net.cpp:395] conv1_1_relu -> conv1_1_bn (in-place)
I0914 17:32:40.630933 15567 net.cpp:150] Setting up conv1_1_relu
I0914 17:32:40.630944 15567 net.cpp:157] Top shape: 256 8 93 93 (17713152)
I0914 17:32:40.630946 15567 net.cpp:165] Memory required for data: 768147456
I0914 17:32:40.630949 15567 layer_factory.hpp:77] Creating layer conv2_1
I0914 17:32:40.630959 15567 net.cpp:100] Creating Layer conv2_1
I0914 17:32:40.630961 15567 net.cpp:434] conv2_1 <- conv1_1_bn
I0914 17:32:40.630966 15567 net.cpp:408] conv2_1 -> conv2_1
I0914 17:32:40.637066 15567 net.cpp:150] Setting up conv2_1
I0914 17:32:40.637079 15567 net.cpp:157] Top shape: 256 16 93 93 (35426304)
I0914 17:32:40.637081 15567 net.cpp:165] Memory required for data: 909852672
I0914 17:32:40.637086 15567 layer_factory.hpp:77] Creating layer pool2
I0914 17:32:40.637092 15567 net.cpp:100] Creating Layer pool2
I0914 17:32:40.637095 15567 net.cpp:434] pool2 <- conv2_1
I0914 17:32:40.637101 15567 net.cpp:408] pool2 -> pool2
I0914 17:32:40.637126 15567 net.cpp:150] Setting up pool2
I0914 17:32:40.637130 15567 net.cpp:157] Top shape: 256 16 47 47 (9048064)
I0914 17:32:40.637133 15567 net.cpp:165] Memory required for data: 946044928
I0914 17:32:40.637136 15567 layer_factory.hpp:77] Creating layer conv2_1_bn
I0914 17:32:40.637142 15567 net.cpp:100] Creating Layer conv2_1_bn
I0914 17:32:40.637145 15567 net.cpp:434] conv2_1_bn <- pool2
I0914 17:32:40.637151 15567 net.cpp:408] conv2_1_bn -> conv2_1_bn
I0914 17:32:40.637274 15567 net.cpp:150] Setting up conv2_1_bn
I0914 17:32:40.637280 15567 net.cpp:157] Top shape: 256 16 47 47 (9048064)
I0914 17:32:40.637282 15567 net.cpp:165] Memory required for data: 982237184
I0914 17:32:40.637290 15567 layer_factory.hpp:77] Creating layer conv2_1_bn_scale
I0914 17:32:40.637296 15567 net.cpp:100] Creating Layer conv2_1_bn_scale
I0914 17:32:40.637300 15567 net.cpp:434] conv2_1_bn_scale <- conv2_1_bn
I0914 17:32:40.637303 15567 net.cpp:395] conv2_1_bn_scale -> conv2_1_bn (in-place)
I0914 17:32:40.637327 15567 layer_factory.hpp:77] Creating layer conv2_1_bn_scale
I0914 17:32:40.637406 15567 net.cpp:150] Setting up conv2_1_bn_scale
I0914 17:32:40.637411 15567 net.cpp:157] Top shape: 256 16 47 47 (9048064)
I0914 17:32:40.637413 15567 net.cpp:165] Memory required for data: 1018429440
I0914 17:32:40.637418 15567 layer_factory.hpp:77] Creating layer conv2_1_relu
I0914 17:32:40.637423 15567 net.cpp:100] Creating Layer conv2_1_relu
I0914 17:32:40.637426 15567 net.cpp:434] conv2_1_relu <- conv2_1_bn
I0914 17:32:40.637429 15567 net.cpp:395] conv2_1_relu -> conv2_1_bn (in-place)
I0914 17:32:40.637434 15567 net.cpp:150] Setting up conv2_1_relu
I0914 17:32:40.637437 15567 net.cpp:157] Top shape: 256 16 47 47 (9048064)
I0914 17:32:40.637439 15567 net.cpp:165] Memory required for data: 1054621696
I0914 17:32:40.637442 15567 layer_factory.hpp:77] Creating layer conv3_1
I0914 17:32:40.637450 15567 net.cpp:100] Creating Layer conv3_1
I0914 17:32:40.637452 15567 net.cpp:434] conv3_1 <- conv2_1_bn
I0914 17:32:40.637459 15567 net.cpp:408] conv3_1 -> conv3_1
I0914 17:32:40.637675 15567 net.cpp:150] Setting up conv3_1
I0914 17:32:40.637681 15567 net.cpp:157] Top shape: 256 32 47 47 (18096128)
I0914 17:32:40.637683 15567 net.cpp:165] Memory required for data: 1127006208
I0914 17:32:40.637687 15567 layer_factory.hpp:77] Creating layer pool3
I0914 17:32:40.637691 15567 net.cpp:100] Creating Layer pool3
I0914 17:32:40.637694 15567 net.cpp:434] pool3 <- conv3_1
I0914 17:32:40.637701 15567 net.cpp:408] pool3 -> pool3
I0914 17:32:40.637723 15567 net.cpp:150] Setting up pool3
I0914 17:32:40.637727 15567 net.cpp:157] Top shape: 256 32 24 24 (4718592)
I0914 17:32:40.637730 15567 net.cpp:165] Memory required for data: 1145880576
I0914 17:32:40.637732 15567 layer_factory.hpp:77] Creating layer conv3_1_bn
I0914 17:32:40.637738 15567 net.cpp:100] Creating Layer conv3_1_bn
I0914 17:32:40.637742 15567 net.cpp:434] conv3_1_bn <- pool3
I0914 17:32:40.637747 15567 net.cpp:408] conv3_1_bn -> conv3_1_bn
I0914 17:32:40.638286 15567 net.cpp:150] Setting up conv3_1_bn
I0914 17:32:40.638296 15567 net.cpp:157] Top shape: 256 32 24 24 (4718592)
I0914 17:32:40.638304 15567 net.cpp:165] Memory required for data: 1164754944
I0914 17:32:40.638316 15567 layer_factory.hpp:77] Creating layer conv3_1_bn_scale
I0914 17:32:40.638324 15567 net.cpp:100] Creating Layer conv3_1_bn_scale
I0914 17:32:40.638327 15567 net.cpp:434] conv3_1_bn_scale <- conv3_1_bn
I0914 17:32:40.638334 15567 net.cpp:395] conv3_1_bn_scale -> conv3_1_bn (in-place)
I0914 17:32:40.638360 15567 layer_factory.hpp:77] Creating layer conv3_1_bn_scale
I0914 17:32:40.638455 15567 net.cpp:150] Setting up conv3_1_bn_scale
I0914 17:32:40.638463 15567 net.cpp:157] Top shape: 256 32 24 24 (4718592)
I0914 17:32:40.638465 15567 net.cpp:165] Memory required for data: 1183629312
I0914 17:32:40.638474 15567 layer_factory.hpp:77] Creating layer conv3_1_relu
I0914 17:32:40.638479 15567 net.cpp:100] Creating Layer conv3_1_relu
I0914 17:32:40.638483 15567 net.cpp:434] conv3_1_relu <- conv3_1_bn
I0914 17:32:40.638487 15567 net.cpp:395] conv3_1_relu -> conv3_1_bn (in-place)
I0914 17:32:40.638492 15567 net.cpp:150] Setting up conv3_1_relu
I0914 17:32:40.638496 15567 net.cpp:157] Top shape: 256 32 24 24 (4718592)
I0914 17:32:40.638499 15567 net.cpp:165] Memory required for data: 1202503680
I0914 17:32:40.638501 15567 layer_factory.hpp:77] Creating layer conv4_1
I0914 17:32:40.638507 15567 net.cpp:100] Creating Layer conv4_1
I0914 17:32:40.638510 15567 net.cpp:434] conv4_1 <- conv3_1_bn
I0914 17:32:40.638515 15567 net.cpp:408] conv4_1 -> conv4_1
I0914 17:32:40.638828 15567 net.cpp:150] Setting up conv4_1
I0914 17:32:40.638834 15567 net.cpp:157] Top shape: 256 32 22 22 (3964928)
I0914 17:32:40.638836 15567 net.cpp:165] Memory required for data: 1218363392
I0914 17:32:40.638840 15567 layer_factory.hpp:77] Creating layer conv4_1_bn
I0914 17:32:40.638846 15567 net.cpp:100] Creating Layer conv4_1_bn
I0914 17:32:40.638849 15567 net.cpp:434] conv4_1_bn <- conv4_1
I0914 17:32:40.638854 15567 net.cpp:408] conv4_1_bn -> conv4_1_bn
I0914 17:32:40.638981 15567 net.cpp:150] Setting up conv4_1_bn
I0914 17:32:40.638988 15567 net.cpp:157] Top shape: 256 32 22 22 (3964928)
I0914 17:32:40.638990 15567 net.cpp:165] Memory required for data: 1234223104
I0914 17:32:40.638995 15567 layer_factory.hpp:77] Creating layer conv4_1_bn_scale
I0914 17:32:40.639001 15567 net.cpp:100] Creating Layer conv4_1_bn_scale
I0914 17:32:40.639004 15567 net.cpp:434] conv4_1_bn_scale <- conv4_1_bn
I0914 17:32:40.639008 15567 net.cpp:395] conv4_1_bn_scale -> conv4_1_bn (in-place)
I0914 17:32:40.639032 15567 layer_factory.hpp:77] Creating layer conv4_1_bn_scale
I0914 17:32:40.639106 15567 net.cpp:150] Setting up conv4_1_bn_scale
I0914 17:32:40.639111 15567 net.cpp:157] Top shape: 256 32 22 22 (3964928)
I0914 17:32:40.639113 15567 net.cpp:165] Memory required for data: 1250082816
I0914 17:32:40.639117 15567 layer_factory.hpp:77] Creating layer conv4_1_relu
I0914 17:32:40.639122 15567 net.cpp:100] Creating Layer conv4_1_relu
I0914 17:32:40.639124 15567 net.cpp:434] conv4_1_relu <- conv4_1_bn
I0914 17:32:40.639129 15567 net.cpp:395] conv4_1_relu -> conv4_1_bn (in-place)
I0914 17:32:40.639133 15567 net.cpp:150] Setting up conv4_1_relu
I0914 17:32:40.639137 15567 net.cpp:157] Top shape: 256 32 22 22 (3964928)
I0914 17:32:40.639139 15567 net.cpp:165] Memory required for data: 1265942528
I0914 17:32:40.639142 15567 layer_factory.hpp:77] Creating layer conv5_1
I0914 17:32:40.639149 15567 net.cpp:100] Creating Layer conv5_1
I0914 17:32:40.639153 15567 net.cpp:434] conv5_1 <- conv4_1_bn
I0914 17:32:40.639156 15567 net.cpp:408] conv5_1 -> conv5_1
I0914 17:32:40.640079 15567 net.cpp:150] Setting up conv5_1
I0914 17:32:40.640089 15567 net.cpp:157] Top shape: 256 64 20 20 (6553600)
I0914 17:32:40.640092 15567 net.cpp:165] Memory required for data: 1292156928
I0914 17:32:40.640096 15567 layer_factory.hpp:77] Creating layer conv5_1_bn
I0914 17:32:40.640101 15567 net.cpp:100] Creating Layer conv5_1_bn
I0914 17:32:40.640105 15567 net.cpp:434] conv5_1_bn <- conv5_1
I0914 17:32:40.640110 15567 net.cpp:408] conv5_1_bn -> conv5_1_bn
I0914 17:32:40.640244 15567 net.cpp:150] Setting up conv5_1_bn
I0914 17:32:40.640260 15567 net.cpp:157] Top shape: 256 64 20 20 (6553600)
I0914 17:32:40.640264 15567 net.cpp:165] Memory required for data: 1318371328
I0914 17:32:40.640269 15567 layer_factory.hpp:77] Creating layer conv5_1_bn_scale
I0914 17:32:40.640274 15567 net.cpp:100] Creating Layer conv5_1_bn_scale
I0914 17:32:40.640277 15567 net.cpp:434] conv5_1_bn_scale <- conv5_1_bn
I0914 17:32:40.640282 15567 net.cpp:395] conv5_1_bn_scale -> conv5_1_bn (in-place)
I0914 17:32:40.640306 15567 layer_factory.hpp:77] Creating layer conv5_1_bn_scale
I0914 17:32:40.640384 15567 net.cpp:150] Setting up conv5_1_bn_scale
I0914 17:32:40.640389 15567 net.cpp:157] Top shape: 256 64 20 20 (6553600)
I0914 17:32:40.640393 15567 net.cpp:165] Memory required for data: 1344585728
I0914 17:32:40.640396 15567 layer_factory.hpp:77] Creating layer conv5_1_relu
I0914 17:32:40.640401 15567 net.cpp:100] Creating Layer conv5_1_relu
I0914 17:32:40.640404 15567 net.cpp:434] conv5_1_relu <- conv5_1_bn
I0914 17:32:40.640408 15567 net.cpp:395] conv5_1_relu -> conv5_1_bn (in-place)
I0914 17:32:40.640413 15567 net.cpp:150] Setting up conv5_1_relu
I0914 17:32:40.640417 15567 net.cpp:157] Top shape: 256 64 20 20 (6553600)
I0914 17:32:40.640419 15567 net.cpp:165] Memory required for data: 1370800128
I0914 17:32:40.640422 15567 layer_factory.hpp:77] Creating layer conv6_1
I0914 17:32:40.640429 15567 net.cpp:100] Creating Layer conv6_1
I0914 17:32:40.640432 15567 net.cpp:434] conv6_1 <- conv5_1_bn
I0914 17:32:40.640436 15567 net.cpp:408] conv6_1 -> conv6_1
I0914 17:32:40.641327 15567 net.cpp:150] Setting up conv6_1
I0914 17:32:40.641335 15567 net.cpp:157] Top shape: 256 64 18 18 (5308416)
I0914 17:32:40.641337 15567 net.cpp:165] Memory required for data: 1392033792
I0914 17:32:40.641341 15567 layer_factory.hpp:77] Creating layer conv6_1_bn
I0914 17:32:40.641346 15567 net.cpp:100] Creating Layer conv6_1_bn
I0914 17:32:40.641348 15567 net.cpp:434] conv6_1_bn <- conv6_1
I0914 17:32:40.641355 15567 net.cpp:408] conv6_1_bn -> conv6_1_bn
I0914 17:32:40.641485 15567 net.cpp:150] Setting up conv6_1_bn
I0914 17:32:40.641490 15567 net.cpp:157] Top shape: 256 64 18 18 (5308416)
I0914 17:32:40.641492 15567 net.cpp:165] Memory required for data: 1413267456
I0914 17:32:40.641502 15567 layer_factory.hpp:77] Creating layer conv6_1_bn_scale
I0914 17:32:40.641507 15567 net.cpp:100] Creating Layer conv6_1_bn_scale
I0914 17:32:40.641510 15567 net.cpp:434] conv6_1_bn_scale <- conv6_1_bn
I0914 17:32:40.641515 15567 net.cpp:395] conv6_1_bn_scale -> conv6_1_bn (in-place)
I0914 17:32:40.641538 15567 layer_factory.hpp:77] Creating layer conv6_1_bn_scale
I0914 17:32:40.641623 15567 net.cpp:150] Setting up conv6_1_bn_scale
I0914 17:32:40.641628 15567 net.cpp:157] Top shape: 256 64 18 18 (5308416)
I0914 17:32:40.641630 15567 net.cpp:165] Memory required for data: 1434501120
I0914 17:32:40.641634 15567 layer_factory.hpp:77] Creating layer conv6_1_relu
I0914 17:32:40.641639 15567 net.cpp:100] Creating Layer conv6_1_relu
I0914 17:32:40.641641 15567 net.cpp:434] conv6_1_relu <- conv6_1_bn
I0914 17:32:40.641646 15567 net.cpp:395] conv6_1_relu -> conv6_1_bn (in-place)
I0914 17:32:40.641650 15567 net.cpp:150] Setting up conv6_1_relu
I0914 17:32:40.641654 15567 net.cpp:157] Top shape: 256 64 18 18 (5308416)
I0914 17:32:40.641656 15567 net.cpp:165] Memory required for data: 1455734784
I0914 17:32:40.641659 15567 layer_factory.hpp:77] Creating layer conv7_1
I0914 17:32:40.641665 15567 net.cpp:100] Creating Layer conv7_1
I0914 17:32:40.641667 15567 net.cpp:434] conv7_1 <- conv6_1_bn
I0914 17:32:40.641671 15567 net.cpp:408] conv7_1 -> conv7_1
I0914 17:32:40.643774 15567 net.cpp:150] Setting up conv7_1
I0914 17:32:40.643786 15567 net.cpp:157] Top shape: 256 128 16 16 (8388608)
I0914 17:32:40.643790 15567 net.cpp:165] Memory required for data: 1489289216
I0914 17:32:40.643793 15567 layer_factory.hpp:77] Creating layer conv7_1_bn
I0914 17:32:40.643802 15567 net.cpp:100] Creating Layer conv7_1_bn
I0914 17:32:40.643806 15567 net.cpp:434] conv7_1_bn <- conv7_1
I0914 17:32:40.643816 15567 net.cpp:408] conv7_1_bn -> conv7_1_bn
I0914 17:32:40.643949 15567 net.cpp:150] Setting up conv7_1_bn
I0914 17:32:40.643954 15567 net.cpp:157] Top shape: 256 128 16 16 (8388608)
I0914 17:32:40.643956 15567 net.cpp:165] Memory required for data: 1522843648
I0914 17:32:40.643962 15567 layer_factory.hpp:77] Creating layer conv7_1_bn_scale
I0914 17:32:40.643971 15567 net.cpp:100] Creating Layer conv7_1_bn_scale
I0914 17:32:40.643975 15567 net.cpp:434] conv7_1_bn_scale <- conv7_1_bn
I0914 17:32:40.643978 15567 net.cpp:395] conv7_1_bn_scale -> conv7_1_bn (in-place)
I0914 17:32:40.644003 15567 layer_factory.hpp:77] Creating layer conv7_1_bn_scale
I0914 17:32:40.644075 15567 net.cpp:150] Setting up conv7_1_bn_scale
I0914 17:32:40.644080 15567 net.cpp:157] Top shape: 256 128 16 16 (8388608)
I0914 17:32:40.644083 15567 net.cpp:165] Memory required for data: 1556398080
I0914 17:32:40.644088 15567 layer_factory.hpp:77] Creating layer conv7_1_relu
I0914 17:32:40.644093 15567 net.cpp:100] Creating Layer conv7_1_relu
I0914 17:32:40.644095 15567 net.cpp:434] conv7_1_relu <- conv7_1_bn
I0914 17:32:40.644099 15567 net.cpp:395] conv7_1_relu -> conv7_1_bn (in-place)
I0914 17:32:40.644104 15567 net.cpp:150] Setting up conv7_1_relu
I0914 17:32:40.644109 15567 net.cpp:157] Top shape: 256 128 16 16 (8388608)
I0914 17:32:40.644110 15567 net.cpp:165] Memory required for data: 1589952512
I0914 17:32:40.644114 15567 layer_factory.hpp:77] Creating layer score
I0914 17:32:40.644120 15567 net.cpp:100] Creating Layer score
I0914 17:32:40.644124 15567 net.cpp:434] score <- conv7_1_bn
I0914 17:32:40.644129 15567 net.cpp:408] score -> score
I0914 17:32:40.644287 15567 net.cpp:150] Setting up score
I0914 17:32:40.644294 15567 net.cpp:157] Top shape: 256 4 16 16 (262144)
I0914 17:32:40.644297 15567 net.cpp:165] Memory required for data: 1591001088
I0914 17:32:40.644301 15567 layer_factory.hpp:77] Creating layer upscore
I0914 17:32:40.644309 15567 net.cpp:100] Creating Layer upscore
I0914 17:32:40.644311 15567 net.cpp:434] upscore <- score
I0914 17:32:40.644317 15567 net.cpp:408] upscore -> upscore
I0914 17:32:40.644531 15567 net.cpp:150] Setting up upscore
I0914 17:32:40.644536 15567 net.cpp:157] Top shape: 256 4 136 136 (18939904)
I0914 17:32:40.644539 15567 net.cpp:165] Memory required for data: 1666760704
I0914 17:32:40.644543 15567 layer_factory.hpp:77] Creating layer cropscore
I0914 17:32:40.644549 15567 net.cpp:100] Creating Layer cropscore
I0914 17:32:40.644552 15567 net.cpp:434] cropscore <- upscore
I0914 17:32:40.644556 15567 net.cpp:434] cropscore <- image_data_0_split_1
I0914 17:32:40.644561 15567 net.cpp:408] cropscore -> cropscore
I0914 17:32:40.644579 15567 net.cpp:150] Setting up cropscore
I0914 17:32:40.644583 15567 net.cpp:157] Top shape: 256 4 128 128 (16777216)
I0914 17:32:40.644587 15567 net.cpp:165] Memory required for data: 1733869568
I0914 17:32:40.644588 15567 layer_factory.hpp:77] Creating layer cropscore_cropscore_0_split
I0914 17:32:40.644593 15567 net.cpp:100] Creating Layer cropscore_cropscore_0_split
I0914 17:32:40.644596 15567 net.cpp:434] cropscore_cropscore_0_split <- cropscore
I0914 17:32:40.644601 15567 net.cpp:408] cropscore_cropscore_0_split -> cropscore_cropscore_0_split_0
I0914 17:32:40.644605 15567 net.cpp:408] cropscore_cropscore_0_split -> cropscore_cropscore_0_split_1
I0914 17:32:40.644626 15567 net.cpp:150] Setting up cropscore_cropscore_0_split
I0914 17:32:40.644630 15567 net.cpp:157] Top shape: 256 4 128 128 (16777216)
I0914 17:32:40.644634 15567 net.cpp:157] Top shape: 256 4 128 128 (16777216)
I0914 17:32:40.644636 15567 net.cpp:165] Memory required for data: 1868087296
I0914 17:32:40.644639 15567 layer_factory.hpp:77] Creating layer loss
I0914 17:32:40.644645 15567 net.cpp:100] Creating Layer loss
I0914 17:32:40.644649 15567 net.cpp:434] loss <- cropscore_cropscore_0_split_0
I0914 17:32:40.644652 15567 net.cpp:434] loss <- label_data_1_split_0
I0914 17:32:40.644657 15567 net.cpp:408] loss -> loss
…
