…
I0920 15:12:38.954834 10960 solver.cpp:91] Creating training net from net file: portrait_train_test_two_stage128.prototxt
I0920 15:12:38.955420 10960 net.cpp:322] The NetState phase (0) differed from the phase (1) specified by a rule in layer data
I0920 15:12:38.955587 10960 net.cpp:58] Initializing net from parameters: 
name: "segmentation"
state {
  phase: TRAIN
  level: 0
  stage: ""
}
layer {
  name: "data"
  type: "SegData"
  top: "image"
  top: "label"
  include {
    phase: TRAIN
  }
  transform_param {
    mirror: true
    crop_size: 128
  }
  data_param {
    source: "/raid/xuehan/segmentation128_train_split"
    batch_size: 256
    backend: LMDB
  }
}
layer {
  name: "conv1_1"
  type: "Convolution"
  bottom: "image"
  top: "conv1_1"
  param {
    lr_mult: 1
    decay_mult: 1
  }
  convolution_param {
    num_output: 8
    bias_term: false
    pad: 1
    kernel_size: 3
    stride: 1
    weight_filler {
      type: "gaussian"
      std: 0.01
    }
  }
}
layer {
  name: "pool1"
  type: "Pooling"
  bottom: "conv1_1"
  top: "pool1"
  pooling_param {
    pool: MAX
    kernel_size: 2
    stride: 2
  }
}
layer {
  name: "conv1_1_bn"
  type: "BatchNorm"
  bottom: "pool1"
  top: "conv1_1_bn"
  param {
    lr_mult: 0
  }
  param {
    lr_mult: 0
  }
  param {
    lr_mult: 0
  }
}
layer {
  name: "conv1_1_bn_scale"
  type: "Scale"
  bottom: "conv1_1_bn"
  top: "conv1_1_bn"
  scale_param {
    bias_term: true
  }
}
layer {
  name: "conv1_1_relu"
  type: "ReLU"
  bottom: "conv1_1_bn"
  top: "conv1_1_bn"
}
layer {
  name: "conv2_1"
  type: "Convolution"
  bottom: "conv1_1_bn"
  top: "conv2_1"
  param {
    lr_mult: 1
    decay_mult: 1
  }
  convolution_param {
    num_output: 16
    bias_term: false
    pad: 1
    kernel_size: 3
    stride: 1
    weight_filler {
      type: "gaussian"
      std: 0.01
    }
  }
}
layer {
  name: "pool2"
  type: "Pooling"
  bottom: "conv2_1"
  top: "pool2"
  pooling_param {
    pool: MAX
    kernel_size: 2
    stride: 2
  }
}
layer {
  name: "conv2_1_bn"
  type: "BatchNorm"
  bottom: "pool2"
  top: "conv2_1_bn"
  param {
    lr_mult: 0
  }
  param {
    lr_mult: 0
  }
  param {
    lr_mult: 0
  }
}
layer {
  name: "conv2_1_bn_scale"
  type: "Scale"
  bottom: "conv2_1_bn"
  top: "conv2_1_bn"
  scale_param {
    bias_term: true
  }
}
layer {
  name: "conv2_1_relu"
  type: "ReLU"
  bottom: "conv2_1_bn"
  top: "conv2_1_bn"
}
layer {
  name: "conv3_1"
  type: "Convolution"
  bottom: "conv2_1_bn"
  top: "conv3_1"
  param {
    lr_mult: 1
    decay_mult: 1
  }
  convolution_param {
    num_output: 32
    bias_term: false
    pad: 1
    kernel_size: 3
    stride: 1
    weight_filler {
      type: "gaussian"
      std: 0.01
    }
  }
}
layer {
  name: "pool3"
  type: "Pooling"
  bottom: "conv3_1"
  top: "pool3"
  pooling_param {
    pool: MAX
    kernel_size: 2
    stride: 2
  }
}
layer {
  name: "conv3_1_bn"
  type: "BatchNorm"
  bottom: "pool3"
  top: "conv3_1_bn"
  param {
    lr_mult: 0
  }
  param {
    lr_mult: 0
  }
  param {
    lr_mult: 0
  }
}
layer {
  name: "conv3_1_bn_scale"
  type: "Scale"
  bottom: "conv3_1_bn"
  top: "conv3_1_bn"
  scale_param {
    bias_term: true
  }
}
layer {
  name: "conv3_1_relu"
  type: "ReLU"
  bottom: "conv3_1_bn"
  top: "conv3_1_bn"
}
layer {
  name: "score1"
  type: "Convolution"
  bottom: "conv3_1_bn"
  top: "score1"
  param {
    lr_mult: 1
    decay_mult: 1
  }
  param {
    lr_mult: 2
    decay_mult: 0
  }
  convolution_param {
    num_output: 4
    pad: 0
    kernel_size: 1
    stride: 1
    weight_filler {
      type: "gaussian"
      std: 0.01
    }
    bias_filler {
      type: "constant"
    }
  }
}
layer {
  name: "upscore1"
  type: "Deconvolution"
  bottom: "score1"
  top: "upscore1"
  param {
    lr_mult: 1
    decay_mult: 1
  }
  convolution_param {
    num_output: 4
    bias_term: false
    pad: 0
    kernel_size: 16
    stride: 8
    weight_filler {
      type: "gaussian"
      std: 0.01
    }
  }
}
layer {
  name: "cropscore1"
  type: "Crop"
  bottom: "upscore1"
  bottom: "image"
  top: "cropscore1"
  crop_param {
    axis: 2
    offset: 8
  }
}
layer {
  name: "pool_score"
  type: "Pooling"
  bottom: "cropscore1"
  top: "pool_score"
  pooling_param {
    pool: AVE
    kernel_size: 9
    stride: 8
  }
}
layer {
  name: "concat"
  type: "Concat"
  bottom: "conv3_1_bn"
  bottom: "pool_score"
  top: "concat_score"
  concat_param {
    axis: 1
  }
}
layer {
  name: "loss1"
  type: "SoftmaxWithLoss"
  bottom: "cropscore1"
  bottom: "label"
  top: "loss1"
  loss_weight: 1
  loss_param {
    normalize: false
  }
}
layer {
  name: "accuracy1"
  type: "Accuracy"
  bottom: "cropscore1"
  bottom: "label"
  top: "accuracy1"
}
layer {
  name: "conv5_1"
  type: "Convolution"
  bottom: "concat_score"
  top: "conv5_1"
  param {
    lr_mult: 1
    decay_mult: 1
  }
  convolution_param {
    num_output: 64
    bias_term: false
    pad: 1
    kernel_size: 3
    stride: 1
    weight_filler {
      type: "gaussian"
      std: 0.01
    }
  }
}
layer {
  name: "conv5_1_bn"
  type: "BatchNorm"
  bottom: "conv5_1"
  top: "conv5_1_bn"
  param {
    lr_mult: 0
  }
  param {
    lr_mult: 0
  }
  param {
    lr_mult: 0
  }
}
layer {
  name: "conv5_1_bn_scale"
  type: "Scale"
  bottom: "conv5_1_bn"
  top: "conv5_1_bn"
  scale_param {
    bias_term: true
  }
}
layer {
  name: "conv5_1_relu"
  type: "ReLU"
  bottom: "conv5_1_bn"
  top: "conv5_1_bn"
}
layer {
  name: "conv6_1"
  type: "Convolution"
  bottom: "conv5_1_bn"
  top: "conv6_1"
  param {
    lr_mult: 1
    decay_mult: 1
  }
  convolution_param {
    num_output: 64
    bias_term: false
    pad: 1
    kernel_size: 3
    stride: 1
    weight_filler {
      type: "gaussian"
      std: 0.01
    }
  }
}
layer {
  name: "conv6_1_bn"
  type: "BatchNorm"
  bottom: "conv6_1"
  top: "conv6_1_bn"
  param {
    lr_mult: 0
  }
  param {
    lr_mult: 0
  }
  param {
    lr_mult: 0
  }
}
layer {
  name: "conv6_1_bn_scale"
  type: "Scale"
  bottom: "conv6_1_bn"
  top: "conv6_1_bn"
  scale_param {
    bias_term: true
  }
}
layer {
  name: "conv6_1_relu"
  type: "ReLU"
  bottom: "conv6_1_bn"
  top: "conv6_1_bn"
}
layer {
  name: "conv7_1"
  type: "Convolution"
  bottom: "conv6_1_bn"
  top: "conv7_1"
  param {
    lr_mult: 1
    decay_mult: 1
  }
  convolution_param {
    num_output: 128
    bias_term: false
    pad: 1
    kernel_size: 3
    stride: 1
    weight_filler {
      type: "gaussian"
      std: 0.01
    }
  }
}
layer {
  name: "conv7_1_bn"
  type: "BatchNorm"
  bottom: "conv7_1"
  top: "conv7_1_bn"
  param {
    lr_mult: 0
  }
  param {
    lr_mult: 0
  }
  param {
    lr_mult: 0
  }
}
layer {
  name: "conv7_1_bn_scale"
  type: "Scale"
  bottom: "conv7_1_bn"
  top: "conv7_1_bn"
  scale_param {
    bias_term: true
  }
}
layer {
  name: "conv7_1_relu"
  type: "ReLU"
  bottom: "conv7_1_bn"
  top: "conv7_1_bn"
}
layer {
  name: "score2"
  type: "Convolution"
  bottom: "conv7_1_bn"
  top: "score2"
  param {
    lr_mult: 1
    decay_mult: 1
  }
  param {
    lr_mult: 2
    decay_mult: 0
  }
  convolution_param {
    num_output: 4
    pad: 0
    kernel_size: 1
    stride: 1
    weight_filler {
      type: "gaussian"
      std: 0.01
    }
    bias_filler {
      type: "constant"
    }
  }
}
layer {
  name: "upscore2"
  type: "Deconvolution"
  bottom: "score2"
  top: "upscore2"
  param {
    lr_mult: 1
    decay_mult: 1
  }
  convolution_param {
    num_output: 4
    bias_term: false
    pad: 0
    kernel_size: 16
    stride: 8
    weight_filler {
      type: "gaussian"
      std: 0.01
    }
  }
}
layer {
  name: "cropscore2"
  type: "Crop"
  bottom: "upscore2"
  bottom: "image"
  top: "cropscore2"
  crop_param {
    axis: 2
    offset: 8
  }
}
layer {
  name: "loss2"
  type: "SoftmaxWithLoss"
  bottom: "cropscore2"
  bottom: "label"
  top: "loss2"
  loss_weight: 1
  loss_param {
    normalize: false
  }
}
layer {
  name: "accuracy2"
  type: "Accuracy"
  bottom: "cropscore2"
  bottom: "label"
  top: "accuracy2"
}
I0920 15:12:38.955756 10960 layer_factory.hpp:77] Creating layer data
I0920 15:12:38.956260 10960 net.cpp:100] Creating Layer data
I0920 15:12:38.956269 10960 net.cpp:408] data -> image
I0920 15:12:38.956288 10960 net.cpp:408] data -> label
I0920 15:12:38.957226 10964 db_lmdb.cpp:35] Opened lmdb /raid/xuehan/segmentation128_train_split
I0920 15:12:38.957341 10960 seg_data_layer.cpp:38] 128 128 4
I0920 15:12:38.964627 10960 seg_data_layer.cpp:51] output data size: 256,3,128,128
I0920 15:12:38.964687 10960 seg_data_layer.cpp:63] output label size: 256,1,128,128
I0920 15:12:39.052289 10960 net.cpp:150] Setting up data
I0920 15:12:39.052317 10960 net.cpp:157] Top shape: 256 3 128 128 (12582912)
I0920 15:12:39.052322 10960 net.cpp:157] Top shape: 256 1 128 128 (4194304)
I0920 15:12:39.052325 10960 net.cpp:165] Memory required for data: 67108864
I0920 15:12:39.052335 10960 layer_factory.hpp:77] Creating layer image_data_0_split
I0920 15:12:39.052346 10960 net.cpp:100] Creating Layer image_data_0_split
I0920 15:12:39.052351 10960 net.cpp:434] image_data_0_split <- image
I0920 15:12:39.052362 10960 net.cpp:408] image_data_0_split -> image_data_0_split_0
I0920 15:12:39.052372 10960 net.cpp:408] image_data_0_split -> image_data_0_split_1
I0920 15:12:39.052377 10960 net.cpp:408] image_data_0_split -> image_data_0_split_2
I0920 15:12:39.052426 10960 net.cpp:150] Setting up image_data_0_split
I0920 15:12:39.052433 10960 net.cpp:157] Top shape: 256 3 128 128 (12582912)
I0920 15:12:39.052435 10960 net.cpp:157] Top shape: 256 3 128 128 (12582912)
I0920 15:12:39.052439 10960 net.cpp:157] Top shape: 256 3 128 128 (12582912)
I0920 15:12:39.052441 10960 net.cpp:165] Memory required for data: 218103808
I0920 15:12:39.052444 10960 layer_factory.hpp:77] Creating layer label_data_1_split
I0920 15:12:39.052450 10960 net.cpp:100] Creating Layer label_data_1_split
I0920 15:12:39.052453 10960 net.cpp:434] label_data_1_split <- label
I0920 15:12:39.052459 10960 net.cpp:408] label_data_1_split -> label_data_1_split_0
I0920 15:12:39.052462 10960 net.cpp:408] label_data_1_split -> label_data_1_split_1
I0920 15:12:39.052466 10960 net.cpp:408] label_data_1_split -> label_data_1_split_2
I0920 15:12:39.052471 10960 net.cpp:408] label_data_1_split -> label_data_1_split_3
I0920 15:12:39.052511 10960 net.cpp:150] Setting up label_data_1_split
I0920 15:12:39.052516 10960 net.cpp:157] Top shape: 256 1 128 128 (4194304)
I0920 15:12:39.052520 10960 net.cpp:157] Top shape: 256 1 128 128 (4194304)
I0920 15:12:39.052522 10960 net.cpp:157] Top shape: 256 1 128 128 (4194304)
I0920 15:12:39.052525 10960 net.cpp:157] Top shape: 256 1 128 128 (4194304)
I0920 15:12:39.052527 10960 net.cpp:165] Memory required for data: 285212672
I0920 15:12:39.052531 10960 layer_factory.hpp:77] Creating layer conv1_1
I0920 15:12:39.052544 10960 net.cpp:100] Creating Layer conv1_1
I0920 15:12:39.052547 10960 net.cpp:434] conv1_1 <- image_data_0_split_0
I0920 15:12:39.052553 10960 net.cpp:408] conv1_1 -> conv1_1
I0920 15:12:39.052709 10960 net.cpp:150] Setting up conv1_1
I0920 15:12:39.052716 10960 net.cpp:157] Top shape: 256 8 128 128 (33554432)
I0920 15:12:39.052718 10960 net.cpp:165] Memory required for data: 419430400
I0920 15:12:39.052728 10960 layer_factory.hpp:77] Creating layer pool1
I0920 15:12:39.052736 10960 net.cpp:100] Creating Layer pool1
I0920 15:12:39.052739 10960 net.cpp:434] pool1 <- conv1_1
I0920 15:12:39.052743 10960 net.cpp:408] pool1 -> pool1
I0920 15:12:39.052773 10960 net.cpp:150] Setting up pool1
I0920 15:12:39.052778 10960 net.cpp:157] Top shape: 256 8 64 64 (8388608)
I0920 15:12:39.052781 10960 net.cpp:165] Memory required for data: 452984832
I0920 15:12:39.052784 10960 layer_factory.hpp:77] Creating layer conv1_1_bn
I0920 15:12:39.052789 10960 net.cpp:100] Creating Layer conv1_1_bn
I0920 15:12:39.052798 10960 net.cpp:434] conv1_1_bn <- pool1
I0920 15:12:39.052810 10960 net.cpp:408] conv1_1_bn -> conv1_1_bn
I0920 15:12:39.053418 10960 net.cpp:150] Setting up conv1_1_bn
I0920 15:12:39.053428 10960 net.cpp:157] Top shape: 256 8 64 64 (8388608)
I0920 15:12:39.053431 10960 net.cpp:165] Memory required for data: 486539264
I0920 15:12:39.053442 10960 layer_factory.hpp:77] Creating layer conv1_1_bn_scale
I0920 15:12:39.053449 10960 net.cpp:100] Creating Layer conv1_1_bn_scale
I0920 15:12:39.053453 10960 net.cpp:434] conv1_1_bn_scale <- conv1_1_bn
I0920 15:12:39.053457 10960 net.cpp:395] conv1_1_bn_scale -> conv1_1_bn (in-place)
I0920 15:12:39.058848 10960 layer_factory.hpp:77] Creating layer conv1_1_bn_scale
I0920 15:12:39.058938 10960 net.cpp:150] Setting up conv1_1_bn_scale
I0920 15:12:39.058943 10960 net.cpp:157] Top shape: 256 8 64 64 (8388608)
I0920 15:12:39.058946 10960 net.cpp:165] Memory required for data: 520093696
I0920 15:12:39.058954 10960 layer_factory.hpp:77] Creating layer conv1_1_relu
I0920 15:12:39.058960 10960 net.cpp:100] Creating Layer conv1_1_relu
I0920 15:12:39.058964 10960 net.cpp:434] conv1_1_relu <- conv1_1_bn
I0920 15:12:39.058967 10960 net.cpp:395] conv1_1_relu -> conv1_1_bn (in-place)
I0920 15:12:39.058975 10960 net.cpp:150] Setting up conv1_1_relu
I0920 15:12:39.058979 10960 net.cpp:157] Top shape: 256 8 64 64 (8388608)
I0920 15:12:39.058981 10960 net.cpp:165] Memory required for data: 553648128
I0920 15:12:39.058984 10960 layer_factory.hpp:77] Creating layer conv2_1
I0920 15:12:39.058991 10960 net.cpp:100] Creating Layer conv2_1
I0920 15:12:39.058995 10960 net.cpp:434] conv2_1 <- conv1_1_bn
I0920 15:12:39.059000 10960 net.cpp:408] conv2_1 -> conv2_1
I0920 15:12:39.059141 10960 net.cpp:150] Setting up conv2_1
I0920 15:12:39.059147 10960 net.cpp:157] Top shape: 256 16 64 64 (16777216)
I0920 15:12:39.059150 10960 net.cpp:165] Memory required for data: 620756992
I0920 15:12:39.059154 10960 layer_factory.hpp:77] Creating layer pool2
I0920 15:12:39.059160 10960 net.cpp:100] Creating Layer pool2
I0920 15:12:39.059164 10960 net.cpp:434] pool2 <- conv2_1
I0920 15:12:39.059167 10960 net.cpp:408] pool2 -> pool2
I0920 15:12:39.059190 10960 net.cpp:150] Setting up pool2
I0920 15:12:39.059195 10960 net.cpp:157] Top shape: 256 16 32 32 (4194304)
I0920 15:12:39.059197 10960 net.cpp:165] Memory required for data: 637534208
I0920 15:12:39.059200 10960 layer_factory.hpp:77] Creating layer conv2_1_bn
I0920 15:12:39.059206 10960 net.cpp:100] Creating Layer conv2_1_bn
I0920 15:12:39.059207 10960 net.cpp:434] conv2_1_bn <- pool2
I0920 15:12:39.059211 10960 net.cpp:408] conv2_1_bn -> conv2_1_bn
I0920 15:12:39.059762 10960 net.cpp:150] Setting up conv2_1_bn
I0920 15:12:39.059770 10960 net.cpp:157] Top shape: 256 16 32 32 (4194304)
I0920 15:12:39.059773 10960 net.cpp:165] Memory required for data: 654311424
I0920 15:12:39.059782 10960 layer_factory.hpp:77] Creating layer conv2_1_bn_scale
I0920 15:12:39.059789 10960 net.cpp:100] Creating Layer conv2_1_bn_scale
I0920 15:12:39.059792 10960 net.cpp:434] conv2_1_bn_scale <- conv2_1_bn
I0920 15:12:39.059797 10960 net.cpp:395] conv2_1_bn_scale -> conv2_1_bn (in-place)
I0920 15:12:39.059823 10960 layer_factory.hpp:77] Creating layer conv2_1_bn_scale
I0920 15:12:39.059893 10960 net.cpp:150] Setting up conv2_1_bn_scale
I0920 15:12:39.059900 10960 net.cpp:157] Top shape: 256 16 32 32 (4194304)
I0920 15:12:39.059901 10960 net.cpp:165] Memory required for data: 671088640
I0920 15:12:39.059906 10960 layer_factory.hpp:77] Creating layer conv2_1_relu
I0920 15:12:39.059912 10960 net.cpp:100] Creating Layer conv2_1_relu
I0920 15:12:39.059916 10960 net.cpp:434] conv2_1_relu <- conv2_1_bn
I0920 15:12:39.059919 10960 net.cpp:395] conv2_1_relu -> conv2_1_bn (in-place)
I0920 15:12:39.059923 10960 net.cpp:150] Setting up conv2_1_relu
I0920 15:12:39.059927 10960 net.cpp:157] Top shape: 256 16 32 32 (4194304)
I0920 15:12:39.059929 10960 net.cpp:165] Memory required for data: 687865856
I0920 15:12:39.059932 10960 layer_factory.hpp:77] Creating layer conv3_1
I0920 15:12:39.059942 10960 net.cpp:100] Creating Layer conv3_1
I0920 15:12:39.059952 10960 net.cpp:434] conv3_1 <- conv2_1_bn
I0920 15:12:39.059962 10960 net.cpp:408] conv3_1 -> conv3_1
I0920 15:12:39.060580 10960 net.cpp:150] Setting up conv3_1
I0920 15:12:39.060588 10960 net.cpp:157] Top shape: 256 32 32 32 (8388608)
I0920 15:12:39.060591 10960 net.cpp:165] Memory required for data: 721420288
I0920 15:12:39.060595 10960 layer_factory.hpp:77] Creating layer pool3
I0920 15:12:39.060601 10960 net.cpp:100] Creating Layer pool3
I0920 15:12:39.060605 10960 net.cpp:434] pool3 <- conv3_1
I0920 15:12:39.060608 10960 net.cpp:408] pool3 -> pool3
I0920 15:12:39.060636 10960 net.cpp:150] Setting up pool3
I0920 15:12:39.060641 10960 net.cpp:157] Top shape: 256 32 16 16 (2097152)
I0920 15:12:39.060643 10960 net.cpp:165] Memory required for data: 729808896
I0920 15:12:39.060645 10960 layer_factory.hpp:77] Creating layer conv3_1_bn
I0920 15:12:39.060652 10960 net.cpp:100] Creating Layer conv3_1_bn
I0920 15:12:39.060654 10960 net.cpp:434] conv3_1_bn <- pool3
I0920 15:12:39.060659 10960 net.cpp:408] conv3_1_bn -> conv3_1_bn
I0920 15:12:39.060784 10960 net.cpp:150] Setting up conv3_1_bn
I0920 15:12:39.060791 10960 net.cpp:157] Top shape: 256 32 16 16 (2097152)
I0920 15:12:39.060792 10960 net.cpp:165] Memory required for data: 738197504
I0920 15:12:39.060798 10960 layer_factory.hpp:77] Creating layer conv3_1_bn_scale
I0920 15:12:39.060804 10960 net.cpp:100] Creating Layer conv3_1_bn_scale
I0920 15:12:39.060807 10960 net.cpp:434] conv3_1_bn_scale <- conv3_1_bn
I0920 15:12:39.060811 10960 net.cpp:395] conv3_1_bn_scale -> conv3_1_bn (in-place)
I0920 15:12:39.060835 10960 layer_factory.hpp:77] Creating layer conv3_1_bn_scale
I0920 15:12:39.060906 10960 net.cpp:150] Setting up conv3_1_bn_scale
I0920 15:12:39.060911 10960 net.cpp:157] Top shape: 256 32 16 16 (2097152)
I0920 15:12:39.060914 10960 net.cpp:165] Memory required for data: 746586112
I0920 15:12:39.060922 10960 layer_factory.hpp:77] Creating layer conv3_1_relu
I0920 15:12:39.060927 10960 net.cpp:100] Creating Layer conv3_1_relu
I0920 15:12:39.060930 10960 net.cpp:434] conv3_1_relu <- conv3_1_bn
I0920 15:12:39.060933 10960 net.cpp:395] conv3_1_relu -> conv3_1_bn (in-place)
I0920 15:12:39.060938 10960 net.cpp:150] Setting up conv3_1_relu
I0920 15:12:39.060941 10960 net.cpp:157] Top shape: 256 32 16 16 (2097152)
I0920 15:12:39.060945 10960 net.cpp:165] Memory required for data: 754974720
I0920 15:12:39.060946 10960 layer_factory.hpp:77] Creating layer conv3_1_bn_conv3_1_relu_0_split
I0920 15:12:39.060951 10960 net.cpp:100] Creating Layer conv3_1_bn_conv3_1_relu_0_split
I0920 15:12:39.060953 10960 net.cpp:434] conv3_1_bn_conv3_1_relu_0_split <- conv3_1_bn
I0920 15:12:39.060958 10960 net.cpp:408] conv3_1_bn_conv3_1_relu_0_split -> conv3_1_bn_conv3_1_relu_0_split_0
I0920 15:12:39.060963 10960 net.cpp:408] conv3_1_bn_conv3_1_relu_0_split -> conv3_1_bn_conv3_1_relu_0_split_1
I0920 15:12:39.060986 10960 net.cpp:150] Setting up conv3_1_bn_conv3_1_relu_0_split
I0920 15:12:39.060991 10960 net.cpp:157] Top shape: 256 32 16 16 (2097152)
I0920 15:12:39.060994 10960 net.cpp:157] Top shape: 256 32 16 16 (2097152)
I0920 15:12:39.060997 10960 net.cpp:165] Memory required for data: 771751936
I0920 15:12:39.060999 10960 layer_factory.hpp:77] Creating layer score1
I0920 15:12:39.061007 10960 net.cpp:100] Creating Layer score1
I0920 15:12:39.061010 10960 net.cpp:434] score1 <- conv3_1_bn_conv3_1_relu_0_split_0
I0920 15:12:39.061014 10960 net.cpp:408] score1 -> score1
I0920 15:12:39.061157 10960 net.cpp:150] Setting up score1
I0920 15:12:39.061163 10960 net.cpp:157] Top shape: 256 4 16 16 (262144)
I0920 15:12:39.061166 10960 net.cpp:165] Memory required for data: 772800512
I0920 15:12:39.061170 10960 layer_factory.hpp:77] Creating layer upscore1
I0920 15:12:39.061178 10960 net.cpp:100] Creating Layer upscore1
I0920 15:12:39.061182 10960 net.cpp:434] upscore1 <- score1
I0920 15:12:39.061185 10960 net.cpp:408] upscore1 -> upscore1
I0920 15:12:39.061388 10960 net.cpp:150] Setting up upscore1
I0920 15:12:39.061394 10960 net.cpp:157] Top shape: 256 4 136 136 (18939904)
I0920 15:12:39.061401 10960 net.cpp:165] Memory required for data: 848560128
I0920 15:12:39.061409 10960 layer_factory.hpp:77] Creating layer cropscore1
I0920 15:12:39.061415 10960 net.cpp:100] Creating Layer cropscore1
I0920 15:12:39.061419 10960 net.cpp:434] cropscore1 <- upscore1
I0920 15:12:39.061422 10960 net.cpp:434] cropscore1 <- image_data_0_split_1
I0920 15:12:39.061427 10960 net.cpp:408] cropscore1 -> cropscore1
I0920 15:12:39.061445 10960 net.cpp:150] Setting up cropscore1
I0920 15:12:39.061450 10960 net.cpp:157] Top shape: 256 4 128 128 (16777216)
I0920 15:12:39.061452 10960 net.cpp:165] Memory required for data: 915668992
I0920 15:12:39.061455 10960 layer_factory.hpp:77] Creating layer cropscore1_cropscore1_0_split
I0920 15:12:39.061460 10960 net.cpp:100] Creating Layer cropscore1_cropscore1_0_split
I0920 15:12:39.061462 10960 net.cpp:434] cropscore1_cropscore1_0_split <- cropscore1
I0920 15:12:39.061466 10960 net.cpp:408] cropscore1_cropscore1_0_split -> cropscore1_cropscore1_0_split_0
I0920 15:12:39.061470 10960 net.cpp:408] cropscore1_cropscore1_0_split -> cropscore1_cropscore1_0_split_1
I0920 15:12:39.061475 10960 net.cpp:408] cropscore1_cropscore1_0_split -> cropscore1_cropscore1_0_split_2
I0920 15:12:39.061504 10960 net.cpp:150] Setting up cropscore1_cropscore1_0_split
I0920 15:12:39.061509 10960 net.cpp:157] Top shape: 256 4 128 128 (16777216)
I0920 15:12:39.061512 10960 net.cpp:157] Top shape: 256 4 128 128 (16777216)
I0920 15:12:39.061516 10960 net.cpp:157] Top shape: 256 4 128 128 (16777216)
I0920 15:12:39.061518 10960 net.cpp:165] Memory required for data: 1116995584
I0920 15:12:39.061520 10960 layer_factory.hpp:77] Creating layer pool_score
I0920 15:12:39.061527 10960 net.cpp:100] Creating Layer pool_score
I0920 15:12:39.061529 10960 net.cpp:434] pool_score <- cropscore1_cropscore1_0_split_0
I0920 15:12:39.061533 10960 net.cpp:408] pool_score -> pool_score
I0920 15:12:39.061548 10960 net.cpp:150] Setting up pool_score
I0920 15:12:39.061553 10960 net.cpp:157] Top shape: 256 4 16 16 (262144)
I0920 15:12:39.061555 10960 net.cpp:165] Memory required for data: 1118044160
I0920 15:12:39.061558 10960 layer_factory.hpp:77] Creating layer concat
I0920 15:12:39.061570 10960 net.cpp:100] Creating Layer concat
I0920 15:12:39.061573 10960 net.cpp:434] concat <- conv3_1_bn_conv3_1_relu_0_split_1
I0920 15:12:39.061576 10960 net.cpp:434] concat <- pool_score
I0920 15:12:39.061581 10960 net.cpp:408] concat -> concat_score
I0920 15:12:39.061599 10960 net.cpp:150] Setting up concat
I0920 15:12:39.061604 10960 net.cpp:157] Top shape: 256 36 16 16 (2359296)
I0920 15:12:39.061605 10960 net.cpp:165] Memory required for data: 1127481344
I0920 15:12:39.061609 10960 layer_factory.hpp:77] Creating layer loss1
I0920 15:12:39.061615 10960 net.cpp:100] Creating Layer loss1
I0920 15:12:39.061619 10960 net.cpp:434] loss1 <- cropscore1_cropscore1_0_split_1
I0920 15:12:39.061621 10960 net.cpp:434] loss1 <- label_data_1_split_0
I0920 15:12:39.061625 10960 net.cpp:408] loss1 -> loss1
…
I0920 15:12:39.091989 10960 net.cpp:408] accuracy1 -> accuracy1
I0920 15:12:39.091998 10960 net.cpp:150] Setting up accuracy1
I0920 15:12:39.092002 10960 net.cpp:157] Top shape: (1)
I0920 15:12:39.092005 10960 net.cpp:165] Memory required for data: 1127481352
I0920 15:12:39.092008 10960 layer_factory.hpp:77] Creating layer conv5_1
I0920 15:12:39.092018 10960 net.cpp:100] Creating Layer conv5_1
I0920 15:12:39.092030 10960 net.cpp:434] conv5_1 <- concat_score
I0920 15:12:39.092044 10960 net.cpp:408] conv5_1 -> conv5_1
I0920 15:12:39.093096 10960 net.cpp:150] Setting up conv5_1
I0920 15:12:39.093107 10960 net.cpp:157] Top shape: 256 64 16 16 (4194304)
I0920 15:12:39.093111 10960 net.cpp:165] Memory required for data: 1144258568
I0920 15:12:39.093116 10960 layer_factory.hpp:77] Creating layer conv5_1_bn
I0920 15:12:39.093122 10960 net.cpp:100] Creating Layer conv5_1_bn
I0920 15:12:39.093125 10960 net.cpp:434] conv5_1_bn <- conv5_1
I0920 15:12:39.093132 10960 net.cpp:408] conv5_1_bn -> conv5_1_bn
I0920 15:12:39.093262 10960 net.cpp:150] Setting up conv5_1_bn
I0920 15:12:39.093268 10960 net.cpp:157] Top shape: 256 64 16 16 (4194304)
I0920 15:12:39.093271 10960 net.cpp:165] Memory required for data: 1161035784
I0920 15:12:39.093276 10960 layer_factory.hpp:77] Creating layer conv5_1_bn_scale
I0920 15:12:39.093282 10960 net.cpp:100] Creating Layer conv5_1_bn_scale
I0920 15:12:39.093286 10960 net.cpp:434] conv5_1_bn_scale <- conv5_1_bn
I0920 15:12:39.093289 10960 net.cpp:395] conv5_1_bn_scale -> conv5_1_bn (in-place)
I0920 15:12:39.093317 10960 layer_factory.hpp:77] Creating layer conv5_1_bn_scale
I0920 15:12:39.093389 10960 net.cpp:150] Setting up conv5_1_bn_scale
I0920 15:12:39.093394 10960 net.cpp:157] Top shape: 256 64 16 16 (4194304)
I0920 15:12:39.093396 10960 net.cpp:165] Memory required for data: 1177813000
I0920 15:12:39.093401 10960 layer_factory.hpp:77] Creating layer conv5_1_relu
I0920 15:12:39.093408 10960 net.cpp:100] Creating Layer conv5_1_relu
I0920 15:12:39.093411 10960 net.cpp:434] conv5_1_relu <- conv5_1_bn
I0920 15:12:39.093415 10960 net.cpp:395] conv5_1_relu -> conv5_1_bn (in-place)
I0920 15:12:39.093420 10960 net.cpp:150] Setting up conv5_1_relu
I0920 15:12:39.093423 10960 net.cpp:157] Top shape: 256 64 16 16 (4194304)
I0920 15:12:39.093425 10960 net.cpp:165] Memory required for data: 1194590216
I0920 15:12:39.093428 10960 layer_factory.hpp:77] Creating layer conv6_1
I0920 15:12:39.093436 10960 net.cpp:100] Creating Layer conv6_1
I0920 15:12:39.093438 10960 net.cpp:434] conv6_1 <- conv5_1_bn
I0920 15:12:39.093443 10960 net.cpp:408] conv6_1 -> conv6_1
I0920 15:12:39.094341 10960 net.cpp:150] Setting up conv6_1
I0920 15:12:39.094347 10960 net.cpp:157] Top shape: 256 64 16 16 (4194304)
I0920 15:12:39.094349 10960 net.cpp:165] Memory required for data: 1211367432
I0920 15:12:39.094353 10960 layer_factory.hpp:77] Creating layer conv6_1_bn
I0920 15:12:39.094362 10960 net.cpp:100] Creating Layer conv6_1_bn
I0920 15:12:39.094372 10960 net.cpp:434] conv6_1_bn <- conv6_1
I0920 15:12:39.094377 10960 net.cpp:408] conv6_1_bn -> conv6_1_bn
I0920 15:12:39.094501 10960 net.cpp:150] Setting up conv6_1_bn
I0920 15:12:39.094506 10960 net.cpp:157] Top shape: 256 64 16 16 (4194304)
I0920 15:12:39.094508 10960 net.cpp:165] Memory required for data: 1228144648
I0920 15:12:39.094514 10960 layer_factory.hpp:77] Creating layer conv6_1_bn_scale
I0920 15:12:39.094519 10960 net.cpp:100] Creating Layer conv6_1_bn_scale
I0920 15:12:39.094522 10960 net.cpp:434] conv6_1_bn_scale <- conv6_1_bn
I0920 15:12:39.094527 10960 net.cpp:395] conv6_1_bn_scale -> conv6_1_bn (in-place)
I0920 15:12:39.094549 10960 layer_factory.hpp:77] Creating layer conv6_1_bn_scale
I0920 15:12:39.094620 10960 net.cpp:150] Setting up conv6_1_bn_scale
I0920 15:12:39.094626 10960 net.cpp:157] Top shape: 256 64 16 16 (4194304)
I0920 15:12:39.094630 10960 net.cpp:165] Memory required for data: 1244921864
I0920 15:12:39.094638 10960 layer_factory.hpp:77] Creating layer conv6_1_relu
I0920 15:12:39.094643 10960 net.cpp:100] Creating Layer conv6_1_relu
I0920 15:12:39.094646 10960 net.cpp:434] conv6_1_relu <- conv6_1_bn
I0920 15:12:39.094650 10960 net.cpp:395] conv6_1_relu -> conv6_1_bn (in-place)
I0920 15:12:39.094655 10960 net.cpp:150] Setting up conv6_1_relu
I0920 15:12:39.094658 10960 net.cpp:157] Top shape: 256 64 16 16 (4194304)
I0920 15:12:39.094660 10960 net.cpp:165] Memory required for data: 1261699080
I0920 15:12:39.094663 10960 layer_factory.hpp:77] Creating layer conv7_1
I0920 15:12:39.094676 10960 net.cpp:100] Creating Layer conv7_1
I0920 15:12:39.094686 10960 net.cpp:434] conv7_1 <- conv6_1_bn
I0920 15:12:39.094691 10960 net.cpp:408] conv7_1 -> conv7_1
I0920 15:12:39.096779 10960 net.cpp:150] Setting up conv7_1
I0920 15:12:39.096789 10960 net.cpp:157] Top shape: 256 128 16 16 (8388608)
I0920 15:12:39.096792 10960 net.cpp:165] Memory required for data: 1295253512
I0920 15:12:39.096796 10960 layer_factory.hpp:77] Creating layer conv7_1_bn
I0920 15:12:39.096802 10960 net.cpp:100] Creating Layer conv7_1_bn
I0920 15:12:39.096806 10960 net.cpp:434] conv7_1_bn <- conv7_1
I0920 15:12:39.096810 10960 net.cpp:408] conv7_1_bn -> conv7_1_bn
I0920 15:12:39.096931 10960 net.cpp:150] Setting up conv7_1_bn
I0920 15:12:39.096937 10960 net.cpp:157] Top shape: 256 128 16 16 (8388608)
I0920 15:12:39.096940 10960 net.cpp:165] Memory required for data: 1328807944
I0920 15:12:39.096946 10960 layer_factory.hpp:77] Creating layer conv7_1_bn_scale
I0920 15:12:39.096951 10960 net.cpp:100] Creating Layer conv7_1_bn_scale
I0920 15:12:39.096953 10960 net.cpp:434] conv7_1_bn_scale <- conv7_1_bn
I0920 15:12:39.096957 10960 net.cpp:395] conv7_1_bn_scale -> conv7_1_bn (in-place)
I0920 15:12:39.096979 10960 layer_factory.hpp:77] Creating layer conv7_1_bn_scale
I0920 15:12:39.097048 10960 net.cpp:150] Setting up conv7_1_bn_scale
I0920 15:12:39.097053 10960 net.cpp:157] Top shape: 256 128 16 16 (8388608)
I0920 15:12:39.097055 10960 net.cpp:165] Memory required for data: 1362362376
I0920 15:12:39.097059 10960 layer_factory.hpp:77] Creating layer conv7_1_relu
I0920 15:12:39.097067 10960 net.cpp:100] Creating Layer conv7_1_relu
I0920 15:12:39.097070 10960 net.cpp:434] conv7_1_relu <- conv7_1_bn
I0920 15:12:39.097074 10960 net.cpp:395] conv7_1_relu -> conv7_1_bn (in-place)
I0920 15:12:39.097079 10960 net.cpp:150] Setting up conv7_1_relu
I0920 15:12:39.097082 10960 net.cpp:157] Top shape: 256 128 16 16 (8388608)
I0920 15:12:39.097084 10960 net.cpp:165] Memory required for data: 1395916808
I0920 15:12:39.097087 10960 layer_factory.hpp:77] Creating layer score2
I0920 15:12:39.097095 10960 net.cpp:100] Creating Layer score2
I0920 15:12:39.097098 10960 net.cpp:434] score2 <- conv7_1_bn
I0920 15:12:39.097103 10960 net.cpp:408] score2 -> score2
I0920 15:12:39.097259 10960 net.cpp:150] Setting up score2
I0920 15:12:39.097265 10960 net.cpp:157] Top shape: 256 4 16 16 (262144)
I0920 15:12:39.097268 10960 net.cpp:165] Memory required for data: 1396965384
I0920 15:12:39.097273 10960 layer_factory.hpp:77] Creating layer upscore2
I0920 15:12:39.097280 10960 net.cpp:100] Creating Layer upscore2
I0920 15:12:39.097282 10960 net.cpp:434] upscore2 <- score2
I0920 15:12:39.097287 10960 net.cpp:408] upscore2 -> upscore2
I0920 15:12:39.097491 10960 net.cpp:150] Setting up upscore2
I0920 15:12:39.097497 10960 net.cpp:157] Top shape: 256 4 136 136 (18939904)
I0920 15:12:39.097499 10960 net.cpp:165] Memory required for data: 1472725000
I0920 15:12:39.097503 10960 layer_factory.hpp:77] Creating layer cropscore2
I0920 15:12:39.097508 10960 net.cpp:100] Creating Layer cropscore2
I0920 15:12:39.097512 10960 net.cpp:434] cropscore2 <- upscore2
I0920 15:12:39.097515 10960 net.cpp:434] cropscore2 <- image_data_0_split_2
I0920 15:12:39.097520 10960 net.cpp:408] cropscore2 -> cropscore2
I0920 15:12:39.097535 10960 net.cpp:150] Setting up cropscore2
I0920 15:12:39.097540 10960 net.cpp:157] Top shape: 256 4 128 128 (16777216)
I0920 15:12:39.097543 10960 net.cpp:165] Memory required for data: 1539833864
I0920 15:12:39.097545 10960 layer_factory.hpp:77] Creating layer cropscore2_cropscore2_0_split
I0920 15:12:39.097550 10960 net.cpp:100] Creating Layer cropscore2_cropscore2_0_split
I0920 15:12:39.097553 10960 net.cpp:434] cropscore2_cropscore2_0_split <- cropscore2
I0920 15:12:39.097556 10960 net.cpp:408] cropscore2_cropscore2_0_split -> cropscore2_cropscore2_0_split_0
I0920 15:12:39.097561 10960 net.cpp:408] cropscore2_cropscore2_0_split -> cropscore2_cropscore2_0_split_1
I0920 15:12:39.097584 10960 net.cpp:150] Setting up cropscore2_cropscore2_0_split
I0920 15:12:39.097591 10960 net.cpp:157] Top shape: 256 4 128 128 (16777216)
I0920 15:12:39.097599 10960 net.cpp:157] Top shape: 256 4 128 128 (16777216)
I0920 15:12:39.097601 10960 net.cpp:165] Memory required for data: 1674051592
I0920 15:12:39.097604 10960 layer_factory.hpp:77] Creating layer loss2
I0920 15:12:39.097610 10960 net.cpp:100] Creating Layer loss2
I0920 15:12:39.097614 10960 net.cpp:434] loss2 <- cropscore2_cropscore2_0_split_0
I0920 15:12:39.097617 10960 net.cpp:434] loss2 <- label_data_1_split_2
I0920 15:12:39.097620 10960 net.cpp:408] loss2 -> loss2
…
