…
I0823 17:41:14.313442 15833 solver.cpp:91] Creating training net from net file: portrait_train_test_one_stage.prototxt2
I0823 17:41:14.314005 15833 net.cpp:322] The NetState phase (0) differed from the phase (1) specified by a rule in layer data
I0823 17:41:14.314165 15833 net.cpp:58] Initializing net from parameters: 
name: "segmentation"
state {
  phase: TRAIN
  level: 0
  stage: ""
}
layer {
  name: "data"
  type: "SegData"
  top: "image"
  top: "label"
  include {
    phase: TRAIN
  }
  transform_param {
    mirror: true
    crop_size: 200
  }
  data_param {
    source: "/raid/xuehan/segmentation_train_split"
    batch_size: 128
    backend: LMDB
  }
}
layer {
  name: "conv1_1"
  type: "Convolution"
  bottom: "image"
  top: "conv1_1"
  param {
    lr_mult: 1
    decay_mult: 1
  }
  convolution_param {
    num_output: 8
    bias_term: false
    pad: 50
    kernel_size: 3
    stride: 1
    weight_filler {
      type: "gaussian"
      std: 0.01
    }
  }
}
layer {
  name: "conv1_1_bn"
  type: "BatchNorm"
  bottom: "conv1_1"
  top: "conv1_1_bn"
  param {
    lr_mult: 0
  }
  param {
    lr_mult: 0
  }
  param {
    lr_mult: 0
  }
}
layer {
  name: "conv1_1_bn_scale"
  type: "Scale"
  bottom: "conv1_1_bn"
  top: "conv1_1_bn"
  scale_param {
    bias_term: true
  }
}
layer {
  name: "conv1_1_relu"
  type: "ReLU"
  bottom: "conv1_1_bn"
  top: "conv1_1_bn"
}
layer {
  name: "pool1"
  type: "Pooling"
  bottom: "conv1_1_bn"
  top: "pool1"
  pooling_param {
    pool: MAX
    kernel_size: 2
    stride: 2
  }
}
layer {
  name: "conv2_1"
  type: "Convolution"
  bottom: "pool1"
  top: "conv2_1"
  param {
    lr_mult: 1
    decay_mult: 1
  }
  convolution_param {
    num_output: 16
    bias_term: false
    pad: 1
    kernel_size: 3
    stride: 1
    weight_filler {
      type: "gaussian"
      std: 0.01
    }
  }
}
layer {
  name: "conv2_1_bn"
  type: "BatchNorm"
  bottom: "conv2_1"
  top: "conv2_1_bn"
  param {
    lr_mult: 0
  }
  param {
    lr_mult: 0
  }
  param {
    lr_mult: 0
  }
}
layer {
  name: "conv2_1_bn_scale"
  type: "Scale"
  bottom: "conv2_1_bn"
  top: "conv2_1_bn"
  scale_param {
    bias_term: true
  }
}
layer {
  name: "conv2_1_relu"
  type: "ReLU"
  bottom: "conv2_1_bn"
  top: "conv2_1_bn"
}
layer {
  name: "pool2"
  type: "Pooling"
  bottom: "conv2_1_bn"
  top: "pool2"
  pooling_param {
    pool: MAX
    kernel_size: 2
    stride: 2
  }
}
layer {
  name: "conv3_1"
  type: "Convolution"
  bottom: "pool2"
  top: "conv3_1"
  param {
    lr_mult: 1
    decay_mult: 1
  }
  convolution_param {
    num_output: 32
    bias_term: false
    pad: 1
    kernel_size: 3
    stride: 1
    weight_filler {
      type: "gaussian"
      std: 0.01
    }
  }
}
layer {
  name: "conv3_1_bn"
  type: "BatchNorm"
  bottom: "conv3_1"
  top: "conv3_1_bn"
  param {
    lr_mult: 0
  }
  param {
    lr_mult: 0
  }
  param {
    lr_mult: 0
  }
}
layer {
  name: "conv3_1_bn_scale"
  type: "Scale"
  bottom: "conv3_1_bn"
  top: "conv3_1_bn"
  scale_param {
    bias_term: true
  }
}
layer {
  name: "conv3_1_relu"
  type: "ReLU"
  bottom: "conv3_1_bn"
  top: "conv3_1_bn"
}
layer {
  name: "pool3"
  type: "Pooling"
  bottom: "conv3_1_bn"
  top: "pool3"
  pooling_param {
    pool: MAX
    kernel_size: 2
    stride: 2
  }
}
layer {
  name: "conv4_1"
  type: "Convolution"
  bottom: "pool3"
  top: "conv4_1"
  param {
    lr_mult: 1
    decay_mult: 1
  }
  convolution_param {
    num_output: 64
    bias_term: false
    pad: 1
    kernel_size: 3
    stride: 1
    weight_filler {
      type: "gaussian"
      std: 0.01
    }
  }
}
layer {
  name: "conv4_1_bn"
  type: "BatchNorm"
  bottom: "conv4_1"
  top: "conv4_1_bn"
  param {
    lr_mult: 0
  }
  param {
    lr_mult: 0
  }
  param {
    lr_mult: 0
  }
}
layer {
  name: "conv4_1_bn_scale"
  type: "Scale"
  bottom: "conv4_1_bn"
  top: "conv4_1_bn"
  scale_param {
    bias_term: true
  }
}
layer {
  name: "conv4_1_relu"
  type: "ReLU"
  bottom: "conv4_1_bn"
  top: "conv4_1_bn"
}
layer {
  name: "pool4"
  type: "Pooling"
  bottom: "conv4_1_bn"
  top: "pool4"
  pooling_param {
    pool: MAX
    kernel_size: 2
    stride: 2
  }
}
layer {
  name: "conv5_1"
  type: "Convolution"
  bottom: "pool4"
  top: "conv5_1"
  param {
    lr_mult: 1
    decay_mult: 1
  }
  convolution_param {
    num_output: 64
    bias_term: false
    pad: 0
    kernel_size: 3
    stride: 1
    weight_filler {
      type: "gaussian"
      std: 0.01
    }
  }
}
layer {
  name: "conv5_1_bn"
  type: "BatchNorm"
  bottom: "conv5_1"
  top: "conv5_1_bn"
  param {
    lr_mult: 0
  }
  param {
    lr_mult: 0
  }
  param {
    lr_mult: 0
  }
}
layer {
  name: "conv5_1_bn_scale"
  type: "Scale"
  bottom: "conv5_1_bn"
  top: "conv5_1_bn"
  scale_param {
    bias_term: true
  }
}
layer {
  name: "conv5_1_relu"
  type: "ReLU"
  bottom: "conv5_1_bn"
  top: "conv5_1_bn"
}
layer {
  name: "conv6_1"
  type: "Convolution"
  bottom: "conv5_1_bn"
  top: "conv6_1"
  param {
    lr_mult: 1
    decay_mult: 1
  }
  convolution_param {
    num_output: 64
    bias_term: false
    pad: 0
    kernel_size: 3
    stride: 1
    weight_filler {
      type: "gaussian"
      std: 0.01
    }
  }
}
layer {
  name: "conv6_1_bn"
  type: "BatchNorm"
  bottom: "conv6_1"
  top: "conv6_1_bn"
  param {
    lr_mult: 0
  }
  param {
    lr_mult: 0
  }
  param {
    lr_mult: 0
  }
}
layer {
  name: "conv6_1_bn_scale"
  type: "Scale"
  bottom: "conv6_1_bn"
  top: "conv6_1_bn"
  scale_param {
    bias_term: true
  }
}
layer {
  name: "conv6_1_relu"
  type: "ReLU"
  bottom: "conv6_1_bn"
  top: "conv6_1_bn"
}
layer {
  name: "conv7_1"
  type: "Convolution"
  bottom: "conv6_1_bn"
  top: "conv7_1"
  param {
    lr_mult: 1
    decay_mult: 1
  }
  convolution_param {
    num_output: 128
    bias_term: false
    pad: 0
    kernel_size: 3
    stride: 1
    weight_filler {
      type: "gaussian"
      std: 0.01
    }
  }
}
layer {
  name: "conv7_1_bn"
  type: "BatchNorm"
  bottom: "conv7_1"
  top: "conv7_1_bn"
  param {
    lr_mult: 0
  }
  param {
    lr_mult: 0
  }
  param {
    lr_mult: 0
  }
}
layer {
  name: "conv7_1_bn_scale"
  type: "Scale"
  bottom: "conv7_1_bn"
  top: "conv7_1_bn"
  scale_param {
    bias_term: true
  }
}
layer {
  name: "conv7_1_relu"
  type: "ReLU"
  bottom: "conv7_1_bn"
  top: "conv7_1_bn"
}
layer {
  name: "score"
  type: "Convolution"
  bottom: "conv7_1_bn"
  top: "score"
  param {
    lr_mult: 1
    decay_mult: 1
  }
  param {
    lr_mult: 2
    decay_mult: 0
  }
  convolution_param {
    num_output: 4
    pad: 0
    kernel_size: 1
    stride: 1
    weight_filler {
      type: "gaussian"
      std: 0.01
    }
    bias_filler {
      type: "constant"
    }
  }
}
layer {
  name: "upscore"
  type: "Deconvolution"
  bottom: "score"
  top: "upscore"
  param {
    lr_mult: 1
    decay_mult: 1
  }
  convolution_param {
    num_output: 4
    bias_term: false
    pad: 0
    kernel_size: 32
    stride: 16
    weight_filler {
      type: "gaussian"
      std: 0.01
    }
  }
}
layer {
  name: "cropscore"
  type: "Crop"
  bottom: "upscore"
  bottom: "image"
  top: "cropscore"
  crop_param {
    axis: 2
    offset: 12
  }
}
layer {
  name: "loss"
  type: "SoftmaxWithLoss"
  bottom: "cropscore"
  bottom: "label"
  top: "loss"
  loss_weight: 1
  loss_param {
    normalize: false
  }
}
layer {
  name: "accuracy"
  type: "Accuracy"
  bottom: "cropscore"
  bottom: "label"
  top: "accuracy"
}
I0823 17:41:14.314311 15833 layer_factory.hpp:77] Creating layer data
I0823 17:41:14.314756 15833 net.cpp:100] Creating Layer data
I0823 17:41:14.314766 15833 net.cpp:408] data -> image
I0823 17:41:14.314795 15833 net.cpp:408] data -> label
I0823 17:41:14.315749 15839 db_lmdb.cpp:35] Opened lmdb /raid/xuehan/segmentation_train_split
I0823 17:41:14.315943 15833 seg_data_layer.cpp:38] 200 200 4
I0823 17:41:14.324391 15833 seg_data_layer.cpp:51] output data size: 128,3,200,200
I0823 17:41:14.324467 15833 seg_data_layer.cpp:63] output label size: 128,1,200,200
I0823 17:41:14.440307 15833 net.cpp:150] Setting up data
I0823 17:41:14.440336 15833 net.cpp:157] Top shape: 128 3 200 200 (15360000)
I0823 17:41:14.440341 15833 net.cpp:157] Top shape: 128 1 200 200 (5120000)
I0823 17:41:14.440343 15833 net.cpp:165] Memory required for data: 81920000
I0823 17:41:14.440353 15833 layer_factory.hpp:77] Creating layer image_data_0_split
I0823 17:41:14.440368 15833 net.cpp:100] Creating Layer image_data_0_split
I0823 17:41:14.440372 15833 net.cpp:434] image_data_0_split <- image
I0823 17:41:14.440383 15833 net.cpp:408] image_data_0_split -> image_data_0_split_0
I0823 17:41:14.440392 15833 net.cpp:408] image_data_0_split -> image_data_0_split_1
I0823 17:41:14.440433 15833 net.cpp:150] Setting up image_data_0_split
I0823 17:41:14.440439 15833 net.cpp:157] Top shape: 128 3 200 200 (15360000)
I0823 17:41:14.440443 15833 net.cpp:157] Top shape: 128 3 200 200 (15360000)
I0823 17:41:14.440445 15833 net.cpp:165] Memory required for data: 204800000
I0823 17:41:14.440448 15833 layer_factory.hpp:77] Creating layer label_data_1_split
I0823 17:41:14.440453 15833 net.cpp:100] Creating Layer label_data_1_split
I0823 17:41:14.440455 15833 net.cpp:434] label_data_1_split <- label
I0823 17:41:14.440460 15833 net.cpp:408] label_data_1_split -> label_data_1_split_0
I0823 17:41:14.440464 15833 net.cpp:408] label_data_1_split -> label_data_1_split_1
I0823 17:41:14.440486 15833 net.cpp:150] Setting up label_data_1_split
I0823 17:41:14.440491 15833 net.cpp:157] Top shape: 128 1 200 200 (5120000)
I0823 17:41:14.440495 15833 net.cpp:157] Top shape: 128 1 200 200 (5120000)
I0823 17:41:14.440497 15833 net.cpp:165] Memory required for data: 245760000
I0823 17:41:14.440500 15833 layer_factory.hpp:77] Creating layer conv1_1
I0823 17:41:14.440512 15833 net.cpp:100] Creating Layer conv1_1
I0823 17:41:14.440515 15833 net.cpp:434] conv1_1 <- image_data_0_split_0
I0823 17:41:14.440521 15833 net.cpp:408] conv1_1 -> conv1_1
I0823 17:41:14.440670 15833 net.cpp:150] Setting up conv1_1
I0823 17:41:14.440675 15833 net.cpp:157] Top shape: 128 8 298 298 (90935296)
I0823 17:41:14.440678 15833 net.cpp:165] Memory required for data: 609501184
I0823 17:41:14.440688 15833 layer_factory.hpp:77] Creating layer conv1_1_bn
I0823 17:41:14.440696 15833 net.cpp:100] Creating Layer conv1_1_bn
I0823 17:41:14.440698 15833 net.cpp:434] conv1_1_bn <- conv1_1
I0823 17:41:14.440702 15833 net.cpp:408] conv1_1_bn -> conv1_1_bn
I0823 17:41:14.441243 15833 net.cpp:150] Setting up conv1_1_bn
I0823 17:41:14.441253 15833 net.cpp:157] Top shape: 128 8 298 298 (90935296)
I0823 17:41:14.441256 15833 net.cpp:165] Memory required for data: 973242368
I0823 17:41:14.441265 15833 layer_factory.hpp:77] Creating layer conv1_1_bn_scale
I0823 17:41:14.441275 15833 net.cpp:100] Creating Layer conv1_1_bn_scale
I0823 17:41:14.441279 15833 net.cpp:434] conv1_1_bn_scale <- conv1_1_bn
I0823 17:41:14.441283 15833 net.cpp:395] conv1_1_bn_scale -> conv1_1_bn (in-place)
I0823 17:41:14.441311 15833 layer_factory.hpp:77] Creating layer conv1_1_bn_scale
I0823 17:41:14.441871 15833 net.cpp:150] Setting up conv1_1_bn_scale
I0823 17:41:14.441882 15833 net.cpp:157] Top shape: 128 8 298 298 (90935296)
I0823 17:41:14.441885 15833 net.cpp:165] Memory required for data: 1336983552
I0823 17:41:14.441893 15833 layer_factory.hpp:77] Creating layer conv1_1_relu
I0823 17:41:14.441900 15833 net.cpp:100] Creating Layer conv1_1_relu
I0823 17:41:14.441905 15833 net.cpp:434] conv1_1_relu <- conv1_1_bn
I0823 17:41:14.441908 15833 net.cpp:395] conv1_1_relu -> conv1_1_bn (in-place)
I0823 17:41:14.441915 15833 net.cpp:150] Setting up conv1_1_relu
I0823 17:41:14.441918 15833 net.cpp:157] Top shape: 128 8 298 298 (90935296)
I0823 17:41:14.441920 15833 net.cpp:165] Memory required for data: 1700724736
I0823 17:41:14.441923 15833 layer_factory.hpp:77] Creating layer pool1
I0823 17:41:14.441936 15833 net.cpp:100] Creating Layer pool1
I0823 17:41:14.441946 15833 net.cpp:434] pool1 <- conv1_1_bn
I0823 17:41:14.441951 15833 net.cpp:408] pool1 -> pool1
I0823 17:41:14.448492 15833 net.cpp:150] Setting up pool1
I0823 17:41:14.448500 15833 net.cpp:157] Top shape: 128 8 149 149 (22733824)
I0823 17:41:14.448503 15833 net.cpp:165] Memory required for data: 1791660032
I0823 17:41:14.448506 15833 layer_factory.hpp:77] Creating layer conv2_1
I0823 17:41:14.448516 15833 net.cpp:100] Creating Layer conv2_1
I0823 17:41:14.448519 15833 net.cpp:434] conv2_1 <- pool1
I0823 17:41:14.448524 15833 net.cpp:408] conv2_1 -> conv2_1
I0823 17:41:14.449046 15833 net.cpp:150] Setting up conv2_1
I0823 17:41:14.449055 15833 net.cpp:157] Top shape: 128 16 149 149 (45467648)
I0823 17:41:14.449059 15833 net.cpp:165] Memory required for data: 1973530624
I0823 17:41:14.449062 15833 layer_factory.hpp:77] Creating layer conv2_1_bn
I0823 17:41:14.449069 15833 net.cpp:100] Creating Layer conv2_1_bn
I0823 17:41:14.449071 15833 net.cpp:434] conv2_1_bn <- conv2_1
I0823 17:41:14.449075 15833 net.cpp:408] conv2_1_bn -> conv2_1_bn
I0823 17:41:14.449604 15833 net.cpp:150] Setting up conv2_1_bn
I0823 17:41:14.449612 15833 net.cpp:157] Top shape: 128 16 149 149 (45467648)
I0823 17:41:14.449615 15833 net.cpp:165] Memory required for data: 2155401216
I0823 17:41:14.449625 15833 layer_factory.hpp:77] Creating layer conv2_1_bn_scale
I0823 17:41:14.449631 15833 net.cpp:100] Creating Layer conv2_1_bn_scale
I0823 17:41:14.449633 15833 net.cpp:434] conv2_1_bn_scale <- conv2_1_bn
I0823 17:41:14.449638 15833 net.cpp:395] conv2_1_bn_scale -> conv2_1_bn (in-place)
I0823 17:41:14.449663 15833 layer_factory.hpp:77] Creating layer conv2_1_bn_scale
I0823 17:41:14.449770 15833 net.cpp:150] Setting up conv2_1_bn_scale
I0823 17:41:14.449779 15833 net.cpp:157] Top shape: 128 16 149 149 (45467648)
I0823 17:41:14.449781 15833 net.cpp:165] Memory required for data: 2337271808
I0823 17:41:14.449786 15833 layer_factory.hpp:77] Creating layer conv2_1_relu
I0823 17:41:14.449791 15833 net.cpp:100] Creating Layer conv2_1_relu
I0823 17:41:14.449795 15833 net.cpp:434] conv2_1_relu <- conv2_1_bn
I0823 17:41:14.449800 15833 net.cpp:395] conv2_1_relu -> conv2_1_bn (in-place)
I0823 17:41:14.449805 15833 net.cpp:150] Setting up conv2_1_relu
I0823 17:41:14.449810 15833 net.cpp:157] Top shape: 128 16 149 149 (45467648)
I0823 17:41:14.449811 15833 net.cpp:165] Memory required for data: 2519142400
I0823 17:41:14.449815 15833 layer_factory.hpp:77] Creating layer pool2
I0823 17:41:14.449818 15833 net.cpp:100] Creating Layer pool2
I0823 17:41:14.449821 15833 net.cpp:434] pool2 <- conv2_1_bn
I0823 17:41:14.449826 15833 net.cpp:408] pool2 -> pool2
I0823 17:41:14.449851 15833 net.cpp:150] Setting up pool2
I0823 17:41:14.449856 15833 net.cpp:157] Top shape: 128 16 75 75 (11520000)
I0823 17:41:14.449858 15833 net.cpp:165] Memory required for data: 2565222400
I0823 17:41:14.449862 15833 layer_factory.hpp:77] Creating layer conv3_1
I0823 17:41:14.449868 15833 net.cpp:100] Creating Layer conv3_1
I0823 17:41:14.449872 15833 net.cpp:434] conv3_1 <- pool2
I0823 17:41:14.449875 15833 net.cpp:408] conv3_1 -> conv3_1
I0823 17:41:14.450520 15833 net.cpp:150] Setting up conv3_1
I0823 17:41:14.450530 15833 net.cpp:157] Top shape: 128 32 75 75 (23040000)
I0823 17:41:14.450532 15833 net.cpp:165] Memory required for data: 2657382400
I0823 17:41:14.450536 15833 layer_factory.hpp:77] Creating layer conv3_1_bn
I0823 17:41:14.450543 15833 net.cpp:100] Creating Layer conv3_1_bn
I0823 17:41:14.450546 15833 net.cpp:434] conv3_1_bn <- conv3_1
I0823 17:41:14.450551 15833 net.cpp:408] conv3_1_bn -> conv3_1_bn
I0823 17:41:14.450675 15833 net.cpp:150] Setting up conv3_1_bn
I0823 17:41:14.450680 15833 net.cpp:157] Top shape: 128 32 75 75 (23040000)
I0823 17:41:14.450682 15833 net.cpp:165] Memory required for data: 2749542400
I0823 17:41:14.450687 15833 layer_factory.hpp:77] Creating layer conv3_1_bn_scale
I0823 17:41:14.450692 15833 net.cpp:100] Creating Layer conv3_1_bn_scale
I0823 17:41:14.450695 15833 net.cpp:434] conv3_1_bn_scale <- conv3_1_bn
I0823 17:41:14.450709 15833 net.cpp:395] conv3_1_bn_scale -> conv3_1_bn (in-place)
I0823 17:41:14.450736 15833 layer_factory.hpp:77] Creating layer conv3_1_bn_scale
I0823 17:41:14.450812 15833 net.cpp:150] Setting up conv3_1_bn_scale
I0823 17:41:14.450817 15833 net.cpp:157] Top shape: 128 32 75 75 (23040000)
I0823 17:41:14.450820 15833 net.cpp:165] Memory required for data: 2841702400
I0823 17:41:14.450829 15833 layer_factory.hpp:77] Creating layer conv3_1_relu
I0823 17:41:14.450835 15833 net.cpp:100] Creating Layer conv3_1_relu
I0823 17:41:14.450839 15833 net.cpp:434] conv3_1_relu <- conv3_1_bn
I0823 17:41:14.450842 15833 net.cpp:395] conv3_1_relu -> conv3_1_bn (in-place)
I0823 17:41:14.450846 15833 net.cpp:150] Setting up conv3_1_relu
I0823 17:41:14.450850 15833 net.cpp:157] Top shape: 128 32 75 75 (23040000)
I0823 17:41:14.450852 15833 net.cpp:165] Memory required for data: 2933862400
I0823 17:41:14.450855 15833 layer_factory.hpp:77] Creating layer pool3
I0823 17:41:14.450861 15833 net.cpp:100] Creating Layer pool3
I0823 17:41:14.450863 15833 net.cpp:434] pool3 <- conv3_1_bn
I0823 17:41:14.450867 15833 net.cpp:408] pool3 -> pool3
I0823 17:41:14.450894 15833 net.cpp:150] Setting up pool3
I0823 17:41:14.450899 15833 net.cpp:157] Top shape: 128 32 38 38 (5914624)
I0823 17:41:14.450901 15833 net.cpp:165] Memory required for data: 2957520896
I0823 17:41:14.450904 15833 layer_factory.hpp:77] Creating layer conv4_1
I0823 17:41:14.450911 15833 net.cpp:100] Creating Layer conv4_1
I0823 17:41:14.450913 15833 net.cpp:434] conv4_1 <- pool3
I0823 17:41:14.450917 15833 net.cpp:408] conv4_1 -> conv4_1
I0823 17:41:14.451442 15833 net.cpp:150] Setting up conv4_1
I0823 17:41:14.451448 15833 net.cpp:157] Top shape: 128 64 38 38 (11829248)
I0823 17:41:14.451450 15833 net.cpp:165] Memory required for data: 3004837888
I0823 17:41:14.451454 15833 layer_factory.hpp:77] Creating layer conv4_1_bn
I0823 17:41:14.451462 15833 net.cpp:100] Creating Layer conv4_1_bn
I0823 17:41:14.451464 15833 net.cpp:434] conv4_1_bn <- conv4_1
I0823 17:41:14.451468 15833 net.cpp:408] conv4_1_bn -> conv4_1_bn
I0823 17:41:14.451596 15833 net.cpp:150] Setting up conv4_1_bn
I0823 17:41:14.451601 15833 net.cpp:157] Top shape: 128 64 38 38 (11829248)
I0823 17:41:14.451604 15833 net.cpp:165] Memory required for data: 3052154880
I0823 17:41:14.451611 15833 layer_factory.hpp:77] Creating layer conv4_1_bn_scale
I0823 17:41:14.451614 15833 net.cpp:100] Creating Layer conv4_1_bn_scale
I0823 17:41:14.451617 15833 net.cpp:434] conv4_1_bn_scale <- conv4_1_bn
I0823 17:41:14.451620 15833 net.cpp:395] conv4_1_bn_scale -> conv4_1_bn (in-place)
I0823 17:41:14.451644 15833 layer_factory.hpp:77] Creating layer conv4_1_bn_scale
I0823 17:41:14.451719 15833 net.cpp:150] Setting up conv4_1_bn_scale
I0823 17:41:14.451725 15833 net.cpp:157] Top shape: 128 64 38 38 (11829248)
I0823 17:41:14.451727 15833 net.cpp:165] Memory required for data: 3099471872
I0823 17:41:14.451731 15833 layer_factory.hpp:77] Creating layer conv4_1_relu
I0823 17:41:14.451736 15833 net.cpp:100] Creating Layer conv4_1_relu
I0823 17:41:14.451738 15833 net.cpp:434] conv4_1_relu <- conv4_1_bn
I0823 17:41:14.451742 15833 net.cpp:395] conv4_1_relu -> conv4_1_bn (in-place)
I0823 17:41:14.451746 15833 net.cpp:150] Setting up conv4_1_relu
I0823 17:41:14.451750 15833 net.cpp:157] Top shape: 128 64 38 38 (11829248)
I0823 17:41:14.451752 15833 net.cpp:165] Memory required for data: 3146788864
I0823 17:41:14.451755 15833 layer_factory.hpp:77] Creating layer pool4
I0823 17:41:14.451761 15833 net.cpp:100] Creating Layer pool4
I0823 17:41:14.451764 15833 net.cpp:434] pool4 <- conv4_1_bn
I0823 17:41:14.451768 15833 net.cpp:408] pool4 -> pool4
I0823 17:41:14.451793 15833 net.cpp:150] Setting up pool4
I0823 17:41:14.451798 15833 net.cpp:157] Top shape: 128 64 19 19 (2957312)
I0823 17:41:14.451800 15833 net.cpp:165] Memory required for data: 3158618112
I0823 17:41:14.451803 15833 layer_factory.hpp:77] Creating layer conv5_1
I0823 17:41:14.451809 15833 net.cpp:100] Creating Layer conv5_1
I0823 17:41:14.451815 15833 net.cpp:434] conv5_1 <- pool4
I0823 17:41:14.451824 15833 net.cpp:408] conv5_1 -> conv5_1
I0823 17:41:14.452739 15833 net.cpp:150] Setting up conv5_1
I0823 17:41:14.452744 15833 net.cpp:157] Top shape: 128 64 17 17 (2367488)
I0823 17:41:14.452747 15833 net.cpp:165] Memory required for data: 3168088064
I0823 17:41:14.452751 15833 layer_factory.hpp:77] Creating layer conv5_1_bn
I0823 17:41:14.452756 15833 net.cpp:100] Creating Layer conv5_1_bn
I0823 17:41:14.452759 15833 net.cpp:434] conv5_1_bn <- conv5_1
I0823 17:41:14.452764 15833 net.cpp:408] conv5_1_bn -> conv5_1_bn
I0823 17:41:14.453348 15833 net.cpp:150] Setting up conv5_1_bn
I0823 17:41:14.453358 15833 net.cpp:157] Top shape: 128 64 17 17 (2367488)
I0823 17:41:14.453361 15833 net.cpp:165] Memory required for data: 3177558016
I0823 17:41:14.453367 15833 layer_factory.hpp:77] Creating layer conv5_1_bn_scale
I0823 17:41:14.453373 15833 net.cpp:100] Creating Layer conv5_1_bn_scale
I0823 17:41:14.453377 15833 net.cpp:434] conv5_1_bn_scale <- conv5_1_bn
I0823 17:41:14.453382 15833 net.cpp:395] conv5_1_bn_scale -> conv5_1_bn (in-place)
I0823 17:41:14.453408 15833 layer_factory.hpp:77] Creating layer conv5_1_bn_scale
I0823 17:41:14.453483 15833 net.cpp:150] Setting up conv5_1_bn_scale
I0823 17:41:14.453488 15833 net.cpp:157] Top shape: 128 64 17 17 (2367488)
I0823 17:41:14.453491 15833 net.cpp:165] Memory required for data: 3187027968
I0823 17:41:14.453496 15833 layer_factory.hpp:77] Creating layer conv5_1_relu
I0823 17:41:14.453500 15833 net.cpp:100] Creating Layer conv5_1_relu
I0823 17:41:14.453503 15833 net.cpp:434] conv5_1_relu <- conv5_1_bn
I0823 17:41:14.453507 15833 net.cpp:395] conv5_1_relu -> conv5_1_bn (in-place)
I0823 17:41:14.453511 15833 net.cpp:150] Setting up conv5_1_relu
I0823 17:41:14.453516 15833 net.cpp:157] Top shape: 128 64 17 17 (2367488)
I0823 17:41:14.453517 15833 net.cpp:165] Memory required for data: 3196497920
I0823 17:41:14.453521 15833 layer_factory.hpp:77] Creating layer conv6_1
I0823 17:41:14.453527 15833 net.cpp:100] Creating Layer conv6_1
I0823 17:41:14.453531 15833 net.cpp:434] conv6_1 <- conv5_1_bn
I0823 17:41:14.453536 15833 net.cpp:408] conv6_1 -> conv6_1
I0823 17:41:14.454445 15833 net.cpp:150] Setting up conv6_1
I0823 17:41:14.454453 15833 net.cpp:157] Top shape: 128 64 15 15 (1843200)
I0823 17:41:14.454455 15833 net.cpp:165] Memory required for data: 3203870720
I0823 17:41:14.454459 15833 layer_factory.hpp:77] Creating layer conv6_1_bn
I0823 17:41:14.454464 15833 net.cpp:100] Creating Layer conv6_1_bn
I0823 17:41:14.454468 15833 net.cpp:434] conv6_1_bn <- conv6_1
I0823 17:41:14.454473 15833 net.cpp:408] conv6_1_bn -> conv6_1_bn
I0823 17:41:14.454597 15833 net.cpp:150] Setting up conv6_1_bn
I0823 17:41:14.454602 15833 net.cpp:157] Top shape: 128 64 15 15 (1843200)
I0823 17:41:14.454604 15833 net.cpp:165] Memory required for data: 3211243520
I0823 17:41:14.454615 15833 layer_factory.hpp:77] Creating layer conv6_1_bn_scale
I0823 17:41:14.454620 15833 net.cpp:100] Creating Layer conv6_1_bn_scale
I0823 17:41:14.454623 15833 net.cpp:434] conv6_1_bn_scale <- conv6_1_bn
I0823 17:41:14.454627 15833 net.cpp:395] conv6_1_bn_scale -> conv6_1_bn (in-place)
I0823 17:41:14.454651 15833 layer_factory.hpp:77] Creating layer conv6_1_bn_scale
I0823 17:41:14.454735 15833 net.cpp:150] Setting up conv6_1_bn_scale
I0823 17:41:14.454741 15833 net.cpp:157] Top shape: 128 64 15 15 (1843200)
I0823 17:41:14.454756 15833 net.cpp:165] Memory required for data: 3218616320
I0823 17:41:14.454761 15833 layer_factory.hpp:77] Creating layer conv6_1_relu
I0823 17:41:14.454764 15833 net.cpp:100] Creating Layer conv6_1_relu
I0823 17:41:14.454767 15833 net.cpp:434] conv6_1_relu <- conv6_1_bn
I0823 17:41:14.454771 15833 net.cpp:395] conv6_1_relu -> conv6_1_bn (in-place)
I0823 17:41:14.454774 15833 net.cpp:150] Setting up conv6_1_relu
I0823 17:41:14.454777 15833 net.cpp:157] Top shape: 128 64 15 15 (1843200)
I0823 17:41:14.454780 15833 net.cpp:165] Memory required for data: 3225989120
I0823 17:41:14.454783 15833 layer_factory.hpp:77] Creating layer conv7_1
I0823 17:41:14.454797 15833 net.cpp:100] Creating Layer conv7_1
I0823 17:41:14.454807 15833 net.cpp:434] conv7_1 <- conv6_1_bn
I0823 17:41:14.454810 15833 net.cpp:408] conv7_1 -> conv7_1
I0823 17:41:14.456502 15833 net.cpp:150] Setting up conv7_1
I0823 17:41:14.456509 15833 net.cpp:157] Top shape: 128 128 13 13 (2768896)
I0823 17:41:14.456511 15833 net.cpp:165] Memory required for data: 3237064704
I0823 17:41:14.456516 15833 layer_factory.hpp:77] Creating layer conv7_1_bn
I0823 17:41:14.456524 15833 net.cpp:100] Creating Layer conv7_1_bn
I0823 17:41:14.456527 15833 net.cpp:434] conv7_1_bn <- conv7_1
I0823 17:41:14.456532 15833 net.cpp:408] conv7_1_bn -> conv7_1_bn
I0823 17:41:14.456653 15833 net.cpp:150] Setting up conv7_1_bn
I0823 17:41:14.456658 15833 net.cpp:157] Top shape: 128 128 13 13 (2768896)
I0823 17:41:14.456661 15833 net.cpp:165] Memory required for data: 3248140288
I0823 17:41:14.456667 15833 layer_factory.hpp:77] Creating layer conv7_1_bn_scale
I0823 17:41:14.456672 15833 net.cpp:100] Creating Layer conv7_1_bn_scale
I0823 17:41:14.456676 15833 net.cpp:434] conv7_1_bn_scale <- conv7_1_bn
I0823 17:41:14.456679 15833 net.cpp:395] conv7_1_bn_scale -> conv7_1_bn (in-place)
I0823 17:41:14.456701 15833 layer_factory.hpp:77] Creating layer conv7_1_bn_scale
I0823 17:41:14.456789 15833 net.cpp:150] Setting up conv7_1_bn_scale
I0823 17:41:14.456794 15833 net.cpp:157] Top shape: 128 128 13 13 (2768896)
I0823 17:41:14.456796 15833 net.cpp:165] Memory required for data: 3259215872
I0823 17:41:14.456801 15833 layer_factory.hpp:77] Creating layer conv7_1_relu
I0823 17:41:14.456805 15833 net.cpp:100] Creating Layer conv7_1_relu
I0823 17:41:14.456809 15833 net.cpp:434] conv7_1_relu <- conv7_1_bn
I0823 17:41:14.456815 15833 net.cpp:395] conv7_1_relu -> conv7_1_bn (in-place)
I0823 17:41:14.456820 15833 net.cpp:150] Setting up conv7_1_relu
I0823 17:41:14.456822 15833 net.cpp:157] Top shape: 128 128 13 13 (2768896)
I0823 17:41:14.456825 15833 net.cpp:165] Memory required for data: 3270291456
I0823 17:41:14.456828 15833 layer_factory.hpp:77] Creating layer score
I0823 17:41:14.456835 15833 net.cpp:100] Creating Layer score
I0823 17:41:14.456838 15833 net.cpp:434] score <- conv7_1_bn
I0823 17:41:14.456842 15833 net.cpp:408] score -> score
I0823 17:41:14.457000 15833 net.cpp:150] Setting up score
I0823 17:41:14.457005 15833 net.cpp:157] Top shape: 128 4 13 13 (86528)
I0823 17:41:14.457007 15833 net.cpp:165] Memory required for data: 3270637568
I0823 17:41:14.457012 15833 layer_factory.hpp:77] Creating layer upscore
I0823 17:41:14.457018 15833 net.cpp:100] Creating Layer upscore
I0823 17:41:14.457021 15833 net.cpp:434] upscore <- score
I0823 17:41:14.457027 15833 net.cpp:408] upscore -> upscore
I0823 17:41:14.457504 15833 net.cpp:150] Setting up upscore
I0823 17:41:14.457509 15833 net.cpp:157] Top shape: 128 4 224 224 (25690112)
I0823 17:41:14.457511 15833 net.cpp:165] Memory required for data: 3373398016
I0823 17:41:14.457515 15833 layer_factory.hpp:77] Creating layer cropscore
I0823 17:41:14.457520 15833 net.cpp:100] Creating Layer cropscore
I0823 17:41:14.457523 15833 net.cpp:434] cropscore <- upscore
I0823 17:41:14.457527 15833 net.cpp:434] cropscore <- image_data_0_split_1
I0823 17:41:14.457531 15833 net.cpp:408] cropscore -> cropscore
I0823 17:41:14.457550 15833 net.cpp:150] Setting up cropscore
I0823 17:41:14.457554 15833 net.cpp:157] Top shape: 128 4 200 200 (20480000)
I0823 17:41:14.457556 15833 net.cpp:165] Memory required for data: 3455318016
I0823 17:41:14.457559 15833 layer_factory.hpp:77] Creating layer cropscore_cropscore_0_split
I0823 17:41:14.457566 15833 net.cpp:100] Creating Layer cropscore_cropscore_0_split
I0823 17:41:14.457568 15833 net.cpp:434] cropscore_cropscore_0_split <- cropscore
I0823 17:41:14.457572 15833 net.cpp:408] cropscore_cropscore_0_split -> cropscore_cropscore_0_split_0
I0823 17:41:14.457576 15833 net.cpp:408] cropscore_cropscore_0_split -> cropscore_cropscore_0_split_1
I0823 17:41:14.457598 15833 net.cpp:150] Setting up cropscore_cropscore_0_split
I0823 17:41:14.457603 15833 net.cpp:157] Top shape: 128 4 200 200 (20480000)
I0823 17:41:14.457617 15833 net.cpp:157] Top shape: 128 4 200 200 (20480000)
I0823 17:41:14.457618 15833 net.cpp:165] Memory required for data: 3619158016
I0823 17:41:14.457622 15833 layer_factory.hpp:77] Creating layer loss
I0823 17:41:14.457628 15833 net.cpp:100] Creating Layer loss
I0823 17:41:14.457631 15833 net.cpp:434] loss <- cropscore_cropscore_0_split_0
I0823 17:41:14.457634 15833 net.cpp:434] loss <- label_data_1_split_0
I0823 17:41:14.457638 15833 net.cpp:408] loss -> loss
…
I0823 17:41:14.498817 15833 solver.cpp:181] Creating test net (#0) specified by net file: portrait_train_test_one_stage.prototxt2
I0823 17:41:14.498855 15833 net.cpp:322] The NetState phase (1) differed from the phase (0) specified by a rule in layer data
I0823 17:41:14.499003 15833 net.cpp:58] Initializing net from parameters: 
name: "segmentation"
state {
  phase: TEST
}
layer {
  name: "data"
  type: "SegData"
  top: "image"
  top: "label"
  include {
    phase: TEST
  }
  transform_param {
    crop_size: 200
  }
  data_param {
    source: "/raid/xuehan/segmentation_test_split"
    batch_size: 64
    backend: LMDB
  }
}
layer {
  name: "conv1_1"
  type: "Convolution"
  bottom: "image"
  top: "conv1_1"
  param {
    lr_mult: 1
    decay_mult: 1
  }
  convolution_param {
    num_output: 8
    bias_term: false
    pad: 50
    kernel_size: 3
    stride: 1
    weight_filler {
      type: "gaussian"
      std: 0.01
    }
  }
}
layer {
  name: "conv1_1_bn"
  type: "BatchNorm"
  bottom: "conv1_1"
  top: "conv1_1_bn"
  param {
    lr_mult: 0
  }
  param {
    lr_mult: 0
  }
  param {
    lr_mult: 0
  }
}
layer {
  name: "conv1_1_bn_scale"
  type: "Scale"
  bottom: "conv1_1_bn"
  top: "conv1_1_bn"
  scale_param {
    bias_term: true
  }
}
layer {
  name: "conv1_1_relu"
  type: "ReLU"
  bottom: "conv1_1_bn"
  top: "conv1_1_bn"
}
layer {
  name: "pool1"
  type: "Pooling"
  bottom: "conv1_1_bn"
  top: "pool1"
  pooling_param {
    pool: MAX
    kernel_size: 2
    stride: 2
  }
}
layer {
  name: "conv2_1"
  type: "Convolution"
  bottom: "pool1"
  top: "conv2_1"
  param {
    lr_mult: 1
    decay_mult: 1
  }
  convolution_param {
    num_output: 16
    bias_term: false
    pad: 1
    kernel_size: 3
    stride: 1
    weight_filler {
      type: "gaussian"
      std: 0.01
    }
  }
}
layer {
  name: "conv2_1_bn"
  type: "BatchNorm"
  bottom: "conv2_1"
  top: "conv2_1_bn"
  param {
    lr_mult: 0
  }
  param {
    lr_mult: 0
  }
  param {
    lr_mult: 0
  }
}
layer {
  name: "conv2_1_bn_scale"
  type: "Scale"
  bottom: "conv2_1_bn"
  top: "conv2_1_bn"
  scale_param {
    bias_term: true
  }
}
layer {
  name: "conv2_1_relu"
  type: "ReLU"
  bottom: "conv2_1_bn"
  top: "conv2_1_bn"
}
layer {
  name: "pool2"
  type: "Pooling"
  bottom: "conv2_1_bn"
  top: "pool2"
  pooling_param {
    pool: MAX
    kernel_size: 2
    stride: 2
  }
}
layer {
  name: "conv3_1"
  type: "Convolution"
  bottom: "pool2"
  top: "conv3_1"
  param {
    lr_mult: 1
    decay_mult: 1
  }
  convolution_param {
    num_output: 32
    bias_term: false
    pad: 1
    kernel_size: 3
    stride: 1
    weight_filler {
      type: "gaussian"
      std: 0.01
    }
  }
}
layer {
  name: "conv3_1_bn"
  type: "BatchNorm"
  bottom: "conv3_1"
  top: "conv3_1_bn"
  param {
    lr_mult: 0
  }
  param {
    lr_mult: 0
  }
  param {
    lr_mult: 0
  }
}
layer {
  name: "conv3_1_bn_scale"
  type: "Scale"
  bottom: "conv3_1_bn"
  top: "conv3_1_bn"
  scale_param {
    bias_term: true
  }
}
layer {
  name: "conv3_1_relu"
  type: "ReLU"
  bottom: "conv3_1_bn"
  top: "conv3_1_bn"
}
layer {
  name: "pool3"
  type: "Pooling"
  bottom: "conv3_1_bn"
  top: "pool3"
  pooling_param {
    pool: MAX
    kernel_size: 2
    stride: 2
  }
}
layer {
  name: "conv4_1"
  type: "Convolution"
  bottom: "pool3"
  top: "conv4_1"
  param {
    lr_mult: 1
    decay_mult: 1
  }
  convolution_param {
    num_output: 64
    bias_term: false
    pad: 1
    kernel_size: 3
    stride: 1
    weight_filler {
      type: "gaussian"
      std: 0.01
    }
  }
}
layer {
  name: "conv4_1_bn"
  type: "BatchNorm"
  bottom: "conv4_1"
  top: "conv4_1_bn"
  param {
    lr_mult: 0
  }
  param {
    lr_mult: 0
  }
  param {
    lr_mult: 0
  }
}
layer {
  name: "conv4_1_bn_scale"
  type: "Scale"
  bottom: "conv4_1_bn"
  top: "conv4_1_bn"
  scale_param {
    bias_term: true
  }
}
layer {
  name: "conv4_1_relu"
  type: "ReLU"
  bottom: "conv4_1_bn"
  top: "conv4_1_bn"
}
layer {
  name: "pool4"
  type: "Pooling"
  bottom: "conv4_1_bn"
  top: "pool4"
  pooling_param {
    pool: MAX
    kernel_size: 2
    stride: 2
  }
}
layer {
  name: "conv5_1"
  type: "Convolution"
  bottom: "pool4"
  top: "conv5_1"
  param {
    lr_mult: 1
    decay_mult: 1
  }
  convolution_param {
    num_output: 64
    bias_term: false
    pad: 0
    kernel_size: 3
    stride: 1
    weight_filler {
      type: "gaussian"
      std: 0.01
    }
  }
}
layer {
  name: "conv5_1_bn"
  type: "BatchNorm"
  bottom: "conv5_1"
  top: "conv5_1_bn"
  param {
    lr_mult: 0
  }
  param {
    lr_mult: 0
  }
  param {
    lr_mult: 0
  }
}
layer {
  name: "conv5_1_bn_scale"
  type: "Scale"
  bottom: "conv5_1_bn"
  top: "conv5_1_bn"
  scale_param {
    bias_term: true
  }
}
layer {
  name: "conv5_1_relu"
  type: "ReLU"
  bottom: "conv5_1_bn"
  top: "conv5_1_bn"
}
layer {
  name: "conv6_1"
  type: "Convolution"
  bottom: "conv5_1_bn"
  top: "conv6_1"
  param {
    lr_mult: 1
    decay_mult: 1
  }
  convolution_param {
    num_output: 64
    bias_term: false
    pad: 0
    kernel_size: 3
    stride: 1
    weight_filler {
      type: "gaussian"
      std: 0.01
    }
  }
}
layer {
  name: "conv6_1_bn"
  type: "BatchNorm"
  bottom: "conv6_1"
  top: "conv6_1_bn"
  param {
    lr_mult: 0
  }
  param {
    lr_mult: 0
  }
  param {
    lr_mult: 0
  }
}
layer {
  name: "conv6_1_bn_scale"
  type: "Scale"
  bottom: "conv6_1_bn"
  top: "conv6_1_bn"
  scale_param {
    bias_term: true
  }
}
layer {
  name: "conv6_1_relu"
  type: "ReLU"
  bottom: "conv6_1_bn"
  top: "conv6_1_bn"
}
layer {
  name: "conv7_1"
  type: "Convolution"
  bottom: "conv6_1_bn"
  top: "conv7_1"
  param {
    lr_mult: 1
    decay_mult: 1
  }
  convolution_param {
    num_output: 128
    bias_term: false
    pad: 0
    kernel_size: 3
    stride: 1
    weight_filler {
      type: "gaussian"
      std: 0.01
    }
  }
}
layer {
  name: "conv7_1_bn"
  type: "BatchNorm"
  bottom: "conv7_1"
  top: "conv7_1_bn"
  param {
    lr_mult: 0
  }
  param {
    lr_mult: 0
  }
  param {
    lr_mult: 0
  }
}
layer {
  name: "conv7_1_bn_scale"
  type: "Scale"
  bottom: "conv7_1_bn"
  top: "conv7_1_bn"
  scale_param {
    bias_term: true
  }
}
layer {
  name: "conv7_1_relu"
  type: "ReLU"
  bottom: "conv7_1_bn"
  top: "conv7_1_bn"
}
layer {
  name: "score"
  type: "Convolution"
  bottom: "conv7_1_bn"
  top: "score"
  param {
    lr_mult: 1
    decay_mult: 1
  }
  param {
    lr_mult: 2
    decay_mult: 0
  }
  convolution_param {
    num_output: 4
    pad: 0
    kernel_size: 1
    stride: 1
    weight_filler {
      type: "gaussian"
      std: 0.01
    }
    bias_filler {
      type: "constant"
    }
  }
}
layer {
  name: "upscore"
  type: "Deconvolution"
  bottom: "score"
  top: "upscore"
  param {
    lr_mult: 1
    decay_mult: 1
  }
  convolution_param {
    num_output: 4
    bias_term: false
    pad: 0
    kernel_size: 32
    stride: 16
    weight_filler {
      type: "gaussian"
      std: 0.01
    }
  }
}
layer {
  name: "cropscore"
  type: "Crop"
  bottom: "upscore"
  bottom: "image"
  top: "cropscore"
  crop_param {
    axis: 2
    offset: 12
  }
}
layer {
  name: "loss"
  type: "SoftmaxWithLoss"
  bottom: "cropscore"
  bottom: "label"
  top: "loss"
  loss_weight: 1
  loss_param {
    normalize: false
  }
}
layer {
  name: "accuracy"
  type: "Accuracy"
  bottom: "cropscore"
  bottom: "label"
  top: "accuracy"
}
I0823 17:41:14.499115 15833 layer_factory.hpp:77] Creating layer data
I0823 17:41:14.499212 15833 net.cpp:100] Creating Layer data
I0823 17:41:14.499220 15833 net.cpp:408] data -> image
I0823 17:41:14.499228 15833 net.cpp:408] data -> label
I0823 17:41:14.500263 15841 db_lmdb.cpp:35] Opened lmdb /raid/xuehan/segmentation_test_split
I0823 17:41:14.500438 15833 seg_data_layer.cpp:38] 200 200 4
I0823 17:41:14.500512 15833 seg_data_layer.cpp:51] output data size: 64,3,200,200
I0823 17:41:14.500555 15833 seg_data_layer.cpp:63] output label size: 64,1,200,200
I0823 17:41:14.566807 15833 net.cpp:150] Setting up data
I0823 17:41:14.566833 15833 net.cpp:157] Top shape: 64 3 200 200 (7680000)
I0823 17:41:14.566839 15833 net.cpp:157] Top shape: 64 1 200 200 (2560000)
I0823 17:41:14.566843 15833 net.cpp:165] Memory required for data: 40960000
I0823 17:41:14.566848 15833 layer_factory.hpp:77] Creating layer image_data_0_split
I0823 17:41:14.566860 15833 net.cpp:100] Creating Layer image_data_0_split
I0823 17:41:14.566864 15833 net.cpp:434] image_data_0_split <- image
I0823 17:41:14.566870 15833 net.cpp:408] image_data_0_split -> image_data_0_split_0
I0823 17:41:14.566881 15833 net.cpp:408] image_data_0_split -> image_data_0_split_1
I0823 17:41:14.571903 15833 net.cpp:150] Setting up image_data_0_split
I0823 17:41:14.571918 15833 net.cpp:157] Top shape: 64 3 200 200 (7680000)
I0823 17:41:14.571923 15833 net.cpp:157] Top shape: 64 3 200 200 (7680000)
I0823 17:41:14.571925 15833 net.cpp:165] Memory required for data: 102400000
I0823 17:41:14.571929 15833 layer_factory.hpp:77] Creating layer label_data_1_split
I0823 17:41:14.571938 15833 net.cpp:100] Creating Layer label_data_1_split
I0823 17:41:14.571940 15833 net.cpp:434] label_data_1_split <- label
I0823 17:41:14.571945 15833 net.cpp:408] label_data_1_split -> label_data_1_split_0
I0823 17:41:14.571951 15833 net.cpp:408] label_data_1_split -> label_data_1_split_1
I0823 17:41:14.573637 15833 net.cpp:150] Setting up label_data_1_split
I0823 17:41:14.573650 15833 net.cpp:157] Top shape: 64 1 200 200 (2560000)
I0823 17:41:14.573654 15833 net.cpp:157] Top shape: 64 1 200 200 (2560000)
I0823 17:41:14.573657 15833 net.cpp:165] Memory required for data: 122880000
I0823 17:41:14.573660 15833 layer_factory.hpp:77] Creating layer conv1_1
I0823 17:41:14.573671 15833 net.cpp:100] Creating Layer conv1_1
I0823 17:41:14.573674 15833 net.cpp:434] conv1_1 <- image_data_0_split_0
I0823 17:41:14.573684 15833 net.cpp:408] conv1_1 -> conv1_1
I0823 17:41:14.573838 15833 net.cpp:150] Setting up conv1_1
I0823 17:41:14.573845 15833 net.cpp:157] Top shape: 64 8 298 298 (45467648)
I0823 17:41:14.573848 15833 net.cpp:165] Memory required for data: 304750592
I0823 17:41:14.573855 15833 layer_factory.hpp:77] Creating layer conv1_1_bn
I0823 17:41:14.573861 15833 net.cpp:100] Creating Layer conv1_1_bn
I0823 17:41:14.573864 15833 net.cpp:434] conv1_1_bn <- conv1_1
I0823 17:41:14.573869 15833 net.cpp:408] conv1_1_bn -> conv1_1_bn
I0823 17:41:14.574071 15833 net.cpp:150] Setting up conv1_1_bn
I0823 17:41:14.574079 15833 net.cpp:157] Top shape: 64 8 298 298 (45467648)
I0823 17:41:14.574081 15833 net.cpp:165] Memory required for data: 486621184
I0823 17:41:14.574090 15833 layer_factory.hpp:77] Creating layer conv1_1_bn_scale
I0823 17:41:14.574096 15833 net.cpp:100] Creating Layer conv1_1_bn_scale
I0823 17:41:14.574100 15833 net.cpp:434] conv1_1_bn_scale <- conv1_1_bn
I0823 17:41:14.574103 15833 net.cpp:395] conv1_1_bn_scale -> conv1_1_bn (in-place)
I0823 17:41:14.574133 15833 layer_factory.hpp:77] Creating layer conv1_1_bn_scale
I0823 17:41:14.574774 15833 net.cpp:150] Setting up conv1_1_bn_scale
I0823 17:41:14.574786 15833 net.cpp:157] Top shape: 64 8 298 298 (45467648)
I0823 17:41:14.574790 15833 net.cpp:165] Memory required for data: 668491776
I0823 17:41:14.574797 15833 layer_factory.hpp:77] Creating layer conv1_1_relu
I0823 17:41:14.574805 15833 net.cpp:100] Creating Layer conv1_1_relu
I0823 17:41:14.574807 15833 net.cpp:434] conv1_1_relu <- conv1_1_bn
I0823 17:41:14.574811 15833 net.cpp:395] conv1_1_relu -> conv1_1_bn (in-place)
I0823 17:41:14.574825 15833 net.cpp:150] Setting up conv1_1_relu
I0823 17:41:14.574836 15833 net.cpp:157] Top shape: 64 8 298 298 (45467648)
I0823 17:41:14.574838 15833 net.cpp:165] Memory required for data: 850362368
I0823 17:41:14.574841 15833 layer_factory.hpp:77] Creating layer pool1
I0823 17:41:14.574848 15833 net.cpp:100] Creating Layer pool1
I0823 17:41:14.574851 15833 net.cpp:434] pool1 <- conv1_1_bn
I0823 17:41:14.574856 15833 net.cpp:408] pool1 -> pool1
I0823 17:41:14.578133 15833 net.cpp:150] Setting up pool1
I0823 17:41:14.578151 15833 net.cpp:157] Top shape: 64 8 149 149 (11366912)
I0823 17:41:14.578155 15833 net.cpp:165] Memory required for data: 895830016
I0823 17:41:14.578158 15833 layer_factory.hpp:77] Creating layer conv2_1
I0823 17:41:14.578169 15833 net.cpp:100] Creating Layer conv2_1
I0823 17:41:14.578173 15833 net.cpp:434] conv2_1 <- pool1
I0823 17:41:14.578183 15833 net.cpp:408] conv2_1 -> conv2_1
I0823 17:41:14.578358 15833 net.cpp:150] Setting up conv2_1
I0823 17:41:14.578366 15833 net.cpp:157] Top shape: 64 16 149 149 (22733824)
I0823 17:41:14.578367 15833 net.cpp:165] Memory required for data: 986765312
I0823 17:41:14.578372 15833 layer_factory.hpp:77] Creating layer conv2_1_bn
I0823 17:41:14.578379 15833 net.cpp:100] Creating Layer conv2_1_bn
I0823 17:41:14.578382 15833 net.cpp:434] conv2_1_bn <- conv2_1
I0823 17:41:14.578387 15833 net.cpp:408] conv2_1_bn -> conv2_1_bn
I0823 17:41:14.578544 15833 net.cpp:150] Setting up conv2_1_bn
I0823 17:41:14.578550 15833 net.cpp:157] Top shape: 64 16 149 149 (22733824)
I0823 17:41:14.578553 15833 net.cpp:165] Memory required for data: 1077700608
I0823 17:41:14.578562 15833 layer_factory.hpp:77] Creating layer conv2_1_bn_scale
I0823 17:41:14.578567 15833 net.cpp:100] Creating Layer conv2_1_bn_scale
I0823 17:41:14.578570 15833 net.cpp:434] conv2_1_bn_scale <- conv2_1_bn
I0823 17:41:14.578574 15833 net.cpp:395] conv2_1_bn_scale -> conv2_1_bn (in-place)
I0823 17:41:14.578605 15833 layer_factory.hpp:77] Creating layer conv2_1_bn_scale
I0823 17:41:14.578713 15833 net.cpp:150] Setting up conv2_1_bn_scale
I0823 17:41:14.578719 15833 net.cpp:157] Top shape: 64 16 149 149 (22733824)
I0823 17:41:14.578722 15833 net.cpp:165] Memory required for data: 1168635904
I0823 17:41:14.578727 15833 layer_factory.hpp:77] Creating layer conv2_1_relu
I0823 17:41:14.578732 15833 net.cpp:100] Creating Layer conv2_1_relu
I0823 17:41:14.578734 15833 net.cpp:434] conv2_1_relu <- conv2_1_bn
I0823 17:41:14.578739 15833 net.cpp:395] conv2_1_relu -> conv2_1_bn (in-place)
I0823 17:41:14.578744 15833 net.cpp:150] Setting up conv2_1_relu
I0823 17:41:14.578748 15833 net.cpp:157] Top shape: 64 16 149 149 (22733824)
I0823 17:41:14.578750 15833 net.cpp:165] Memory required for data: 1259571200
I0823 17:41:14.578753 15833 layer_factory.hpp:77] Creating layer pool2
I0823 17:41:14.578758 15833 net.cpp:100] Creating Layer pool2
I0823 17:41:14.578761 15833 net.cpp:434] pool2 <- conv2_1_bn
I0823 17:41:14.578766 15833 net.cpp:408] pool2 -> pool2
I0823 17:41:14.578794 15833 net.cpp:150] Setting up pool2
I0823 17:41:14.578797 15833 net.cpp:157] Top shape: 64 16 75 75 (5760000)
I0823 17:41:14.578800 15833 net.cpp:165] Memory required for data: 1282611200
I0823 17:41:14.578804 15833 layer_factory.hpp:77] Creating layer conv3_1
I0823 17:41:14.578809 15833 net.cpp:100] Creating Layer conv3_1
I0823 17:41:14.578811 15833 net.cpp:434] conv3_1 <- pool2
I0823 17:41:14.578817 15833 net.cpp:408] conv3_1 -> conv3_1
I0823 17:41:14.579041 15833 net.cpp:150] Setting up conv3_1
I0823 17:41:14.579046 15833 net.cpp:157] Top shape: 64 32 75 75 (11520000)
I0823 17:41:14.579049 15833 net.cpp:165] Memory required for data: 1328691200
I0823 17:41:14.579053 15833 layer_factory.hpp:77] Creating layer conv3_1_bn
I0823 17:41:14.579059 15833 net.cpp:100] Creating Layer conv3_1_bn
I0823 17:41:14.579062 15833 net.cpp:434] conv3_1_bn <- conv3_1
I0823 17:41:14.579066 15833 net.cpp:408] conv3_1_bn -> conv3_1_bn
I0823 17:41:14.579221 15833 net.cpp:150] Setting up conv3_1_bn
I0823 17:41:14.579228 15833 net.cpp:157] Top shape: 64 32 75 75 (11520000)
I0823 17:41:14.579244 15833 net.cpp:165] Memory required for data: 1374771200
I0823 17:41:14.579251 15833 layer_factory.hpp:77] Creating layer conv3_1_bn_scale
I0823 17:41:14.579255 15833 net.cpp:100] Creating Layer conv3_1_bn_scale
I0823 17:41:14.579258 15833 net.cpp:434] conv3_1_bn_scale <- conv3_1_bn
I0823 17:41:14.579262 15833 net.cpp:395] conv3_1_bn_scale -> conv3_1_bn (in-place)
I0823 17:41:14.579293 15833 layer_factory.hpp:77] Creating layer conv3_1_bn_scale
I0823 17:41:14.579380 15833 net.cpp:150] Setting up conv3_1_bn_scale
I0823 17:41:14.579386 15833 net.cpp:157] Top shape: 64 32 75 75 (11520000)
I0823 17:41:14.579388 15833 net.cpp:165] Memory required for data: 1420851200
I0823 17:41:14.579396 15833 layer_factory.hpp:77] Creating layer conv3_1_relu
I0823 17:41:14.579402 15833 net.cpp:100] Creating Layer conv3_1_relu
I0823 17:41:14.579406 15833 net.cpp:434] conv3_1_relu <- conv3_1_bn
I0823 17:41:14.579409 15833 net.cpp:395] conv3_1_relu -> conv3_1_bn (in-place)
I0823 17:41:14.579414 15833 net.cpp:150] Setting up conv3_1_relu
I0823 17:41:14.579418 15833 net.cpp:157] Top shape: 64 32 75 75 (11520000)
I0823 17:41:14.579421 15833 net.cpp:165] Memory required for data: 1466931200
I0823 17:41:14.579423 15833 layer_factory.hpp:77] Creating layer pool3
I0823 17:41:14.579427 15833 net.cpp:100] Creating Layer pool3
I0823 17:41:14.579430 15833 net.cpp:434] pool3 <- conv3_1_bn
I0823 17:41:14.579435 15833 net.cpp:408] pool3 -> pool3
I0823 17:41:14.579463 15833 net.cpp:150] Setting up pool3
I0823 17:41:14.579466 15833 net.cpp:157] Top shape: 64 32 38 38 (2957312)
I0823 17:41:14.579469 15833 net.cpp:165] Memory required for data: 1478760448
I0823 17:41:14.579473 15833 layer_factory.hpp:77] Creating layer conv4_1
I0823 17:41:14.579479 15833 net.cpp:100] Creating Layer conv4_1
I0823 17:41:14.579483 15833 net.cpp:434] conv4_1 <- pool3
I0823 17:41:14.579488 15833 net.cpp:408] conv4_1 -> conv4_1
I0823 17:41:14.580020 15833 net.cpp:150] Setting up conv4_1
I0823 17:41:14.580027 15833 net.cpp:157] Top shape: 64 64 38 38 (5914624)
I0823 17:41:14.580029 15833 net.cpp:165] Memory required for data: 1502418944
I0823 17:41:14.580034 15833 layer_factory.hpp:77] Creating layer conv4_1_bn
I0823 17:41:14.580039 15833 net.cpp:100] Creating Layer conv4_1_bn
I0823 17:41:14.580041 15833 net.cpp:434] conv4_1_bn <- conv4_1
I0823 17:41:14.580045 15833 net.cpp:408] conv4_1_bn -> conv4_1_bn
I0823 17:41:14.580179 15833 net.cpp:150] Setting up conv4_1_bn
I0823 17:41:14.580185 15833 net.cpp:157] Top shape: 64 64 38 38 (5914624)
I0823 17:41:14.580188 15833 net.cpp:165] Memory required for data: 1526077440
I0823 17:41:14.580193 15833 layer_factory.hpp:77] Creating layer conv4_1_bn_scale
I0823 17:41:14.580199 15833 net.cpp:100] Creating Layer conv4_1_bn_scale
I0823 17:41:14.580200 15833 net.cpp:434] conv4_1_bn_scale <- conv4_1_bn
I0823 17:41:14.580206 15833 net.cpp:395] conv4_1_bn_scale -> conv4_1_bn (in-place)
I0823 17:41:14.580232 15833 layer_factory.hpp:77] Creating layer conv4_1_bn_scale
I0823 17:41:14.580312 15833 net.cpp:150] Setting up conv4_1_bn_scale
I0823 17:41:14.580317 15833 net.cpp:157] Top shape: 64 64 38 38 (5914624)
I0823 17:41:14.580320 15833 net.cpp:165] Memory required for data: 1549735936
I0823 17:41:14.580324 15833 layer_factory.hpp:77] Creating layer conv4_1_relu
I0823 17:41:14.580329 15833 net.cpp:100] Creating Layer conv4_1_relu
I0823 17:41:14.580332 15833 net.cpp:434] conv4_1_relu <- conv4_1_bn
I0823 17:41:14.580339 15833 net.cpp:395] conv4_1_relu -> conv4_1_bn (in-place)
I0823 17:41:14.580343 15833 net.cpp:150] Setting up conv4_1_relu
I0823 17:41:14.580348 15833 net.cpp:157] Top shape: 64 64 38 38 (5914624)
I0823 17:41:14.580350 15833 net.cpp:165] Memory required for data: 1573394432
I0823 17:41:14.580353 15833 layer_factory.hpp:77] Creating layer pool4
I0823 17:41:14.580358 15833 net.cpp:100] Creating Layer pool4
I0823 17:41:14.580361 15833 net.cpp:434] pool4 <- conv4_1_bn
I0823 17:41:14.580365 15833 net.cpp:408] pool4 -> pool4
I0823 17:41:14.580390 15833 net.cpp:150] Setting up pool4
I0823 17:41:14.580399 15833 net.cpp:157] Top shape: 64 64 19 19 (1478656)
I0823 17:41:14.580406 15833 net.cpp:165] Memory required for data: 1579309056
I0823 17:41:14.580410 15833 layer_factory.hpp:77] Creating layer conv5_1
I0823 17:41:14.580415 15833 net.cpp:100] Creating Layer conv5_1
I0823 17:41:14.580418 15833 net.cpp:434] conv5_1 <- pool4
I0823 17:41:14.580423 15833 net.cpp:408] conv5_1 -> conv5_1
I0823 17:41:14.581879 15833 net.cpp:150] Setting up conv5_1
I0823 17:41:14.581900 15833 net.cpp:157] Top shape: 64 64 17 17 (1183744)
I0823 17:41:14.581903 15833 net.cpp:165] Memory required for data: 1584044032
I0823 17:41:14.581908 15833 layer_factory.hpp:77] Creating layer conv5_1_bn
I0823 17:41:14.581915 15833 net.cpp:100] Creating Layer conv5_1_bn
I0823 17:41:14.581919 15833 net.cpp:434] conv5_1_bn <- conv5_1
I0823 17:41:14.581926 15833 net.cpp:408] conv5_1_bn -> conv5_1_bn
I0823 17:41:14.582072 15833 net.cpp:150] Setting up conv5_1_bn
I0823 17:41:14.582078 15833 net.cpp:157] Top shape: 64 64 17 17 (1183744)
I0823 17:41:14.582082 15833 net.cpp:165] Memory required for data: 1588779008
I0823 17:41:14.582087 15833 layer_factory.hpp:77] Creating layer conv5_1_bn_scale
I0823 17:41:14.582093 15833 net.cpp:100] Creating Layer conv5_1_bn_scale
I0823 17:41:14.582098 15833 net.cpp:434] conv5_1_bn_scale <- conv5_1_bn
I0823 17:41:14.582100 15833 net.cpp:395] conv5_1_bn_scale -> conv5_1_bn (in-place)
I0823 17:41:14.582129 15833 layer_factory.hpp:77] Creating layer conv5_1_bn_scale
I0823 17:41:14.582217 15833 net.cpp:150] Setting up conv5_1_bn_scale
I0823 17:41:14.582223 15833 net.cpp:157] Top shape: 64 64 17 17 (1183744)
I0823 17:41:14.582226 15833 net.cpp:165] Memory required for data: 1593513984
I0823 17:41:14.582231 15833 layer_factory.hpp:77] Creating layer conv5_1_relu
I0823 17:41:14.582236 15833 net.cpp:100] Creating Layer conv5_1_relu
I0823 17:41:14.582238 15833 net.cpp:434] conv5_1_relu <- conv5_1_bn
I0823 17:41:14.582243 15833 net.cpp:395] conv5_1_relu -> conv5_1_bn (in-place)
I0823 17:41:14.582247 15833 net.cpp:150] Setting up conv5_1_relu
I0823 17:41:14.582252 15833 net.cpp:157] Top shape: 64 64 17 17 (1183744)
I0823 17:41:14.582253 15833 net.cpp:165] Memory required for data: 1598248960
I0823 17:41:14.582257 15833 layer_factory.hpp:77] Creating layer conv6_1
I0823 17:41:14.582263 15833 net.cpp:100] Creating Layer conv6_1
I0823 17:41:14.582265 15833 net.cpp:434] conv6_1 <- conv5_1_bn
I0823 17:41:14.582270 15833 net.cpp:408] conv6_1 -> conv6_1
I0823 17:41:14.583204 15833 net.cpp:150] Setting up conv6_1
I0823 17:41:14.583211 15833 net.cpp:157] Top shape: 64 64 15 15 (921600)
I0823 17:41:14.583214 15833 net.cpp:165] Memory required for data: 1601935360
I0823 17:41:14.583219 15833 layer_factory.hpp:77] Creating layer conv6_1_bn
I0823 17:41:14.583225 15833 net.cpp:100] Creating Layer conv6_1_bn
I0823 17:41:14.583227 15833 net.cpp:434] conv6_1_bn <- conv6_1
I0823 17:41:14.583231 15833 net.cpp:408] conv6_1_bn -> conv6_1_bn
I0823 17:41:14.583369 15833 net.cpp:150] Setting up conv6_1_bn
I0823 17:41:14.583374 15833 net.cpp:157] Top shape: 64 64 15 15 (921600)
I0823 17:41:14.583376 15833 net.cpp:165] Memory required for data: 1605621760
I0823 17:41:14.583389 15833 layer_factory.hpp:77] Creating layer conv6_1_bn_scale
I0823 17:41:14.583394 15833 net.cpp:100] Creating Layer conv6_1_bn_scale
I0823 17:41:14.583396 15833 net.cpp:434] conv6_1_bn_scale <- conv6_1_bn
I0823 17:41:14.583401 15833 net.cpp:395] conv6_1_bn_scale -> conv6_1_bn (in-place)
I0823 17:41:14.583428 15833 layer_factory.hpp:77] Creating layer conv6_1_bn_scale
I0823 17:41:14.583509 15833 net.cpp:150] Setting up conv6_1_bn_scale
I0823 17:41:14.583514 15833 net.cpp:157] Top shape: 64 64 15 15 (921600)
I0823 17:41:14.583518 15833 net.cpp:165] Memory required for data: 1609308160
I0823 17:41:14.583521 15833 layer_factory.hpp:77] Creating layer conv6_1_relu
I0823 17:41:14.583526 15833 net.cpp:100] Creating Layer conv6_1_relu
I0823 17:41:14.583528 15833 net.cpp:434] conv6_1_relu <- conv6_1_bn
I0823 17:41:14.583534 15833 net.cpp:395] conv6_1_relu -> conv6_1_bn (in-place)
I0823 17:41:14.583546 15833 net.cpp:150] Setting up conv6_1_relu
I0823 17:41:14.583559 15833 net.cpp:157] Top shape: 64 64 15 15 (921600)
I0823 17:41:14.583560 15833 net.cpp:165] Memory required for data: 1612994560
I0823 17:41:14.583564 15833 layer_factory.hpp:77] Creating layer conv7_1
I0823 17:41:14.583570 15833 net.cpp:100] Creating Layer conv7_1
I0823 17:41:14.583572 15833 net.cpp:434] conv7_1 <- conv6_1_bn
I0823 17:41:14.583578 15833 net.cpp:408] conv7_1 -> conv7_1
I0823 17:41:14.585353 15833 net.cpp:150] Setting up conv7_1
I0823 17:41:14.585366 15833 net.cpp:157] Top shape: 64 128 13 13 (1384448)
I0823 17:41:14.585369 15833 net.cpp:165] Memory required for data: 1618532352
I0823 17:41:14.585374 15833 layer_factory.hpp:77] Creating layer conv7_1_bn
I0823 17:41:14.585383 15833 net.cpp:100] Creating Layer conv7_1_bn
I0823 17:41:14.585386 15833 net.cpp:434] conv7_1_bn <- conv7_1
I0823 17:41:14.585391 15833 net.cpp:408] conv7_1_bn -> conv7_1_bn
I0823 17:41:14.585530 15833 net.cpp:150] Setting up conv7_1_bn
I0823 17:41:14.585536 15833 net.cpp:157] Top shape: 64 128 13 13 (1384448)
I0823 17:41:14.585538 15833 net.cpp:165] Memory required for data: 1624070144
I0823 17:41:14.585543 15833 layer_factory.hpp:77] Creating layer conv7_1_bn_scale
I0823 17:41:14.585549 15833 net.cpp:100] Creating Layer conv7_1_bn_scale
I0823 17:41:14.585551 15833 net.cpp:434] conv7_1_bn_scale <- conv7_1_bn
I0823 17:41:14.585556 15833 net.cpp:395] conv7_1_bn_scale -> conv7_1_bn (in-place)
I0823 17:41:14.585584 15833 layer_factory.hpp:77] Creating layer conv7_1_bn_scale
I0823 17:41:14.585659 15833 net.cpp:150] Setting up conv7_1_bn_scale
I0823 17:41:14.585664 15833 net.cpp:157] Top shape: 64 128 13 13 (1384448)
I0823 17:41:14.585666 15833 net.cpp:165] Memory required for data: 1629607936
I0823 17:41:14.585672 15833 layer_factory.hpp:77] Creating layer conv7_1_relu
I0823 17:41:14.585676 15833 net.cpp:100] Creating Layer conv7_1_relu
I0823 17:41:14.585680 15833 net.cpp:434] conv7_1_relu <- conv7_1_bn
I0823 17:41:14.585683 15833 net.cpp:395] conv7_1_relu -> conv7_1_bn (in-place)
I0823 17:41:14.585687 15833 net.cpp:150] Setting up conv7_1_relu
I0823 17:41:14.585690 15833 net.cpp:157] Top shape: 64 128 13 13 (1384448)
I0823 17:41:14.585693 15833 net.cpp:165] Memory required for data: 1635145728
I0823 17:41:14.585695 15833 layer_factory.hpp:77] Creating layer score
I0823 17:41:14.585705 15833 net.cpp:100] Creating Layer score
I0823 17:41:14.585707 15833 net.cpp:434] score <- conv7_1_bn
I0823 17:41:14.585713 15833 net.cpp:408] score -> score
I0823 17:41:14.585899 15833 net.cpp:150] Setting up score
I0823 17:41:14.585906 15833 net.cpp:157] Top shape: 64 4 13 13 (43264)
I0823 17:41:14.585909 15833 net.cpp:165] Memory required for data: 1635318784
I0823 17:41:14.585914 15833 layer_factory.hpp:77] Creating layer upscore
I0823 17:41:14.585922 15833 net.cpp:100] Creating Layer upscore
I0823 17:41:14.585924 15833 net.cpp:434] upscore <- score
I0823 17:41:14.585930 15833 net.cpp:408] upscore -> upscore
I0823 17:41:14.586431 15833 net.cpp:150] Setting up upscore
I0823 17:41:14.586436 15833 net.cpp:157] Top shape: 64 4 224 224 (12845056)
I0823 17:41:14.586439 15833 net.cpp:165] Memory required for data: 1686699008
I0823 17:41:14.586443 15833 layer_factory.hpp:77] Creating layer cropscore
I0823 17:41:14.586450 15833 net.cpp:100] Creating Layer cropscore
I0823 17:41:14.586453 15833 net.cpp:434] cropscore <- upscore
I0823 17:41:14.586457 15833 net.cpp:434] cropscore <- image_data_0_split_1
I0823 17:41:14.586462 15833 net.cpp:408] cropscore -> cropscore
I0823 17:41:14.586479 15833 net.cpp:150] Setting up cropscore
I0823 17:41:14.586483 15833 net.cpp:157] Top shape: 64 4 200 200 (10240000)
I0823 17:41:14.586486 15833 net.cpp:165] Memory required for data: 1727659008
I0823 17:41:14.586488 15833 layer_factory.hpp:77] Creating layer cropscore_cropscore_0_split
I0823 17:41:14.586493 15833 net.cpp:100] Creating Layer cropscore_cropscore_0_split
I0823 17:41:14.586496 15833 net.cpp:434] cropscore_cropscore_0_split <- cropscore
I0823 17:41:14.586501 15833 net.cpp:408] cropscore_cropscore_0_split -> cropscore_cropscore_0_split_0
I0823 17:41:14.586521 15833 net.cpp:408] cropscore_cropscore_0_split -> cropscore_cropscore_0_split_1
I0823 17:41:14.586546 15833 net.cpp:150] Setting up cropscore_cropscore_0_split
I0823 17:41:14.586550 15833 net.cpp:157] Top shape: 64 4 200 200 (10240000)
I0823 17:41:14.586555 15833 net.cpp:157] Top shape: 64 4 200 200 (10240000)
I0823 17:41:14.586556 15833 net.cpp:165] Memory required for data: 1809579008
I0823 17:41:14.586560 15833 layer_factory.hpp:77] Creating layer loss
I0823 17:41:14.586565 15833 net.cpp:100] Creating Layer loss
I0823 17:41:14.586568 15833 net.cpp:434] loss <- cropscore_cropscore_0_split_0
I0823 17:41:14.586572 15833 net.cpp:434] loss <- label_data_1_split_0
I0823 17:41:14.586580 15833 net.cpp:408] loss -> loss
…
