…
I0819 09:16:19.489538 24477 solver.cpp:91] Creating training net from net file: portrait_train_test_one_stage.prototxt2
I0819 09:16:19.490088 24477 net.cpp:322] The NetState phase (0) differed from the phase (1) specified by a rule in layer data
I0819 09:16:19.490247 24477 net.cpp:58] Initializing net from parameters: 
name: "segmentation"
state {
  phase: TRAIN
  level: 0
  stage: ""
}
layer {
  name: "data"
  type: "SegData"
  top: "image"
  top: "label"
  include {
    phase: TRAIN
  }
  transform_param {
    mirror: true
    crop_size: 200
  }
  data_param {
    source: "/raid/xuehan/segmentation_train_split"
    batch_size: 128
    backend: LMDB
  }
}
layer {
  name: "conv1_1"
  type: "Convolution"
  bottom: "image"
  top: "conv1_1"
  param {
    lr_mult: 1
    decay_mult: 1
  }
  convolution_param {
    num_output: 8
    bias_term: false
    pad: 50
    kernel_size: 3
    stride: 1
    weight_filler {
      type: "gaussian"
      std: 0.01
    }
  }
}
layer {
  name: "conv1_1_bn"
  type: "BatchNorm"
  bottom: "conv1_1"
  top: "conv1_1_bn"
  param {
    lr_mult: 0
  }
  param {
    lr_mult: 0
  }
  param {
    lr_mult: 0
  }
}
layer {
  name: "conv1_1_bn_scale"
  type: "Scale"
  bottom: "conv1_1_bn"
  top: "conv1_1_bn"
  scale_param {
    bias_term: true
  }
}
layer {
  name: "conv1_1_relu"
  type: "ReLU"
  bottom: "conv1_1_bn"
  top: "conv1_1_bn"
}
layer {
  name: "pool1"
  type: "Pooling"
  bottom: "conv1_1_bn"
  top: "pool1"
  pooling_param {
    pool: MAX
    kernel_size: 2
    stride: 2
  }
}
layer {
  name: "conv2_1"
  type: "Convolution"
  bottom: "pool1"
  top: "conv2_1"
  param {
    lr_mult: 1
    decay_mult: 1
  }
  convolution_param {
    num_output: 16
    bias_term: false
    pad: 1
    kernel_size: 3
    stride: 1
    weight_filler {
      type: "gaussian"
      std: 0.01
    }
  }
}
layer {
  name: "conv2_1_bn"
  type: "BatchNorm"
  bottom: "conv2_1"
  top: "conv2_1_bn"
  param {
    lr_mult: 0
  }
  param {
    lr_mult: 0
  }
  param {
    lr_mult: 0
  }
}
layer {
  name: "conv2_1_bn_scale"
  type: "Scale"
  bottom: "conv2_1_bn"
  top: "conv2_1_bn"
  scale_param {
    bias_term: true
  }
}
layer {
  name: "conv2_1_relu"
  type: "ReLU"
  bottom: "conv2_1_bn"
  top: "conv2_1_bn"
}
layer {
  name: "pool2"
  type: "Pooling"
  bottom: "conv2_1_bn"
  top: "pool2"
  pooling_param {
    pool: MAX
    kernel_size: 2
    stride: 2
  }
}
layer {
  name: "conv3_1"
  type: "Convolution"
  bottom: "pool2"
  top: "conv3_1"
  param {
    lr_mult: 1
    decay_mult: 1
  }
  convolution_param {
    num_output: 32
    bias_term: false
    pad: 1
    kernel_size: 3
    stride: 1
    weight_filler {
      type: "gaussian"
      std: 0.01
    }
  }
}
layer {
  name: "conv3_1_bn"
  type: "BatchNorm"
  bottom: "conv3_1"
  top: "conv3_1_bn"
  param {
    lr_mult: 0
  }
  param {
    lr_mult: 0
  }
  param {
    lr_mult: 0
  }
}
layer {
  name: "conv3_1_bn_scale"
  type: "Scale"
  bottom: "conv3_1_bn"
  top: "conv3_1_bn"
  scale_param {
    bias_term: true
  }
}
layer {
  name: "conv3_1_relu"
  type: "ReLU"
  bottom: "conv3_1_bn"
  top: "conv3_1_bn"
}
layer {
  name: "pool3"
  type: "Pooling"
  bottom: "conv3_1_bn"
  top: "pool3"
  pooling_param {
    pool: MAX
    kernel_size: 2
    stride: 2
  }
}
layer {
  name: "conv4_1"
  type: "Convolution"
  bottom: "pool3"
  top: "conv4_1"
  param {
    lr_mult: 1
    decay_mult: 1
  }
  convolution_param {
    num_output: 64
    bias_term: false
    pad: 1
    kernel_size: 3
    stride: 1
    weight_filler {
      type: "gaussian"
      std: 0.01
    }
  }
}
layer {
  name: "conv4_1_bn"
  type: "BatchNorm"
  bottom: "conv4_1"
  top: "conv4_1_bn"
  param {
    lr_mult: 0
  }
  param {
    lr_mult: 0
  }
  param {
    lr_mult: 0
  }
}
layer {
  name: "conv4_1_bn_scale"
  type: "Scale"
  bottom: "conv4_1_bn"
  top: "conv4_1_bn"
  scale_param {
    bias_term: true
  }
}
layer {
  name: "conv4_1_relu"
  type: "ReLU"
  bottom: "conv4_1_bn"
  top: "conv4_1_bn"
}
layer {
  name: "pool4"
  type: "Pooling"
  bottom: "conv4_1_bn"
  top: "pool4"
  pooling_param {
    pool: MAX
    kernel_size: 2
    stride: 2
  }
}
layer {
  name: "conv5_1"
  type: "Convolution"
  bottom: "pool4"
  top: "conv5_1"
  param {
    lr_mult: 1
    decay_mult: 1
  }
  convolution_param {
    num_output: 64
    bias_term: false
    pad: 0
    kernel_size: 3
    stride: 1
    weight_filler {
      type: "gaussian"
      std: 0.01
    }
  }
}
layer {
  name: "conv5_1_bn"
  type: "BatchNorm"
  bottom: "conv5_1"
  top: "conv5_1_bn"
  param {
    lr_mult: 0
  }
  param {
    lr_mult: 0
  }
  param {
    lr_mult: 0
  }
}
layer {
  name: "conv5_1_bn_scale"
  type: "Scale"
  bottom: "conv5_1_bn"
  top: "conv5_1_bn"
  scale_param {
    bias_term: true
  }
}
layer {
  name: "conv5_1_relu"
  type: "ReLU"
  bottom: "conv5_1_bn"
  top: "conv5_1_bn"
}
layer {
  name: "conv6_1"
  type: "Convolution"
  bottom: "conv5_1_bn"
  top: "conv6_1"
  param {
    lr_mult: 1
    decay_mult: 1
  }
  convolution_param {
    num_output: 64
    bias_term: false
    pad: 0
    kernel_size: 3
    stride: 1
    weight_filler {
      type: "gaussian"
      std: 0.01
    }
  }
}
layer {
  name: "conv6_1_bn"
  type: "BatchNorm"
  bottom: "conv6_1"
  top: "conv6_1_bn"
  param {
    lr_mult: 0
  }
  param {
    lr_mult: 0
  }
  param {
    lr_mult: 0
  }
}
layer {
  name: "conv6_1_bn_scale"
  type: "Scale"
  bottom: "conv6_1_bn"
  top: "conv6_1_bn"
  scale_param {
    bias_term: true
  }
}
layer {
  name: "conv6_1_relu"
  type: "ReLU"
  bottom: "conv6_1_bn"
  top: "conv6_1_bn"
}
layer {
  name: "conv7_1"
  type: "Convolution"
  bottom: "conv6_1_bn"
  top: "conv7_1"
  param {
    lr_mult: 1
    decay_mult: 1
  }
  convolution_param {
    num_output: 128
    bias_term: false
    pad: 0
    kernel_size: 3
    stride: 1
    weight_filler {
      type: "gaussian"
      std: 0.01
    }
  }
}
layer {
  name: "conv7_1_bn"
  type: "BatchNorm"
  bottom: "conv7_1"
  top: "conv7_1_bn"
  param {
    lr_mult: 0
  }
  param {
    lr_mult: 0
  }
  param {
    lr_mult: 0
  }
}
layer {
  name: "conv7_1_bn_scale"
  type: "Scale"
  bottom: "conv7_1_bn"
  top: "conv7_1_bn"
  scale_param {
    bias_term: true
  }
}
layer {
  name: "conv7_1_relu"
  type: "ReLU"
  bottom: "conv7_1_bn"
  top: "conv7_1_bn"
}
layer {
  name: "score"
  type: "Convolution"
  bottom: "conv7_1_bn"
  top: "score"
  param {
    lr_mult: 1
    decay_mult: 1
  }
  param {
    lr_mult: 2
    decay_mult: 0
  }
  convolution_param {
    num_output: 4
    pad: 0
    kernel_size: 1
    stride: 1
    weight_filler {
      type: "gaussian"
      std: 0.01
    }
    bias_filler {
      type: "constant"
    }
  }
}
layer {
  name: "upscore"
  type: "Deconvolution"
  bottom: "score"
  top: "upscore"
  param {
    lr_mult: 1
    decay_mult: 1
  }
  convolution_param {
    num_output: 4
    bias_term: false
    pad: 0
    kernel_size: 32
    stride: 16
    weight_filler {
      type: "gaussian"
      std: 0.01
    }
  }
}
layer {
  name: "cropscore"
  type: "Crop"
  bottom: "upscore"
  bottom: "image"
  top: "cropscore"
  crop_param {
    axis: 2
    offset: 12
  }
}
layer {
  name: "loss"
  type: "SoftmaxWithLoss"
  bottom: "cropscore"
  bottom: "label"
  top: "loss"
  loss_weight: 1
  loss_param {
    normalize: false
  }
}
layer {
  name: "accuracy"
  type: "Accuracy"
  bottom: "cropscore"
  bottom: "label"
  top: "accuracy"
}
I0819 09:16:19.490394 24477 layer_factory.hpp:77] Creating layer data
I0819 09:16:19.490834 24477 net.cpp:100] Creating Layer data
I0819 09:16:19.490844 24477 net.cpp:408] data -> image
I0819 09:16:19.490860 24477 net.cpp:408] data -> label
I0819 09:16:19.491854 24481 db_lmdb.cpp:35] Opened lmdb /raid/xuehan/segmentation_train_split
I0819 09:16:19.492034 24477 seg_data_layer.cpp:38] 200 200 4
I0819 09:16:19.499167 24477 seg_data_layer.cpp:51] output data size: 128,3,200,200
I0819 09:16:19.499225 24477 seg_data_layer.cpp:63] output label size: 128,1,200,200
I0819 09:16:19.604614 24477 net.cpp:150] Setting up data
I0819 09:16:19.604645 24477 net.cpp:157] Top shape: 128 3 200 200 (15360000)
I0819 09:16:19.604650 24477 net.cpp:157] Top shape: 128 1 200 200 (5120000)
I0819 09:16:19.604652 24477 net.cpp:165] Memory required for data: 81920000
I0819 09:16:19.604662 24477 layer_factory.hpp:77] Creating layer image_data_0_split
I0819 09:16:19.604678 24477 net.cpp:100] Creating Layer image_data_0_split
I0819 09:16:19.604683 24477 net.cpp:434] image_data_0_split <- image
I0819 09:16:19.604694 24477 net.cpp:408] image_data_0_split -> image_data_0_split_0
I0819 09:16:19.604702 24477 net.cpp:408] image_data_0_split -> image_data_0_split_1
I0819 09:16:19.604743 24477 net.cpp:150] Setting up image_data_0_split
I0819 09:16:19.604748 24477 net.cpp:157] Top shape: 128 3 200 200 (15360000)
I0819 09:16:19.604750 24477 net.cpp:157] Top shape: 128 3 200 200 (15360000)
I0819 09:16:19.604753 24477 net.cpp:165] Memory required for data: 204800000
I0819 09:16:19.604755 24477 layer_factory.hpp:77] Creating layer label_data_1_split
I0819 09:16:19.604760 24477 net.cpp:100] Creating Layer label_data_1_split
I0819 09:16:19.604763 24477 net.cpp:434] label_data_1_split <- label
I0819 09:16:19.604768 24477 net.cpp:408] label_data_1_split -> label_data_1_split_0
I0819 09:16:19.604773 24477 net.cpp:408] label_data_1_split -> label_data_1_split_1
I0819 09:16:19.604794 24477 net.cpp:150] Setting up label_data_1_split
I0819 09:16:19.604799 24477 net.cpp:157] Top shape: 128 1 200 200 (5120000)
I0819 09:16:19.604802 24477 net.cpp:157] Top shape: 128 1 200 200 (5120000)
I0819 09:16:19.604804 24477 net.cpp:165] Memory required for data: 245760000
I0819 09:16:19.604807 24477 layer_factory.hpp:77] Creating layer conv1_1
I0819 09:16:19.604820 24477 net.cpp:100] Creating Layer conv1_1
I0819 09:16:19.604822 24477 net.cpp:434] conv1_1 <- image_data_0_split_0
I0819 09:16:19.604827 24477 net.cpp:408] conv1_1 -> conv1_1
I0819 09:16:19.604980 24477 net.cpp:150] Setting up conv1_1
I0819 09:16:19.604987 24477 net.cpp:157] Top shape: 128 8 298 298 (90935296)
I0819 09:16:19.604990 24477 net.cpp:165] Memory required for data: 609501184
I0819 09:16:19.604998 24477 layer_factory.hpp:77] Creating layer conv1_1_bn
I0819 09:16:19.605005 24477 net.cpp:100] Creating Layer conv1_1_bn
I0819 09:16:19.605008 24477 net.cpp:434] conv1_1_bn <- conv1_1
I0819 09:16:19.605012 24477 net.cpp:408] conv1_1_bn -> conv1_1_bn
I0819 09:16:19.605592 24477 net.cpp:150] Setting up conv1_1_bn
I0819 09:16:19.605602 24477 net.cpp:157] Top shape: 128 8 298 298 (90935296)
I0819 09:16:19.605605 24477 net.cpp:165] Memory required for data: 973242368
I0819 09:16:19.605614 24477 layer_factory.hpp:77] Creating layer conv1_1_bn_scale
I0819 09:16:19.605621 24477 net.cpp:100] Creating Layer conv1_1_bn_scale
I0819 09:16:19.605625 24477 net.cpp:434] conv1_1_bn_scale <- conv1_1_bn
I0819 09:16:19.605629 24477 net.cpp:395] conv1_1_bn_scale -> conv1_1_bn (in-place)
I0819 09:16:19.605657 24477 layer_factory.hpp:77] Creating layer conv1_1_bn_scale
I0819 09:16:19.606240 24477 net.cpp:150] Setting up conv1_1_bn_scale
I0819 09:16:19.606251 24477 net.cpp:157] Top shape: 128 8 298 298 (90935296)
I0819 09:16:19.606252 24477 net.cpp:165] Memory required for data: 1336983552
I0819 09:16:19.606261 24477 layer_factory.hpp:77] Creating layer conv1_1_relu
I0819 09:16:19.606267 24477 net.cpp:100] Creating Layer conv1_1_relu
I0819 09:16:19.606271 24477 net.cpp:434] conv1_1_relu <- conv1_1_bn
I0819 09:16:19.606276 24477 net.cpp:395] conv1_1_relu -> conv1_1_bn (in-place)
I0819 09:16:19.606281 24477 net.cpp:150] Setting up conv1_1_relu
I0819 09:16:19.606284 24477 net.cpp:157] Top shape: 128 8 298 298 (90935296)
I0819 09:16:19.606287 24477 net.cpp:165] Memory required for data: 1700724736
I0819 09:16:19.606289 24477 layer_factory.hpp:77] Creating layer pool1
I0819 09:16:19.606302 24477 net.cpp:100] Creating Layer pool1
I0819 09:16:19.606312 24477 net.cpp:434] pool1 <- conv1_1_bn
I0819 09:16:19.606317 24477 net.cpp:408] pool1 -> pool1
I0819 09:16:19.612948 24477 net.cpp:150] Setting up pool1
I0819 09:16:19.612958 24477 net.cpp:157] Top shape: 128 8 149 149 (22733824)
I0819 09:16:19.612960 24477 net.cpp:165] Memory required for data: 1791660032
I0819 09:16:19.612963 24477 layer_factory.hpp:77] Creating layer conv2_1
I0819 09:16:19.612973 24477 net.cpp:100] Creating Layer conv2_1
I0819 09:16:19.612977 24477 net.cpp:434] conv2_1 <- pool1
I0819 09:16:19.612982 24477 net.cpp:408] conv2_1 -> conv2_1
I0819 09:16:19.613548 24477 net.cpp:150] Setting up conv2_1
I0819 09:16:19.613559 24477 net.cpp:157] Top shape: 128 16 149 149 (45467648)
I0819 09:16:19.613561 24477 net.cpp:165] Memory required for data: 1973530624
I0819 09:16:19.613565 24477 layer_factory.hpp:77] Creating layer conv2_1_bn
I0819 09:16:19.613572 24477 net.cpp:100] Creating Layer conv2_1_bn
I0819 09:16:19.613575 24477 net.cpp:434] conv2_1_bn <- conv2_1
I0819 09:16:19.613579 24477 net.cpp:408] conv2_1_bn -> conv2_1_bn
I0819 09:16:19.614156 24477 net.cpp:150] Setting up conv2_1_bn
I0819 09:16:19.614166 24477 net.cpp:157] Top shape: 128 16 149 149 (45467648)
I0819 09:16:19.614168 24477 net.cpp:165] Memory required for data: 2155401216
I0819 09:16:19.614177 24477 layer_factory.hpp:77] Creating layer conv2_1_bn_scale
I0819 09:16:19.614184 24477 net.cpp:100] Creating Layer conv2_1_bn_scale
I0819 09:16:19.614188 24477 net.cpp:434] conv2_1_bn_scale <- conv2_1_bn
I0819 09:16:19.614193 24477 net.cpp:395] conv2_1_bn_scale -> conv2_1_bn (in-place)
I0819 09:16:19.614219 24477 layer_factory.hpp:77] Creating layer conv2_1_bn_scale
I0819 09:16:19.614308 24477 net.cpp:150] Setting up conv2_1_bn_scale
I0819 09:16:19.614315 24477 net.cpp:157] Top shape: 128 16 149 149 (45467648)
I0819 09:16:19.614317 24477 net.cpp:165] Memory required for data: 2337271808
I0819 09:16:19.614321 24477 layer_factory.hpp:77] Creating layer conv2_1_relu
I0819 09:16:19.614327 24477 net.cpp:100] Creating Layer conv2_1_relu
I0819 09:16:19.614331 24477 net.cpp:434] conv2_1_relu <- conv2_1_bn
I0819 09:16:19.614336 24477 net.cpp:395] conv2_1_relu -> conv2_1_bn (in-place)
I0819 09:16:19.614341 24477 net.cpp:150] Setting up conv2_1_relu
I0819 09:16:19.614346 24477 net.cpp:157] Top shape: 128 16 149 149 (45467648)
I0819 09:16:19.614348 24477 net.cpp:165] Memory required for data: 2519142400
I0819 09:16:19.614351 24477 layer_factory.hpp:77] Creating layer pool2
I0819 09:16:19.614356 24477 net.cpp:100] Creating Layer pool2
I0819 09:16:19.614358 24477 net.cpp:434] pool2 <- conv2_1_bn
I0819 09:16:19.614362 24477 net.cpp:408] pool2 -> pool2
I0819 09:16:19.614387 24477 net.cpp:150] Setting up pool2
I0819 09:16:19.614392 24477 net.cpp:157] Top shape: 128 16 75 75 (11520000)
I0819 09:16:19.614394 24477 net.cpp:165] Memory required for data: 2565222400
I0819 09:16:19.614397 24477 layer_factory.hpp:77] Creating layer conv3_1
I0819 09:16:19.614403 24477 net.cpp:100] Creating Layer conv3_1
I0819 09:16:19.614406 24477 net.cpp:434] conv3_1 <- pool2
I0819 09:16:19.614410 24477 net.cpp:408] conv3_1 -> conv3_1
I0819 09:16:19.615056 24477 net.cpp:150] Setting up conv3_1
I0819 09:16:19.615067 24477 net.cpp:157] Top shape: 128 32 75 75 (23040000)
I0819 09:16:19.615069 24477 net.cpp:165] Memory required for data: 2657382400
I0819 09:16:19.615073 24477 layer_factory.hpp:77] Creating layer conv3_1_bn
I0819 09:16:19.615080 24477 net.cpp:100] Creating Layer conv3_1_bn
I0819 09:16:19.615083 24477 net.cpp:434] conv3_1_bn <- conv3_1
I0819 09:16:19.615087 24477 net.cpp:408] conv3_1_bn -> conv3_1_bn
I0819 09:16:19.615216 24477 net.cpp:150] Setting up conv3_1_bn
I0819 09:16:19.615221 24477 net.cpp:157] Top shape: 128 32 75 75 (23040000)
I0819 09:16:19.615223 24477 net.cpp:165] Memory required for data: 2749542400
I0819 09:16:19.615229 24477 layer_factory.hpp:77] Creating layer conv3_1_bn_scale
I0819 09:16:19.615234 24477 net.cpp:100] Creating Layer conv3_1_bn_scale
I0819 09:16:19.615237 24477 net.cpp:434] conv3_1_bn_scale <- conv3_1_bn
I0819 09:16:19.615254 24477 net.cpp:395] conv3_1_bn_scale -> conv3_1_bn (in-place)
I0819 09:16:19.615279 24477 layer_factory.hpp:77] Creating layer conv3_1_bn_scale
I0819 09:16:19.615356 24477 net.cpp:150] Setting up conv3_1_bn_scale
I0819 09:16:19.615361 24477 net.cpp:157] Top shape: 128 32 75 75 (23040000)
I0819 09:16:19.615365 24477 net.cpp:165] Memory required for data: 2841702400
I0819 09:16:19.615373 24477 layer_factory.hpp:77] Creating layer conv3_1_relu
I0819 09:16:19.615378 24477 net.cpp:100] Creating Layer conv3_1_relu
I0819 09:16:19.615381 24477 net.cpp:434] conv3_1_relu <- conv3_1_bn
I0819 09:16:19.615386 24477 net.cpp:395] conv3_1_relu -> conv3_1_bn (in-place)
I0819 09:16:19.615391 24477 net.cpp:150] Setting up conv3_1_relu
I0819 09:16:19.615393 24477 net.cpp:157] Top shape: 128 32 75 75 (23040000)
I0819 09:16:19.615396 24477 net.cpp:165] Memory required for data: 2933862400
I0819 09:16:19.615398 24477 layer_factory.hpp:77] Creating layer pool3
I0819 09:16:19.615404 24477 net.cpp:100] Creating Layer pool3
I0819 09:16:19.615407 24477 net.cpp:434] pool3 <- conv3_1_bn
I0819 09:16:19.615411 24477 net.cpp:408] pool3 -> pool3
I0819 09:16:19.615458 24477 net.cpp:150] Setting up pool3
I0819 09:16:19.615463 24477 net.cpp:157] Top shape: 128 32 38 38 (5914624)
I0819 09:16:19.615465 24477 net.cpp:165] Memory required for data: 2957520896
I0819 09:16:19.615468 24477 layer_factory.hpp:77] Creating layer conv4_1
I0819 09:16:19.615474 24477 net.cpp:100] Creating Layer conv4_1
I0819 09:16:19.615478 24477 net.cpp:434] conv4_1 <- pool3
I0819 09:16:19.615481 24477 net.cpp:408] conv4_1 -> conv4_1
I0819 09:16:19.615986 24477 net.cpp:150] Setting up conv4_1
I0819 09:16:19.615993 24477 net.cpp:157] Top shape: 128 64 38 38 (11829248)
I0819 09:16:19.615995 24477 net.cpp:165] Memory required for data: 3004837888
I0819 09:16:19.615998 24477 layer_factory.hpp:77] Creating layer conv4_1_bn
I0819 09:16:19.616005 24477 net.cpp:100] Creating Layer conv4_1_bn
I0819 09:16:19.616009 24477 net.cpp:434] conv4_1_bn <- conv4_1
I0819 09:16:19.616013 24477 net.cpp:408] conv4_1_bn -> conv4_1_bn
I0819 09:16:19.616138 24477 net.cpp:150] Setting up conv4_1_bn
I0819 09:16:19.616143 24477 net.cpp:157] Top shape: 128 64 38 38 (11829248)
I0819 09:16:19.616147 24477 net.cpp:165] Memory required for data: 3052154880
I0819 09:16:19.616152 24477 layer_factory.hpp:77] Creating layer conv4_1_bn_scale
I0819 09:16:19.616156 24477 net.cpp:100] Creating Layer conv4_1_bn_scale
I0819 09:16:19.616158 24477 net.cpp:434] conv4_1_bn_scale <- conv4_1_bn
I0819 09:16:19.616163 24477 net.cpp:395] conv4_1_bn_scale -> conv4_1_bn (in-place)
I0819 09:16:19.616186 24477 layer_factory.hpp:77] Creating layer conv4_1_bn_scale
I0819 09:16:19.616264 24477 net.cpp:150] Setting up conv4_1_bn_scale
I0819 09:16:19.616271 24477 net.cpp:157] Top shape: 128 64 38 38 (11829248)
I0819 09:16:19.616273 24477 net.cpp:165] Memory required for data: 3099471872
I0819 09:16:19.616277 24477 layer_factory.hpp:77] Creating layer conv4_1_relu
I0819 09:16:19.616282 24477 net.cpp:100] Creating Layer conv4_1_relu
I0819 09:16:19.616284 24477 net.cpp:434] conv4_1_relu <- conv4_1_bn
I0819 09:16:19.616288 24477 net.cpp:395] conv4_1_relu -> conv4_1_bn (in-place)
I0819 09:16:19.616292 24477 net.cpp:150] Setting up conv4_1_relu
I0819 09:16:19.616295 24477 net.cpp:157] Top shape: 128 64 38 38 (11829248)
I0819 09:16:19.616298 24477 net.cpp:165] Memory required for data: 3146788864
I0819 09:16:19.616302 24477 layer_factory.hpp:77] Creating layer pool4
I0819 09:16:19.616305 24477 net.cpp:100] Creating Layer pool4
I0819 09:16:19.616307 24477 net.cpp:434] pool4 <- conv4_1_bn
I0819 09:16:19.616313 24477 net.cpp:408] pool4 -> pool4
I0819 09:16:19.616338 24477 net.cpp:150] Setting up pool4
I0819 09:16:19.616341 24477 net.cpp:157] Top shape: 128 64 19 19 (2957312)
I0819 09:16:19.616343 24477 net.cpp:165] Memory required for data: 3158618112
I0819 09:16:19.616346 24477 layer_factory.hpp:77] Creating layer conv5_1
I0819 09:16:19.616353 24477 net.cpp:100] Creating Layer conv5_1
I0819 09:16:19.616360 24477 net.cpp:434] conv5_1 <- pool4
I0819 09:16:19.616369 24477 net.cpp:408] conv5_1 -> conv5_1
I0819 09:16:19.617281 24477 net.cpp:150] Setting up conv5_1
I0819 09:16:19.617287 24477 net.cpp:157] Top shape: 128 64 17 17 (2367488)
I0819 09:16:19.617290 24477 net.cpp:165] Memory required for data: 3168088064
I0819 09:16:19.617295 24477 layer_factory.hpp:77] Creating layer conv5_1_bn
I0819 09:16:19.617300 24477 net.cpp:100] Creating Layer conv5_1_bn
I0819 09:16:19.617301 24477 net.cpp:434] conv5_1_bn <- conv5_1
I0819 09:16:19.617306 24477 net.cpp:408] conv5_1_bn -> conv5_1_bn
I0819 09:16:19.617892 24477 net.cpp:150] Setting up conv5_1_bn
I0819 09:16:19.617903 24477 net.cpp:157] Top shape: 128 64 17 17 (2367488)
I0819 09:16:19.617905 24477 net.cpp:165] Memory required for data: 3177558016
I0819 09:16:19.617913 24477 layer_factory.hpp:77] Creating layer conv5_1_bn_scale
I0819 09:16:19.617918 24477 net.cpp:100] Creating Layer conv5_1_bn_scale
I0819 09:16:19.617921 24477 net.cpp:434] conv5_1_bn_scale <- conv5_1_bn
I0819 09:16:19.617926 24477 net.cpp:395] conv5_1_bn_scale -> conv5_1_bn (in-place)
I0819 09:16:19.617954 24477 layer_factory.hpp:77] Creating layer conv5_1_bn_scale
I0819 09:16:19.618036 24477 net.cpp:150] Setting up conv5_1_bn_scale
I0819 09:16:19.618041 24477 net.cpp:157] Top shape: 128 64 17 17 (2367488)
I0819 09:16:19.618043 24477 net.cpp:165] Memory required for data: 3187027968
I0819 09:16:19.618048 24477 layer_factory.hpp:77] Creating layer conv5_1_relu
I0819 09:16:19.618052 24477 net.cpp:100] Creating Layer conv5_1_relu
I0819 09:16:19.618055 24477 net.cpp:434] conv5_1_relu <- conv5_1_bn
I0819 09:16:19.618059 24477 net.cpp:395] conv5_1_relu -> conv5_1_bn (in-place)
I0819 09:16:19.618063 24477 net.cpp:150] Setting up conv5_1_relu
I0819 09:16:19.618067 24477 net.cpp:157] Top shape: 128 64 17 17 (2367488)
I0819 09:16:19.618069 24477 net.cpp:165] Memory required for data: 3196497920
I0819 09:16:19.618072 24477 layer_factory.hpp:77] Creating layer conv6_1
I0819 09:16:19.618079 24477 net.cpp:100] Creating Layer conv6_1
I0819 09:16:19.618083 24477 net.cpp:434] conv6_1 <- conv5_1_bn
I0819 09:16:19.618088 24477 net.cpp:408] conv6_1 -> conv6_1
I0819 09:16:19.618988 24477 net.cpp:150] Setting up conv6_1
I0819 09:16:19.618994 24477 net.cpp:157] Top shape: 128 64 15 15 (1843200)
I0819 09:16:19.618998 24477 net.cpp:165] Memory required for data: 3203870720
I0819 09:16:19.619000 24477 layer_factory.hpp:77] Creating layer conv6_1_bn
I0819 09:16:19.619005 24477 net.cpp:100] Creating Layer conv6_1_bn
I0819 09:16:19.619009 24477 net.cpp:434] conv6_1_bn <- conv6_1
I0819 09:16:19.619012 24477 net.cpp:408] conv6_1_bn -> conv6_1_bn
I0819 09:16:19.619139 24477 net.cpp:150] Setting up conv6_1_bn
I0819 09:16:19.619143 24477 net.cpp:157] Top shape: 128 64 15 15 (1843200)
I0819 09:16:19.619146 24477 net.cpp:165] Memory required for data: 3211243520
I0819 09:16:19.619158 24477 layer_factory.hpp:77] Creating layer conv6_1_bn_scale
I0819 09:16:19.619163 24477 net.cpp:100] Creating Layer conv6_1_bn_scale
I0819 09:16:19.619166 24477 net.cpp:434] conv6_1_bn_scale <- conv6_1_bn
I0819 09:16:19.619169 24477 net.cpp:395] conv6_1_bn_scale -> conv6_1_bn (in-place)
I0819 09:16:19.619194 24477 layer_factory.hpp:77] Creating layer conv6_1_bn_scale
I0819 09:16:19.619266 24477 net.cpp:150] Setting up conv6_1_bn_scale
I0819 09:16:19.619272 24477 net.cpp:157] Top shape: 128 64 15 15 (1843200)
I0819 09:16:19.619274 24477 net.cpp:165] Memory required for data: 3218616320
I0819 09:16:19.619279 24477 layer_factory.hpp:77] Creating layer conv6_1_relu
I0819 09:16:19.619283 24477 net.cpp:100] Creating Layer conv6_1_relu
I0819 09:16:19.619287 24477 net.cpp:434] conv6_1_relu <- conv6_1_bn
I0819 09:16:19.619289 24477 net.cpp:395] conv6_1_relu -> conv6_1_bn (in-place)
I0819 09:16:19.619293 24477 net.cpp:150] Setting up conv6_1_relu
I0819 09:16:19.619297 24477 net.cpp:157] Top shape: 128 64 15 15 (1843200)
I0819 09:16:19.619299 24477 net.cpp:165] Memory required for data: 3225989120
I0819 09:16:19.619302 24477 layer_factory.hpp:77] Creating layer conv7_1
I0819 09:16:19.619314 24477 net.cpp:100] Creating Layer conv7_1
I0819 09:16:19.619324 24477 net.cpp:434] conv7_1 <- conv6_1_bn
I0819 09:16:19.619328 24477 net.cpp:408] conv7_1 -> conv7_1
I0819 09:16:19.621039 24477 net.cpp:150] Setting up conv7_1
I0819 09:16:19.621045 24477 net.cpp:157] Top shape: 128 128 13 13 (2768896)
I0819 09:16:19.621048 24477 net.cpp:165] Memory required for data: 3237064704
I0819 09:16:19.621052 24477 layer_factory.hpp:77] Creating layer conv7_1_bn
I0819 09:16:19.621059 24477 net.cpp:100] Creating Layer conv7_1_bn
I0819 09:16:19.621062 24477 net.cpp:434] conv7_1_bn <- conv7_1
I0819 09:16:19.621068 24477 net.cpp:408] conv7_1_bn -> conv7_1_bn
I0819 09:16:19.621197 24477 net.cpp:150] Setting up conv7_1_bn
I0819 09:16:19.621202 24477 net.cpp:157] Top shape: 128 128 13 13 (2768896)
I0819 09:16:19.621206 24477 net.cpp:165] Memory required for data: 3248140288
I0819 09:16:19.621211 24477 layer_factory.hpp:77] Creating layer conv7_1_bn_scale
I0819 09:16:19.621217 24477 net.cpp:100] Creating Layer conv7_1_bn_scale
I0819 09:16:19.621219 24477 net.cpp:434] conv7_1_bn_scale <- conv7_1_bn
I0819 09:16:19.621223 24477 net.cpp:395] conv7_1_bn_scale -> conv7_1_bn (in-place)
I0819 09:16:19.621245 24477 layer_factory.hpp:77] Creating layer conv7_1_bn_scale
I0819 09:16:19.621310 24477 net.cpp:150] Setting up conv7_1_bn_scale
I0819 09:16:19.621315 24477 net.cpp:157] Top shape: 128 128 13 13 (2768896)
I0819 09:16:19.621318 24477 net.cpp:165] Memory required for data: 3259215872
I0819 09:16:19.621322 24477 layer_factory.hpp:77] Creating layer conv7_1_relu
I0819 09:16:19.621327 24477 net.cpp:100] Creating Layer conv7_1_relu
I0819 09:16:19.621330 24477 net.cpp:434] conv7_1_relu <- conv7_1_bn
I0819 09:16:19.621335 24477 net.cpp:395] conv7_1_relu -> conv7_1_bn (in-place)
I0819 09:16:19.621338 24477 net.cpp:150] Setting up conv7_1_relu
I0819 09:16:19.621342 24477 net.cpp:157] Top shape: 128 128 13 13 (2768896)
I0819 09:16:19.621345 24477 net.cpp:165] Memory required for data: 3270291456
I0819 09:16:19.621347 24477 layer_factory.hpp:77] Creating layer score
I0819 09:16:19.621354 24477 net.cpp:100] Creating Layer score
I0819 09:16:19.621357 24477 net.cpp:434] score <- conv7_1_bn
I0819 09:16:19.621362 24477 net.cpp:408] score -> score
I0819 09:16:19.621521 24477 net.cpp:150] Setting up score
I0819 09:16:19.621528 24477 net.cpp:157] Top shape: 128 4 13 13 (86528)
I0819 09:16:19.621531 24477 net.cpp:165] Memory required for data: 3270637568
I0819 09:16:19.621536 24477 layer_factory.hpp:77] Creating layer upscore
I0819 09:16:19.621541 24477 net.cpp:100] Creating Layer upscore
I0819 09:16:19.621544 24477 net.cpp:434] upscore <- score
I0819 09:16:19.621549 24477 net.cpp:408] upscore -> upscore
I0819 09:16:19.622053 24477 net.cpp:150] Setting up upscore
I0819 09:16:19.622061 24477 net.cpp:157] Top shape: 128 4 224 224 (25690112)
I0819 09:16:19.622063 24477 net.cpp:165] Memory required for data: 3373398016
I0819 09:16:19.622066 24477 layer_factory.hpp:77] Creating layer cropscore
I0819 09:16:19.622072 24477 net.cpp:100] Creating Layer cropscore
I0819 09:16:19.622076 24477 net.cpp:434] cropscore <- upscore
I0819 09:16:19.622078 24477 net.cpp:434] cropscore <- image_data_0_split_1
I0819 09:16:19.622082 24477 net.cpp:408] cropscore -> cropscore
I0819 09:16:19.622102 24477 net.cpp:150] Setting up cropscore
I0819 09:16:19.622105 24477 net.cpp:157] Top shape: 128 4 200 200 (20480000)
I0819 09:16:19.622107 24477 net.cpp:165] Memory required for data: 3455318016
I0819 09:16:19.622110 24477 layer_factory.hpp:77] Creating layer cropscore_cropscore_0_split
I0819 09:16:19.622117 24477 net.cpp:100] Creating Layer cropscore_cropscore_0_split
I0819 09:16:19.622119 24477 net.cpp:434] cropscore_cropscore_0_split <- cropscore
I0819 09:16:19.622123 24477 net.cpp:408] cropscore_cropscore_0_split -> cropscore_cropscore_0_split_0
I0819 09:16:19.622128 24477 net.cpp:408] cropscore_cropscore_0_split -> cropscore_cropscore_0_split_1
I0819 09:16:19.622150 24477 net.cpp:150] Setting up cropscore_cropscore_0_split
I0819 09:16:19.622155 24477 net.cpp:157] Top shape: 128 4 200 200 (20480000)
I0819 09:16:19.622164 24477 net.cpp:157] Top shape: 128 4 200 200 (20480000)
I0819 09:16:19.622174 24477 net.cpp:165] Memory required for data: 3619158016
I0819 09:16:19.622177 24477 layer_factory.hpp:77] Creating layer loss
I0819 09:16:19.622184 24477 net.cpp:100] Creating Layer loss
I0819 09:16:19.622186 24477 net.cpp:434] loss <- cropscore_cropscore_0_split_0
I0819 09:16:19.622190 24477 net.cpp:434] loss <- label_data_1_split_0
I0819 09:16:19.622195 24477 net.cpp:408] loss -> loss
…
I0819 09:16:19.659853 24477 solver.cpp:181] Creating test net (#0) specified by net file: portrait_train_test_one_stage.prototxt2
I0819 09:16:19.659899 24477 net.cpp:322] The NetState phase (1) differed from the phase (0) specified by a rule in layer data
I0819 09:16:19.660048 24477 net.cpp:58] Initializing net from parameters: 
name: "segmentation"
state {
  phase: TEST
}
layer {
  name: "data"
  type: "SegData"
  top: "image"
  top: "label"
  include {
    phase: TEST
  }
  transform_param {
    crop_size: 200
  }
  data_param {
    source: "/raid/xuehan/segmentation_test_split"
    batch_size: 64
    backend: LMDB
  }
}
layer {
  name: "conv1_1"
  type: "Convolution"
  bottom: "image"
  top: "conv1_1"
  param {
    lr_mult: 1
    decay_mult: 1
  }
  convolution_param {
    num_output: 8
    bias_term: false
    pad: 50
    kernel_size: 3
    stride: 1
    weight_filler {
      type: "gaussian"
      std: 0.01
    }
  }
}
layer {
  name: "conv1_1_bn"
  type: "BatchNorm"
  bottom: "conv1_1"
  top: "conv1_1_bn"
  param {
    lr_mult: 0
  }
  param {
    lr_mult: 0
  }
  param {
    lr_mult: 0
  }
}
layer {
  name: "conv1_1_bn_scale"
  type: "Scale"
  bottom: "conv1_1_bn"
  top: "conv1_1_bn"
  scale_param {
    bias_term: true
  }
}
layer {
  name: "conv1_1_relu"
  type: "ReLU"
  bottom: "conv1_1_bn"
  top: "conv1_1_bn"
}
layer {
  name: "pool1"
  type: "Pooling"
  bottom: "conv1_1_bn"
  top: "pool1"
  pooling_param {
    pool: MAX
    kernel_size: 2
    stride: 2
  }
}
layer {
  name: "conv2_1"
  type: "Convolution"
  bottom: "pool1"
  top: "conv2_1"
  param {
    lr_mult: 1
    decay_mult: 1
  }
  convolution_param {
    num_output: 16
    bias_term: false
    pad: 1
    kernel_size: 3
    stride: 1
    weight_filler {
      type: "gaussian"
      std: 0.01
    }
  }
}
layer {
  name: "conv2_1_bn"
  type: "BatchNorm"
  bottom: "conv2_1"
  top: "conv2_1_bn"
  param {
    lr_mult: 0
  }
  param {
    lr_mult: 0
  }
  param {
    lr_mult: 0
  }
}
layer {
  name: "conv2_1_bn_scale"
  type: "Scale"
  bottom: "conv2_1_bn"
  top: "conv2_1_bn"
  scale_param {
    bias_term: true
  }
}
layer {
  name: "conv2_1_relu"
  type: "ReLU"
  bottom: "conv2_1_bn"
  top: "conv2_1_bn"
}
layer {
  name: "pool2"
  type: "Pooling"
  bottom: "conv2_1_bn"
  top: "pool2"
  pooling_param {
    pool: MAX
    kernel_size: 2
    stride: 2
  }
}
layer {
  name: "conv3_1"
  type: "Convolution"
  bottom: "pool2"
  top: "conv3_1"
  param {
    lr_mult: 1
    decay_mult: 1
  }
  convolution_param {
    num_output: 32
    bias_term: false
    pad: 1
    kernel_size: 3
    stride: 1
    weight_filler {
      type: "gaussian"
      std: 0.01
    }
  }
}
layer {
  name: "conv3_1_bn"
  type: "BatchNorm"
  bottom: "conv3_1"
  top: "conv3_1_bn"
  param {
    lr_mult: 0
  }
  param {
    lr_mult: 0
  }
  param {
    lr_mult: 0
  }
}
layer {
  name: "conv3_1_bn_scale"
  type: "Scale"
  bottom: "conv3_1_bn"
  top: "conv3_1_bn"
  scale_param {
    bias_term: true
  }
}
layer {
  name: "conv3_1_relu"
  type: "ReLU"
  bottom: "conv3_1_bn"
  top: "conv3_1_bn"
}
layer {
  name: "pool3"
  type: "Pooling"
  bottom: "conv3_1_bn"
  top: "pool3"
  pooling_param {
    pool: MAX
    kernel_size: 2
    stride: 2
  }
}
layer {
  name: "conv4_1"
  type: "Convolution"
  bottom: "pool3"
  top: "conv4_1"
  param {
    lr_mult: 1
    decay_mult: 1
  }
  convolution_param {
    num_output: 64
    bias_term: false
    pad: 1
    kernel_size: 3
    stride: 1
    weight_filler {
      type: "gaussian"
      std: 0.01
    }
  }
}
layer {
  name: "conv4_1_bn"
  type: "BatchNorm"
  bottom: "conv4_1"
  top: "conv4_1_bn"
  param {
    lr_mult: 0
  }
  param {
    lr_mult: 0
  }
  param {
    lr_mult: 0
  }
}
layer {
  name: "conv4_1_bn_scale"
  type: "Scale"
  bottom: "conv4_1_bn"
  top: "conv4_1_bn"
  scale_param {
    bias_term: true
  }
}
layer {
  name: "conv4_1_relu"
  type: "ReLU"
  bottom: "conv4_1_bn"
  top: "conv4_1_bn"
}
layer {
  name: "pool4"
  type: "Pooling"
  bottom: "conv4_1_bn"
  top: "pool4"
  pooling_param {
    pool: MAX
    kernel_size: 2
    stride: 2
  }
}
layer {
  name: "conv5_1"
  type: "Convolution"
  bottom: "pool4"
  top: "conv5_1"
  param {
    lr_mult: 1
    decay_mult: 1
  }
  convolution_param {
    num_output: 64
    bias_term: false
    pad: 0
    kernel_size: 3
    stride: 1
    weight_filler {
      type: "gaussian"
      std: 0.01
    }
  }
}
layer {
  name: "conv5_1_bn"
  type: "BatchNorm"
  bottom: "conv5_1"
  top: "conv5_1_bn"
  param {
    lr_mult: 0
  }
  param {
    lr_mult: 0
  }
  param {
    lr_mult: 0
  }
}
layer {
  name: "conv5_1_bn_scale"
  type: "Scale"
  bottom: "conv5_1_bn"
  top: "conv5_1_bn"
  scale_param {
    bias_term: true
  }
}
layer {
  name: "conv5_1_relu"
  type: "ReLU"
  bottom: "conv5_1_bn"
  top: "conv5_1_bn"
}
layer {
  name: "conv6_1"
  type: "Convolution"
  bottom: "conv5_1_bn"
  top: "conv6_1"
  param {
    lr_mult: 1
    decay_mult: 1
  }
  convolution_param {
    num_output: 64
    bias_term: false
    pad: 0
    kernel_size: 3
    stride: 1
    weight_filler {
      type: "gaussian"
      std: 0.01
    }
  }
}
layer {
  name: "conv6_1_bn"
  type: "BatchNorm"
  bottom: "conv6_1"
  top: "conv6_1_bn"
  param {
    lr_mult: 0
  }
  param {
    lr_mult: 0
  }
  param {
    lr_mult: 0
  }
}
layer {
  name: "conv6_1_bn_scale"
  type: "Scale"
  bottom: "conv6_1_bn"
  top: "conv6_1_bn"
  scale_param {
    bias_term: true
  }
}
layer {
  name: "conv6_1_relu"
  type: "ReLU"
  bottom: "conv6_1_bn"
  top: "conv6_1_bn"
}
layer {
  name: "conv7_1"
  type: "Convolution"
  bottom: "conv6_1_bn"
  top: "conv7_1"
  param {
    lr_mult: 1
    decay_mult: 1
  }
  convolution_param {
    num_output: 128
    bias_term: false
    pad: 0
    kernel_size: 3
    stride: 1
    weight_filler {
      type: "gaussian"
      std: 0.01
    }
  }
}
layer {
  name: "conv7_1_bn"
  type: "BatchNorm"
  bottom: "conv7_1"
  top: "conv7_1_bn"
  param {
    lr_mult: 0
  }
  param {
    lr_mult: 0
  }
  param {
    lr_mult: 0
  }
}
layer {
  name: "conv7_1_bn_scale"
  type: "Scale"
  bottom: "conv7_1_bn"
  top: "conv7_1_bn"
  scale_param {
    bias_term: true
  }
}
layer {
  name: "conv7_1_relu"
  type: "ReLU"
  bottom: "conv7_1_bn"
  top: "conv7_1_bn"
}
layer {
  name: "score"
  type: "Convolution"
  bottom: "conv7_1_bn"
  top: "score"
  param {
    lr_mult: 1
    decay_mult: 1
  }
  param {
    lr_mult: 2
    decay_mult: 0
  }
  convolution_param {
    num_output: 4
    pad: 0
    kernel_size: 1
    stride: 1
    weight_filler {
      type: "gaussian"
      std: 0.01
    }
    bias_filler {
      type: "constant"
    }
  }
}
layer {
  name: "upscore"
  type: "Deconvolution"
  bottom: "score"
  top: "upscore"
  param {
    lr_mult: 1
    decay_mult: 1
  }
  convolution_param {
    num_output: 4
    bias_term: false
    pad: 0
    kernel_size: 32
    stride: 16
    weight_filler {
      type: "gaussian"
      std: 0.01
    }
  }
}
layer {
  name: "cropscore"
  type: "Crop"
  bottom: "upscore"
  bottom: "image"
  top: "cropscore"
  crop_param {
    axis: 2
    offset: 12
  }
}
layer {
  name: "loss"
  type: "SoftmaxWithLoss"
  bottom: "cropscore"
  bottom: "label"
  top: "loss"
  loss_weight: 1
  loss_param {
    normalize: false
  }
}
layer {
  name: "accuracy"
  type: "Accuracy"
  bottom: "cropscore"
  bottom: "label"
  top: "accuracy"
}
I0819 09:16:19.660176 24477 layer_factory.hpp:77] Creating layer data
I0819 09:16:19.660253 24477 net.cpp:100] Creating Layer data
I0819 09:16:19.660270 24477 net.cpp:408] data -> image
I0819 09:16:19.660292 24477 net.cpp:408] data -> label
I0819 09:16:19.661322 24483 db_lmdb.cpp:35] Opened lmdb /raid/xuehan/segmentation_test_split
I0819 09:16:19.661481 24477 seg_data_layer.cpp:38] 200 200 4
I0819 09:16:19.661550 24477 seg_data_layer.cpp:51] output data size: 64,3,200,200
I0819 09:16:19.661595 24477 seg_data_layer.cpp:63] output label size: 64,1,200,200
I0819 09:16:19.724822 24477 net.cpp:150] Setting up data
I0819 09:16:19.724850 24477 net.cpp:157] Top shape: 64 3 200 200 (7680000)
I0819 09:16:19.724856 24477 net.cpp:157] Top shape: 64 1 200 200 (2560000)
I0819 09:16:19.724858 24477 net.cpp:165] Memory required for data: 40960000
I0819 09:16:19.724864 24477 layer_factory.hpp:77] Creating layer image_data_0_split
I0819 09:16:19.724876 24477 net.cpp:100] Creating Layer image_data_0_split
I0819 09:16:19.724879 24477 net.cpp:434] image_data_0_split <- image
I0819 09:16:19.724885 24477 net.cpp:408] image_data_0_split -> image_data_0_split_0
I0819 09:16:19.724895 24477 net.cpp:408] image_data_0_split -> image_data_0_split_1
I0819 09:16:19.731459 24477 net.cpp:150] Setting up image_data_0_split
I0819 09:16:19.731475 24477 net.cpp:157] Top shape: 64 3 200 200 (7680000)
I0819 09:16:19.731479 24477 net.cpp:157] Top shape: 64 3 200 200 (7680000)
I0819 09:16:19.731482 24477 net.cpp:165] Memory required for data: 102400000
I0819 09:16:19.731485 24477 layer_factory.hpp:77] Creating layer label_data_1_split
I0819 09:16:19.731494 24477 net.cpp:100] Creating Layer label_data_1_split
I0819 09:16:19.731498 24477 net.cpp:434] label_data_1_split <- label
I0819 09:16:19.731503 24477 net.cpp:408] label_data_1_split -> label_data_1_split_0
I0819 09:16:19.731508 24477 net.cpp:408] label_data_1_split -> label_data_1_split_1
I0819 09:16:19.731544 24477 net.cpp:150] Setting up label_data_1_split
I0819 09:16:19.731549 24477 net.cpp:157] Top shape: 64 1 200 200 (2560000)
I0819 09:16:19.731552 24477 net.cpp:157] Top shape: 64 1 200 200 (2560000)
I0819 09:16:19.731555 24477 net.cpp:165] Memory required for data: 122880000
I0819 09:16:19.731559 24477 layer_factory.hpp:77] Creating layer conv1_1
I0819 09:16:19.731569 24477 net.cpp:100] Creating Layer conv1_1
I0819 09:16:19.731571 24477 net.cpp:434] conv1_1 <- image_data_0_split_0
I0819 09:16:19.731576 24477 net.cpp:408] conv1_1 -> conv1_1
I0819 09:16:19.731724 24477 net.cpp:150] Setting up conv1_1
I0819 09:16:19.731730 24477 net.cpp:157] Top shape: 64 8 298 298 (45467648)
I0819 09:16:19.731734 24477 net.cpp:165] Memory required for data: 304750592
I0819 09:16:19.731739 24477 layer_factory.hpp:77] Creating layer conv1_1_bn
I0819 09:16:19.731745 24477 net.cpp:100] Creating Layer conv1_1_bn
I0819 09:16:19.731748 24477 net.cpp:434] conv1_1_bn <- conv1_1
I0819 09:16:19.731753 24477 net.cpp:408] conv1_1_bn -> conv1_1_bn
I0819 09:16:19.731953 24477 net.cpp:150] Setting up conv1_1_bn
I0819 09:16:19.731961 24477 net.cpp:157] Top shape: 64 8 298 298 (45467648)
I0819 09:16:19.731962 24477 net.cpp:165] Memory required for data: 486621184
I0819 09:16:19.731971 24477 layer_factory.hpp:77] Creating layer conv1_1_bn_scale
I0819 09:16:19.731978 24477 net.cpp:100] Creating Layer conv1_1_bn_scale
I0819 09:16:19.731981 24477 net.cpp:434] conv1_1_bn_scale <- conv1_1_bn
I0819 09:16:19.731986 24477 net.cpp:395] conv1_1_bn_scale -> conv1_1_bn (in-place)
I0819 09:16:19.732014 24477 layer_factory.hpp:77] Creating layer conv1_1_bn_scale
I0819 09:16:19.732605 24477 net.cpp:150] Setting up conv1_1_bn_scale
I0819 09:16:19.732616 24477 net.cpp:157] Top shape: 64 8 298 298 (45467648)
I0819 09:16:19.732620 24477 net.cpp:165] Memory required for data: 668491776
I0819 09:16:19.732627 24477 layer_factory.hpp:77] Creating layer conv1_1_relu
I0819 09:16:19.732635 24477 net.cpp:100] Creating Layer conv1_1_relu
I0819 09:16:19.732637 24477 net.cpp:434] conv1_1_relu <- conv1_1_bn
I0819 09:16:19.732641 24477 net.cpp:395] conv1_1_relu -> conv1_1_bn (in-place)
I0819 09:16:19.732653 24477 net.cpp:150] Setting up conv1_1_relu
I0819 09:16:19.732664 24477 net.cpp:157] Top shape: 64 8 298 298 (45467648)
I0819 09:16:19.732666 24477 net.cpp:165] Memory required for data: 850362368
I0819 09:16:19.732669 24477 layer_factory.hpp:77] Creating layer pool1
I0819 09:16:19.732674 24477 net.cpp:100] Creating Layer pool1
I0819 09:16:19.732677 24477 net.cpp:434] pool1 <- conv1_1_bn
I0819 09:16:19.732693 24477 net.cpp:408] pool1 -> pool1
I0819 09:16:19.732772 24477 net.cpp:150] Setting up pool1
I0819 09:16:19.732780 24477 net.cpp:157] Top shape: 64 8 149 149 (11366912)
I0819 09:16:19.732784 24477 net.cpp:165] Memory required for data: 895830016
I0819 09:16:19.732786 24477 layer_factory.hpp:77] Creating layer conv2_1
I0819 09:16:19.732794 24477 net.cpp:100] Creating Layer conv2_1
I0819 09:16:19.732796 24477 net.cpp:434] conv2_1 <- pool1
I0819 09:16:19.732801 24477 net.cpp:408] conv2_1 -> conv2_1
I0819 09:16:19.736364 24477 net.cpp:150] Setting up conv2_1
I0819 09:16:19.736382 24477 net.cpp:157] Top shape: 64 16 149 149 (22733824)
I0819 09:16:19.736385 24477 net.cpp:165] Memory required for data: 986765312
I0819 09:16:19.736390 24477 layer_factory.hpp:77] Creating layer conv2_1_bn
I0819 09:16:19.736398 24477 net.cpp:100] Creating Layer conv2_1_bn
I0819 09:16:19.736402 24477 net.cpp:434] conv2_1_bn <- conv2_1
I0819 09:16:19.736407 24477 net.cpp:408] conv2_1_bn -> conv2_1_bn
I0819 09:16:19.736568 24477 net.cpp:150] Setting up conv2_1_bn
I0819 09:16:19.736574 24477 net.cpp:157] Top shape: 64 16 149 149 (22733824)
I0819 09:16:19.736577 24477 net.cpp:165] Memory required for data: 1077700608
I0819 09:16:19.736585 24477 layer_factory.hpp:77] Creating layer conv2_1_bn_scale
I0819 09:16:19.736591 24477 net.cpp:100] Creating Layer conv2_1_bn_scale
I0819 09:16:19.736594 24477 net.cpp:434] conv2_1_bn_scale <- conv2_1_bn
I0819 09:16:19.736599 24477 net.cpp:395] conv2_1_bn_scale -> conv2_1_bn (in-place)
I0819 09:16:19.736631 24477 layer_factory.hpp:77] Creating layer conv2_1_bn_scale
I0819 09:16:19.736742 24477 net.cpp:150] Setting up conv2_1_bn_scale
I0819 09:16:19.736747 24477 net.cpp:157] Top shape: 64 16 149 149 (22733824)
I0819 09:16:19.736749 24477 net.cpp:165] Memory required for data: 1168635904
I0819 09:16:19.736754 24477 layer_factory.hpp:77] Creating layer conv2_1_relu
I0819 09:16:19.736760 24477 net.cpp:100] Creating Layer conv2_1_relu
I0819 09:16:19.736763 24477 net.cpp:434] conv2_1_relu <- conv2_1_bn
I0819 09:16:19.736766 24477 net.cpp:395] conv2_1_relu -> conv2_1_bn (in-place)
I0819 09:16:19.736771 24477 net.cpp:150] Setting up conv2_1_relu
I0819 09:16:19.736775 24477 net.cpp:157] Top shape: 64 16 149 149 (22733824)
I0819 09:16:19.736778 24477 net.cpp:165] Memory required for data: 1259571200
I0819 09:16:19.736780 24477 layer_factory.hpp:77] Creating layer pool2
I0819 09:16:19.736786 24477 net.cpp:100] Creating Layer pool2
I0819 09:16:19.736789 24477 net.cpp:434] pool2 <- conv2_1_bn
I0819 09:16:19.736793 24477 net.cpp:408] pool2 -> pool2
I0819 09:16:19.736822 24477 net.cpp:150] Setting up pool2
I0819 09:16:19.736826 24477 net.cpp:157] Top shape: 64 16 75 75 (5760000)
I0819 09:16:19.736829 24477 net.cpp:165] Memory required for data: 1282611200
I0819 09:16:19.736831 24477 layer_factory.hpp:77] Creating layer conv3_1
I0819 09:16:19.736838 24477 net.cpp:100] Creating Layer conv3_1
I0819 09:16:19.736841 24477 net.cpp:434] conv3_1 <- pool2
I0819 09:16:19.736845 24477 net.cpp:408] conv3_1 -> conv3_1
I0819 09:16:19.737076 24477 net.cpp:150] Setting up conv3_1
I0819 09:16:19.737082 24477 net.cpp:157] Top shape: 64 32 75 75 (11520000)
I0819 09:16:19.737084 24477 net.cpp:165] Memory required for data: 1328691200
I0819 09:16:19.737087 24477 layer_factory.hpp:77] Creating layer conv3_1_bn
I0819 09:16:19.737094 24477 net.cpp:100] Creating Layer conv3_1_bn
I0819 09:16:19.737097 24477 net.cpp:434] conv3_1_bn <- conv3_1
I0819 09:16:19.737102 24477 net.cpp:408] conv3_1_bn -> conv3_1_bn
I0819 09:16:19.737262 24477 net.cpp:150] Setting up conv3_1_bn
I0819 09:16:19.737269 24477 net.cpp:157] Top shape: 64 32 75 75 (11520000)
I0819 09:16:19.737278 24477 net.cpp:165] Memory required for data: 1374771200
I0819 09:16:19.737292 24477 layer_factory.hpp:77] Creating layer conv3_1_bn_scale
I0819 09:16:19.737296 24477 net.cpp:100] Creating Layer conv3_1_bn_scale
I0819 09:16:19.737299 24477 net.cpp:434] conv3_1_bn_scale <- conv3_1_bn
I0819 09:16:19.737303 24477 net.cpp:395] conv3_1_bn_scale -> conv3_1_bn (in-place)
I0819 09:16:19.737334 24477 layer_factory.hpp:77] Creating layer conv3_1_bn_scale
I0819 09:16:19.737419 24477 net.cpp:150] Setting up conv3_1_bn_scale
I0819 09:16:19.737424 24477 net.cpp:157] Top shape: 64 32 75 75 (11520000)
I0819 09:16:19.737427 24477 net.cpp:165] Memory required for data: 1420851200
I0819 09:16:19.737435 24477 layer_factory.hpp:77] Creating layer conv3_1_relu
I0819 09:16:19.737442 24477 net.cpp:100] Creating Layer conv3_1_relu
I0819 09:16:19.737444 24477 net.cpp:434] conv3_1_relu <- conv3_1_bn
I0819 09:16:19.737449 24477 net.cpp:395] conv3_1_relu -> conv3_1_bn (in-place)
I0819 09:16:19.737454 24477 net.cpp:150] Setting up conv3_1_relu
I0819 09:16:19.737457 24477 net.cpp:157] Top shape: 64 32 75 75 (11520000)
I0819 09:16:19.737460 24477 net.cpp:165] Memory required for data: 1466931200
I0819 09:16:19.737463 24477 layer_factory.hpp:77] Creating layer pool3
I0819 09:16:19.737468 24477 net.cpp:100] Creating Layer pool3
I0819 09:16:19.737470 24477 net.cpp:434] pool3 <- conv3_1_bn
I0819 09:16:19.737475 24477 net.cpp:408] pool3 -> pool3
I0819 09:16:19.737503 24477 net.cpp:150] Setting up pool3
I0819 09:16:19.737506 24477 net.cpp:157] Top shape: 64 32 38 38 (2957312)
I0819 09:16:19.737509 24477 net.cpp:165] Memory required for data: 1478760448
I0819 09:16:19.737511 24477 layer_factory.hpp:77] Creating layer conv4_1
I0819 09:16:19.737517 24477 net.cpp:100] Creating Layer conv4_1
I0819 09:16:19.737520 24477 net.cpp:434] conv4_1 <- pool3
I0819 09:16:19.737526 24477 net.cpp:408] conv4_1 -> conv4_1
I0819 09:16:19.738057 24477 net.cpp:150] Setting up conv4_1
I0819 09:16:19.738065 24477 net.cpp:157] Top shape: 64 64 38 38 (5914624)
I0819 09:16:19.738067 24477 net.cpp:165] Memory required for data: 1502418944
I0819 09:16:19.738071 24477 layer_factory.hpp:77] Creating layer conv4_1_bn
I0819 09:16:19.738077 24477 net.cpp:100] Creating Layer conv4_1_bn
I0819 09:16:19.738080 24477 net.cpp:434] conv4_1_bn <- conv4_1
I0819 09:16:19.738085 24477 net.cpp:408] conv4_1_bn -> conv4_1_bn
I0819 09:16:19.738224 24477 net.cpp:150] Setting up conv4_1_bn
I0819 09:16:19.738230 24477 net.cpp:157] Top shape: 64 64 38 38 (5914624)
I0819 09:16:19.738234 24477 net.cpp:165] Memory required for data: 1526077440
I0819 09:16:19.738239 24477 layer_factory.hpp:77] Creating layer conv4_1_bn_scale
I0819 09:16:19.738243 24477 net.cpp:100] Creating Layer conv4_1_bn_scale
I0819 09:16:19.738246 24477 net.cpp:434] conv4_1_bn_scale <- conv4_1_bn
I0819 09:16:19.738250 24477 net.cpp:395] conv4_1_bn_scale -> conv4_1_bn (in-place)
I0819 09:16:19.738277 24477 layer_factory.hpp:77] Creating layer conv4_1_bn_scale
I0819 09:16:19.738363 24477 net.cpp:150] Setting up conv4_1_bn_scale
I0819 09:16:19.738369 24477 net.cpp:157] Top shape: 64 64 38 38 (5914624)
I0819 09:16:19.738371 24477 net.cpp:165] Memory required for data: 1549735936
I0819 09:16:19.738376 24477 layer_factory.hpp:77] Creating layer conv4_1_relu
I0819 09:16:19.738380 24477 net.cpp:100] Creating Layer conv4_1_relu
I0819 09:16:19.738384 24477 net.cpp:434] conv4_1_relu <- conv4_1_bn
I0819 09:16:19.738391 24477 net.cpp:395] conv4_1_relu -> conv4_1_bn (in-place)
I0819 09:16:19.738395 24477 net.cpp:150] Setting up conv4_1_relu
I0819 09:16:19.738399 24477 net.cpp:157] Top shape: 64 64 38 38 (5914624)
I0819 09:16:19.738401 24477 net.cpp:165] Memory required for data: 1573394432
I0819 09:16:19.738404 24477 layer_factory.hpp:77] Creating layer pool4
I0819 09:16:19.738409 24477 net.cpp:100] Creating Layer pool4
I0819 09:16:19.738411 24477 net.cpp:434] pool4 <- conv4_1_bn
I0819 09:16:19.738416 24477 net.cpp:408] pool4 -> pool4
I0819 09:16:19.738442 24477 net.cpp:150] Setting up pool4
I0819 09:16:19.738451 24477 net.cpp:157] Top shape: 64 64 19 19 (1478656)
I0819 09:16:19.738458 24477 net.cpp:165] Memory required for data: 1579309056
I0819 09:16:19.738461 24477 layer_factory.hpp:77] Creating layer conv5_1
I0819 09:16:19.738467 24477 net.cpp:100] Creating Layer conv5_1
I0819 09:16:19.738471 24477 net.cpp:434] conv5_1 <- pool4
I0819 09:16:19.738476 24477 net.cpp:408] conv5_1 -> conv5_1
I0819 09:16:19.739900 24477 net.cpp:150] Setting up conv5_1
I0819 09:16:19.739917 24477 net.cpp:157] Top shape: 64 64 17 17 (1183744)
I0819 09:16:19.739919 24477 net.cpp:165] Memory required for data: 1584044032
I0819 09:16:19.739925 24477 layer_factory.hpp:77] Creating layer conv5_1_bn
I0819 09:16:19.739933 24477 net.cpp:100] Creating Layer conv5_1_bn
I0819 09:16:19.739936 24477 net.cpp:434] conv5_1_bn <- conv5_1
I0819 09:16:19.739943 24477 net.cpp:408] conv5_1_bn -> conv5_1_bn
I0819 09:16:19.740089 24477 net.cpp:150] Setting up conv5_1_bn
I0819 09:16:19.740094 24477 net.cpp:157] Top shape: 64 64 17 17 (1183744)
I0819 09:16:19.740097 24477 net.cpp:165] Memory required for data: 1588779008
I0819 09:16:19.740103 24477 layer_factory.hpp:77] Creating layer conv5_1_bn_scale
I0819 09:16:19.740109 24477 net.cpp:100] Creating Layer conv5_1_bn_scale
I0819 09:16:19.740113 24477 net.cpp:434] conv5_1_bn_scale <- conv5_1_bn
I0819 09:16:19.740115 24477 net.cpp:395] conv5_1_bn_scale -> conv5_1_bn (in-place)
I0819 09:16:19.740144 24477 layer_factory.hpp:77] Creating layer conv5_1_bn_scale
I0819 09:16:19.740232 24477 net.cpp:150] Setting up conv5_1_bn_scale
I0819 09:16:19.740238 24477 net.cpp:157] Top shape: 64 64 17 17 (1183744)
I0819 09:16:19.740241 24477 net.cpp:165] Memory required for data: 1593513984
I0819 09:16:19.740245 24477 layer_factory.hpp:77] Creating layer conv5_1_relu
I0819 09:16:19.740252 24477 net.cpp:100] Creating Layer conv5_1_relu
I0819 09:16:19.740254 24477 net.cpp:434] conv5_1_relu <- conv5_1_bn
I0819 09:16:19.740257 24477 net.cpp:395] conv5_1_relu -> conv5_1_bn (in-place)
I0819 09:16:19.740262 24477 net.cpp:150] Setting up conv5_1_relu
I0819 09:16:19.740265 24477 net.cpp:157] Top shape: 64 64 17 17 (1183744)
I0819 09:16:19.740268 24477 net.cpp:165] Memory required for data: 1598248960
I0819 09:16:19.740270 24477 layer_factory.hpp:77] Creating layer conv6_1
I0819 09:16:19.740278 24477 net.cpp:100] Creating Layer conv6_1
I0819 09:16:19.740281 24477 net.cpp:434] conv6_1 <- conv5_1_bn
I0819 09:16:19.740286 24477 net.cpp:408] conv6_1 -> conv6_1
I0819 09:16:19.741199 24477 net.cpp:150] Setting up conv6_1
I0819 09:16:19.741205 24477 net.cpp:157] Top shape: 64 64 15 15 (921600)
I0819 09:16:19.741209 24477 net.cpp:165] Memory required for data: 1601935360
I0819 09:16:19.741212 24477 layer_factory.hpp:77] Creating layer conv6_1_bn
I0819 09:16:19.741219 24477 net.cpp:100] Creating Layer conv6_1_bn
I0819 09:16:19.741222 24477 net.cpp:434] conv6_1_bn <- conv6_1
I0819 09:16:19.741226 24477 net.cpp:408] conv6_1_bn -> conv6_1_bn
I0819 09:16:19.741369 24477 net.cpp:150] Setting up conv6_1_bn
I0819 09:16:19.741374 24477 net.cpp:157] Top shape: 64 64 15 15 (921600)
I0819 09:16:19.741377 24477 net.cpp:165] Memory required for data: 1605621760
I0819 09:16:19.741389 24477 layer_factory.hpp:77] Creating layer conv6_1_bn_scale
I0819 09:16:19.741395 24477 net.cpp:100] Creating Layer conv6_1_bn_scale
I0819 09:16:19.741397 24477 net.cpp:434] conv6_1_bn_scale <- conv6_1_bn
I0819 09:16:19.741401 24477 net.cpp:395] conv6_1_bn_scale -> conv6_1_bn (in-place)
I0819 09:16:19.741430 24477 layer_factory.hpp:77] Creating layer conv6_1_bn_scale
I0819 09:16:19.741509 24477 net.cpp:150] Setting up conv6_1_bn_scale
I0819 09:16:19.741514 24477 net.cpp:157] Top shape: 64 64 15 15 (921600)
I0819 09:16:19.741518 24477 net.cpp:165] Memory required for data: 1609308160
I0819 09:16:19.741521 24477 layer_factory.hpp:77] Creating layer conv6_1_relu
I0819 09:16:19.741528 24477 net.cpp:100] Creating Layer conv6_1_relu
I0819 09:16:19.741530 24477 net.cpp:434] conv6_1_relu <- conv6_1_bn
I0819 09:16:19.741534 24477 net.cpp:395] conv6_1_relu -> conv6_1_bn (in-place)
I0819 09:16:19.741546 24477 net.cpp:150] Setting up conv6_1_relu
I0819 09:16:19.741557 24477 net.cpp:157] Top shape: 64 64 15 15 (921600)
I0819 09:16:19.741560 24477 net.cpp:165] Memory required for data: 1612994560
I0819 09:16:19.741562 24477 layer_factory.hpp:77] Creating layer conv7_1
I0819 09:16:19.741569 24477 net.cpp:100] Creating Layer conv7_1
I0819 09:16:19.741571 24477 net.cpp:434] conv7_1 <- conv6_1_bn
I0819 09:16:19.741577 24477 net.cpp:408] conv7_1 -> conv7_1
I0819 09:16:19.743306 24477 net.cpp:150] Setting up conv7_1
I0819 09:16:19.743320 24477 net.cpp:157] Top shape: 64 128 13 13 (1384448)
I0819 09:16:19.743324 24477 net.cpp:165] Memory required for data: 1618532352
I0819 09:16:19.743329 24477 layer_factory.hpp:77] Creating layer conv7_1_bn
I0819 09:16:19.743340 24477 net.cpp:100] Creating Layer conv7_1_bn
I0819 09:16:19.743343 24477 net.cpp:434] conv7_1_bn <- conv7_1
I0819 09:16:19.743348 24477 net.cpp:408] conv7_1_bn -> conv7_1_bn
I0819 09:16:19.743490 24477 net.cpp:150] Setting up conv7_1_bn
I0819 09:16:19.743495 24477 net.cpp:157] Top shape: 64 128 13 13 (1384448)
I0819 09:16:19.743497 24477 net.cpp:165] Memory required for data: 1624070144
I0819 09:16:19.743504 24477 layer_factory.hpp:77] Creating layer conv7_1_bn_scale
I0819 09:16:19.743508 24477 net.cpp:100] Creating Layer conv7_1_bn_scale
I0819 09:16:19.743511 24477 net.cpp:434] conv7_1_bn_scale <- conv7_1_bn
I0819 09:16:19.743516 24477 net.cpp:395] conv7_1_bn_scale -> conv7_1_bn (in-place)
I0819 09:16:19.743544 24477 layer_factory.hpp:77] Creating layer conv7_1_bn_scale
I0819 09:16:19.743619 24477 net.cpp:150] Setting up conv7_1_bn_scale
I0819 09:16:19.743625 24477 net.cpp:157] Top shape: 64 128 13 13 (1384448)
I0819 09:16:19.743628 24477 net.cpp:165] Memory required for data: 1629607936
I0819 09:16:19.743633 24477 layer_factory.hpp:77] Creating layer conv7_1_relu
I0819 09:16:19.743638 24477 net.cpp:100] Creating Layer conv7_1_relu
I0819 09:16:19.743640 24477 net.cpp:434] conv7_1_relu <- conv7_1_bn
I0819 09:16:19.743644 24477 net.cpp:395] conv7_1_relu -> conv7_1_bn (in-place)
I0819 09:16:19.743649 24477 net.cpp:150] Setting up conv7_1_relu
I0819 09:16:19.743651 24477 net.cpp:157] Top shape: 64 128 13 13 (1384448)
I0819 09:16:19.743654 24477 net.cpp:165] Memory required for data: 1635145728
I0819 09:16:19.743656 24477 layer_factory.hpp:77] Creating layer score
I0819 09:16:19.743665 24477 net.cpp:100] Creating Layer score
I0819 09:16:19.743669 24477 net.cpp:434] score <- conv7_1_bn
I0819 09:16:19.743674 24477 net.cpp:408] score -> score
I0819 09:16:19.743857 24477 net.cpp:150] Setting up score
I0819 09:16:19.743862 24477 net.cpp:157] Top shape: 64 4 13 13 (43264)
I0819 09:16:19.743865 24477 net.cpp:165] Memory required for data: 1635318784
I0819 09:16:19.743870 24477 layer_factory.hpp:77] Creating layer upscore
I0819 09:16:19.743877 24477 net.cpp:100] Creating Layer upscore
I0819 09:16:19.743880 24477 net.cpp:434] upscore <- score
I0819 09:16:19.743885 24477 net.cpp:408] upscore -> upscore
I0819 09:16:19.744369 24477 net.cpp:150] Setting up upscore
I0819 09:16:19.744374 24477 net.cpp:157] Top shape: 64 4 224 224 (12845056)
I0819 09:16:19.744377 24477 net.cpp:165] Memory required for data: 1686699008
I0819 09:16:19.744380 24477 layer_factory.hpp:77] Creating layer cropscore
I0819 09:16:19.744387 24477 net.cpp:100] Creating Layer cropscore
I0819 09:16:19.744390 24477 net.cpp:434] cropscore <- upscore
I0819 09:16:19.744393 24477 net.cpp:434] cropscore <- image_data_0_split_1
I0819 09:16:19.744398 24477 net.cpp:408] cropscore -> cropscore
I0819 09:16:19.744415 24477 net.cpp:150] Setting up cropscore
I0819 09:16:19.744420 24477 net.cpp:157] Top shape: 64 4 200 200 (10240000)
I0819 09:16:19.744422 24477 net.cpp:165] Memory required for data: 1727659008
I0819 09:16:19.744424 24477 layer_factory.hpp:77] Creating layer cropscore_cropscore_0_split
I0819 09:16:19.744429 24477 net.cpp:100] Creating Layer cropscore_cropscore_0_split
I0819 09:16:19.744432 24477 net.cpp:434] cropscore_cropscore_0_split <- cropscore
I0819 09:16:19.744437 24477 net.cpp:408] cropscore_cropscore_0_split -> cropscore_cropscore_0_split_0
I0819 09:16:19.744449 24477 net.cpp:408] cropscore_cropscore_0_split -> cropscore_cropscore_0_split_1
I0819 09:16:19.744482 24477 net.cpp:150] Setting up cropscore_cropscore_0_split
I0819 09:16:19.744485 24477 net.cpp:157] Top shape: 64 4 200 200 (10240000)
I0819 09:16:19.744489 24477 net.cpp:157] Top shape: 64 4 200 200 (10240000)
I0819 09:16:19.744491 24477 net.cpp:165] Memory required for data: 1809579008
I0819 09:16:19.744494 24477 layer_factory.hpp:77] Creating layer loss
I0819 09:16:19.744500 24477 net.cpp:100] Creating Layer loss
I0819 09:16:19.744503 24477 net.cpp:434] loss <- cropscore_cropscore_0_split_0
I0819 09:16:19.744508 24477 net.cpp:434] loss <- label_data_1_split_0
I0819 09:16:19.744515 24477 net.cpp:408] loss -> loss
…
