…
I0823 08:53:06.183223  7716 solver.cpp:91] Creating training net from net file: portrait_train_test_one_stage.prototxt
I0823 08:53:06.183953  7716 net.cpp:322] The NetState phase (0) differed from the phase (1) specified by a rule in layer data
I0823 08:53:06.184162  7716 net.cpp:58] Initializing net from parameters: 
name: "segmentation"
state {
  phase: TRAIN
  level: 0
  stage: ""
}
layer {
  name: "data"
  type: "SegData"
  top: "image"
  top: "label"
  include {
    phase: TRAIN
  }
  transform_param {
    mirror: true
    crop_size: 200
  }
  data_param {
    source: "/raid/xuehan/segmentation_train_split"
    batch_size: 64
    backend: LMDB
  }
}
layer {
  name: "conv1_1"
  type: "Convolution"
  bottom: "image"
  top: "conv1_1"
  param {
    lr_mult: 1
    decay_mult: 1
  }
  convolution_param {
    num_output: 8
    bias_term: false
    pad: 50
    kernel_size: 3
    stride: 1
    weight_filler {
      type: "gaussian"
      std: 0.01
    }
  }
}
layer {
  name: "conv1_1_bn"
  type: "BatchNorm"
  bottom: "conv1_1"
  top: "conv1_1_bn"
  param {
    lr_mult: 0
  }
  param {
    lr_mult: 0
  }
  param {
    lr_mult: 0
  }
}
layer {
  name: "conv1_1_bn_scale"
  type: "Scale"
  bottom: "conv1_1_bn"
  top: "conv1_1_bn"
  scale_param {
    bias_term: true
  }
}
layer {
  name: "conv1_1_relu"
  type: "ReLU"
  bottom: "conv1_1_bn"
  top: "conv1_1_bn"
}
layer {
  name: "conv1_2"
  type: "Convolution"
  bottom: "conv1_1_bn"
  top: "conv1_2"
  param {
    lr_mult: 1
    decay_mult: 1
  }
  convolution_param {
    num_output: 8
    bias_term: false
    pad: 1
    kernel_size: 3
    stride: 1
    weight_filler {
      type: "gaussian"
      std: 0.01
    }
  }
}
layer {
  name: "conv1_2_bn"
  type: "BatchNorm"
  bottom: "conv1_2"
  top: "conv1_2_bn"
  param {
    lr_mult: 0
  }
  param {
    lr_mult: 0
  }
  param {
    lr_mult: 0
  }
}
layer {
  name: "conv1_2_bn_scale"
  type: "Scale"
  bottom: "conv1_2_bn"
  top: "conv1_2_bn"
  scale_param {
    bias_term: true
  }
}
layer {
  name: "conv1_2_relu"
  type: "ReLU"
  bottom: "conv1_2_bn"
  top: "conv1_2_bn"
}
layer {
  name: "pool1"
  type: "Pooling"
  bottom: "conv1_2_bn"
  top: "pool1"
  pooling_param {
    pool: MAX
    kernel_size: 2
    stride: 2
  }
}
layer {
  name: "conv2_1"
  type: "Convolution"
  bottom: "pool1"
  top: "conv2_1"
  param {
    lr_mult: 1
    decay_mult: 1
  }
  convolution_param {
    num_output: 16
    bias_term: false
    pad: 1
    kernel_size: 3
    stride: 1
    weight_filler {
      type: "gaussian"
      std: 0.01
    }
  }
}
layer {
  name: "conv2_1_bn"
  type: "BatchNorm"
  bottom: "conv2_1"
  top: "conv2_1_bn"
  param {
    lr_mult: 0
  }
  param {
    lr_mult: 0
  }
  param {
    lr_mult: 0
  }
}
layer {
  name: "conv2_1_bn_scale"
  type: "Scale"
  bottom: "conv2_1_bn"
  top: "conv2_1_bn"
  scale_param {
    bias_term: true
  }
}
layer {
  name: "conv2_1_relu"
  type: "ReLU"
  bottom: "conv2_1_bn"
  top: "conv2_1_bn"
}
layer {
  name: "conv2_2"
  type: "Convolution"
  bottom: "conv2_1_bn"
  top: "conv2_2"
  param {
    lr_mult: 1
    decay_mult: 1
  }
  convolution_param {
    num_output: 16
    bias_term: false
    pad: 1
    kernel_size: 3
    stride: 1
    weight_filler {
      type: "gaussian"
      std: 0.01
    }
  }
}
layer {
  name: "conv2_2_bn"
  type: "BatchNorm"
  bottom: "conv2_2"
  top: "conv2_2_bn"
  param {
    lr_mult: 0
  }
  param {
    lr_mult: 0
  }
  param {
    lr_mult: 0
  }
}
layer {
  name: "conv2_2_bn_scale"
  type: "Scale"
  bottom: "conv2_2_bn"
  top: "conv2_2_bn"
  scale_param {
    bias_term: true
  }
}
layer {
  name: "conv2_2_relu"
  type: "ReLU"
  bottom: "conv2_2_bn"
  top: "conv2_2_bn"
}
layer {
  name: "pool2"
  type: "Pooling"
  bottom: "conv2_2_bn"
  top: "pool2"
  pooling_param {
    pool: MAX
    kernel_size: 2
    stride: 2
  }
}
layer {
  name: "conv3_1"
  type: "Convolution"
  bottom: "pool2"
  top: "conv3_1"
  param {
    lr_mult: 1
    decay_mult: 1
  }
  convolution_param {
    num_output: 32
    bias_term: false
    pad: 1
    kernel_size: 3
    stride: 1
    weight_filler {
      type: "gaussian"
      std: 0.01
    }
  }
}
layer {
  name: "conv3_1_bn"
  type: "BatchNorm"
  bottom: "conv3_1"
  top: "conv3_1_bn"
  param {
    lr_mult: 0
  }
  param {
    lr_mult: 0
  }
  param {
    lr_mult: 0
  }
}
layer {
  name: "conv3_1_bn_scale"
  type: "Scale"
  bottom: "conv3_1_bn"
  top: "conv3_1_bn"
  scale_param {
    bias_term: true
  }
}
layer {
  name: "conv3_1_relu"
  type: "ReLU"
  bottom: "conv3_1_bn"
  top: "conv3_1_bn"
}
layer {
  name: "conv3_2"
  type: "Convolution"
  bottom: "conv3_1_bn"
  top: "conv3_2"
  param {
    lr_mult: 1
    decay_mult: 1
  }
  convolution_param {
    num_output: 32
    bias_term: false
    pad: 1
    kernel_size: 3
    stride: 1
    weight_filler {
      type: "gaussian"
      std: 0.01
    }
  }
}
layer {
  name: "conv3_2_bn"
  type: "BatchNorm"
  bottom: "conv3_2"
  top: "conv3_2_bn"
  param {
    lr_mult: 0
  }
  param {
    lr_mult: 0
  }
  param {
    lr_mult: 0
  }
}
layer {
  name: "conv3_2_bn_scale"
  type: "Scale"
  bottom: "conv3_2_bn"
  top: "conv3_2_bn"
  scale_param {
    bias_term: true
  }
}
layer {
  name: "conv3_2_relu"
  type: "ReLU"
  bottom: "conv3_2_bn"
  top: "conv3_2_bn"
}
layer {
  name: "pool3"
  type: "Pooling"
  bottom: "conv3_2_bn"
  top: "pool3"
  pooling_param {
    pool: MAX
    kernel_size: 2
    stride: 2
  }
}
layer {
  name: "conv4_1"
  type: "Convolution"
  bottom: "pool3"
  top: "conv4_1"
  param {
    lr_mult: 1
    decay_mult: 1
  }
  convolution_param {
    num_output: 64
    bias_term: false
    pad: 1
    kernel_size: 3
    stride: 1
    weight_filler {
      type: "gaussian"
      std: 0.01
    }
  }
}
layer {
  name: "conv4_1_bn"
  type: "BatchNorm"
  bottom: "conv4_1"
  top: "conv4_1_bn"
  param {
    lr_mult: 0
  }
  param {
    lr_mult: 0
  }
  param {
    lr_mult: 0
  }
}
layer {
  name: "conv4_1_bn_scale"
  type: "Scale"
  bottom: "conv4_1_bn"
  top: "conv4_1_bn"
  scale_param {
    bias_term: true
  }
}
layer {
  name: "conv4_1_relu"
  type: "ReLU"
  bottom: "conv4_1_bn"
  top: "conv4_1_bn"
}
layer {
  name: "conv4_2"
  type: "Convolution"
  bottom: "conv4_1_bn"
  top: "conv4_2"
  param {
    lr_mult: 1
    decay_mult: 1
  }
  convolution_param {
    num_output: 64
    bias_term: false
    pad: 1
    kernel_size: 3
    stride: 1
    weight_filler {
      type: "gaussian"
      std: 0.01
    }
  }
}
layer {
  name: "conv4_2_bn"
  type: "BatchNorm"
  bottom: "conv4_2"
  top: "conv4_2_bn"
  param {
    lr_mult: 0
  }
  param {
    lr_mult: 0
  }
  param {
    lr_mult: 0
  }
}
layer {
  name: "conv4_2_bn_scale"
  type: "Scale"
  bottom: "conv4_2_bn"
  top: "conv4_2_bn"
  scale_param {
    bias_term: true
  }
}
layer {
  name: "conv4_2_relu"
  type: "ReLU"
  bottom: "conv4_2_bn"
  top: "conv4_2_bn"
}
layer {
  name: "pool4"
  type: "Pooling"
  bottom: "conv4_2_bn"
  top: "pool4"
  pooling_param {
    pool: MAX
    kernel_size: 2
    stride: 2
  }
}
layer {
  name: "conv5_1"
  type: "Convolution"
  bottom: "pool4"
  top: "conv5_1"
  param {
    lr_mult: 1
    decay_mult: 1
  }
  convolution_param {
    num_output: 64
    bias_term: false
    pad: 0
    kernel_size: 3
    stride: 1
    weight_filler {
      type: "gaussian"
      std: 0.01
    }
  }
}
layer {
  name: "conv5_1_bn"
  type: "BatchNorm"
  bottom: "conv5_1"
  top: "conv5_1_bn"
  param {
    lr_mult: 0
  }
  param {
    lr_mult: 0
  }
  param {
    lr_mult: 0
  }
}
layer {
  name: "conv5_1_bn_scale"
  type: "Scale"
  bottom: "conv5_1_bn"
  top: "conv5_1_bn"
  scale_param {
    bias_term: true
  }
}
layer {
  name: "conv5_1_relu"
  type: "ReLU"
  bottom: "conv5_1_bn"
  top: "conv5_1_bn"
}
layer {
  name: "conv6_1"
  type: "Convolution"
  bottom: "conv5_1_bn"
  top: "conv6_1"
  param {
    lr_mult: 1
    decay_mult: 1
  }
  convolution_param {
    num_output: 64
    bias_term: false
    pad: 0
    kernel_size: 3
    stride: 1
    weight_filler {
      type: "gaussian"
      std: 0.01
    }
  }
}
layer {
  name: "conv6_1_bn"
  type: "BatchNorm"
  bottom: "conv6_1"
  top: "conv6_1_bn"
  param {
    lr_mult: 0
  }
  param {
    lr_mult: 0
  }
  param {
    lr_mult: 0
  }
}
layer {
  name: "conv6_1_bn_scale"
  type: "Scale"
  bottom: "conv6_1_bn"
  top: "conv6_1_bn"
  scale_param {
    bias_term: true
  }
}
layer {
  name: "conv6_1_relu"
  type: "ReLU"
  bottom: "conv6_1_bn"
  top: "conv6_1_bn"
}
layer {
  name: "conv7_1"
  type: "Convolution"
  bottom: "conv6_1_bn"
  top: "conv7_1"
  param {
    lr_mult: 1
    decay_mult: 1
  }
  convolution_param {
    num_output: 128
    bias_term: false
    pad: 0
    kernel_size: 3
    stride: 1
    weight_filler {
      type: "gaussian"
      std: 0.01
    }
  }
}
layer {
  name: "conv7_1_bn"
  type: "BatchNorm"
  bottom: "conv7_1"
  top: "conv7_1_bn"
  param {
    lr_mult: 0
  }
  param {
    lr_mult: 0
  }
  param {
    lr_mult: 0
  }
}
layer {
  name: "conv7_1_bn_scale"
  type: "Scale"
  bottom: "conv7_1_bn"
  top: "conv7_1_bn"
  scale_param {
    bias_term: true
  }
}
layer {
  name: "conv7_1_relu"
  type: "ReLU"
  bottom: "conv7_1_bn"
  top: "conv7_1_bn"
}
layer {
  name: "score"
  type: "Convolution"
  bottom: "conv7_1_bn"
  top: "score"
  param {
    lr_mult: 1
    decay_mult: 1
  }
  param {
    lr_mult: 2
    decay_mult: 0
  }
  convolution_param {
    num_output: 4
    pad: 0
    kernel_size: 1
    stride: 1
    weight_filler {
      type: "gaussian"
      std: 0.01
    }
    bias_filler {
      type: "constant"
    }
  }
}
layer {
  name: "upscore"
  type: "Deconvolution"
  bottom: "score"
  top: "upscore"
  param {
    lr_mult: 1
    decay_mult: 1
  }
  convolution_param {
    num_output: 4
    bias_term: false
    pad: 0
    kernel_size: 32
    stride: 16
    weight_filler {
      type: "gaussian"
      std: 0.01
    }
  }
}
layer {
  name: "cropscore"
  type: "Crop"
  bottom: "upscore"
  bottom: "image"
  top: "cropscore"
  crop_param {
    axis: 2
    offset: 12
  }
}
layer {
  name: "loss"
  type: "SoftmaxWithLoss"
  bottom: "cropscore"
  bottom: "label"
  top: "loss"
  loss_weight: 1
  loss_param {
    normalize: false
  }
}
layer {
  name: "accuracy"
  type: "Accuracy"
  bottom: "cropscore"
  bottom: "label"
  top: "accuracy"
}
I0823 08:53:06.184345  7716 layer_factory.hpp:77] Creating layer data
I0823 08:53:06.184761  7716 net.cpp:100] Creating Layer data
I0823 08:53:06.184772  7716 net.cpp:408] data -> image
I0823 08:53:06.184788  7716 net.cpp:408] data -> label
I0823 08:53:06.185770  7722 db_lmdb.cpp:35] Opened lmdb /raid/xuehan/segmentation_train_split
I0823 08:53:06.185950  7716 seg_data_layer.cpp:38] 200 200 4
I0823 08:53:06.193222  7716 seg_data_layer.cpp:51] output data size: 64,3,200,200
I0823 08:53:06.193281  7716 seg_data_layer.cpp:63] output label size: 64,1,200,200
I0823 08:53:06.246635  7716 net.cpp:150] Setting up data
I0823 08:53:06.246666  7716 net.cpp:157] Top shape: 64 3 200 200 (7680000)
I0823 08:53:06.246671  7716 net.cpp:157] Top shape: 64 1 200 200 (2560000)
I0823 08:53:06.246675  7716 net.cpp:165] Memory required for data: 40960000
I0823 08:53:06.246685  7716 layer_factory.hpp:77] Creating layer image_data_0_split
I0823 08:53:06.246695  7716 net.cpp:100] Creating Layer image_data_0_split
I0823 08:53:06.246701  7716 net.cpp:434] image_data_0_split <- image
I0823 08:53:06.246711  7716 net.cpp:408] image_data_0_split -> image_data_0_split_0
I0823 08:53:06.246719  7716 net.cpp:408] image_data_0_split -> image_data_0_split_1
I0823 08:53:06.246763  7716 net.cpp:150] Setting up image_data_0_split
I0823 08:53:06.246769  7716 net.cpp:157] Top shape: 64 3 200 200 (7680000)
I0823 08:53:06.246773  7716 net.cpp:157] Top shape: 64 3 200 200 (7680000)
I0823 08:53:06.246775  7716 net.cpp:165] Memory required for data: 102400000
I0823 08:53:06.246785  7716 layer_factory.hpp:77] Creating layer label_data_1_split
I0823 08:53:06.246796  7716 net.cpp:100] Creating Layer label_data_1_split
I0823 08:53:06.246799  7716 net.cpp:434] label_data_1_split <- label
I0823 08:53:06.246805  7716 net.cpp:408] label_data_1_split -> label_data_1_split_0
I0823 08:53:06.246810  7716 net.cpp:408] label_data_1_split -> label_data_1_split_1
I0823 08:53:06.246834  7716 net.cpp:150] Setting up label_data_1_split
I0823 08:53:06.246839  7716 net.cpp:157] Top shape: 64 1 200 200 (2560000)
I0823 08:53:06.246842  7716 net.cpp:157] Top shape: 64 1 200 200 (2560000)
I0823 08:53:06.246845  7716 net.cpp:165] Memory required for data: 122880000
I0823 08:53:06.246847  7716 layer_factory.hpp:77] Creating layer conv1_1
I0823 08:53:06.246861  7716 net.cpp:100] Creating Layer conv1_1
I0823 08:53:06.246865  7716 net.cpp:434] conv1_1 <- image_data_0_split_0
I0823 08:53:06.246870  7716 net.cpp:408] conv1_1 -> conv1_1
I0823 08:53:06.247021  7716 net.cpp:150] Setting up conv1_1
I0823 08:53:06.247027  7716 net.cpp:157] Top shape: 64 8 298 298 (45467648)
I0823 08:53:06.247030  7716 net.cpp:165] Memory required for data: 304750592
I0823 08:53:06.247040  7716 layer_factory.hpp:77] Creating layer conv1_1_bn
I0823 08:53:06.247046  7716 net.cpp:100] Creating Layer conv1_1_bn
I0823 08:53:06.247050  7716 net.cpp:434] conv1_1_bn <- conv1_1
I0823 08:53:06.247053  7716 net.cpp:408] conv1_1_bn -> conv1_1_bn
I0823 08:53:06.247629  7716 net.cpp:150] Setting up conv1_1_bn
I0823 08:53:06.247639  7716 net.cpp:157] Top shape: 64 8 298 298 (45467648)
I0823 08:53:06.247642  7716 net.cpp:165] Memory required for data: 486621184
I0823 08:53:06.247651  7716 layer_factory.hpp:77] Creating layer conv1_1_bn_scale
I0823 08:53:06.247663  7716 net.cpp:100] Creating Layer conv1_1_bn_scale
I0823 08:53:06.247665  7716 net.cpp:434] conv1_1_bn_scale <- conv1_1_bn
I0823 08:53:06.247669  7716 net.cpp:395] conv1_1_bn_scale -> conv1_1_bn (in-place)
I0823 08:53:06.247701  7716 layer_factory.hpp:77] Creating layer conv1_1_bn_scale
I0823 08:53:06.248281  7716 net.cpp:150] Setting up conv1_1_bn_scale
I0823 08:53:06.248291  7716 net.cpp:157] Top shape: 64 8 298 298 (45467648)
I0823 08:53:06.248294  7716 net.cpp:165] Memory required for data: 668491776
I0823 08:53:06.248302  7716 layer_factory.hpp:77] Creating layer conv1_1_relu
I0823 08:53:06.248311  7716 net.cpp:100] Creating Layer conv1_1_relu
I0823 08:53:06.248314  7716 net.cpp:434] conv1_1_relu <- conv1_1_bn
I0823 08:53:06.248318  7716 net.cpp:395] conv1_1_relu -> conv1_1_bn (in-place)
I0823 08:53:06.248323  7716 net.cpp:150] Setting up conv1_1_relu
I0823 08:53:06.248327  7716 net.cpp:157] Top shape: 64 8 298 298 (45467648)
I0823 08:53:06.248330  7716 net.cpp:165] Memory required for data: 850362368
I0823 08:53:06.248333  7716 layer_factory.hpp:77] Creating layer conv1_2
I0823 08:53:06.248342  7716 net.cpp:100] Creating Layer conv1_2
I0823 08:53:06.248344  7716 net.cpp:434] conv1_2 <- conv1_1_bn
I0823 08:53:06.248348  7716 net.cpp:408] conv1_2 -> conv1_2
I0823 08:53:06.252235  7716 net.cpp:150] Setting up conv1_2
I0823 08:53:06.252248  7716 net.cpp:157] Top shape: 64 8 298 298 (45467648)
I0823 08:53:06.252250  7716 net.cpp:165] Memory required for data: 1032232960
I0823 08:53:06.252255  7716 layer_factory.hpp:77] Creating layer conv1_2_bn
I0823 08:53:06.252264  7716 net.cpp:100] Creating Layer conv1_2_bn
I0823 08:53:06.252267  7716 net.cpp:434] conv1_2_bn <- conv1_2
I0823 08:53:06.252272  7716 net.cpp:408] conv1_2_bn -> conv1_2_bn
I0823 08:53:06.252437  7716 net.cpp:150] Setting up conv1_2_bn
I0823 08:53:06.252454  7716 net.cpp:157] Top shape: 64 8 298 298 (45467648)
I0823 08:53:06.252457  7716 net.cpp:165] Memory required for data: 1214103552
I0823 08:53:06.252477  7716 layer_factory.hpp:77] Creating layer conv1_2_bn_scale
I0823 08:53:06.252483  7716 net.cpp:100] Creating Layer conv1_2_bn_scale
I0823 08:53:06.252486  7716 net.cpp:434] conv1_2_bn_scale <- conv1_2_bn
I0823 08:53:06.252490  7716 net.cpp:395] conv1_2_bn_scale -> conv1_2_bn (in-place)
I0823 08:53:06.252519  7716 layer_factory.hpp:77] Creating layer conv1_2_bn_scale
I0823 08:53:06.253068  7716 net.cpp:150] Setting up conv1_2_bn_scale
I0823 08:53:06.253078  7716 net.cpp:157] Top shape: 64 8 298 298 (45467648)
I0823 08:53:06.253082  7716 net.cpp:165] Memory required for data: 1395974144
I0823 08:53:06.253087  7716 layer_factory.hpp:77] Creating layer conv1_2_relu
I0823 08:53:06.253094  7716 net.cpp:100] Creating Layer conv1_2_relu
I0823 08:53:06.253098  7716 net.cpp:434] conv1_2_relu <- conv1_2_bn
I0823 08:53:06.253101  7716 net.cpp:395] conv1_2_relu -> conv1_2_bn (in-place)
I0823 08:53:06.253106  7716 net.cpp:150] Setting up conv1_2_relu
I0823 08:53:06.253110  7716 net.cpp:157] Top shape: 64 8 298 298 (45467648)
I0823 08:53:06.253113  7716 net.cpp:165] Memory required for data: 1577844736
I0823 08:53:06.253116  7716 layer_factory.hpp:77] Creating layer pool1
I0823 08:53:06.253123  7716 net.cpp:100] Creating Layer pool1
I0823 08:53:06.253126  7716 net.cpp:434] pool1 <- conv1_2_bn
I0823 08:53:06.253130  7716 net.cpp:408] pool1 -> pool1
I0823 08:53:06.253165  7716 net.cpp:150] Setting up pool1
I0823 08:53:06.253170  7716 net.cpp:157] Top shape: 64 8 149 149 (11366912)
I0823 08:53:06.253172  7716 net.cpp:165] Memory required for data: 1623312384
I0823 08:53:06.253175  7716 layer_factory.hpp:77] Creating layer conv2_1
I0823 08:53:06.253183  7716 net.cpp:100] Creating Layer conv2_1
I0823 08:53:06.253187  7716 net.cpp:434] conv2_1 <- pool1
I0823 08:53:06.253192  7716 net.cpp:408] conv2_1 -> conv2_1
I0823 08:53:06.253758  7716 net.cpp:150] Setting up conv2_1
I0823 08:53:06.253769  7716 net.cpp:157] Top shape: 64 16 149 149 (22733824)
I0823 08:53:06.253772  7716 net.cpp:165] Memory required for data: 1714247680
I0823 08:53:06.253777  7716 layer_factory.hpp:77] Creating layer conv2_1_bn
I0823 08:53:06.253782  7716 net.cpp:100] Creating Layer conv2_1_bn
I0823 08:53:06.253785  7716 net.cpp:434] conv2_1_bn <- conv2_1
I0823 08:53:06.253792  7716 net.cpp:408] conv2_1_bn -> conv2_1_bn
I0823 08:53:06.254362  7716 net.cpp:150] Setting up conv2_1_bn
I0823 08:53:06.254372  7716 net.cpp:157] Top shape: 64 16 149 149 (22733824)
I0823 08:53:06.254375  7716 net.cpp:165] Memory required for data: 1805182976
I0823 08:53:06.254381  7716 layer_factory.hpp:77] Creating layer conv2_1_bn_scale
I0823 08:53:06.254387  7716 net.cpp:100] Creating Layer conv2_1_bn_scale
I0823 08:53:06.254391  7716 net.cpp:434] conv2_1_bn_scale <- conv2_1_bn
I0823 08:53:06.254395  7716 net.cpp:395] conv2_1_bn_scale -> conv2_1_bn (in-place)
I0823 08:53:06.254426  7716 layer_factory.hpp:77] Creating layer conv2_1_bn_scale
I0823 08:53:06.254513  7716 net.cpp:150] Setting up conv2_1_bn_scale
I0823 08:53:06.254519  7716 net.cpp:157] Top shape: 64 16 149 149 (22733824)
I0823 08:53:06.254523  7716 net.cpp:165] Memory required for data: 1896118272
I0823 08:53:06.254530  7716 layer_factory.hpp:77] Creating layer conv2_1_relu
I0823 08:53:06.254536  7716 net.cpp:100] Creating Layer conv2_1_relu
I0823 08:53:06.254539  7716 net.cpp:434] conv2_1_relu <- conv2_1_bn
I0823 08:53:06.254544  7716 net.cpp:395] conv2_1_relu -> conv2_1_bn (in-place)
I0823 08:53:06.254549  7716 net.cpp:150] Setting up conv2_1_relu
I0823 08:53:06.254552  7716 net.cpp:157] Top shape: 64 16 149 149 (22733824)
I0823 08:53:06.254554  7716 net.cpp:165] Memory required for data: 1987053568
I0823 08:53:06.254557  7716 layer_factory.hpp:77] Creating layer conv2_2
I0823 08:53:06.254570  7716 net.cpp:100] Creating Layer conv2_2
I0823 08:53:06.254572  7716 net.cpp:434] conv2_2 <- conv2_1_bn
I0823 08:53:06.254580  7716 net.cpp:408] conv2_2 -> conv2_2
I0823 08:53:06.254745  7716 net.cpp:150] Setting up conv2_2
I0823 08:53:06.254751  7716 net.cpp:157] Top shape: 64 16 149 149 (22733824)
I0823 08:53:06.254755  7716 net.cpp:165] Memory required for data: 2077988864
I0823 08:53:06.254758  7716 layer_factory.hpp:77] Creating layer conv2_2_bn
I0823 08:53:06.254765  7716 net.cpp:100] Creating Layer conv2_2_bn
I0823 08:53:06.254768  7716 net.cpp:434] conv2_2_bn <- conv2_2
I0823 08:53:06.254772  7716 net.cpp:408] conv2_2_bn -> conv2_2_bn
I0823 08:53:06.254909  7716 net.cpp:150] Setting up conv2_2_bn
I0823 08:53:06.254921  7716 net.cpp:157] Top shape: 64 16 149 149 (22733824)
I0823 08:53:06.254925  7716 net.cpp:165] Memory required for data: 2168924160
I0823 08:53:06.254930  7716 layer_factory.hpp:77] Creating layer conv2_2_bn_scale
I0823 08:53:06.254936  7716 net.cpp:100] Creating Layer conv2_2_bn_scale
I0823 08:53:06.254940  7716 net.cpp:434] conv2_2_bn_scale <- conv2_2_bn
I0823 08:53:06.254943  7716 net.cpp:395] conv2_2_bn_scale -> conv2_2_bn (in-place)
I0823 08:53:06.254971  7716 layer_factory.hpp:77] Creating layer conv2_2_bn_scale
I0823 08:53:06.255058  7716 net.cpp:150] Setting up conv2_2_bn_scale
I0823 08:53:06.255064  7716 net.cpp:157] Top shape: 64 16 149 149 (22733824)
I0823 08:53:06.255066  7716 net.cpp:165] Memory required for data: 2259859456
I0823 08:53:06.255071  7716 layer_factory.hpp:77] Creating layer conv2_2_relu
I0823 08:53:06.255075  7716 net.cpp:100] Creating Layer conv2_2_relu
I0823 08:53:06.255079  7716 net.cpp:434] conv2_2_relu <- conv2_2_bn
I0823 08:53:06.255082  7716 net.cpp:395] conv2_2_relu -> conv2_2_bn (in-place)
I0823 08:53:06.255087  7716 net.cpp:150] Setting up conv2_2_relu
I0823 08:53:06.255090  7716 net.cpp:157] Top shape: 64 16 149 149 (22733824)
I0823 08:53:06.255094  7716 net.cpp:165] Memory required for data: 2350794752
I0823 08:53:06.255096  7716 layer_factory.hpp:77] Creating layer pool2
I0823 08:53:06.255102  7716 net.cpp:100] Creating Layer pool2
I0823 08:53:06.255105  7716 net.cpp:434] pool2 <- conv2_2_bn
I0823 08:53:06.255110  7716 net.cpp:408] pool2 -> pool2
I0823 08:53:06.255136  7716 net.cpp:150] Setting up pool2
I0823 08:53:06.255141  7716 net.cpp:157] Top shape: 64 16 75 75 (5760000)
I0823 08:53:06.255144  7716 net.cpp:165] Memory required for data: 2373834752
I0823 08:53:06.255146  7716 layer_factory.hpp:77] Creating layer conv3_1
I0823 08:53:06.255152  7716 net.cpp:100] Creating Layer conv3_1
I0823 08:53:06.255156  7716 net.cpp:434] conv3_1 <- pool2
I0823 08:53:06.255161  7716 net.cpp:408] conv3_1 -> conv3_1
I0823 08:53:06.255817  7716 net.cpp:150] Setting up conv3_1
I0823 08:53:06.255828  7716 net.cpp:157] Top shape: 64 32 75 75 (11520000)
I0823 08:53:06.255831  7716 net.cpp:165] Memory required for data: 2419914752
I0823 08:53:06.255836  7716 layer_factory.hpp:77] Creating layer conv3_1_bn
I0823 08:53:06.255841  7716 net.cpp:100] Creating Layer conv3_1_bn
I0823 08:53:06.255844  7716 net.cpp:434] conv3_1_bn <- conv3_1
I0823 08:53:06.255848  7716 net.cpp:408] conv3_1_bn -> conv3_1_bn
I0823 08:53:06.255976  7716 net.cpp:150] Setting up conv3_1_bn
I0823 08:53:06.255982  7716 net.cpp:157] Top shape: 64 32 75 75 (11520000)
I0823 08:53:06.255985  7716 net.cpp:165] Memory required for data: 2465994752
I0823 08:53:06.255990  7716 layer_factory.hpp:77] Creating layer conv3_1_bn_scale
I0823 08:53:06.255997  7716 net.cpp:100] Creating Layer conv3_1_bn_scale
I0823 08:53:06.256000  7716 net.cpp:434] conv3_1_bn_scale <- conv3_1_bn
I0823 08:53:06.256005  7716 net.cpp:395] conv3_1_bn_scale -> conv3_1_bn (in-place)
I0823 08:53:06.256036  7716 layer_factory.hpp:77] Creating layer conv3_1_bn_scale
I0823 08:53:06.256114  7716 net.cpp:150] Setting up conv3_1_bn_scale
I0823 08:53:06.256121  7716 net.cpp:157] Top shape: 64 32 75 75 (11520000)
I0823 08:53:06.256124  7716 net.cpp:165] Memory required for data: 2512074752
I0823 08:53:06.256129  7716 layer_factory.hpp:77] Creating layer conv3_1_relu
I0823 08:53:06.256135  7716 net.cpp:100] Creating Layer conv3_1_relu
I0823 08:53:06.256139  7716 net.cpp:434] conv3_1_relu <- conv3_1_bn
I0823 08:53:06.256142  7716 net.cpp:395] conv3_1_relu -> conv3_1_bn (in-place)
I0823 08:53:06.256146  7716 net.cpp:150] Setting up conv3_1_relu
I0823 08:53:06.256150  7716 net.cpp:157] Top shape: 64 32 75 75 (11520000)
I0823 08:53:06.256153  7716 net.cpp:165] Memory required for data: 2558154752
I0823 08:53:06.256156  7716 layer_factory.hpp:77] Creating layer conv3_2
I0823 08:53:06.256163  7716 net.cpp:100] Creating Layer conv3_2
I0823 08:53:06.256166  7716 net.cpp:434] conv3_2 <- conv3_1_bn
I0823 08:53:06.256172  7716 net.cpp:408] conv3_2 -> conv3_2
I0823 08:53:06.256491  7716 net.cpp:150] Setting up conv3_2
I0823 08:53:06.256497  7716 net.cpp:157] Top shape: 64 32 75 75 (11520000)
I0823 08:53:06.256500  7716 net.cpp:165] Memory required for data: 2604234752
I0823 08:53:06.256505  7716 layer_factory.hpp:77] Creating layer conv3_2_bn
I0823 08:53:06.256511  7716 net.cpp:100] Creating Layer conv3_2_bn
I0823 08:53:06.256515  7716 net.cpp:434] conv3_2_bn <- conv3_2
I0823 08:53:06.256518  7716 net.cpp:408] conv3_2_bn -> conv3_2_bn
I0823 08:53:06.256646  7716 net.cpp:150] Setting up conv3_2_bn
I0823 08:53:06.256651  7716 net.cpp:157] Top shape: 64 32 75 75 (11520000)
I0823 08:53:06.256654  7716 net.cpp:165] Memory required for data: 2650314752
I0823 08:53:06.256664  7716 layer_factory.hpp:77] Creating layer conv3_2_bn_scale
I0823 08:53:06.256670  7716 net.cpp:100] Creating Layer conv3_2_bn_scale
I0823 08:53:06.256674  7716 net.cpp:434] conv3_2_bn_scale <- conv3_2_bn
I0823 08:53:06.256677  7716 net.cpp:395] conv3_2_bn_scale -> conv3_2_bn (in-place)
I0823 08:53:06.256705  7716 layer_factory.hpp:77] Creating layer conv3_2_bn_scale
I0823 08:53:06.256780  7716 net.cpp:150] Setting up conv3_2_bn_scale
I0823 08:53:06.256785  7716 net.cpp:157] Top shape: 64 32 75 75 (11520000)
I0823 08:53:06.256788  7716 net.cpp:165] Memory required for data: 2696394752
I0823 08:53:06.256793  7716 layer_factory.hpp:77] Creating layer conv3_2_relu
I0823 08:53:06.256799  7716 net.cpp:100] Creating Layer conv3_2_relu
I0823 08:53:06.256803  7716 net.cpp:434] conv3_2_relu <- conv3_2_bn
I0823 08:53:06.256806  7716 net.cpp:395] conv3_2_relu -> conv3_2_bn (in-place)
I0823 08:53:06.256811  7716 net.cpp:150] Setting up conv3_2_relu
I0823 08:53:06.256815  7716 net.cpp:157] Top shape: 64 32 75 75 (11520000)
I0823 08:53:06.256817  7716 net.cpp:165] Memory required for data: 2742474752
I0823 08:53:06.256820  7716 layer_factory.hpp:77] Creating layer pool3
I0823 08:53:06.256826  7716 net.cpp:100] Creating Layer pool3
I0823 08:53:06.256829  7716 net.cpp:434] pool3 <- conv3_2_bn
I0823 08:53:06.256834  7716 net.cpp:408] pool3 -> pool3
I0823 08:53:06.256860  7716 net.cpp:150] Setting up pool3
I0823 08:53:06.256865  7716 net.cpp:157] Top shape: 64 32 38 38 (2957312)
I0823 08:53:06.256867  7716 net.cpp:165] Memory required for data: 2754304000
I0823 08:53:06.256870  7716 layer_factory.hpp:77] Creating layer conv4_1
I0823 08:53:06.256877  7716 net.cpp:100] Creating Layer conv4_1
I0823 08:53:06.256880  7716 net.cpp:434] conv4_1 <- pool3
I0823 08:53:06.256886  7716 net.cpp:408] conv4_1 -> conv4_1
I0823 08:53:06.257413  7716 net.cpp:150] Setting up conv4_1
I0823 08:53:06.257419  7716 net.cpp:157] Top shape: 64 64 38 38 (5914624)
I0823 08:53:06.257422  7716 net.cpp:165] Memory required for data: 2777962496
I0823 08:53:06.257426  7716 layer_factory.hpp:77] Creating layer conv4_1_bn
I0823 08:53:06.257431  7716 net.cpp:100] Creating Layer conv4_1_bn
I0823 08:53:06.257434  7716 net.cpp:434] conv4_1_bn <- conv4_1
I0823 08:53:06.257438  7716 net.cpp:408] conv4_1_bn -> conv4_1_bn
I0823 08:53:06.257565  7716 net.cpp:150] Setting up conv4_1_bn
I0823 08:53:06.257570  7716 net.cpp:157] Top shape: 64 64 38 38 (5914624)
I0823 08:53:06.257573  7716 net.cpp:165] Memory required for data: 2801620992
I0823 08:53:06.257578  7716 layer_factory.hpp:77] Creating layer conv4_1_bn_scale
I0823 08:53:06.257586  7716 net.cpp:100] Creating Layer conv4_1_bn_scale
I0823 08:53:06.257589  7716 net.cpp:434] conv4_1_bn_scale <- conv4_1_bn
I0823 08:53:06.257596  7716 net.cpp:395] conv4_1_bn_scale -> conv4_1_bn (in-place)
I0823 08:53:06.257622  7716 layer_factory.hpp:77] Creating layer conv4_1_bn_scale
I0823 08:53:06.257701  7716 net.cpp:150] Setting up conv4_1_bn_scale
I0823 08:53:06.257706  7716 net.cpp:157] Top shape: 64 64 38 38 (5914624)
I0823 08:53:06.257709  7716 net.cpp:165] Memory required for data: 2825279488
I0823 08:53:06.257714  7716 layer_factory.hpp:77] Creating layer conv4_1_relu
I0823 08:53:06.257719  7716 net.cpp:100] Creating Layer conv4_1_relu
I0823 08:53:06.257728  7716 net.cpp:434] conv4_1_relu <- conv4_1_bn
I0823 08:53:06.257738  7716 net.cpp:395] conv4_1_relu -> conv4_1_bn (in-place)
I0823 08:53:06.257747  7716 net.cpp:150] Setting up conv4_1_relu
I0823 08:53:06.257752  7716 net.cpp:157] Top shape: 64 64 38 38 (5914624)
I0823 08:53:06.257755  7716 net.cpp:165] Memory required for data: 2848937984
I0823 08:53:06.257757  7716 layer_factory.hpp:77] Creating layer conv4_2
I0823 08:53:06.257764  7716 net.cpp:100] Creating Layer conv4_2
I0823 08:53:06.257766  7716 net.cpp:434] conv4_2 <- conv4_1_bn
I0823 08:53:06.257772  7716 net.cpp:408] conv4_2 -> conv4_2
I0823 08:53:06.258668  7716 net.cpp:150] Setting up conv4_2
I0823 08:53:06.258674  7716 net.cpp:157] Top shape: 64 64 38 38 (5914624)
I0823 08:53:06.258677  7716 net.cpp:165] Memory required for data: 2872596480
I0823 08:53:06.258682  7716 layer_factory.hpp:77] Creating layer conv4_2_bn
I0823 08:53:06.258687  7716 net.cpp:100] Creating Layer conv4_2_bn
I0823 08:53:06.258690  7716 net.cpp:434] conv4_2_bn <- conv4_2
I0823 08:53:06.258694  7716 net.cpp:408] conv4_2_bn -> conv4_2_bn
I0823 08:53:06.258821  7716 net.cpp:150] Setting up conv4_2_bn
I0823 08:53:06.258826  7716 net.cpp:157] Top shape: 64 64 38 38 (5914624)
I0823 08:53:06.258829  7716 net.cpp:165] Memory required for data: 2896254976
I0823 08:53:06.258834  7716 layer_factory.hpp:77] Creating layer conv4_2_bn_scale
I0823 08:53:06.258839  7716 net.cpp:100] Creating Layer conv4_2_bn_scale
I0823 08:53:06.258842  7716 net.cpp:434] conv4_2_bn_scale <- conv4_2_bn
I0823 08:53:06.258847  7716 net.cpp:395] conv4_2_bn_scale -> conv4_2_bn (in-place)
I0823 08:53:06.258874  7716 layer_factory.hpp:77] Creating layer conv4_2_bn_scale
I0823 08:53:06.258949  7716 net.cpp:150] Setting up conv4_2_bn_scale
I0823 08:53:06.258955  7716 net.cpp:157] Top shape: 64 64 38 38 (5914624)
I0823 08:53:06.258956  7716 net.cpp:165] Memory required for data: 2919913472
I0823 08:53:06.258961  7716 layer_factory.hpp:77] Creating layer conv4_2_relu
I0823 08:53:06.258965  7716 net.cpp:100] Creating Layer conv4_2_relu
I0823 08:53:06.258968  7716 net.cpp:434] conv4_2_relu <- conv4_2_bn
I0823 08:53:06.258975  7716 net.cpp:395] conv4_2_relu -> conv4_2_bn (in-place)
I0823 08:53:06.258978  7716 net.cpp:150] Setting up conv4_2_relu
I0823 08:53:06.258982  7716 net.cpp:157] Top shape: 64 64 38 38 (5914624)
I0823 08:53:06.258985  7716 net.cpp:165] Memory required for data: 2943571968
I0823 08:53:06.258988  7716 layer_factory.hpp:77] Creating layer pool4
I0823 08:53:06.258992  7716 net.cpp:100] Creating Layer pool4
I0823 08:53:06.258996  7716 net.cpp:434] pool4 <- conv4_2_bn
I0823 08:53:06.259001  7716 net.cpp:408] pool4 -> pool4
I0823 08:53:06.259026  7716 net.cpp:150] Setting up pool4
I0823 08:53:06.259030  7716 net.cpp:157] Top shape: 64 64 19 19 (1478656)
I0823 08:53:06.259033  7716 net.cpp:165] Memory required for data: 2949486592
I0823 08:53:06.259037  7716 layer_factory.hpp:77] Creating layer conv5_1
I0823 08:53:06.259042  7716 net.cpp:100] Creating Layer conv5_1
I0823 08:53:06.259045  7716 net.cpp:434] conv5_1 <- pool4
I0823 08:53:06.259050  7716 net.cpp:408] conv5_1 -> conv5_1
I0823 08:53:06.259968  7716 net.cpp:150] Setting up conv5_1
I0823 08:53:06.259975  7716 net.cpp:157] Top shape: 64 64 17 17 (1183744)
I0823 08:53:06.259979  7716 net.cpp:165] Memory required for data: 2954221568
I0823 08:53:06.259982  7716 layer_factory.hpp:77] Creating layer conv5_1_bn
I0823 08:53:06.259989  7716 net.cpp:100] Creating Layer conv5_1_bn
I0823 08:53:06.259991  7716 net.cpp:434] conv5_1_bn <- conv5_1
I0823 08:53:06.259995  7716 net.cpp:408] conv5_1_bn -> conv5_1_bn
I0823 08:53:06.260126  7716 net.cpp:150] Setting up conv5_1_bn
I0823 08:53:06.260131  7716 net.cpp:157] Top shape: 64 64 17 17 (1183744)
I0823 08:53:06.260134  7716 net.cpp:165] Memory required for data: 2958956544
I0823 08:53:06.260139  7716 layer_factory.hpp:77] Creating layer conv5_1_bn_scale
I0823 08:53:06.260144  7716 net.cpp:100] Creating Layer conv5_1_bn_scale
I0823 08:53:06.260148  7716 net.cpp:434] conv5_1_bn_scale <- conv5_1_bn
I0823 08:53:06.260151  7716 net.cpp:395] conv5_1_bn_scale -> conv5_1_bn (in-place)
I0823 08:53:06.260185  7716 layer_factory.hpp:77] Creating layer conv5_1_bn_scale
I0823 08:53:06.260288  7716 net.cpp:150] Setting up conv5_1_bn_scale
I0823 08:53:06.260293  7716 net.cpp:157] Top shape: 64 64 17 17 (1183744)
I0823 08:53:06.260296  7716 net.cpp:165] Memory required for data: 2963691520
I0823 08:53:06.260301  7716 layer_factory.hpp:77] Creating layer conv5_1_relu
I0823 08:53:06.260305  7716 net.cpp:100] Creating Layer conv5_1_relu
I0823 08:53:06.260308  7716 net.cpp:434] conv5_1_relu <- conv5_1_bn
I0823 08:53:06.260313  7716 net.cpp:395] conv5_1_relu -> conv5_1_bn (in-place)
I0823 08:53:06.260318  7716 net.cpp:150] Setting up conv5_1_relu
I0823 08:53:06.260321  7716 net.cpp:157] Top shape: 64 64 17 17 (1183744)
I0823 08:53:06.260324  7716 net.cpp:165] Memory required for data: 2968426496
I0823 08:53:06.260327  7716 layer_factory.hpp:77] Creating layer conv6_1
I0823 08:53:06.260334  7716 net.cpp:100] Creating Layer conv6_1
I0823 08:53:06.260337  7716 net.cpp:434] conv6_1 <- conv5_1_bn
I0823 08:53:06.260341  7716 net.cpp:408] conv6_1 -> conv6_1
I0823 08:53:06.261786  7716 net.cpp:150] Setting up conv6_1
I0823 08:53:06.261800  7716 net.cpp:157] Top shape: 64 64 15 15 (921600)
I0823 08:53:06.261802  7716 net.cpp:165] Memory required for data: 2972112896
I0823 08:53:06.261806  7716 layer_factory.hpp:77] Creating layer conv6_1_bn
I0823 08:53:06.261813  7716 net.cpp:100] Creating Layer conv6_1_bn
I0823 08:53:06.261817  7716 net.cpp:434] conv6_1_bn <- conv6_1
I0823 08:53:06.261821  7716 net.cpp:408] conv6_1_bn -> conv6_1_bn
I0823 08:53:06.261956  7716 net.cpp:150] Setting up conv6_1_bn
I0823 08:53:06.261961  7716 net.cpp:157] Top shape: 64 64 15 15 (921600)
I0823 08:53:06.261965  7716 net.cpp:165] Memory required for data: 2975799296
I0823 08:53:06.261970  7716 layer_factory.hpp:77] Creating layer conv6_1_bn_scale
I0823 08:53:06.261976  7716 net.cpp:100] Creating Layer conv6_1_bn_scale
I0823 08:53:06.261978  7716 net.cpp:434] conv6_1_bn_scale <- conv6_1_bn
I0823 08:53:06.261984  7716 net.cpp:395] conv6_1_bn_scale -> conv6_1_bn (in-place)
I0823 08:53:06.262012  7716 layer_factory.hpp:77] Creating layer conv6_1_bn_scale
I0823 08:53:06.262091  7716 net.cpp:150] Setting up conv6_1_bn_scale
I0823 08:53:06.262099  7716 net.cpp:157] Top shape: 64 64 15 15 (921600)
I0823 08:53:06.262100  7716 net.cpp:165] Memory required for data: 2979485696
I0823 08:53:06.262105  7716 layer_factory.hpp:77] Creating layer conv6_1_relu
I0823 08:53:06.262110  7716 net.cpp:100] Creating Layer conv6_1_relu
I0823 08:53:06.262114  7716 net.cpp:434] conv6_1_relu <- conv6_1_bn
I0823 08:53:06.262118  7716 net.cpp:395] conv6_1_relu -> conv6_1_bn (in-place)
I0823 08:53:06.262123  7716 net.cpp:150] Setting up conv6_1_relu
I0823 08:53:06.262127  7716 net.cpp:157] Top shape: 64 64 15 15 (921600)
I0823 08:53:06.262130  7716 net.cpp:165] Memory required for data: 2983172096
I0823 08:53:06.262132  7716 layer_factory.hpp:77] Creating layer conv7_1
I0823 08:53:06.262140  7716 net.cpp:100] Creating Layer conv7_1
I0823 08:53:06.262143  7716 net.cpp:434] conv7_1 <- conv6_1_bn
I0823 08:53:06.262147  7716 net.cpp:408] conv7_1 -> conv7_1
I0823 08:53:06.263898  7716 net.cpp:150] Setting up conv7_1
I0823 08:53:06.263905  7716 net.cpp:157] Top shape: 64 128 13 13 (1384448)
I0823 08:53:06.263907  7716 net.cpp:165] Memory required for data: 2988709888
I0823 08:53:06.263911  7716 layer_factory.hpp:77] Creating layer conv7_1_bn
I0823 08:53:06.263917  7716 net.cpp:100] Creating Layer conv7_1_bn
I0823 08:53:06.263921  7716 net.cpp:434] conv7_1_bn <- conv7_1
I0823 08:53:06.263926  7716 net.cpp:408] conv7_1_bn -> conv7_1_bn
I0823 08:53:06.264048  7716 net.cpp:150] Setting up conv7_1_bn
I0823 08:53:06.264053  7716 net.cpp:157] Top shape: 64 128 13 13 (1384448)
I0823 08:53:06.264056  7716 net.cpp:165] Memory required for data: 2994247680
I0823 08:53:06.264062  7716 layer_factory.hpp:77] Creating layer conv7_1_bn_scale
I0823 08:53:06.264068  7716 net.cpp:100] Creating Layer conv7_1_bn_scale
I0823 08:53:06.264071  7716 net.cpp:434] conv7_1_bn_scale <- conv7_1_bn
I0823 08:53:06.264081  7716 net.cpp:395] conv7_1_bn_scale -> conv7_1_bn (in-place)
I0823 08:53:06.264116  7716 layer_factory.hpp:77] Creating layer conv7_1_bn_scale
I0823 08:53:06.264185  7716 net.cpp:150] Setting up conv7_1_bn_scale
I0823 08:53:06.264190  7716 net.cpp:157] Top shape: 64 128 13 13 (1384448)
I0823 08:53:06.264194  7716 net.cpp:165] Memory required for data: 2999785472
I0823 08:53:06.264209  7716 layer_factory.hpp:77] Creating layer conv7_1_relu
I0823 08:53:06.264215  7716 net.cpp:100] Creating Layer conv7_1_relu
I0823 08:53:06.264219  7716 net.cpp:434] conv7_1_relu <- conv7_1_bn
I0823 08:53:06.264224  7716 net.cpp:395] conv7_1_relu -> conv7_1_bn (in-place)
I0823 08:53:06.264228  7716 net.cpp:150] Setting up conv7_1_relu
I0823 08:53:06.264231  7716 net.cpp:157] Top shape: 64 128 13 13 (1384448)
I0823 08:53:06.264235  7716 net.cpp:165] Memory required for data: 3005323264
I0823 08:53:06.264237  7716 layer_factory.hpp:77] Creating layer score
I0823 08:53:06.264243  7716 net.cpp:100] Creating Layer score
I0823 08:53:06.264246  7716 net.cpp:434] score <- conv7_1_bn
I0823 08:53:06.264251  7716 net.cpp:408] score -> score
I0823 08:53:06.264415  7716 net.cpp:150] Setting up score
I0823 08:53:06.264421  7716 net.cpp:157] Top shape: 64 4 13 13 (43264)
I0823 08:53:06.264425  7716 net.cpp:165] Memory required for data: 3005496320
I0823 08:53:06.264428  7716 layer_factory.hpp:77] Creating layer upscore
I0823 08:53:06.264436  7716 net.cpp:100] Creating Layer upscore
I0823 08:53:06.264439  7716 net.cpp:434] upscore <- score
I0823 08:53:06.264444  7716 net.cpp:408] upscore -> upscore
I0823 08:53:06.264916  7716 net.cpp:150] Setting up upscore
I0823 08:53:06.264922  7716 net.cpp:157] Top shape: 64 4 224 224 (12845056)
I0823 08:53:06.264925  7716 net.cpp:165] Memory required for data: 3056876544
I0823 08:53:06.264930  7716 layer_factory.hpp:77] Creating layer cropscore
I0823 08:53:06.264935  7716 net.cpp:100] Creating Layer cropscore
I0823 08:53:06.264938  7716 net.cpp:434] cropscore <- upscore
I0823 08:53:06.264941  7716 net.cpp:434] cropscore <- image_data_0_split_1
I0823 08:53:06.264945  7716 net.cpp:408] cropscore -> cropscore
I0823 08:53:06.264966  7716 net.cpp:150] Setting up cropscore
I0823 08:53:06.264971  7716 net.cpp:157] Top shape: 64 4 200 200 (10240000)
I0823 08:53:06.264974  7716 net.cpp:165] Memory required for data: 3097836544
I0823 08:53:06.264977  7716 layer_factory.hpp:77] Creating layer cropscore_cropscore_0_split
I0823 08:53:06.264981  7716 net.cpp:100] Creating Layer cropscore_cropscore_0_split
I0823 08:53:06.264984  7716 net.cpp:434] cropscore_cropscore_0_split <- cropscore
I0823 08:53:06.264988  7716 net.cpp:408] cropscore_cropscore_0_split -> cropscore_cropscore_0_split_0
I0823 08:53:06.264993  7716 net.cpp:408] cropscore_cropscore_0_split -> cropscore_cropscore_0_split_1
I0823 08:53:06.265017  7716 net.cpp:150] Setting up cropscore_cropscore_0_split
I0823 08:53:06.265022  7716 net.cpp:157] Top shape: 64 4 200 200 (10240000)
I0823 08:53:06.265025  7716 net.cpp:157] Top shape: 64 4 200 200 (10240000)
I0823 08:53:06.265028  7716 net.cpp:165] Memory required for data: 3179756544
I0823 08:53:06.265031  7716 layer_factory.hpp:77] Creating layer loss
I0823 08:53:06.265036  7716 net.cpp:100] Creating Layer loss
I0823 08:53:06.265039  7716 net.cpp:434] loss <- cropscore_cropscore_0_split_0
I0823 08:53:06.265043  7716 net.cpp:434] loss <- label_data_1_split_0
I0823 08:53:06.265048  7716 net.cpp:408] loss -> loss
…
