…
I0828 18:15:16.651720  9408 solver.cpp:91] Creating training net from net file: portrait_train_test_one_stage.prototxt5
I0828 18:15:16.652470  9408 net.cpp:322] The NetState phase (0) differed from the phase (1) specified by a rule in layer data
I0828 18:15:16.652696  9408 net.cpp:58] Initializing net from parameters: 
name: "segmentation"
state {
  phase: TRAIN
  level: 0
  stage: ""
}
layer {
  name: "data"
  type: "SegData"
  top: "image"
  top: "label"
  include {
    phase: TRAIN
  }
  transform_param {
    mirror: true
    crop_size: 200
  }
  data_param {
    source: "/raid/xuehan/segmentation_train_split"
    batch_size: 128
    backend: LMDB
  }
}
layer {
  name: "conv1_1"
  type: "Convolution"
  bottom: "image"
  top: "conv1_1"
  param {
    lr_mult: 1
    decay_mult: 1
  }
  convolution_param {
    num_output: 8
    bias_term: false
    pad: 50
    kernel_size: 3
    stride: 1
    weight_filler {
      type: "gaussian"
      std: 0.01
    }
  }
}
layer {
  name: "pool1"
  type: "Pooling"
  bottom: "conv1_1"
  top: "pool1"
  pooling_param {
    pool: MAX
    kernel_size: 2
    stride: 2
  }
}
layer {
  name: "conv1_1_bn"
  type: "BatchNorm"
  bottom: "pool1"
  top: "conv1_1_bn"
  param {
    lr_mult: 0
  }
  param {
    lr_mult: 0
  }
  param {
    lr_mult: 0
  }
}
layer {
  name: "conv1_1_bn_scale"
  type: "Scale"
  bottom: "conv1_1_bn"
  top: "conv1_1_bn"
  scale_param {
    bias_term: true
  }
}
layer {
  name: "conv1_1_relu"
  type: "ReLU"
  bottom: "conv1_1_bn"
  top: "conv1_1_bn"
}
layer {
  name: "conv2_1"
  type: "Convolution"
  bottom: "conv1_1_bn"
  top: "conv2_1"
  param {
    lr_mult: 1
    decay_mult: 1
  }
  convolution_param {
    num_output: 16
    bias_term: false
    pad: 1
    kernel_size: 3
    stride: 1
    weight_filler {
      type: "gaussian"
      std: 0.01
    }
  }
}
layer {
  name: "pool2"
  type: "Pooling"
  bottom: "conv2_1"
  top: "pool2"
  pooling_param {
    pool: MAX
    kernel_size: 2
    stride: 2
  }
}
layer {
  name: "conv2_1_bn"
  type: "BatchNorm"
  bottom: "pool2"
  top: "conv2_1_bn"
  param {
    lr_mult: 0
  }
  param {
    lr_mult: 0
  }
  param {
    lr_mult: 0
  }
}
layer {
  name: "conv2_1_bn_scale"
  type: "Scale"
  bottom: "conv2_1_bn"
  top: "conv2_1_bn"
  scale_param {
    bias_term: true
  }
}
layer {
  name: "conv2_1_relu"
  type: "ReLU"
  bottom: "conv2_1_bn"
  top: "conv2_1_bn"
}
layer {
  name: "conv3_1"
  type: "Convolution"
  bottom: "conv2_1_bn"
  top: "conv3_1"
  param {
    lr_mult: 1
    decay_mult: 1
  }
  convolution_param {
    num_output: 32
    bias_term: false
    pad: 1
    kernel_size: 3
    stride: 1
    weight_filler {
      type: "gaussian"
      std: 0.01
    }
  }
}
layer {
  name: "pool3"
  type: "Pooling"
  bottom: "conv3_1"
  top: "pool3"
  pooling_param {
    pool: MAX
    kernel_size: 2
    stride: 2
  }
}
layer {
  name: "conv3_1_bn"
  type: "BatchNorm"
  bottom: "pool3"
  top: "conv3_1_bn"
  param {
    lr_mult: 0
  }
  param {
    lr_mult: 0
  }
  param {
    lr_mult: 0
  }
}
layer {
  name: "conv3_1_bn_scale"
  type: "Scale"
  bottom: "conv3_1_bn"
  top: "conv3_1_bn"
  scale_param {
    bias_term: true
  }
}
layer {
  name: "conv3_1_relu"
  type: "ReLU"
  bottom: "conv3_1_bn"
  top: "conv3_1_bn"
}
layer {
  name: "conv3_2"
  type: "Convolution"
  bottom: "conv3_1_bn"
  top: "conv3_2"
  param {
    lr_mult: 1
    decay_mult: 1
  }
  convolution_param {
    num_output: 32
    bias_term: false
    pad: 0
    kernel_size: 3
    stride: 1
    weight_filler {
      type: "gaussian"
      std: 0.01
    }
  }
}
layer {
  name: "conv3_2_bn"
  type: "BatchNorm"
  bottom: "conv3_2"
  top: "conv3_2_bn"
  param {
    lr_mult: 0
  }
  param {
    lr_mult: 0
  }
  param {
    lr_mult: 0
  }
}
layer {
  name: "conv3_2_bn_scale"
  type: "Scale"
  bottom: "conv3_2_bn"
  top: "conv3_2_bn"
  scale_param {
    bias_term: true
  }
}
layer {
  name: "conv3_2_relu"
  type: "ReLU"
  bottom: "conv3_2_bn"
  top: "conv3_2_bn"
}
layer {
  name: "conv3_3"
  type: "Convolution"
  bottom: "conv3_2_bn"
  top: "conv3_3"
  param {
    lr_mult: 1
    decay_mult: 1
  }
  convolution_param {
    num_output: 32
    bias_term: false
    pad: 0
    kernel_size: 3
    stride: 1
    weight_filler {
      type: "gaussian"
      std: 0.01
    }
  }
}
layer {
  name: "conv3_3_bn"
  type: "BatchNorm"
  bottom: "conv3_3"
  top: "conv3_3_bn"
  param {
    lr_mult: 0
  }
  param {
    lr_mult: 0
  }
  param {
    lr_mult: 0
  }
}
layer {
  name: "conv3_3_bn_scale"
  type: "Scale"
  bottom: "conv3_3_bn"
  top: "conv3_3_bn"
  scale_param {
    bias_term: true
  }
}
layer {
  name: "conv3_3_relu"
  type: "ReLU"
  bottom: "conv3_3_bn"
  top: "conv3_3_bn"
}
layer {
  name: "conv3_4"
  type: "Convolution"
  bottom: "conv3_3_bn"
  top: "conv3_4"
  param {
    lr_mult: 1
    decay_mult: 1
  }
  convolution_param {
    num_output: 64
    bias_term: false
    pad: 0
    kernel_size: 3
    stride: 1
    weight_filler {
      type: "gaussian"
      std: 0.01
    }
  }
}
layer {
  name: "conv3_4_bn"
  type: "BatchNorm"
  bottom: "conv3_4"
  top: "conv3_4_bn"
  param {
    lr_mult: 0
  }
  param {
    lr_mult: 0
  }
  param {
    lr_mult: 0
  }
}
layer {
  name: "conv3_4_bn_scale"
  type: "Scale"
  bottom: "conv3_4_bn"
  top: "conv3_4_bn"
  scale_param {
    bias_term: true
  }
}
layer {
  name: "conv3_4_relu"
  type: "ReLU"
  bottom: "conv3_4_bn"
  top: "conv3_4_bn"
}
layer {
  name: "score8"
  type: "Convolution"
  bottom: "conv3_4_bn"
  top: "score8"
  param {
    lr_mult: 1
    decay_mult: 1
  }
  param {
    lr_mult: 2
    decay_mult: 0
  }
  convolution_param {
    num_output: 4
    pad: 0
    kernel_size: 1
    stride: 1
    weight_filler {
      type: "gaussian"
      std: 0.01
    }
    bias_filler {
      type: "constant"
    }
  }
}
layer {
  name: "conv4_1"
  type: "Convolution"
  bottom: "conv3_1_bn"
  top: "conv4_1"
  param {
    lr_mult: 1
    decay_mult: 1
  }
  convolution_param {
    num_output: 64
    bias_term: false
    pad: 1
    kernel_size: 3
    stride: 1
    weight_filler {
      type: "gaussian"
      std: 0.01
    }
  }
}
layer {
  name: "pool4"
  type: "Pooling"
  bottom: "conv4_1"
  top: "pool4"
  pooling_param {
    pool: MAX
    kernel_size: 2
    stride: 2
  }
}
layer {
  name: "conv4_1_bn"
  type: "BatchNorm"
  bottom: "pool4"
  top: "conv4_1_bn"
  param {
    lr_mult: 0
  }
  param {
    lr_mult: 0
  }
  param {
    lr_mult: 0
  }
}
layer {
  name: "conv4_1_bn_scale"
  type: "Scale"
  bottom: "conv4_1_bn"
  top: "conv4_1_bn"
  scale_param {
    bias_term: true
  }
}
layer {
  name: "conv4_1_relu"
  type: "ReLU"
  bottom: "conv4_1_bn"
  top: "conv4_1_bn"
}
layer {
  name: "conv5_1"
  type: "Convolution"
  bottom: "conv4_1_bn"
  top: "conv5_1"
  param {
    lr_mult: 1
    decay_mult: 1
  }
  convolution_param {
    num_output: 64
    bias_term: false
    pad: 0
    kernel_size: 3
    stride: 1
    weight_filler {
      type: "gaussian"
      std: 0.01
    }
  }
}
layer {
  name: "conv5_1_bn"
  type: "BatchNorm"
  bottom: "conv5_1"
  top: "conv5_1_bn"
  param {
    lr_mult: 0
  }
  param {
    lr_mult: 0
  }
  param {
    lr_mult: 0
  }
}
layer {
  name: "conv5_1_bn_scale"
  type: "Scale"
  bottom: "conv5_1_bn"
  top: "conv5_1_bn"
  scale_param {
    bias_term: true
  }
}
layer {
  name: "conv5_1_relu"
  type: "ReLU"
  bottom: "conv5_1_bn"
  top: "conv5_1_bn"
}
layer {
  name: "conv6_1"
  type: "Convolution"
  bottom: "conv5_1_bn"
  top: "conv6_1"
  param {
    lr_mult: 1
    decay_mult: 1
  }
  convolution_param {
    num_output: 64
    bias_term: false
    pad: 0
    kernel_size: 3
    stride: 1
    weight_filler {
      type: "gaussian"
      std: 0.01
    }
  }
}
layer {
  name: "conv6_1_bn"
  type: "BatchNorm"
  bottom: "conv6_1"
  top: "conv6_1_bn"
  param {
    lr_mult: 0
  }
  param {
    lr_mult: 0
  }
  param {
    lr_mult: 0
  }
}
layer {
  name: "conv6_1_bn_scale"
  type: "Scale"
  bottom: "conv6_1_bn"
  top: "conv6_1_bn"
  scale_param {
    bias_term: true
  }
}
layer {
  name: "conv6_1_relu"
  type: "ReLU"
  bottom: "conv6_1_bn"
  top: "conv6_1_bn"
}
layer {
  name: "conv7_1"
  type: "Convolution"
  bottom: "conv6_1_bn"
  top: "conv7_1"
  param {
    lr_mult: 1
    decay_mult: 1
  }
  convolution_param {
    num_output: 128
    bias_term: false
    pad: 0
    kernel_size: 3
    stride: 1
    weight_filler {
      type: "gaussian"
      std: 0.01
    }
  }
}
layer {
  name: "conv7_1_bn"
  type: "BatchNorm"
  bottom: "conv7_1"
  top: "conv7_1_bn"
  param {
    lr_mult: 0
  }
  param {
    lr_mult: 0
  }
  param {
    lr_mult: 0
  }
}
layer {
  name: "conv7_1_bn_scale"
  type: "Scale"
  bottom: "conv7_1_bn"
  top: "conv7_1_bn"
  scale_param {
    bias_term: true
  }
}
layer {
  name: "conv7_1_relu"
  type: "ReLU"
  bottom: "conv7_1_bn"
  top: "conv7_1_bn"
}
layer {
  name: "score"
  type: "Convolution"
  bottom: "conv7_1_bn"
  top: "score"
  param {
    lr_mult: 1
    decay_mult: 1
  }
  param {
    lr_mult: 2
    decay_mult: 0
  }
  convolution_param {
    num_output: 4
    pad: 0
    kernel_size: 1
    stride: 1
    weight_filler {
      type: "gaussian"
      std: 0.01
    }
    bias_filler {
      type: "constant"
    }
  }
}
layer {
  name: "upscorex2"
  type: "Deconvolution"
  bottom: "score"
  top: "upscorex2"
  param {
    lr_mult: 1
    decay_mult: 1
  }
  convolution_param {
    num_output: 4
    bias_term: false
    pad: 0
    kernel_size: 4
    stride: 2
    weight_filler {
      type: "gaussian"
      std: 0.01
    }
  }
}
layer {
  name: "cropscore1"
  type: "Crop"
  bottom: "score8"
  bottom: "upscorex2"
  top: "cropscore1"
  crop_param {
    axis: 2
    offset: 2
  }
}
layer {
  name: "fuse"
  type: "Eltwise"
  bottom: "cropscore1"
  bottom: "upscorex2"
  top: "score_fuse"
  eltwise_param {
    operation: SUM
  }
}
layer {
  name: "upscorex8"
  type: "Deconvolution"
  bottom: "score_fuse"
  top: "upscorex8"
  param {
    lr_mult: 1
    decay_mult: 1
  }
  convolution_param {
    num_output: 4
    bias_term: false
    pad: 0
    kernel_size: 16
    stride: 8
    weight_filler {
      type: "gaussian"
      std: 0.01
    }
  }
}
layer {
  name: "cropscore2"
  type: "Crop"
  bottom: "upscorex8"
  bottom: "image"
  top: "cropscore2"
  crop_param {
    axis: 2
    offset: 16
  }
}
layer {
  name: "loss"
  type: "SoftmaxWithLoss"
  bottom: "cropscore2"
  bottom: "label"
  top: "loss"
  loss_weight: 1
  loss_param {
    normalize: false
  }
}
layer {
  name: "accuracy"
  type: "Accuracy"
  bottom: "cropscore2"
  bottom: "label"
  top: "accuracy"
}
I0828 18:15:16.652884  9408 layer_factory.hpp:77] Creating layer data
I0828 18:15:16.653336  9408 net.cpp:100] Creating Layer data
I0828 18:15:16.653345  9408 net.cpp:408] data -> image
I0828 18:15:16.653368  9408 net.cpp:408] data -> label
I0828 18:15:16.654307  9412 db_lmdb.cpp:35] Opened lmdb /raid/xuehan/segmentation_train_split
I0828 18:15:16.654484  9408 seg_data_layer.cpp:38] 200 200 4
I0828 18:15:16.661563  9408 seg_data_layer.cpp:51] output data size: 128,3,200,200
I0828 18:15:16.661624  9408 seg_data_layer.cpp:63] output label size: 128,1,200,200
I0828 18:15:16.883394  9408 net.cpp:150] Setting up data
I0828 18:15:16.883429  9408 net.cpp:157] Top shape: 128 3 200 200 (15360000)
I0828 18:15:16.883435  9408 net.cpp:157] Top shape: 128 1 200 200 (5120000)
I0828 18:15:16.883437  9408 net.cpp:165] Memory required for data: 81920000
I0828 18:15:16.883447  9408 layer_factory.hpp:77] Creating layer image_data_0_split
I0828 18:15:16.883458  9408 net.cpp:100] Creating Layer image_data_0_split
I0828 18:15:16.883463  9408 net.cpp:434] image_data_0_split <- image
I0828 18:15:16.883476  9408 net.cpp:408] image_data_0_split -> image_data_0_split_0
I0828 18:15:16.883484  9408 net.cpp:408] image_data_0_split -> image_data_0_split_1
I0828 18:15:16.883551  9408 net.cpp:150] Setting up image_data_0_split
I0828 18:15:16.883565  9408 net.cpp:157] Top shape: 128 3 200 200 (15360000)
I0828 18:15:16.883569  9408 net.cpp:157] Top shape: 128 3 200 200 (15360000)
I0828 18:15:16.883572  9408 net.cpp:165] Memory required for data: 204800000
I0828 18:15:16.883575  9408 layer_factory.hpp:77] Creating layer label_data_1_split
I0828 18:15:16.883580  9408 net.cpp:100] Creating Layer label_data_1_split
I0828 18:15:16.883584  9408 net.cpp:434] label_data_1_split <- label
I0828 18:15:16.883587  9408 net.cpp:408] label_data_1_split -> label_data_1_split_0
I0828 18:15:16.883592  9408 net.cpp:408] label_data_1_split -> label_data_1_split_1
I0828 18:15:16.883616  9408 net.cpp:150] Setting up label_data_1_split
I0828 18:15:16.883621  9408 net.cpp:157] Top shape: 128 1 200 200 (5120000)
I0828 18:15:16.883625  9408 net.cpp:157] Top shape: 128 1 200 200 (5120000)
I0828 18:15:16.883626  9408 net.cpp:165] Memory required for data: 245760000
I0828 18:15:16.883630  9408 layer_factory.hpp:77] Creating layer conv1_1
I0828 18:15:16.883643  9408 net.cpp:100] Creating Layer conv1_1
I0828 18:15:16.883646  9408 net.cpp:434] conv1_1 <- image_data_0_split_0
I0828 18:15:16.883651  9408 net.cpp:408] conv1_1 -> conv1_1
I0828 18:15:16.883810  9408 net.cpp:150] Setting up conv1_1
I0828 18:15:16.883816  9408 net.cpp:157] Top shape: 128 8 298 298 (90935296)
I0828 18:15:16.883818  9408 net.cpp:165] Memory required for data: 609501184
I0828 18:15:16.883827  9408 layer_factory.hpp:77] Creating layer pool1
I0828 18:15:16.883834  9408 net.cpp:100] Creating Layer pool1
I0828 18:15:16.883837  9408 net.cpp:434] pool1 <- conv1_1
I0828 18:15:16.883842  9408 net.cpp:408] pool1 -> pool1
I0828 18:15:16.883872  9408 net.cpp:150] Setting up pool1
I0828 18:15:16.883877  9408 net.cpp:157] Top shape: 128 8 149 149 (22733824)
I0828 18:15:16.883878  9408 net.cpp:165] Memory required for data: 700436480
I0828 18:15:16.883882  9408 layer_factory.hpp:77] Creating layer conv1_1_bn
I0828 18:15:16.883888  9408 net.cpp:100] Creating Layer conv1_1_bn
I0828 18:15:16.883891  9408 net.cpp:434] conv1_1_bn <- pool1
I0828 18:15:16.883895  9408 net.cpp:408] conv1_1_bn -> conv1_1_bn
I0828 18:15:16.884479  9408 net.cpp:150] Setting up conv1_1_bn
I0828 18:15:16.884490  9408 net.cpp:157] Top shape: 128 8 149 149 (22733824)
I0828 18:15:16.884491  9408 net.cpp:165] Memory required for data: 791371776
I0828 18:15:16.884500  9408 layer_factory.hpp:77] Creating layer conv1_1_bn_scale
I0828 18:15:16.884508  9408 net.cpp:100] Creating Layer conv1_1_bn_scale
I0828 18:15:16.884511  9408 net.cpp:434] conv1_1_bn_scale <- conv1_1_bn
I0828 18:15:16.884516  9408 net.cpp:395] conv1_1_bn_scale -> conv1_1_bn (in-place)
I0828 18:15:16.884549  9408 layer_factory.hpp:77] Creating layer conv1_1_bn_scale
I0828 18:15:16.884701  9408 net.cpp:150] Setting up conv1_1_bn_scale
I0828 18:15:16.884709  9408 net.cpp:157] Top shape: 128 8 149 149 (22733824)
I0828 18:15:16.884712  9408 net.cpp:165] Memory required for data: 882307072
I0828 18:15:16.884719  9408 layer_factory.hpp:77] Creating layer conv1_1_relu
I0828 18:15:16.884728  9408 net.cpp:100] Creating Layer conv1_1_relu
I0828 18:15:16.884732  9408 net.cpp:434] conv1_1_relu <- conv1_1_bn
I0828 18:15:16.884737  9408 net.cpp:395] conv1_1_relu -> conv1_1_bn (in-place)
I0828 18:15:16.884744  9408 net.cpp:150] Setting up conv1_1_relu
I0828 18:15:16.884748  9408 net.cpp:157] Top shape: 128 8 149 149 (22733824)
I0828 18:15:16.884752  9408 net.cpp:165] Memory required for data: 973242368
I0828 18:15:16.884753  9408 layer_factory.hpp:77] Creating layer conv2_1
I0828 18:15:16.884762  9408 net.cpp:100] Creating Layer conv2_1
I0828 18:15:16.884764  9408 net.cpp:434] conv2_1 <- conv1_1_bn
I0828 18:15:16.884770  9408 net.cpp:408] conv2_1 -> conv2_1
I0828 18:15:16.891677  9408 net.cpp:150] Setting up conv2_1
I0828 18:15:16.891691  9408 net.cpp:157] Top shape: 128 16 149 149 (45467648)
I0828 18:15:16.891695  9408 net.cpp:165] Memory required for data: 1155112960
I0828 18:15:16.891700  9408 layer_factory.hpp:77] Creating layer pool2
I0828 18:15:16.891710  9408 net.cpp:100] Creating Layer pool2
I0828 18:15:16.891718  9408 net.cpp:434] pool2 <- conv2_1
I0828 18:15:16.891722  9408 net.cpp:408] pool2 -> pool2
I0828 18:15:16.891751  9408 net.cpp:150] Setting up pool2
I0828 18:15:16.891755  9408 net.cpp:157] Top shape: 128 16 75 75 (11520000)
I0828 18:15:16.891758  9408 net.cpp:165] Memory required for data: 1201192960
I0828 18:15:16.891760  9408 layer_factory.hpp:77] Creating layer conv2_1_bn
I0828 18:15:16.891767  9408 net.cpp:100] Creating Layer conv2_1_bn
I0828 18:15:16.891770  9408 net.cpp:434] conv2_1_bn <- pool2
I0828 18:15:16.891773  9408 net.cpp:408] conv2_1_bn -> conv2_1_bn
I0828 18:15:16.892304  9408 net.cpp:150] Setting up conv2_1_bn
I0828 18:15:16.892314  9408 net.cpp:157] Top shape: 128 16 75 75 (11520000)
I0828 18:15:16.892316  9408 net.cpp:165] Memory required for data: 1247272960
I0828 18:15:16.892326  9408 layer_factory.hpp:77] Creating layer conv2_1_bn_scale
I0828 18:15:16.892331  9408 net.cpp:100] Creating Layer conv2_1_bn_scale
I0828 18:15:16.892335  9408 net.cpp:434] conv2_1_bn_scale <- conv2_1_bn
I0828 18:15:16.892340  9408 net.cpp:395] conv2_1_bn_scale -> conv2_1_bn (in-place)
I0828 18:15:16.892366  9408 layer_factory.hpp:77] Creating layer conv2_1_bn_scale
I0828 18:15:16.892446  9408 net.cpp:150] Setting up conv2_1_bn_scale
I0828 18:15:16.892452  9408 net.cpp:157] Top shape: 128 16 75 75 (11520000)
I0828 18:15:16.892454  9408 net.cpp:165] Memory required for data: 1293352960
I0828 18:15:16.892459  9408 layer_factory.hpp:77] Creating layer conv2_1_relu
I0828 18:15:16.892463  9408 net.cpp:100] Creating Layer conv2_1_relu
I0828 18:15:16.892467  9408 net.cpp:434] conv2_1_relu <- conv2_1_bn
I0828 18:15:16.892472  9408 net.cpp:395] conv2_1_relu -> conv2_1_bn (in-place)
I0828 18:15:16.892475  9408 net.cpp:150] Setting up conv2_1_relu
I0828 18:15:16.892479  9408 net.cpp:157] Top shape: 128 16 75 75 (11520000)
I0828 18:15:16.892482  9408 net.cpp:165] Memory required for data: 1339432960
I0828 18:15:16.892485  9408 layer_factory.hpp:77] Creating layer conv3_1
I0828 18:15:16.892493  9408 net.cpp:100] Creating Layer conv3_1
I0828 18:15:16.892495  9408 net.cpp:434] conv3_1 <- conv2_1_bn
I0828 18:15:16.892500  9408 net.cpp:408] conv3_1 -> conv3_1
I0828 18:15:16.892714  9408 net.cpp:150] Setting up conv3_1
I0828 18:15:16.892720  9408 net.cpp:157] Top shape: 128 32 75 75 (23040000)
I0828 18:15:16.892724  9408 net.cpp:165] Memory required for data: 1431592960
I0828 18:15:16.892727  9408 layer_factory.hpp:77] Creating layer pool3
I0828 18:15:16.892731  9408 net.cpp:100] Creating Layer pool3
I0828 18:15:16.892735  9408 net.cpp:434] pool3 <- conv3_1
I0828 18:15:16.892740  9408 net.cpp:408] pool3 -> pool3
I0828 18:15:16.892761  9408 net.cpp:150] Setting up pool3
I0828 18:15:16.892766  9408 net.cpp:157] Top shape: 128 32 38 38 (5914624)
I0828 18:15:16.892768  9408 net.cpp:165] Memory required for data: 1455251456
I0828 18:15:16.892771  9408 layer_factory.hpp:77] Creating layer conv3_1_bn
I0828 18:15:16.892777  9408 net.cpp:100] Creating Layer conv3_1_bn
I0828 18:15:16.892781  9408 net.cpp:434] conv3_1_bn <- pool3
I0828 18:15:16.892786  9408 net.cpp:408] conv3_1_bn -> conv3_1_bn
I0828 18:15:16.892907  9408 net.cpp:150] Setting up conv3_1_bn
I0828 18:15:16.892913  9408 net.cpp:157] Top shape: 128 32 38 38 (5914624)
I0828 18:15:16.892915  9408 net.cpp:165] Memory required for data: 1478909952
I0828 18:15:16.892921  9408 layer_factory.hpp:77] Creating layer conv3_1_bn_scale
I0828 18:15:16.892927  9408 net.cpp:100] Creating Layer conv3_1_bn_scale
I0828 18:15:16.892930  9408 net.cpp:434] conv3_1_bn_scale <- conv3_1_bn
I0828 18:15:16.892935  9408 net.cpp:395] conv3_1_bn_scale -> conv3_1_bn (in-place)
I0828 18:15:16.892958  9408 layer_factory.hpp:77] Creating layer conv3_1_bn_scale
I0828 18:15:16.893036  9408 net.cpp:150] Setting up conv3_1_bn_scale
I0828 18:15:16.893041  9408 net.cpp:157] Top shape: 128 32 38 38 (5914624)
I0828 18:15:16.893044  9408 net.cpp:165] Memory required for data: 1502568448
I0828 18:15:16.893051  9408 layer_factory.hpp:77] Creating layer conv3_1_relu
I0828 18:15:16.893064  9408 net.cpp:100] Creating Layer conv3_1_relu
I0828 18:15:16.893071  9408 net.cpp:434] conv3_1_relu <- conv3_1_bn
I0828 18:15:16.893075  9408 net.cpp:395] conv3_1_relu -> conv3_1_bn (in-place)
I0828 18:15:16.893079  9408 net.cpp:150] Setting up conv3_1_relu
I0828 18:15:16.893084  9408 net.cpp:157] Top shape: 128 32 38 38 (5914624)
I0828 18:15:16.893085  9408 net.cpp:165] Memory required for data: 1526226944
I0828 18:15:16.893088  9408 layer_factory.hpp:77] Creating layer conv3_1_bn_conv3_1_relu_0_split
I0828 18:15:16.893092  9408 net.cpp:100] Creating Layer conv3_1_bn_conv3_1_relu_0_split
I0828 18:15:16.893096  9408 net.cpp:434] conv3_1_bn_conv3_1_relu_0_split <- conv3_1_bn
I0828 18:15:16.893100  9408 net.cpp:408] conv3_1_bn_conv3_1_relu_0_split -> conv3_1_bn_conv3_1_relu_0_split_0
I0828 18:15:16.893105  9408 net.cpp:408] conv3_1_bn_conv3_1_relu_0_split -> conv3_1_bn_conv3_1_relu_0_split_1
I0828 18:15:16.893131  9408 net.cpp:150] Setting up conv3_1_bn_conv3_1_relu_0_split
I0828 18:15:16.893134  9408 net.cpp:157] Top shape: 128 32 38 38 (5914624)
I0828 18:15:16.893138  9408 net.cpp:157] Top shape: 128 32 38 38 (5914624)
I0828 18:15:16.893141  9408 net.cpp:165] Memory required for data: 1573543936
I0828 18:15:16.893143  9408 layer_factory.hpp:77] Creating layer conv3_2
I0828 18:15:16.893151  9408 net.cpp:100] Creating Layer conv3_2
I0828 18:15:16.893154  9408 net.cpp:434] conv3_2 <- conv3_1_bn_conv3_1_relu_0_split_0
I0828 18:15:16.893158  9408 net.cpp:408] conv3_2 -> conv3_2
I0828 18:15:16.893462  9408 net.cpp:150] Setting up conv3_2
I0828 18:15:16.893468  9408 net.cpp:157] Top shape: 128 32 36 36 (5308416)
I0828 18:15:16.893471  9408 net.cpp:165] Memory required for data: 1594777600
I0828 18:15:16.893474  9408 layer_factory.hpp:77] Creating layer conv3_2_bn
I0828 18:15:16.893479  9408 net.cpp:100] Creating Layer conv3_2_bn
I0828 18:15:16.893482  9408 net.cpp:434] conv3_2_bn <- conv3_2
I0828 18:15:16.893486  9408 net.cpp:408] conv3_2_bn -> conv3_2_bn
I0828 18:15:16.893613  9408 net.cpp:150] Setting up conv3_2_bn
I0828 18:15:16.893618  9408 net.cpp:157] Top shape: 128 32 36 36 (5308416)
I0828 18:15:16.893621  9408 net.cpp:165] Memory required for data: 1616011264
I0828 18:15:16.893626  9408 layer_factory.hpp:77] Creating layer conv3_2_bn_scale
I0828 18:15:16.893632  9408 net.cpp:100] Creating Layer conv3_2_bn_scale
I0828 18:15:16.893636  9408 net.cpp:434] conv3_2_bn_scale <- conv3_2_bn
I0828 18:15:16.893640  9408 net.cpp:395] conv3_2_bn_scale -> conv3_2_bn (in-place)
I0828 18:15:16.893661  9408 layer_factory.hpp:77] Creating layer conv3_2_bn_scale
I0828 18:15:16.893735  9408 net.cpp:150] Setting up conv3_2_bn_scale
I0828 18:15:16.893740  9408 net.cpp:157] Top shape: 128 32 36 36 (5308416)
I0828 18:15:16.893743  9408 net.cpp:165] Memory required for data: 1637244928
I0828 18:15:16.893748  9408 layer_factory.hpp:77] Creating layer conv3_2_relu
I0828 18:15:16.893753  9408 net.cpp:100] Creating Layer conv3_2_relu
I0828 18:15:16.893755  9408 net.cpp:434] conv3_2_relu <- conv3_2_bn
I0828 18:15:16.893760  9408 net.cpp:395] conv3_2_relu -> conv3_2_bn (in-place)
I0828 18:15:16.893764  9408 net.cpp:150] Setting up conv3_2_relu
I0828 18:15:16.893769  9408 net.cpp:157] Top shape: 128 32 36 36 (5308416)
I0828 18:15:16.893770  9408 net.cpp:165] Memory required for data: 1658478592
I0828 18:15:16.893774  9408 layer_factory.hpp:77] Creating layer conv3_3
I0828 18:15:16.893780  9408 net.cpp:100] Creating Layer conv3_3
I0828 18:15:16.893784  9408 net.cpp:434] conv3_3 <- conv3_2_bn
I0828 18:15:16.893787  9408 net.cpp:408] conv3_3 -> conv3_3
I0828 18:15:16.894095  9408 net.cpp:150] Setting up conv3_3
I0828 18:15:16.894100  9408 net.cpp:157] Top shape: 128 32 34 34 (4734976)
I0828 18:15:16.894104  9408 net.cpp:165] Memory required for data: 1677418496
I0828 18:15:16.894107  9408 layer_factory.hpp:77] Creating layer conv3_3_bn
I0828 18:15:16.894112  9408 net.cpp:100] Creating Layer conv3_3_bn
I0828 18:15:16.894115  9408 net.cpp:434] conv3_3_bn <- conv3_3
I0828 18:15:16.894120  9408 net.cpp:408] conv3_3_bn -> conv3_3_bn
I0828 18:15:16.894256  9408 net.cpp:150] Setting up conv3_3_bn
I0828 18:15:16.894268  9408 net.cpp:157] Top shape: 128 32 34 34 (4734976)
I0828 18:15:16.894270  9408 net.cpp:165] Memory required for data: 1696358400
I0828 18:15:16.894275  9408 layer_factory.hpp:77] Creating layer conv3_3_bn_scale
I0828 18:15:16.894280  9408 net.cpp:100] Creating Layer conv3_3_bn_scale
I0828 18:15:16.894284  9408 net.cpp:434] conv3_3_bn_scale <- conv3_3_bn
I0828 18:15:16.894286  9408 net.cpp:395] conv3_3_bn_scale -> conv3_3_bn (in-place)
I0828 18:15:16.894309  9408 layer_factory.hpp:77] Creating layer conv3_3_bn_scale
I0828 18:15:16.894392  9408 net.cpp:150] Setting up conv3_3_bn_scale
I0828 18:15:16.894398  9408 net.cpp:157] Top shape: 128 32 34 34 (4734976)
I0828 18:15:16.894402  9408 net.cpp:165] Memory required for data: 1715298304
I0828 18:15:16.894405  9408 layer_factory.hpp:77] Creating layer conv3_3_relu
I0828 18:15:16.894410  9408 net.cpp:100] Creating Layer conv3_3_relu
I0828 18:15:16.894414  9408 net.cpp:434] conv3_3_relu <- conv3_3_bn
I0828 18:15:16.894418  9408 net.cpp:395] conv3_3_relu -> conv3_3_bn (in-place)
I0828 18:15:16.894423  9408 net.cpp:150] Setting up conv3_3_relu
I0828 18:15:16.894426  9408 net.cpp:157] Top shape: 128 32 34 34 (4734976)
I0828 18:15:16.894428  9408 net.cpp:165] Memory required for data: 1734238208
I0828 18:15:16.894431  9408 layer_factory.hpp:77] Creating layer conv3_4
I0828 18:15:16.894438  9408 net.cpp:100] Creating Layer conv3_4
I0828 18:15:16.894441  9408 net.cpp:434] conv3_4 <- conv3_3_bn
I0828 18:15:16.894445  9408 net.cpp:408] conv3_4 -> conv3_4
I0828 18:15:16.894956  9408 net.cpp:150] Setting up conv3_4
I0828 18:15:16.894963  9408 net.cpp:157] Top shape: 128 64 32 32 (8388608)
I0828 18:15:16.894965  9408 net.cpp:165] Memory required for data: 1767792640
I0828 18:15:16.894969  9408 layer_factory.hpp:77] Creating layer conv3_4_bn
I0828 18:15:16.894974  9408 net.cpp:100] Creating Layer conv3_4_bn
I0828 18:15:16.894978  9408 net.cpp:434] conv3_4_bn <- conv3_4
I0828 18:15:16.894981  9408 net.cpp:408] conv3_4_bn -> conv3_4_bn
I0828 18:15:16.895529  9408 net.cpp:150] Setting up conv3_4_bn
I0828 18:15:16.895539  9408 net.cpp:157] Top shape: 128 64 32 32 (8388608)
I0828 18:15:16.895541  9408 net.cpp:165] Memory required for data: 1801347072
I0828 18:15:16.895552  9408 layer_factory.hpp:77] Creating layer conv3_4_bn_scale
I0828 18:15:16.895558  9408 net.cpp:100] Creating Layer conv3_4_bn_scale
I0828 18:15:16.895562  9408 net.cpp:434] conv3_4_bn_scale <- conv3_4_bn
I0828 18:15:16.895567  9408 net.cpp:395] conv3_4_bn_scale -> conv3_4_bn (in-place)
I0828 18:15:16.895594  9408 layer_factory.hpp:77] Creating layer conv3_4_bn_scale
I0828 18:15:16.895666  9408 net.cpp:150] Setting up conv3_4_bn_scale
I0828 18:15:16.895673  9408 net.cpp:157] Top shape: 128 64 32 32 (8388608)
I0828 18:15:16.895674  9408 net.cpp:165] Memory required for data: 1834901504
I0828 18:15:16.895679  9408 layer_factory.hpp:77] Creating layer conv3_4_relu
I0828 18:15:16.895685  9408 net.cpp:100] Creating Layer conv3_4_relu
I0828 18:15:16.895689  9408 net.cpp:434] conv3_4_relu <- conv3_4_bn
I0828 18:15:16.895692  9408 net.cpp:395] conv3_4_relu -> conv3_4_bn (in-place)
I0828 18:15:16.895696  9408 net.cpp:150] Setting up conv3_4_relu
I0828 18:15:16.895700  9408 net.cpp:157] Top shape: 128 64 32 32 (8388608)
I0828 18:15:16.895702  9408 net.cpp:165] Memory required for data: 1868455936
I0828 18:15:16.895705  9408 layer_factory.hpp:77] Creating layer score8
I0828 18:15:16.895714  9408 net.cpp:100] Creating Layer score8
I0828 18:15:16.895717  9408 net.cpp:434] score8 <- conv3_4_bn
I0828 18:15:16.895721  9408 net.cpp:408] score8 -> score8
I0828 18:15:16.895869  9408 net.cpp:150] Setting up score8
I0828 18:15:16.895875  9408 net.cpp:157] Top shape: 128 4 32 32 (524288)
I0828 18:15:16.895879  9408 net.cpp:165] Memory required for data: 1870553088
I0828 18:15:16.895882  9408 layer_factory.hpp:77] Creating layer conv4_1
I0828 18:15:16.895894  9408 net.cpp:100] Creating Layer conv4_1
I0828 18:15:16.895896  9408 net.cpp:434] conv4_1 <- conv3_1_bn_conv3_1_relu_0_split_1
I0828 18:15:16.895910  9408 net.cpp:408] conv4_1 -> conv4_1
I0828 18:15:16.896420  9408 net.cpp:150] Setting up conv4_1
I0828 18:15:16.896425  9408 net.cpp:157] Top shape: 128 64 38 38 (11829248)
I0828 18:15:16.896428  9408 net.cpp:165] Memory required for data: 1917870080
I0828 18:15:16.896432  9408 layer_factory.hpp:77] Creating layer pool4
I0828 18:15:16.896437  9408 net.cpp:100] Creating Layer pool4
I0828 18:15:16.896440  9408 net.cpp:434] pool4 <- conv4_1
I0828 18:15:16.896445  9408 net.cpp:408] pool4 -> pool4
I0828 18:15:16.896468  9408 net.cpp:150] Setting up pool4
I0828 18:15:16.896472  9408 net.cpp:157] Top shape: 128 64 19 19 (2957312)
I0828 18:15:16.896476  9408 net.cpp:165] Memory required for data: 1929699328
I0828 18:15:16.896478  9408 layer_factory.hpp:77] Creating layer conv4_1_bn
I0828 18:15:16.896484  9408 net.cpp:100] Creating Layer conv4_1_bn
I0828 18:15:16.896487  9408 net.cpp:434] conv4_1_bn <- pool4
I0828 18:15:16.896492  9408 net.cpp:408] conv4_1_bn -> conv4_1_bn
I0828 18:15:16.896616  9408 net.cpp:150] Setting up conv4_1_bn
I0828 18:15:16.896621  9408 net.cpp:157] Top shape: 128 64 19 19 (2957312)
I0828 18:15:16.896625  9408 net.cpp:165] Memory required for data: 1941528576
I0828 18:15:16.896630  9408 layer_factory.hpp:77] Creating layer conv4_1_bn_scale
I0828 18:15:16.896634  9408 net.cpp:100] Creating Layer conv4_1_bn_scale
I0828 18:15:16.896637  9408 net.cpp:434] conv4_1_bn_scale <- conv4_1_bn
I0828 18:15:16.896641  9408 net.cpp:395] conv4_1_bn_scale -> conv4_1_bn (in-place)
I0828 18:15:16.896664  9408 layer_factory.hpp:77] Creating layer conv4_1_bn_scale
I0828 18:15:16.896739  9408 net.cpp:150] Setting up conv4_1_bn_scale
I0828 18:15:16.896744  9408 net.cpp:157] Top shape: 128 64 19 19 (2957312)
I0828 18:15:16.896747  9408 net.cpp:165] Memory required for data: 1953357824
I0828 18:15:16.896751  9408 layer_factory.hpp:77] Creating layer conv4_1_relu
I0828 18:15:16.896757  9408 net.cpp:100] Creating Layer conv4_1_relu
I0828 18:15:16.896760  9408 net.cpp:434] conv4_1_relu <- conv4_1_bn
I0828 18:15:16.896764  9408 net.cpp:395] conv4_1_relu -> conv4_1_bn (in-place)
I0828 18:15:16.896769  9408 net.cpp:150] Setting up conv4_1_relu
I0828 18:15:16.896771  9408 net.cpp:157] Top shape: 128 64 19 19 (2957312)
I0828 18:15:16.896775  9408 net.cpp:165] Memory required for data: 1965187072
I0828 18:15:16.896777  9408 layer_factory.hpp:77] Creating layer conv5_1
I0828 18:15:16.896785  9408 net.cpp:100] Creating Layer conv5_1
I0828 18:15:16.896787  9408 net.cpp:434] conv5_1 <- conv4_1_bn
I0828 18:15:16.896792  9408 net.cpp:408] conv5_1 -> conv5_1
I0828 18:15:16.897702  9408 net.cpp:150] Setting up conv5_1
I0828 18:15:16.897711  9408 net.cpp:157] Top shape: 128 64 17 17 (2367488)
I0828 18:15:16.897713  9408 net.cpp:165] Memory required for data: 1974657024
I0828 18:15:16.897717  9408 layer_factory.hpp:77] Creating layer conv5_1_bn
I0828 18:15:16.897722  9408 net.cpp:100] Creating Layer conv5_1_bn
I0828 18:15:16.897727  9408 net.cpp:434] conv5_1_bn <- conv5_1
I0828 18:15:16.897730  9408 net.cpp:408] conv5_1_bn -> conv5_1_bn
I0828 18:15:16.897864  9408 net.cpp:150] Setting up conv5_1_bn
I0828 18:15:16.897871  9408 net.cpp:157] Top shape: 128 64 17 17 (2367488)
I0828 18:15:16.897872  9408 net.cpp:165] Memory required for data: 1984126976
I0828 18:15:16.897878  9408 layer_factory.hpp:77] Creating layer conv5_1_bn_scale
I0828 18:15:16.897886  9408 net.cpp:100] Creating Layer conv5_1_bn_scale
I0828 18:15:16.897888  9408 net.cpp:434] conv5_1_bn_scale <- conv5_1_bn
I0828 18:15:16.897892  9408 net.cpp:395] conv5_1_bn_scale -> conv5_1_bn (in-place)
I0828 18:15:16.897915  9408 layer_factory.hpp:77] Creating layer conv5_1_bn_scale
I0828 18:15:16.897990  9408 net.cpp:150] Setting up conv5_1_bn_scale
I0828 18:15:16.897995  9408 net.cpp:157] Top shape: 128 64 17 17 (2367488)
I0828 18:15:16.897997  9408 net.cpp:165] Memory required for data: 1993596928
I0828 18:15:16.898002  9408 layer_factory.hpp:77] Creating layer conv5_1_relu
I0828 18:15:16.898006  9408 net.cpp:100] Creating Layer conv5_1_relu
I0828 18:15:16.898013  9408 net.cpp:434] conv5_1_relu <- conv5_1_bn
I0828 18:15:16.898025  9408 net.cpp:395] conv5_1_relu -> conv5_1_bn (in-place)
I0828 18:15:16.898030  9408 net.cpp:150] Setting up conv5_1_relu
I0828 18:15:16.898033  9408 net.cpp:157] Top shape: 128 64 17 17 (2367488)
I0828 18:15:16.898036  9408 net.cpp:165] Memory required for data: 2003066880
I0828 18:15:16.898038  9408 layer_factory.hpp:77] Creating layer conv6_1
I0828 18:15:16.898046  9408 net.cpp:100] Creating Layer conv6_1
I0828 18:15:16.898048  9408 net.cpp:434] conv6_1 <- conv5_1_bn
I0828 18:15:16.898052  9408 net.cpp:408] conv6_1 -> conv6_1
I0828 18:15:16.898957  9408 net.cpp:150] Setting up conv6_1
I0828 18:15:16.898964  9408 net.cpp:157] Top shape: 128 64 15 15 (1843200)
I0828 18:15:16.898967  9408 net.cpp:165] Memory required for data: 2010439680
I0828 18:15:16.898972  9408 layer_factory.hpp:77] Creating layer conv6_1_bn
I0828 18:15:16.898975  9408 net.cpp:100] Creating Layer conv6_1_bn
I0828 18:15:16.898979  9408 net.cpp:434] conv6_1_bn <- conv6_1
I0828 18:15:16.898984  9408 net.cpp:408] conv6_1_bn -> conv6_1_bn
I0828 18:15:16.899111  9408 net.cpp:150] Setting up conv6_1_bn
I0828 18:15:16.899116  9408 net.cpp:157] Top shape: 128 64 15 15 (1843200)
I0828 18:15:16.899118  9408 net.cpp:165] Memory required for data: 2017812480
I0828 18:15:16.899124  9408 layer_factory.hpp:77] Creating layer conv6_1_bn_scale
I0828 18:15:16.899128  9408 net.cpp:100] Creating Layer conv6_1_bn_scale
I0828 18:15:16.899132  9408 net.cpp:434] conv6_1_bn_scale <- conv6_1_bn
I0828 18:15:16.899135  9408 net.cpp:395] conv6_1_bn_scale -> conv6_1_bn (in-place)
I0828 18:15:16.899159  9408 layer_factory.hpp:77] Creating layer conv6_1_bn_scale
I0828 18:15:16.899230  9408 net.cpp:150] Setting up conv6_1_bn_scale
I0828 18:15:16.899235  9408 net.cpp:157] Top shape: 128 64 15 15 (1843200)
I0828 18:15:16.899237  9408 net.cpp:165] Memory required for data: 2025185280
I0828 18:15:16.899241  9408 layer_factory.hpp:77] Creating layer conv6_1_relu
I0828 18:15:16.899247  9408 net.cpp:100] Creating Layer conv6_1_relu
I0828 18:15:16.899250  9408 net.cpp:434] conv6_1_relu <- conv6_1_bn
I0828 18:15:16.899255  9408 net.cpp:395] conv6_1_relu -> conv6_1_bn (in-place)
I0828 18:15:16.899258  9408 net.cpp:150] Setting up conv6_1_relu
I0828 18:15:16.899262  9408 net.cpp:157] Top shape: 128 64 15 15 (1843200)
I0828 18:15:16.899265  9408 net.cpp:165] Memory required for data: 2032558080
I0828 18:15:16.899267  9408 layer_factory.hpp:77] Creating layer conv7_1
I0828 18:15:16.899276  9408 net.cpp:100] Creating Layer conv7_1
I0828 18:15:16.899278  9408 net.cpp:434] conv7_1 <- conv6_1_bn
I0828 18:15:16.899282  9408 net.cpp:408] conv7_1 -> conv7_1
I0828 18:15:16.901381  9408 net.cpp:150] Setting up conv7_1
I0828 18:15:16.901393  9408 net.cpp:157] Top shape: 128 128 13 13 (2768896)
I0828 18:15:16.901396  9408 net.cpp:165] Memory required for data: 2043633664
I0828 18:15:16.901401  9408 layer_factory.hpp:77] Creating layer conv7_1_bn
I0828 18:15:16.901407  9408 net.cpp:100] Creating Layer conv7_1_bn
I0828 18:15:16.901410  9408 net.cpp:434] conv7_1_bn <- conv7_1
I0828 18:15:16.901417  9408 net.cpp:408] conv7_1_bn -> conv7_1_bn
I0828 18:15:16.901546  9408 net.cpp:150] Setting up conv7_1_bn
I0828 18:15:16.901551  9408 net.cpp:157] Top shape: 128 128 13 13 (2768896)
I0828 18:15:16.901553  9408 net.cpp:165] Memory required for data: 2054709248
I0828 18:15:16.901559  9408 layer_factory.hpp:77] Creating layer conv7_1_bn_scale
I0828 18:15:16.901564  9408 net.cpp:100] Creating Layer conv7_1_bn_scale
I0828 18:15:16.901567  9408 net.cpp:434] conv7_1_bn_scale <- conv7_1_bn
I0828 18:15:16.901571  9408 net.cpp:395] conv7_1_bn_scale -> conv7_1_bn (in-place)
I0828 18:15:16.901593  9408 layer_factory.hpp:77] Creating layer conv7_1_bn_scale
I0828 18:15:16.901661  9408 net.cpp:150] Setting up conv7_1_bn_scale
I0828 18:15:16.901666  9408 net.cpp:157] Top shape: 128 128 13 13 (2768896)
I0828 18:15:16.901669  9408 net.cpp:165] Memory required for data: 2065784832
I0828 18:15:16.901674  9408 layer_factory.hpp:77] Creating layer conv7_1_relu
I0828 18:15:16.901684  9408 net.cpp:100] Creating Layer conv7_1_relu
I0828 18:15:16.901695  9408 net.cpp:434] conv7_1_relu <- conv7_1_bn
I0828 18:15:16.901697  9408 net.cpp:395] conv7_1_relu -> conv7_1_bn (in-place)
I0828 18:15:16.901702  9408 net.cpp:150] Setting up conv7_1_relu
I0828 18:15:16.901705  9408 net.cpp:157] Top shape: 128 128 13 13 (2768896)
I0828 18:15:16.901708  9408 net.cpp:165] Memory required for data: 2076860416
I0828 18:15:16.901711  9408 layer_factory.hpp:77] Creating layer score
I0828 18:15:16.901718  9408 net.cpp:100] Creating Layer score
I0828 18:15:16.901721  9408 net.cpp:434] score <- conv7_1_bn
I0828 18:15:16.901727  9408 net.cpp:408] score -> score
I0828 18:15:16.901888  9408 net.cpp:150] Setting up score
I0828 18:15:16.901895  9408 net.cpp:157] Top shape: 128 4 13 13 (86528)
I0828 18:15:16.901896  9408 net.cpp:165] Memory required for data: 2077206528
I0828 18:15:16.901901  9408 layer_factory.hpp:77] Creating layer upscorex2
I0828 18:15:16.901909  9408 net.cpp:100] Creating Layer upscorex2
I0828 18:15:16.901912  9408 net.cpp:434] upscorex2 <- score
I0828 18:15:16.901916  9408 net.cpp:408] upscorex2 -> upscorex2
I0828 18:15:16.902039  9408 net.cpp:150] Setting up upscorex2
I0828 18:15:16.902045  9408 net.cpp:157] Top shape: 128 4 28 28 (401408)
I0828 18:15:16.902047  9408 net.cpp:165] Memory required for data: 2078812160
I0828 18:15:16.902060  9408 layer_factory.hpp:77] Creating layer upscorex2_upscorex2_0_split
I0828 18:15:16.902065  9408 net.cpp:100] Creating Layer upscorex2_upscorex2_0_split
I0828 18:15:16.902068  9408 net.cpp:434] upscorex2_upscorex2_0_split <- upscorex2
I0828 18:15:16.902073  9408 net.cpp:408] upscorex2_upscorex2_0_split -> upscorex2_upscorex2_0_split_0
I0828 18:15:16.902078  9408 net.cpp:408] upscorex2_upscorex2_0_split -> upscorex2_upscorex2_0_split_1
I0828 18:15:16.902103  9408 net.cpp:150] Setting up upscorex2_upscorex2_0_split
I0828 18:15:16.902107  9408 net.cpp:157] Top shape: 128 4 28 28 (401408)
I0828 18:15:16.902112  9408 net.cpp:157] Top shape: 128 4 28 28 (401408)
I0828 18:15:16.902113  9408 net.cpp:165] Memory required for data: 2082023424
I0828 18:15:16.902117  9408 layer_factory.hpp:77] Creating layer cropscore1
I0828 18:15:16.902122  9408 net.cpp:100] Creating Layer cropscore1
I0828 18:15:16.902125  9408 net.cpp:434] cropscore1 <- score8
I0828 18:15:16.902128  9408 net.cpp:434] cropscore1 <- upscorex2_upscorex2_0_split_0
I0828 18:15:16.902132  9408 net.cpp:408] cropscore1 -> cropscore1
I0828 18:15:16.902151  9408 net.cpp:150] Setting up cropscore1
I0828 18:15:16.902156  9408 net.cpp:157] Top shape: 128 4 28 28 (401408)
I0828 18:15:16.902158  9408 net.cpp:165] Memory required for data: 2083629056
I0828 18:15:16.902161  9408 layer_factory.hpp:77] Creating layer fuse
I0828 18:15:16.902171  9408 net.cpp:100] Creating Layer fuse
I0828 18:15:16.902174  9408 net.cpp:434] fuse <- cropscore1
I0828 18:15:16.902179  9408 net.cpp:434] fuse <- upscorex2_upscorex2_0_split_1
I0828 18:15:16.902184  9408 net.cpp:408] fuse -> score_fuse
I0828 18:15:16.902200  9408 net.cpp:150] Setting up fuse
I0828 18:15:16.902204  9408 net.cpp:157] Top shape: 128 4 28 28 (401408)
I0828 18:15:16.902206  9408 net.cpp:165] Memory required for data: 2085234688
I0828 18:15:16.902209  9408 layer_factory.hpp:77] Creating layer upscorex8
I0828 18:15:16.902217  9408 net.cpp:100] Creating Layer upscorex8
I0828 18:15:16.902220  9408 net.cpp:434] upscorex8 <- score_fuse
I0828 18:15:16.902225  9408 net.cpp:408] upscorex8 -> upscorex8
I0828 18:15:16.902434  9408 net.cpp:150] Setting up upscorex8
I0828 18:15:16.902441  9408 net.cpp:157] Top shape: 128 4 232 232 (27557888)
I0828 18:15:16.902443  9408 net.cpp:165] Memory required for data: 2195466240
I0828 18:15:16.902447  9408 layer_factory.hpp:77] Creating layer cropscore2
I0828 18:15:16.902452  9408 net.cpp:100] Creating Layer cropscore2
I0828 18:15:16.902456  9408 net.cpp:434] cropscore2 <- upscorex8
I0828 18:15:16.902459  9408 net.cpp:434] cropscore2 <- image_data_0_split_1
I0828 18:15:16.902464  9408 net.cpp:408] cropscore2 -> cropscore2
I0828 18:15:16.902483  9408 net.cpp:150] Setting up cropscore2
I0828 18:15:16.902493  9408 net.cpp:157] Top shape: 128 4 200 200 (20480000)
I0828 18:15:16.902495  9408 net.cpp:165] Memory required for data: 2277386240
I0828 18:15:16.902498  9408 layer_factory.hpp:77] Creating layer cropscore2_cropscore2_0_split
I0828 18:15:16.902503  9408 net.cpp:100] Creating Layer cropscore2_cropscore2_0_split
I0828 18:15:16.902505  9408 net.cpp:434] cropscore2_cropscore2_0_split <- cropscore2
I0828 18:15:16.902509  9408 net.cpp:408] cropscore2_cropscore2_0_split -> cropscore2_cropscore2_0_split_0
I0828 18:15:16.902514  9408 net.cpp:408] cropscore2_cropscore2_0_split -> cropscore2_cropscore2_0_split_1
I0828 18:15:16.902537  9408 net.cpp:150] Setting up cropscore2_cropscore2_0_split
I0828 18:15:16.902541  9408 net.cpp:157] Top shape: 128 4 200 200 (20480000)
I0828 18:15:16.902544  9408 net.cpp:157] Top shape: 128 4 200 200 (20480000)
I0828 18:15:16.902547  9408 net.cpp:165] Memory required for data: 2441226240
I0828 18:15:16.902550  9408 layer_factory.hpp:77] Creating layer loss
I0828 18:15:16.902556  9408 net.cpp:100] Creating Layer loss
I0828 18:15:16.902559  9408 net.cpp:434] loss <- cropscore2_cropscore2_0_split_0
I0828 18:15:16.902564  9408 net.cpp:434] loss <- label_data_1_split_0
I0828 18:15:16.902566  9408 net.cpp:408] loss -> loss
…
I0828 18:15:16.938210  9408 solver.cpp:181] Creating test net (#0) specified by net file: portrait_train_test_one_stage.prototxt5
I0828 18:15:16.938263  9408 net.cpp:322] The NetState phase (1) differed from the phase (0) specified by a rule in layer data
I0828 18:15:16.938500  9408 net.cpp:58] Initializing net from parameters: 
name: "segmentation"
state {
  phase: TEST
}
layer {
  name: "data"
  type: "SegData"
  top: "image"
  top: "label"
  include {
    phase: TEST
  }
  transform_param {
    crop_size: 200
  }
  data_param {
    source: "/raid/xuehan/segmentation_test_split"
    batch_size: 64
    backend: LMDB
  }
}
layer {
  name: "conv1_1"
  type: "Convolution"
  bottom: "image"
  top: "conv1_1"
  param {
    lr_mult: 1
    decay_mult: 1
  }
  convolution_param {
    num_output: 8
    bias_term: false
    pad: 50
    kernel_size: 3
    stride: 1
    weight_filler {
      type: "gaussian"
      std: 0.01
    }
  }
}
layer {
  name: "pool1"
  type: "Pooling"
  bottom: "conv1_1"
  top: "pool1"
  pooling_param {
    pool: MAX
    kernel_size: 2
    stride: 2
  }
}
layer {
  name: "conv1_1_bn"
  type: "BatchNorm"
  bottom: "pool1"
  top: "conv1_1_bn"
  param {
    lr_mult: 0
  }
  param {
    lr_mult: 0
  }
  param {
    lr_mult: 0
  }
}
layer {
  name: "conv1_1_bn_scale"
  type: "Scale"
  bottom: "conv1_1_bn"
  top: "conv1_1_bn"
  scale_param {
    bias_term: true
  }
}
layer {
  name: "conv1_1_relu"
  type: "ReLU"
  bottom: "conv1_1_bn"
  top: "conv1_1_bn"
}
layer {
  name: "conv2_1"
  type: "Convolution"
  bottom: "conv1_1_bn"
  top: "conv2_1"
  param {
    lr_mult: 1
    decay_mult: 1
  }
  convolution_param {
    num_output: 16
    bias_term: false
    pad: 1
    kernel_size: 3
    stride: 1
    weight_filler {
      type: "gaussian"
      std: 0.01
    }
  }
}
layer {
  name: "pool2"
  type: "Pooling"
  bottom: "conv2_1"
  top: "pool2"
  pooling_param {
    pool: MAX
    kernel_size: 2
    stride: 2
  }
}
layer {
  name: "conv2_1_bn"
  type: "BatchNorm"
  bottom: "pool2"
  top: "conv2_1_bn"
  param {
    lr_mult: 0
  }
  param {
    lr_mult: 0
  }
  param {
    lr_mult: 0
  }
}
layer {
  name: "conv2_1_bn_scale"
  type: "Scale"
  bottom: "conv2_1_bn"
  top: "conv2_1_bn"
  scale_param {
    bias_term: true
  }
}
layer {
  name: "conv2_1_relu"
  type: "ReLU"
  bottom: "conv2_1_bn"
  top: "conv2_1_bn"
}
layer {
  name: "conv3_1"
  type: "Convolution"
  bottom: "conv2_1_bn"
  top: "conv3_1"
  param {
    lr_mult: 1
    decay_mult: 1
  }
  convolution_param {
    num_output: 32
    bias_term: false
    pad: 1
    kernel_size: 3
    stride: 1
    weight_filler {
      type: "gaussian"
      std: 0.01
    }
  }
}
layer {
  name: "pool3"
  type: "Pooling"
  bottom: "conv3_1"
  top: "pool3"
  pooling_param {
    pool: MAX
    kernel_size: 2
    stride: 2
  }
}
layer {
  name: "conv3_1_bn"
  type: "BatchNorm"
  bottom: "pool3"
  top: "conv3_1_bn"
  param {
    lr_mult: 0
  }
  param {
    lr_mult: 0
  }
  param {
    lr_mult: 0
  }
}
layer {
  name: "conv3_1_bn_scale"
  type: "Scale"
  bottom: "conv3_1_bn"
  top: "conv3_1_bn"
  scale_param {
    bias_term: true
  }
}
layer {
  name: "conv3_1_relu"
  type: "ReLU"
  bottom: "conv3_1_bn"
  top: "conv3_1_bn"
}
layer {
  name: "conv3_2"
  type: "Convolution"
  bottom: "conv3_1_bn"
  top: "conv3_2"
  param {
    lr_mult: 1
    decay_mult: 1
  }
  convolution_param {
    num_output: 32
    bias_term: false
    pad: 0
    kernel_size: 3
    stride: 1
    weight_filler {
      type: "gaussian"
      std: 0.01
    }
  }
}
layer {
  name: "conv3_2_bn"
  type: "BatchNorm"
  bottom: "conv3_2"
  top: "conv3_2_bn"
  param {
    lr_mult: 0
  }
  param {
    lr_mult: 0
  }
  param {
    lr_mult: 0
  }
}
layer {
  name: "conv3_2_bn_scale"
  type: "Scale"
  bottom: "conv3_2_bn"
  top: "conv3_2_bn"
  scale_param {
    bias_term: true
  }
}
layer {
  name: "conv3_2_relu"
  type: "ReLU"
  bottom: "conv3_2_bn"
  top: "conv3_2_bn"
}
layer {
  name: "conv3_3"
  type: "Convolution"
  bottom: "conv3_2_bn"
  top: "conv3_3"
  param {
    lr_mult: 1
    decay_mult: 1
  }
  convolution_param {
    num_output: 32
    bias_term: false
    pad: 0
    kernel_size: 3
    stride: 1
    weight_filler {
      type: "gaussian"
      std: 0.01
    }
  }
}
layer {
  name: "conv3_3_bn"
  type: "BatchNorm"
  bottom: "conv3_3"
  top: "conv3_3_bn"
  param {
    lr_mult: 0
  }
  param {
    lr_mult: 0
  }
  param {
    lr_mult: 0
  }
}
layer {
  name: "conv3_3_bn_scale"
  type: "Scale"
  bottom: "conv3_3_bn"
  top: "conv3_3_bn"
  scale_param {
    bias_term: true
  }
}
layer {
  name: "conv3_3_relu"
  type: "ReLU"
  bottom: "conv3_3_bn"
  top: "conv3_3_bn"
}
layer {
  name: "conv3_4"
  type: "Convolution"
  bottom: "conv3_3_bn"
  top: "conv3_4"
  param {
    lr_mult: 1
    decay_mult: 1
  }
  convolution_param {
    num_output: 64
    bias_term: false
    pad: 0
    kernel_size: 3
    stride: 1
    weight_filler {
      type: "gaussian"
      std: 0.01
    }
  }
}
layer {
  name: "conv3_4_bn"
  type: "BatchNorm"
  bottom: "conv3_4"
  top: "conv3_4_bn"
  param {
    lr_mult: 0
  }
  param {
    lr_mult: 0
  }
  param {
    lr_mult: 0
  }
}
layer {
  name: "conv3_4_bn_scale"
  type: "Scale"
  bottom: "conv3_4_bn"
  top: "conv3_4_bn"
  scale_param {
    bias_term: true
  }
}
layer {
  name: "conv3_4_relu"
  type: "ReLU"
  bottom: "conv3_4_bn"
  top: "conv3_4_bn"
}
layer {
  name: "score8"
  type: "Convolution"
  bottom: "conv3_4_bn"
  top: "score8"
  param {
    lr_mult: 1
    decay_mult: 1
  }
  param {
    lr_mult: 2
    decay_mult: 0
  }
  convolution_param {
    num_output: 4
    pad: 0
    kernel_size: 1
    stride: 1
    weight_filler {
      type: "gaussian"
      std: 0.01
    }
    bias_filler {
      type: "constant"
    }
  }
}
layer {
  name: "conv4_1"
  type: "Convolution"
  bottom: "conv3_1_bn"
  top: "conv4_1"
  param {
    lr_mult: 1
    decay_mult: 1
  }
  convolution_param {
    num_output: 64
    bias_term: false
    pad: 1
    kernel_size: 3
    stride: 1
    weight_filler {
      type: "gaussian"
      std: 0.01
    }
  }
}
layer {
  name: "pool4"
  type: "Pooling"
  bottom: "conv4_1"
  top: "pool4"
  pooling_param {
    pool: MAX
    kernel_size: 2
    stride: 2
  }
}
layer {
  name: "conv4_1_bn"
  type: "BatchNorm"
  bottom: "pool4"
  top: "conv4_1_bn"
  param {
    lr_mult: 0
  }
  param {
    lr_mult: 0
  }
  param {
    lr_mult: 0
  }
}
layer {
  name: "conv4_1_bn_scale"
  type: "Scale"
  bottom: "conv4_1_bn"
  top: "conv4_1_bn"
  scale_param {
    bias_term: true
  }
}
layer {
  name: "conv4_1_relu"
  type: "ReLU"
  bottom: "conv4_1_bn"
  top: "conv4_1_bn"
}
layer {
  name: "conv5_1"
  type: "Convolution"
  bottom: "conv4_1_bn"
  top: "conv5_1"
  param {
    lr_mult: 1
    decay_mult: 1
  }
  convolution_param {
    num_output: 64
    bias_term: false
    pad: 0
    kernel_size: 3
    stride: 1
    weight_filler {
      type: "gaussian"
      std: 0.01
    }
  }
}
layer {
  name: "conv5_1_bn"
  type: "BatchNorm"
  bottom: "conv5_1"
  top: "conv5_1_bn"
  param {
    lr_mult: 0
  }
  param {
    lr_mult: 0
  }
  param {
    lr_mult: 0
  }
}
layer {
  name: "conv5_1_bn_scale"
  type: "Scale"
  bottom: "conv5_1_bn"
  top: "conv5_1_bn"
  scale_param {
    bias_term: true
  }
}
layer {
  name: "conv5_1_relu"
  type: "ReLU"
  bottom: "conv5_1_bn"
  top: "conv5_1_bn"
}
layer {
  name: "conv6_1"
  type: "Convolution"
  bottom: "conv5_1_bn"
  top: "conv6_1"
  param {
    lr_mult: 1
    decay_mult: 1
  }
  convolution_param {
    num_output: 64
    bias_term: false
    pad: 0
    kernel_size: 3
    stride: 1
    weight_filler {
      type: "gaussian"
      std: 0.01
    }
  }
}
layer {
  name: "conv6_1_bn"
  type: "BatchNorm"
  bottom: "conv6_1"
  top: "conv6_1_bn"
  param {
    lr_mult: 0
  }
  param {
    lr_mult: 0
  }
  param {
    lr_mult: 0
  }
}
layer {
  name: "conv6_1_bn_scale"
  type: "Scale"
  bottom: "conv6_1_bn"
  top: "conv6_1_bn"
  scale_param {
    bias_term: true
  }
}
layer {
  name: "conv6_1_relu"
  type: "ReLU"
  bottom: "conv6_1_bn"
  top: "conv6_1_bn"
}
layer {
  name: "conv7_1"
  type: "Convolution"
  bottom: "conv6_1_bn"
  top: "conv7_1"
  param {
    lr_mult: 1
    decay_mult: 1
  }
  convolution_param {
    num_output: 128
    bias_term: false
    pad: 0
    kernel_size: 3
    stride: 1
    weight_filler {
      type: "gaussian"
      std: 0.01
    }
  }
}
layer {
  name: "conv7_1_bn"
  type: "BatchNorm"
  bottom: "conv7_1"
  top: "conv7_1_bn"
  param {
    lr_mult: 0
  }
  param {
    lr_mult: 0
  }
  param {
    lr_mult: 0
  }
}
layer {
  name: "conv7_1_bn_scale"
  type: "Scale"
  bottom: "conv7_1_bn"
  top: "conv7_1_bn"
  scale_param {
    bias_term: true
  }
}
layer {
  name: "conv7_1_relu"
  type: "ReLU"
  bottom: "conv7_1_bn"
  top: "conv7_1_bn"
}
layer {
  name: "score"
  type: "Convolution"
  bottom: "conv7_1_bn"
  top: "score"
  param {
    lr_mult: 1
    decay_mult: 1
  }
  param {
    lr_mult: 2
    decay_mult: 0
  }
  convolution_param {
    num_output: 4
    pad: 0
    kernel_size: 1
    stride: 1
    weight_filler {
      type: "gaussian"
      std: 0.01
    }
    bias_filler {
      type: "constant"
    }
  }
}
layer {
  name: "upscorex2"
  type: "Deconvolution"
  bottom: "score"
  top: "upscorex2"
  param {
    lr_mult: 1
    decay_mult: 1
  }
  convolution_param {
    num_output: 4
    bias_term: false
    pad: 0
    kernel_size: 4
    stride: 2
    weight_filler {
      type: "gaussian"
      std: 0.01
    }
  }
}
layer {
  name: "cropscore1"
  type: "Crop"
  bottom: "score8"
  bottom: "upscorex2"
  top: "cropscore1"
  crop_param {
    axis: 2
    offset: 2
  }
}
layer {
  name: "fuse"
  type: "Eltwise"
  bottom: "cropscore1"
  bottom: "upscorex2"
  top: "score_fuse"
  eltwise_param {
    operation: SUM
  }
}
layer {
  name: "upscorex8"
  type: "Deconvolution"
  bottom: "score_fuse"
  top: "upscorex8"
  param {
    lr_mult: 1
    decay_mult: 1
  }
  convolution_param {
    num_output: 4
    bias_term: false
    pad: 0
    kernel_size: 16
    stride: 8
    weight_filler {
      type: "gaussian"
      std: 0.01
    }
  }
}
layer {
  name: "cropscore2"
  type: "Crop"
  bottom: "upscorex8"
  bottom: "image"
  top: "cropscore2"
  crop_param {
    axis: 2
    offset: 16
  }
}
layer {
  name: "loss"
  type: "SoftmaxWithLoss"
  bottom: "cropscore2"
  bottom: "label"
  top: "loss"
  loss_weight: 1
  loss_param {
    normalize: false
  }
}
layer {
  name: "accuracy"
  type: "Accuracy"
  bottom: "cropscore2"
  bottom: "label"
  top: "accuracy"
}
I0828 18:15:16.938668  9408 layer_factory.hpp:77] Creating layer data
I0828 18:15:16.938745  9408 net.cpp:100] Creating Layer data
I0828 18:15:16.938751  9408 net.cpp:408] data -> image
I0828 18:15:16.938758  9408 net.cpp:408] data -> label
I0828 18:15:16.939761  9414 db_lmdb.cpp:35] Opened lmdb /raid/xuehan/segmentation_test_split
I0828 18:15:16.939924  9408 seg_data_layer.cpp:38] 200 200 4
I0828 18:15:16.940016  9408 seg_data_layer.cpp:51] output data size: 64,3,200,200
I0828 18:15:16.940064  9408 seg_data_layer.cpp:63] output label size: 64,1,200,200
I0828 18:15:16.999442  9408 net.cpp:150] Setting up data
I0828 18:15:16.999471  9408 net.cpp:157] Top shape: 64 3 200 200 (7680000)
I0828 18:15:16.999476  9408 net.cpp:157] Top shape: 64 1 200 200 (2560000)
I0828 18:15:16.999480  9408 net.cpp:165] Memory required for data: 40960000
I0828 18:15:16.999485  9408 layer_factory.hpp:77] Creating layer image_data_0_split
I0828 18:15:16.999496  9408 net.cpp:100] Creating Layer image_data_0_split
I0828 18:15:16.999500  9408 net.cpp:434] image_data_0_split <- image
I0828 18:15:16.999508  9408 net.cpp:408] image_data_0_split -> image_data_0_split_0
I0828 18:15:16.999517  9408 net.cpp:408] image_data_0_split -> image_data_0_split_1
I0828 18:15:16.999583  9408 net.cpp:150] Setting up image_data_0_split
I0828 18:15:16.999591  9408 net.cpp:157] Top shape: 64 3 200 200 (7680000)
I0828 18:15:16.999594  9408 net.cpp:157] Top shape: 64 3 200 200 (7680000)
I0828 18:15:16.999598  9408 net.cpp:165] Memory required for data: 102400000
I0828 18:15:16.999600  9408 layer_factory.hpp:77] Creating layer label_data_1_split
I0828 18:15:16.999608  9408 net.cpp:100] Creating Layer label_data_1_split
I0828 18:15:16.999610  9408 net.cpp:434] label_data_1_split <- label
I0828 18:15:16.999614  9408 net.cpp:408] label_data_1_split -> label_data_1_split_0
I0828 18:15:16.999619  9408 net.cpp:408] label_data_1_split -> label_data_1_split_1
I0828 18:15:16.999646  9408 net.cpp:150] Setting up label_data_1_split
I0828 18:15:16.999651  9408 net.cpp:157] Top shape: 64 1 200 200 (2560000)
I0828 18:15:16.999656  9408 net.cpp:157] Top shape: 64 1 200 200 (2560000)
I0828 18:15:16.999658  9408 net.cpp:165] Memory required for data: 122880000
I0828 18:15:16.999661  9408 layer_factory.hpp:77] Creating layer conv1_1
I0828 18:15:16.999670  9408 net.cpp:100] Creating Layer conv1_1
I0828 18:15:16.999673  9408 net.cpp:434] conv1_1 <- image_data_0_split_0
I0828 18:15:16.999678  9408 net.cpp:408] conv1_1 -> conv1_1
I0828 18:15:16.999830  9408 net.cpp:150] Setting up conv1_1
I0828 18:15:16.999836  9408 net.cpp:157] Top shape: 64 8 298 298 (45467648)
I0828 18:15:16.999838  9408 net.cpp:165] Memory required for data: 304750592
I0828 18:15:16.999851  9408 layer_factory.hpp:77] Creating layer pool1
I0828 18:15:16.999866  9408 net.cpp:100] Creating Layer pool1
I0828 18:15:16.999868  9408 net.cpp:434] pool1 <- conv1_1
I0828 18:15:16.999872  9408 net.cpp:408] pool1 -> pool1
I0828 18:15:16.999900  9408 net.cpp:150] Setting up pool1
I0828 18:15:16.999905  9408 net.cpp:157] Top shape: 64 8 149 149 (11366912)
I0828 18:15:16.999907  9408 net.cpp:165] Memory required for data: 350218240
I0828 18:15:16.999910  9408 layer_factory.hpp:77] Creating layer conv1_1_bn
I0828 18:15:16.999917  9408 net.cpp:100] Creating Layer conv1_1_bn
I0828 18:15:16.999918  9408 net.cpp:434] conv1_1_bn <- pool1
I0828 18:15:16.999923  9408 net.cpp:408] conv1_1_bn -> conv1_1_bn
I0828 18:15:17.000082  9408 net.cpp:150] Setting up conv1_1_bn
I0828 18:15:17.000088  9408 net.cpp:157] Top shape: 64 8 149 149 (11366912)
I0828 18:15:17.000090  9408 net.cpp:165] Memory required for data: 395685888
I0828 18:15:17.000100  9408 layer_factory.hpp:77] Creating layer conv1_1_bn_scale
I0828 18:15:17.000107  9408 net.cpp:100] Creating Layer conv1_1_bn_scale
I0828 18:15:17.000109  9408 net.cpp:434] conv1_1_bn_scale <- conv1_1_bn
I0828 18:15:17.000113  9408 net.cpp:395] conv1_1_bn_scale -> conv1_1_bn (in-place)
I0828 18:15:17.000143  9408 layer_factory.hpp:77] Creating layer conv1_1_bn_scale
I0828 18:15:17.000257  9408 net.cpp:150] Setting up conv1_1_bn_scale
I0828 18:15:17.000262  9408 net.cpp:157] Top shape: 64 8 149 149 (11366912)
I0828 18:15:17.000265  9408 net.cpp:165] Memory required for data: 441153536
I0828 18:15:17.000272  9408 layer_factory.hpp:77] Creating layer conv1_1_relu
I0828 18:15:17.000279  9408 net.cpp:100] Creating Layer conv1_1_relu
I0828 18:15:17.000283  9408 net.cpp:434] conv1_1_relu <- conv1_1_bn
I0828 18:15:17.000286  9408 net.cpp:395] conv1_1_relu -> conv1_1_bn (in-place)
I0828 18:15:17.000291  9408 net.cpp:150] Setting up conv1_1_relu
I0828 18:15:17.000294  9408 net.cpp:157] Top shape: 64 8 149 149 (11366912)
I0828 18:15:17.000298  9408 net.cpp:165] Memory required for data: 486621184
I0828 18:15:17.000299  9408 layer_factory.hpp:77] Creating layer conv2_1
I0828 18:15:17.000308  9408 net.cpp:100] Creating Layer conv2_1
I0828 18:15:17.000310  9408 net.cpp:434] conv2_1 <- conv1_1_bn
I0828 18:15:17.000314  9408 net.cpp:408] conv2_1 -> conv2_1
I0828 18:15:17.000476  9408 net.cpp:150] Setting up conv2_1
I0828 18:15:17.000483  9408 net.cpp:157] Top shape: 64 16 149 149 (22733824)
I0828 18:15:17.000485  9408 net.cpp:165] Memory required for data: 577556480
I0828 18:15:17.000489  9408 layer_factory.hpp:77] Creating layer pool2
I0828 18:15:17.000494  9408 net.cpp:100] Creating Layer pool2
I0828 18:15:17.000497  9408 net.cpp:434] pool2 <- conv2_1
I0828 18:15:17.000500  9408 net.cpp:408] pool2 -> pool2
I0828 18:15:17.000543  9408 net.cpp:150] Setting up pool2
I0828 18:15:17.000550  9408 net.cpp:157] Top shape: 64 16 75 75 (5760000)
I0828 18:15:17.000552  9408 net.cpp:165] Memory required for data: 600596480
I0828 18:15:17.000555  9408 layer_factory.hpp:77] Creating layer conv2_1_bn
I0828 18:15:17.000560  9408 net.cpp:100] Creating Layer conv2_1_bn
I0828 18:15:17.000563  9408 net.cpp:434] conv2_1_bn <- pool2
I0828 18:15:17.000568  9408 net.cpp:408] conv2_1_bn -> conv2_1_bn
I0828 18:15:17.010705  9408 net.cpp:150] Setting up conv2_1_bn
I0828 18:15:17.010736  9408 net.cpp:157] Top shape: 64 16 75 75 (5760000)
I0828 18:15:17.010740  9408 net.cpp:165] Memory required for data: 623636480
I0828 18:15:17.010757  9408 layer_factory.hpp:77] Creating layer conv2_1_bn_scale
I0828 18:15:17.010767  9408 net.cpp:100] Creating Layer conv2_1_bn_scale
I0828 18:15:17.010771  9408 net.cpp:434] conv2_1_bn_scale <- conv2_1_bn
I0828 18:15:17.010776  9408 net.cpp:395] conv2_1_bn_scale -> conv2_1_bn (in-place)
I0828 18:15:17.010813  9408 layer_factory.hpp:77] Creating layer conv2_1_bn_scale
I0828 18:15:17.010906  9408 net.cpp:150] Setting up conv2_1_bn_scale
I0828 18:15:17.010912  9408 net.cpp:157] Top shape: 64 16 75 75 (5760000)
I0828 18:15:17.010915  9408 net.cpp:165] Memory required for data: 646676480
I0828 18:15:17.010928  9408 layer_factory.hpp:77] Creating layer conv2_1_relu
I0828 18:15:17.010941  9408 net.cpp:100] Creating Layer conv2_1_relu
I0828 18:15:17.010944  9408 net.cpp:434] conv2_1_relu <- conv2_1_bn
I0828 18:15:17.010949  9408 net.cpp:395] conv2_1_relu -> conv2_1_bn (in-place)
I0828 18:15:17.010954  9408 net.cpp:150] Setting up conv2_1_relu
I0828 18:15:17.010958  9408 net.cpp:157] Top shape: 64 16 75 75 (5760000)
I0828 18:15:17.010962  9408 net.cpp:165] Memory required for data: 669716480
I0828 18:15:17.010964  9408 layer_factory.hpp:77] Creating layer conv3_1
I0828 18:15:17.010972  9408 net.cpp:100] Creating Layer conv3_1
I0828 18:15:17.010974  9408 net.cpp:434] conv3_1 <- conv2_1_bn
I0828 18:15:17.010979  9408 net.cpp:408] conv3_1 -> conv3_1
I0828 18:15:17.011222  9408 net.cpp:150] Setting up conv3_1
I0828 18:15:17.011229  9408 net.cpp:157] Top shape: 64 32 75 75 (11520000)
I0828 18:15:17.011231  9408 net.cpp:165] Memory required for data: 715796480
I0828 18:15:17.011235  9408 layer_factory.hpp:77] Creating layer pool3
I0828 18:15:17.011241  9408 net.cpp:100] Creating Layer pool3
I0828 18:15:17.011245  9408 net.cpp:434] pool3 <- conv3_1
I0828 18:15:17.011248  9408 net.cpp:408] pool3 -> pool3
I0828 18:15:17.011276  9408 net.cpp:150] Setting up pool3
I0828 18:15:17.011281  9408 net.cpp:157] Top shape: 64 32 38 38 (2957312)
I0828 18:15:17.011283  9408 net.cpp:165] Memory required for data: 727625728
I0828 18:15:17.011286  9408 layer_factory.hpp:77] Creating layer conv3_1_bn
I0828 18:15:17.011291  9408 net.cpp:100] Creating Layer conv3_1_bn
I0828 18:15:17.011294  9408 net.cpp:434] conv3_1_bn <- pool3
I0828 18:15:17.011299  9408 net.cpp:408] conv3_1_bn -> conv3_1_bn
I0828 18:15:17.011447  9408 net.cpp:150] Setting up conv3_1_bn
I0828 18:15:17.011453  9408 net.cpp:157] Top shape: 64 32 38 38 (2957312)
I0828 18:15:17.011456  9408 net.cpp:165] Memory required for data: 739454976
I0828 18:15:17.011461  9408 layer_factory.hpp:77] Creating layer conv3_1_bn_scale
I0828 18:15:17.011468  9408 net.cpp:100] Creating Layer conv3_1_bn_scale
I0828 18:15:17.011472  9408 net.cpp:434] conv3_1_bn_scale <- conv3_1_bn
I0828 18:15:17.011476  9408 net.cpp:395] conv3_1_bn_scale -> conv3_1_bn (in-place)
I0828 18:15:17.011503  9408 layer_factory.hpp:77] Creating layer conv3_1_bn_scale
I0828 18:15:17.011592  9408 net.cpp:150] Setting up conv3_1_bn_scale
I0828 18:15:17.011597  9408 net.cpp:157] Top shape: 64 32 38 38 (2957312)
I0828 18:15:17.011600  9408 net.cpp:165] Memory required for data: 751284224
I0828 18:15:17.011608  9408 layer_factory.hpp:77] Creating layer conv3_1_relu
I0828 18:15:17.011613  9408 net.cpp:100] Creating Layer conv3_1_relu
I0828 18:15:17.011615  9408 net.cpp:434] conv3_1_relu <- conv3_1_bn
I0828 18:15:17.011620  9408 net.cpp:395] conv3_1_relu -> conv3_1_bn (in-place)
I0828 18:15:17.011623  9408 net.cpp:150] Setting up conv3_1_relu
I0828 18:15:17.011627  9408 net.cpp:157] Top shape: 64 32 38 38 (2957312)
I0828 18:15:17.011631  9408 net.cpp:165] Memory required for data: 763113472
I0828 18:15:17.011632  9408 layer_factory.hpp:77] Creating layer conv3_1_bn_conv3_1_relu_0_split
I0828 18:15:17.011639  9408 net.cpp:100] Creating Layer conv3_1_bn_conv3_1_relu_0_split
I0828 18:15:17.011641  9408 net.cpp:434] conv3_1_bn_conv3_1_relu_0_split <- conv3_1_bn
I0828 18:15:17.011646  9408 net.cpp:408] conv3_1_bn_conv3_1_relu_0_split -> conv3_1_bn_conv3_1_relu_0_split_0
I0828 18:15:17.011651  9408 net.cpp:408] conv3_1_bn_conv3_1_relu_0_split -> conv3_1_bn_conv3_1_relu_0_split_1
I0828 18:15:17.011677  9408 net.cpp:150] Setting up conv3_1_bn_conv3_1_relu_0_split
I0828 18:15:17.011680  9408 net.cpp:157] Top shape: 64 32 38 38 (2957312)
I0828 18:15:17.011684  9408 net.cpp:157] Top shape: 64 32 38 38 (2957312)
I0828 18:15:17.011687  9408 net.cpp:165] Memory required for data: 786771968
I0828 18:15:17.011690  9408 layer_factory.hpp:77] Creating layer conv3_2
I0828 18:15:17.011696  9408 net.cpp:100] Creating Layer conv3_2
I0828 18:15:17.011699  9408 net.cpp:434] conv3_2 <- conv3_1_bn_conv3_1_relu_0_split_0
I0828 18:15:17.011708  9408 net.cpp:408] conv3_2 -> conv3_2
I0828 18:15:17.012032  9408 net.cpp:150] Setting up conv3_2
I0828 18:15:17.012038  9408 net.cpp:157] Top shape: 64 32 36 36 (2654208)
I0828 18:15:17.012042  9408 net.cpp:165] Memory required for data: 797388800
I0828 18:15:17.012045  9408 layer_factory.hpp:77] Creating layer conv3_2_bn
I0828 18:15:17.012051  9408 net.cpp:100] Creating Layer conv3_2_bn
I0828 18:15:17.012055  9408 net.cpp:434] conv3_2_bn <- conv3_2
I0828 18:15:17.012059  9408 net.cpp:408] conv3_2_bn -> conv3_2_bn
I0828 18:15:17.012200  9408 net.cpp:150] Setting up conv3_2_bn
I0828 18:15:17.012205  9408 net.cpp:157] Top shape: 64 32 36 36 (2654208)
I0828 18:15:17.012208  9408 net.cpp:165] Memory required for data: 808005632
I0828 18:15:17.012214  9408 layer_factory.hpp:77] Creating layer conv3_2_bn_scale
I0828 18:15:17.012219  9408 net.cpp:100] Creating Layer conv3_2_bn_scale
I0828 18:15:17.012223  9408 net.cpp:434] conv3_2_bn_scale <- conv3_2_bn
I0828 18:15:17.012225  9408 net.cpp:395] conv3_2_bn_scale -> conv3_2_bn (in-place)
I0828 18:15:17.012253  9408 layer_factory.hpp:77] Creating layer conv3_2_bn_scale
I0828 18:15:17.012338  9408 net.cpp:150] Setting up conv3_2_bn_scale
I0828 18:15:17.012343  9408 net.cpp:157] Top shape: 64 32 36 36 (2654208)
I0828 18:15:17.012346  9408 net.cpp:165] Memory required for data: 818622464
I0828 18:15:17.012351  9408 layer_factory.hpp:77] Creating layer conv3_2_relu
I0828 18:15:17.012356  9408 net.cpp:100] Creating Layer conv3_2_relu
I0828 18:15:17.012358  9408 net.cpp:434] conv3_2_relu <- conv3_2_bn
I0828 18:15:17.012362  9408 net.cpp:395] conv3_2_relu -> conv3_2_bn (in-place)
I0828 18:15:17.012367  9408 net.cpp:150] Setting up conv3_2_relu
I0828 18:15:17.012370  9408 net.cpp:157] Top shape: 64 32 36 36 (2654208)
I0828 18:15:17.012372  9408 net.cpp:165] Memory required for data: 829239296
I0828 18:15:17.012375  9408 layer_factory.hpp:77] Creating layer conv3_3
I0828 18:15:17.012382  9408 net.cpp:100] Creating Layer conv3_3
I0828 18:15:17.012385  9408 net.cpp:434] conv3_3 <- conv3_2_bn
I0828 18:15:17.012390  9408 net.cpp:408] conv3_3 -> conv3_3
I0828 18:15:17.012715  9408 net.cpp:150] Setting up conv3_3
I0828 18:15:17.012722  9408 net.cpp:157] Top shape: 64 32 34 34 (2367488)
I0828 18:15:17.012724  9408 net.cpp:165] Memory required for data: 838709248
I0828 18:15:17.012728  9408 layer_factory.hpp:77] Creating layer conv3_3_bn
I0828 18:15:17.012733  9408 net.cpp:100] Creating Layer conv3_3_bn
I0828 18:15:17.012737  9408 net.cpp:434] conv3_3_bn <- conv3_3
I0828 18:15:17.012740  9408 net.cpp:408] conv3_3_bn -> conv3_3_bn
I0828 18:15:17.012886  9408 net.cpp:150] Setting up conv3_3_bn
I0828 18:15:17.012892  9408 net.cpp:157] Top shape: 64 32 34 34 (2367488)
I0828 18:15:17.012893  9408 net.cpp:165] Memory required for data: 848179200
I0828 18:15:17.012899  9408 layer_factory.hpp:77] Creating layer conv3_3_bn_scale
I0828 18:15:17.012905  9408 net.cpp:100] Creating Layer conv3_3_bn_scale
I0828 18:15:17.012908  9408 net.cpp:434] conv3_3_bn_scale <- conv3_3_bn
I0828 18:15:17.012913  9408 net.cpp:395] conv3_3_bn_scale -> conv3_3_bn (in-place)
I0828 18:15:17.012940  9408 layer_factory.hpp:77] Creating layer conv3_3_bn_scale
I0828 18:15:17.013025  9408 net.cpp:150] Setting up conv3_3_bn_scale
I0828 18:15:17.013031  9408 net.cpp:157] Top shape: 64 32 34 34 (2367488)
I0828 18:15:17.013033  9408 net.cpp:165] Memory required for data: 857649152
I0828 18:15:17.013038  9408 layer_factory.hpp:77] Creating layer conv3_3_relu
I0828 18:15:17.013042  9408 net.cpp:100] Creating Layer conv3_3_relu
I0828 18:15:17.013046  9408 net.cpp:434] conv3_3_relu <- conv3_3_bn
I0828 18:15:17.013051  9408 net.cpp:395] conv3_3_relu -> conv3_3_bn (in-place)
I0828 18:15:17.013054  9408 net.cpp:150] Setting up conv3_3_relu
I0828 18:15:17.013058  9408 net.cpp:157] Top shape: 64 32 34 34 (2367488)
I0828 18:15:17.013061  9408 net.cpp:165] Memory required for data: 867119104
I0828 18:15:17.013063  9408 layer_factory.hpp:77] Creating layer conv3_4
I0828 18:15:17.013068  9408 net.cpp:100] Creating Layer conv3_4
I0828 18:15:17.013075  9408 net.cpp:434] conv3_4 <- conv3_3_bn
I0828 18:15:17.013085  9408 net.cpp:408] conv3_4 -> conv3_4
I0828 18:15:17.014106  9408 net.cpp:150] Setting up conv3_4
I0828 18:15:17.014118  9408 net.cpp:157] Top shape: 64 64 32 32 (4194304)
I0828 18:15:17.014122  9408 net.cpp:165] Memory required for data: 883896320
I0828 18:15:17.014125  9408 layer_factory.hpp:77] Creating layer conv3_4_bn
I0828 18:15:17.014132  9408 net.cpp:100] Creating Layer conv3_4_bn
I0828 18:15:17.014135  9408 net.cpp:434] conv3_4_bn <- conv3_4
I0828 18:15:17.014142  9408 net.cpp:408] conv3_4_bn -> conv3_4_bn
I0828 18:15:17.014291  9408 net.cpp:150] Setting up conv3_4_bn
I0828 18:15:17.014295  9408 net.cpp:157] Top shape: 64 64 32 32 (4194304)
I0828 18:15:17.014298  9408 net.cpp:165] Memory required for data: 900673536
I0828 18:15:17.014312  9408 layer_factory.hpp:77] Creating layer conv3_4_bn_scale
I0828 18:15:17.014317  9408 net.cpp:100] Creating Layer conv3_4_bn_scale
I0828 18:15:17.014319  9408 net.cpp:434] conv3_4_bn_scale <- conv3_4_bn
I0828 18:15:17.014323  9408 net.cpp:395] conv3_4_bn_scale -> conv3_4_bn (in-place)
I0828 18:15:17.014354  9408 layer_factory.hpp:77] Creating layer conv3_4_bn_scale
I0828 18:15:17.014442  9408 net.cpp:150] Setting up conv3_4_bn_scale
I0828 18:15:17.014449  9408 net.cpp:157] Top shape: 64 64 32 32 (4194304)
I0828 18:15:17.014452  9408 net.cpp:165] Memory required for data: 917450752
I0828 18:15:17.014457  9408 layer_factory.hpp:77] Creating layer conv3_4_relu
I0828 18:15:17.014462  9408 net.cpp:100] Creating Layer conv3_4_relu
I0828 18:15:17.014466  9408 net.cpp:434] conv3_4_relu <- conv3_4_bn
I0828 18:15:17.014469  9408 net.cpp:395] conv3_4_relu -> conv3_4_bn (in-place)
I0828 18:15:17.014474  9408 net.cpp:150] Setting up conv3_4_relu
I0828 18:15:17.014478  9408 net.cpp:157] Top shape: 64 64 32 32 (4194304)
I0828 18:15:17.014482  9408 net.cpp:165] Memory required for data: 934227968
I0828 18:15:17.014483  9408 layer_factory.hpp:77] Creating layer score8
I0828 18:15:17.014492  9408 net.cpp:100] Creating Layer score8
I0828 18:15:17.014494  9408 net.cpp:434] score8 <- conv3_4_bn
I0828 18:15:17.014499  9408 net.cpp:408] score8 -> score8
I0828 18:15:17.014659  9408 net.cpp:150] Setting up score8
I0828 18:15:17.014665  9408 net.cpp:157] Top shape: 64 4 32 32 (262144)
I0828 18:15:17.014668  9408 net.cpp:165] Memory required for data: 935276544
I0828 18:15:17.014672  9408 layer_factory.hpp:77] Creating layer conv4_1
I0828 18:15:17.014683  9408 net.cpp:100] Creating Layer conv4_1
I0828 18:15:17.014686  9408 net.cpp:434] conv4_1 <- conv3_1_bn_conv3_1_relu_0_split_1
I0828 18:15:17.014691  9408 net.cpp:408] conv4_1 -> conv4_1
I0828 18:15:17.015210  9408 net.cpp:150] Setting up conv4_1
I0828 18:15:17.015216  9408 net.cpp:157] Top shape: 64 64 38 38 (5914624)
I0828 18:15:17.015218  9408 net.cpp:165] Memory required for data: 958935040
I0828 18:15:17.015223  9408 layer_factory.hpp:77] Creating layer pool4
I0828 18:15:17.015229  9408 net.cpp:100] Creating Layer pool4
I0828 18:15:17.015233  9408 net.cpp:434] pool4 <- conv4_1
I0828 18:15:17.015235  9408 net.cpp:408] pool4 -> pool4
I0828 18:15:17.015264  9408 net.cpp:150] Setting up pool4
I0828 18:15:17.015269  9408 net.cpp:157] Top shape: 64 64 19 19 (1478656)
I0828 18:15:17.015271  9408 net.cpp:165] Memory required for data: 964849664
I0828 18:15:17.015274  9408 layer_factory.hpp:77] Creating layer conv4_1_bn
I0828 18:15:17.015280  9408 net.cpp:100] Creating Layer conv4_1_bn
I0828 18:15:17.015282  9408 net.cpp:434] conv4_1_bn <- pool4
I0828 18:15:17.015286  9408 net.cpp:408] conv4_1_bn -> conv4_1_bn
I0828 18:15:17.015424  9408 net.cpp:150] Setting up conv4_1_bn
I0828 18:15:17.015429  9408 net.cpp:157] Top shape: 64 64 19 19 (1478656)
I0828 18:15:17.015432  9408 net.cpp:165] Memory required for data: 970764288
I0828 18:15:17.015439  9408 layer_factory.hpp:77] Creating layer conv4_1_bn_scale
I0828 18:15:17.015442  9408 net.cpp:100] Creating Layer conv4_1_bn_scale
I0828 18:15:17.015445  9408 net.cpp:434] conv4_1_bn_scale <- conv4_1_bn
I0828 18:15:17.015450  9408 net.cpp:395] conv4_1_bn_scale -> conv4_1_bn (in-place)
I0828 18:15:17.015493  9408 layer_factory.hpp:77] Creating layer conv4_1_bn_scale
I0828 18:15:17.015578  9408 net.cpp:150] Setting up conv4_1_bn_scale
I0828 18:15:17.015583  9408 net.cpp:157] Top shape: 64 64 19 19 (1478656)
I0828 18:15:17.015585  9408 net.cpp:165] Memory required for data: 976678912
I0828 18:15:17.015590  9408 layer_factory.hpp:77] Creating layer conv4_1_relu
I0828 18:15:17.015595  9408 net.cpp:100] Creating Layer conv4_1_relu
I0828 18:15:17.015599  9408 net.cpp:434] conv4_1_relu <- conv4_1_bn
I0828 18:15:17.015602  9408 net.cpp:395] conv4_1_relu -> conv4_1_bn (in-place)
I0828 18:15:17.015606  9408 net.cpp:150] Setting up conv4_1_relu
I0828 18:15:17.015610  9408 net.cpp:157] Top shape: 64 64 19 19 (1478656)
I0828 18:15:17.015612  9408 net.cpp:165] Memory required for data: 982593536
I0828 18:15:17.015615  9408 layer_factory.hpp:77] Creating layer conv5_1
I0828 18:15:17.015624  9408 net.cpp:100] Creating Layer conv5_1
I0828 18:15:17.015626  9408 net.cpp:434] conv5_1 <- conv4_1_bn
I0828 18:15:17.015631  9408 net.cpp:408] conv5_1 -> conv5_1
I0828 18:15:17.016548  9408 net.cpp:150] Setting up conv5_1
I0828 18:15:17.016556  9408 net.cpp:157] Top shape: 64 64 17 17 (1183744)
I0828 18:15:17.016559  9408 net.cpp:165] Memory required for data: 987328512
I0828 18:15:17.016563  9408 layer_factory.hpp:77] Creating layer conv5_1_bn
I0828 18:15:17.016568  9408 net.cpp:100] Creating Layer conv5_1_bn
I0828 18:15:17.016571  9408 net.cpp:434] conv5_1_bn <- conv5_1
I0828 18:15:17.016576  9408 net.cpp:408] conv5_1_bn -> conv5_1_bn
I0828 18:15:17.016721  9408 net.cpp:150] Setting up conv5_1_bn
I0828 18:15:17.016726  9408 net.cpp:157] Top shape: 64 64 17 17 (1183744)
I0828 18:15:17.016728  9408 net.cpp:165] Memory required for data: 992063488
I0828 18:15:17.016733  9408 layer_factory.hpp:77] Creating layer conv5_1_bn_scale
I0828 18:15:17.016739  9408 net.cpp:100] Creating Layer conv5_1_bn_scale
I0828 18:15:17.016742  9408 net.cpp:434] conv5_1_bn_scale <- conv5_1_bn
I0828 18:15:17.016746  9408 net.cpp:395] conv5_1_bn_scale -> conv5_1_bn (in-place)
I0828 18:15:17.016774  9408 layer_factory.hpp:77] Creating layer conv5_1_bn_scale
I0828 18:15:17.016862  9408 net.cpp:150] Setting up conv5_1_bn_scale
I0828 18:15:17.016867  9408 net.cpp:157] Top shape: 64 64 17 17 (1183744)
I0828 18:15:17.016870  9408 net.cpp:165] Memory required for data: 996798464
I0828 18:15:17.016875  9408 layer_factory.hpp:77] Creating layer conv5_1_relu
I0828 18:15:17.016880  9408 net.cpp:100] Creating Layer conv5_1_relu
I0828 18:15:17.016883  9408 net.cpp:434] conv5_1_relu <- conv5_1_bn
I0828 18:15:17.016886  9408 net.cpp:395] conv5_1_relu -> conv5_1_bn (in-place)
I0828 18:15:17.016891  9408 net.cpp:150] Setting up conv5_1_relu
I0828 18:15:17.016896  9408 net.cpp:157] Top shape: 64 64 17 17 (1183744)
I0828 18:15:17.016897  9408 net.cpp:165] Memory required for data: 1001533440
I0828 18:15:17.016901  9408 layer_factory.hpp:77] Creating layer conv6_1
I0828 18:15:17.016907  9408 net.cpp:100] Creating Layer conv6_1
I0828 18:15:17.016911  9408 net.cpp:434] conv6_1 <- conv5_1_bn
I0828 18:15:17.016916  9408 net.cpp:408] conv6_1 -> conv6_1
I0828 18:15:17.017834  9408 net.cpp:150] Setting up conv6_1
I0828 18:15:17.017841  9408 net.cpp:157] Top shape: 64 64 15 15 (921600)
I0828 18:15:17.017844  9408 net.cpp:165] Memory required for data: 1005219840
I0828 18:15:17.017848  9408 layer_factory.hpp:77] Creating layer conv6_1_bn
I0828 18:15:17.017854  9408 net.cpp:100] Creating Layer conv6_1_bn
I0828 18:15:17.017858  9408 net.cpp:434] conv6_1_bn <- conv6_1
I0828 18:15:17.017861  9408 net.cpp:408] conv6_1_bn -> conv6_1_bn
I0828 18:15:17.018000  9408 net.cpp:150] Setting up conv6_1_bn
I0828 18:15:17.018005  9408 net.cpp:157] Top shape: 64 64 15 15 (921600)
I0828 18:15:17.018008  9408 net.cpp:165] Memory required for data: 1008906240
I0828 18:15:17.018013  9408 layer_factory.hpp:77] Creating layer conv6_1_bn_scale
I0828 18:15:17.018018  9408 net.cpp:100] Creating Layer conv6_1_bn_scale
I0828 18:15:17.018021  9408 net.cpp:434] conv6_1_bn_scale <- conv6_1_bn
I0828 18:15:17.018030  9408 net.cpp:395] conv6_1_bn_scale -> conv6_1_bn (in-place)
I0828 18:15:17.018067  9408 layer_factory.hpp:77] Creating layer conv6_1_bn_scale
I0828 18:15:17.018144  9408 net.cpp:150] Setting up conv6_1_bn_scale
I0828 18:15:17.018151  9408 net.cpp:157] Top shape: 64 64 15 15 (921600)
I0828 18:15:17.018152  9408 net.cpp:165] Memory required for data: 1012592640
I0828 18:15:17.018157  9408 layer_factory.hpp:77] Creating layer conv6_1_relu
I0828 18:15:17.018162  9408 net.cpp:100] Creating Layer conv6_1_relu
I0828 18:15:17.018165  9408 net.cpp:434] conv6_1_relu <- conv6_1_bn
I0828 18:15:17.018168  9408 net.cpp:395] conv6_1_relu -> conv6_1_bn (in-place)
I0828 18:15:17.018172  9408 net.cpp:150] Setting up conv6_1_relu
I0828 18:15:17.018177  9408 net.cpp:157] Top shape: 64 64 15 15 (921600)
I0828 18:15:17.018179  9408 net.cpp:165] Memory required for data: 1016279040
I0828 18:15:17.018182  9408 layer_factory.hpp:77] Creating layer conv7_1
I0828 18:15:17.018190  9408 net.cpp:100] Creating Layer conv7_1
I0828 18:15:17.018193  9408 net.cpp:434] conv7_1 <- conv6_1_bn
I0828 18:15:17.018198  9408 net.cpp:408] conv7_1 -> conv7_1
I0828 18:15:17.019947  9408 net.cpp:150] Setting up conv7_1
I0828 18:15:17.019961  9408 net.cpp:157] Top shape: 64 128 13 13 (1384448)
I0828 18:15:17.019964  9408 net.cpp:165] Memory required for data: 1021816832
I0828 18:15:17.019969  9408 layer_factory.hpp:77] Creating layer conv7_1_bn
I0828 18:15:17.019975  9408 net.cpp:100] Creating Layer conv7_1_bn
I0828 18:15:17.019979  9408 net.cpp:434] conv7_1_bn <- conv7_1
I0828 18:15:17.019984  9408 net.cpp:408] conv7_1_bn -> conv7_1_bn
I0828 18:15:17.020138  9408 net.cpp:150] Setting up conv7_1_bn
I0828 18:15:17.020144  9408 net.cpp:157] Top shape: 64 128 13 13 (1384448)
I0828 18:15:17.020146  9408 net.cpp:165] Memory required for data: 1027354624
I0828 18:15:17.020153  9408 layer_factory.hpp:77] Creating layer conv7_1_bn_scale
I0828 18:15:17.020158  9408 net.cpp:100] Creating Layer conv7_1_bn_scale
I0828 18:15:17.020160  9408 net.cpp:434] conv7_1_bn_scale <- conv7_1_bn
I0828 18:15:17.020165  9408 net.cpp:395] conv7_1_bn_scale -> conv7_1_bn (in-place)
I0828 18:15:17.020195  9408 layer_factory.hpp:77] Creating layer conv7_1_bn_scale
I0828 18:15:17.020267  9408 net.cpp:150] Setting up conv7_1_bn_scale
I0828 18:15:17.020272  9408 net.cpp:157] Top shape: 64 128 13 13 (1384448)
I0828 18:15:17.020275  9408 net.cpp:165] Memory required for data: 1032892416
I0828 18:15:17.020279  9408 layer_factory.hpp:77] Creating layer conv7_1_relu
I0828 18:15:17.020283  9408 net.cpp:100] Creating Layer conv7_1_relu
I0828 18:15:17.020287  9408 net.cpp:434] conv7_1_relu <- conv7_1_bn
I0828 18:15:17.020290  9408 net.cpp:395] conv7_1_relu -> conv7_1_bn (in-place)
I0828 18:15:17.020294  9408 net.cpp:150] Setting up conv7_1_relu
I0828 18:15:17.020298  9408 net.cpp:157] Top shape: 64 128 13 13 (1384448)
I0828 18:15:17.020300  9408 net.cpp:165] Memory required for data: 1038430208
I0828 18:15:17.020303  9408 layer_factory.hpp:77] Creating layer score
I0828 18:15:17.020313  9408 net.cpp:100] Creating Layer score
I0828 18:15:17.020315  9408 net.cpp:434] score <- conv7_1_bn
I0828 18:15:17.020320  9408 net.cpp:408] score -> score
I0828 18:15:17.020501  9408 net.cpp:150] Setting up score
I0828 18:15:17.020508  9408 net.cpp:157] Top shape: 64 4 13 13 (43264)
I0828 18:15:17.020510  9408 net.cpp:165] Memory required for data: 1038603264
I0828 18:15:17.020514  9408 layer_factory.hpp:77] Creating layer upscorex2
I0828 18:15:17.020522  9408 net.cpp:100] Creating Layer upscorex2
I0828 18:15:17.020525  9408 net.cpp:434] upscorex2 <- score
I0828 18:15:17.020530  9408 net.cpp:408] upscorex2 -> upscorex2
I0828 18:15:17.020664  9408 net.cpp:150] Setting up upscorex2
I0828 18:15:17.020669  9408 net.cpp:157] Top shape: 64 4 28 28 (200704)
I0828 18:15:17.020673  9408 net.cpp:165] Memory required for data: 1039406080
I0828 18:15:17.020685  9408 layer_factory.hpp:77] Creating layer upscorex2_upscorex2_0_split
I0828 18:15:17.020691  9408 net.cpp:100] Creating Layer upscorex2_upscorex2_0_split
I0828 18:15:17.020700  9408 net.cpp:434] upscorex2_upscorex2_0_split <- upscorex2
I0828 18:15:17.020712  9408 net.cpp:408] upscorex2_upscorex2_0_split -> upscorex2_upscorex2_0_split_0
I0828 18:15:17.020719  9408 net.cpp:408] upscorex2_upscorex2_0_split -> upscorex2_upscorex2_0_split_1
I0828 18:15:17.020745  9408 net.cpp:150] Setting up upscorex2_upscorex2_0_split
I0828 18:15:17.020748  9408 net.cpp:157] Top shape: 64 4 28 28 (200704)
I0828 18:15:17.020752  9408 net.cpp:157] Top shape: 64 4 28 28 (200704)
I0828 18:15:17.020755  9408 net.cpp:165] Memory required for data: 1041011712
I0828 18:15:17.020757  9408 layer_factory.hpp:77] Creating layer cropscore1
I0828 18:15:17.020763  9408 net.cpp:100] Creating Layer cropscore1
I0828 18:15:17.020766  9408 net.cpp:434] cropscore1 <- score8
I0828 18:15:17.020771  9408 net.cpp:434] cropscore1 <- upscorex2_upscorex2_0_split_0
I0828 18:15:17.020776  9408 net.cpp:408] cropscore1 -> cropscore1
I0828 18:15:17.020792  9408 net.cpp:150] Setting up cropscore1
I0828 18:15:17.020797  9408 net.cpp:157] Top shape: 64 4 28 28 (200704)
I0828 18:15:17.020798  9408 net.cpp:165] Memory required for data: 1041814528
I0828 18:15:17.020802  9408 layer_factory.hpp:77] Creating layer fuse
I0828 18:15:17.020812  9408 net.cpp:100] Creating Layer fuse
I0828 18:15:17.020814  9408 net.cpp:434] fuse <- cropscore1
I0828 18:15:17.020817  9408 net.cpp:434] fuse <- upscorex2_upscorex2_0_split_1
I0828 18:15:17.020822  9408 net.cpp:408] fuse -> score_fuse
I0828 18:15:17.020838  9408 net.cpp:150] Setting up fuse
I0828 18:15:17.020843  9408 net.cpp:157] Top shape: 64 4 28 28 (200704)
I0828 18:15:17.020845  9408 net.cpp:165] Memory required for data: 1042617344
I0828 18:15:17.020848  9408 layer_factory.hpp:77] Creating layer upscorex8
I0828 18:15:17.020855  9408 net.cpp:100] Creating Layer upscorex8
I0828 18:15:17.020859  9408 net.cpp:434] upscorex8 <- score_fuse
I0828 18:15:17.020864  9408 net.cpp:408] upscorex8 -> upscorex8
I0828 18:15:17.021077  9408 net.cpp:150] Setting up upscorex8
I0828 18:15:17.021083  9408 net.cpp:157] Top shape: 64 4 232 232 (13778944)
I0828 18:15:17.021085  9408 net.cpp:165] Memory required for data: 1097733120
I0828 18:15:17.021090  9408 layer_factory.hpp:77] Creating layer cropscore2
I0828 18:15:17.021095  9408 net.cpp:100] Creating Layer cropscore2
I0828 18:15:17.021097  9408 net.cpp:434] cropscore2 <- upscorex8
I0828 18:15:17.021101  9408 net.cpp:434] cropscore2 <- image_data_0_split_1
I0828 18:15:17.021106  9408 net.cpp:408] cropscore2 -> cropscore2
I0828 18:15:17.021122  9408 net.cpp:150] Setting up cropscore2
I0828 18:15:17.021126  9408 net.cpp:157] Top shape: 64 4 200 200 (10240000)
I0828 18:15:17.021129  9408 net.cpp:165] Memory required for data: 1138693120
I0828 18:15:17.021131  9408 layer_factory.hpp:77] Creating layer cropscore2_cropscore2_0_split
I0828 18:15:17.021136  9408 net.cpp:100] Creating Layer cropscore2_cropscore2_0_split
I0828 18:15:17.021138  9408 net.cpp:434] cropscore2_cropscore2_0_split <- cropscore2
I0828 18:15:17.021142  9408 net.cpp:408] cropscore2_cropscore2_0_split -> cropscore2_cropscore2_0_split_0
I0828 18:15:17.021147  9408 net.cpp:408] cropscore2_cropscore2_0_split -> cropscore2_cropscore2_0_split_1
I0828 18:15:17.021173  9408 net.cpp:150] Setting up cropscore2_cropscore2_0_split
I0828 18:15:17.021176  9408 net.cpp:157] Top shape: 64 4 200 200 (10240000)
I0828 18:15:17.021180  9408 net.cpp:157] Top shape: 64 4 200 200 (10240000)
I0828 18:15:17.021183  9408 net.cpp:165] Memory required for data: 1220613120
I0828 18:15:17.021185  9408 layer_factory.hpp:77] Creating layer loss
I0828 18:15:17.021190  9408 net.cpp:100] Creating Layer loss
I0828 18:15:17.021193  9408 net.cpp:434] loss <- cropscore2_cropscore2_0_split_0
I0828 18:15:17.021196  9408 net.cpp:434] loss <- label_data_1_split_0
I0828 18:15:17.021200  9408 net.cpp:408] loss -> loss
…
