…
I0909 13:23:30.478276 14457 solver.cpp:91] Creating training net from net file: portrait_wfm_train_test_one_stage.prototxt2
I0909 13:23:30.478886 14457 net.cpp:322] The NetState phase (0) differed from the phase (1) specified by a rule in layer data
I0909 13:23:30.479051 14457 net.cpp:58] Initializing net from parameters: 
name: "segmentation"
state {
  phase: TRAIN
  level: 0
  stage: ""
}
layer {
  name: "data"
  type: "SegData"
  top: "image"
  top: "label"
  include {
    phase: TRAIN
  }
  transform_param {
    mirror: true
    crop_size: 200
  }
  data_param {
    source: "/raid/xuehan/segmentation_wfm_train_split"
    batch_size: 128
    backend: LMDB
  }
}
layer {
  name: "slicer_data"
  type: "Slice"
  bottom: "image"
  top: "image_bgr"
  top: "face_mask"
  slice_param {
    slice_point: 3
    axis: 1
  }
}
layer {
  name: "pool_mask"
  type: "Pooling"
  bottom: "face_mask"
  top: "face_mask_pool"
  pooling_param {
    pool: AVE
    kernel_size: 17
    stride: 16
    pad: 4
  }
}
layer {
  name: "conv1_1"
  type: "Convolution"
  bottom: "image_bgr"
  top: "conv1_1"
  param {
    lr_mult: 1
    decay_mult: 1
  }
  convolution_param {
    num_output: 8
    bias_term: false
    pad: 50
    kernel_size: 3
    stride: 1
    weight_filler {
      type: "gaussian"
      std: 0.01
    }
  }
}
layer {
  name: "pool1"
  type: "Pooling"
  bottom: "conv1_1"
  top: "pool1"
  pooling_param {
    pool: MAX
    kernel_size: 2
    stride: 2
  }
}
layer {
  name: "conv1_1_bn"
  type: "BatchNorm"
  bottom: "pool1"
  top: "conv1_1_bn"
  param {
    lr_mult: 0
  }
  param {
    lr_mult: 0
  }
  param {
    lr_mult: 0
  }
}
layer {
  name: "conv1_1_bn_scale"
  type: "Scale"
  bottom: "conv1_1_bn"
  top: "conv1_1_bn"
  scale_param {
    bias_term: true
  }
}
layer {
  name: "conv1_1_relu"
  type: "ReLU"
  bottom: "conv1_1_bn"
  top: "conv1_1_bn"
}
layer {
  name: "conv2_1"
  type: "Convolution"
  bottom: "conv1_1_bn"
  top: "conv2_1"
  param {
    lr_mult: 1
    decay_mult: 1
  }
  convolution_param {
    num_output: 16
    bias_term: false
    pad: 1
    kernel_size: 3
    stride: 1
    weight_filler {
      type: "gaussian"
      std: 0.01
    }
  }
}
layer {
  name: "pool2"
  type: "Pooling"
  bottom: "conv2_1"
  top: "pool2"
  pooling_param {
    pool: MAX
    kernel_size: 2
    stride: 2
  }
}
layer {
  name: "conv2_1_bn"
  type: "BatchNorm"
  bottom: "pool2"
  top: "conv2_1_bn"
  param {
    lr_mult: 0
  }
  param {
    lr_mult: 0
  }
  param {
    lr_mult: 0
  }
}
layer {
  name: "conv2_1_bn_scale"
  type: "Scale"
  bottom: "conv2_1_bn"
  top: "conv2_1_bn"
  scale_param {
    bias_term: true
  }
}
layer {
  name: "conv2_1_relu"
  type: "ReLU"
  bottom: "conv2_1_bn"
  top: "conv2_1_bn"
}
layer {
  name: "conv3_1"
  type: "Convolution"
  bottom: "conv2_1_bn"
  top: "conv3_1"
  param {
    lr_mult: 1
    decay_mult: 1
  }
  convolution_param {
    num_output: 32
    bias_term: false
    pad: 1
    kernel_size: 3
    stride: 1
    weight_filler {
      type: "gaussian"
      std: 0.01
    }
  }
}
layer {
  name: "pool3"
  type: "Pooling"
  bottom: "conv3_1"
  top: "pool3"
  pooling_param {
    pool: MAX
    kernel_size: 2
    stride: 2
  }
}
layer {
  name: "conv3_1_bn"
  type: "BatchNorm"
  bottom: "pool3"
  top: "conv3_1_bn"
  param {
    lr_mult: 0
  }
  param {
    lr_mult: 0
  }
  param {
    lr_mult: 0
  }
}
layer {
  name: "conv3_1_bn_scale"
  type: "Scale"
  bottom: "conv3_1_bn"
  top: "conv3_1_bn"
  scale_param {
    bias_term: true
  }
}
layer {
  name: "conv3_1_relu"
  type: "ReLU"
  bottom: "conv3_1_bn"
  top: "conv3_1_bn"
}
layer {
  name: "conv4_1"
  type: "Convolution"
  bottom: "conv3_1_bn"
  top: "conv4_1"
  param {
    lr_mult: 1
    decay_mult: 1
  }
  convolution_param {
    num_output: 64
    bias_term: false
    pad: 1
    kernel_size: 3
    stride: 1
    weight_filler {
      type: "gaussian"
      std: 0.01
    }
  }
}
layer {
  name: "pool4"
  type: "Pooling"
  bottom: "conv4_1"
  top: "pool4"
  pooling_param {
    pool: MAX
    kernel_size: 2
    stride: 2
  }
}
layer {
  name: "conv4_1_bn"
  type: "BatchNorm"
  bottom: "pool4"
  top: "conv4_1_bn"
  param {
    lr_mult: 0
  }
  param {
    lr_mult: 0
  }
  param {
    lr_mult: 0
  }
}
layer {
  name: "conv4_1_bn_scale"
  type: "Scale"
  bottom: "conv4_1_bn"
  top: "conv4_1_bn"
  scale_param {
    bias_term: true
  }
}
layer {
  name: "conv4_1_relu"
  type: "ReLU"
  bottom: "conv4_1_bn"
  top: "conv4_1_bn"
}
layer {
  name: "conv5_1"
  type: "Convolution"
  bottom: "conv4_1_bn"
  top: "conv5_1"
  param {
    lr_mult: 1
    decay_mult: 1
  }
  convolution_param {
    num_output: 64
    bias_term: false
    pad: 0
    kernel_size: 3
    stride: 1
    weight_filler {
      type: "gaussian"
      std: 0.01
    }
  }
}
layer {
  name: "conv5_1_bn"
  type: "BatchNorm"
  bottom: "conv5_1"
  top: "conv5_1_bn"
  param {
    lr_mult: 0
  }
  param {
    lr_mult: 0
  }
  param {
    lr_mult: 0
  }
}
layer {
  name: "conv5_1_bn_scale"
  type: "Scale"
  bottom: "conv5_1_bn"
  top: "conv5_1_bn"
  scale_param {
    bias_term: true
  }
}
layer {
  name: "conv5_1_relu"
  type: "ReLU"
  bottom: "conv5_1_bn"
  top: "conv5_1_bn"
}
layer {
  name: "conv6_1"
  type: "Convolution"
  bottom: "conv5_1_bn"
  top: "conv6_1"
  param {
    lr_mult: 1
    decay_mult: 1
  }
  convolution_param {
    num_output: 64
    bias_term: false
    pad: 0
    kernel_size: 3
    stride: 1
    weight_filler {
      type: "gaussian"
      std: 0.01
    }
  }
}
layer {
  name: "conv6_1_bn"
  type: "BatchNorm"
  bottom: "conv6_1"
  top: "conv6_1_bn"
  param {
    lr_mult: 0
  }
  param {
    lr_mult: 0
  }
  param {
    lr_mult: 0
  }
}
layer {
  name: "conv6_1_bn_scale"
  type: "Scale"
  bottom: "conv6_1_bn"
  top: "conv6_1_bn"
  scale_param {
    bias_term: true
  }
}
layer {
  name: "conv6_1_relu"
  type: "ReLU"
  bottom: "conv6_1_bn"
  top: "conv6_1_bn"
}
layer {
  name: "conv7_1"
  type: "Convolution"
  bottom: "conv6_1_bn"
  top: "conv7_1"
  param {
    lr_mult: 1
    decay_mult: 1
  }
  convolution_param {
    num_output: 128
    bias_term: false
    pad: 0
    kernel_size: 3
    stride: 1
    weight_filler {
      type: "gaussian"
      std: 0.01
    }
  }
}
layer {
  name: "conv7_1_bn"
  type: "BatchNorm"
  bottom: "conv7_1"
  top: "conv7_1_bn"
  param {
    lr_mult: 0
  }
  param {
    lr_mult: 0
  }
  param {
    lr_mult: 0
  }
}
layer {
  name: "conv7_1_bn_scale"
  type: "Scale"
  bottom: "conv7_1_bn"
  top: "conv7_1_bn"
  scale_param {
    bias_term: true
  }
}
layer {
  name: "conv7_1_relu"
  type: "ReLU"
  bottom: "conv7_1_bn"
  top: "conv7_1_bn"
}
layer {
  name: "concat"
  type: "Concat"
  bottom: "conv7_1_bn"
  bottom: "face_mask_pool"
  top: "conv7_concat"
  concat_param {
    axis: 1
  }
}
layer {
  name: "score"
  type: "Convolution"
  bottom: "conv7_concat"
  top: "score"
  param {
    lr_mult: 1
    decay_mult: 1
  }
  param {
    lr_mult: 2
    decay_mult: 0
  }
  convolution_param {
    num_output: 4
    pad: 0
    kernel_size: 1
    stride: 1
    weight_filler {
      type: "gaussian"
      std: 0.01
    }
    bias_filler {
      type: "constant"
    }
  }
}
layer {
  name: "upscore"
  type: "Deconvolution"
  bottom: "score"
  top: "upscore"
  param {
    lr_mult: 1
    decay_mult: 1
  }
  convolution_param {
    num_output: 4
    bias_term: false
    pad: 0
    kernel_size: 32
    stride: 16
    weight_filler {
      type: "gaussian"
      std: 0.01
    }
  }
}
layer {
  name: "cropscore"
  type: "Crop"
  bottom: "upscore"
  bottom: "image"
  top: "cropscore"
  crop_param {
    axis: 2
    offset: 12
  }
}
layer {
  name: "loss"
  type: "SoftmaxWithLoss"
  bottom: "cropscore"
  bottom: "label"
  top: "loss"
  loss_weight: 1
  loss_param {
    normalize: false
  }
}
layer {
  name: "accuracy"
  type: "Accuracy"
  bottom: "cropscore"
  bottom: "label"
  top: "accuracy"
}
I0909 13:23:30.479219 14457 layer_factory.hpp:77] Creating layer data
I0909 13:23:30.479691 14457 net.cpp:100] Creating Layer data
I0909 13:23:30.479701 14457 net.cpp:408] data -> image
I0909 13:23:30.479730 14457 net.cpp:408] data -> label
I0909 13:23:30.480664 14461 db_lmdb.cpp:35] Opened lmdb /raid/xuehan/segmentation_wfm_train_split
I0909 13:23:30.480859 14457 seg_data_layer.cpp:38] 200 200 5
I0909 13:23:30.488118 14457 seg_data_layer.cpp:51] output data size: 128,4,200,200
I0909 13:23:30.488175 14457 seg_data_layer.cpp:63] output label size: 128,1,200,200
I0909 13:23:30.617200 14457 net.cpp:150] Setting up data
I0909 13:23:30.617230 14457 net.cpp:157] Top shape: 128 4 200 200 (20480000)
I0909 13:23:30.617235 14457 net.cpp:157] Top shape: 128 1 200 200 (5120000)
I0909 13:23:30.617238 14457 net.cpp:165] Memory required for data: 102400000
I0909 13:23:30.617249 14457 layer_factory.hpp:77] Creating layer image_data_0_split
I0909 13:23:30.617262 14457 net.cpp:100] Creating Layer image_data_0_split
I0909 13:23:30.617267 14457 net.cpp:434] image_data_0_split <- image
I0909 13:23:30.617276 14457 net.cpp:408] image_data_0_split -> image_data_0_split_0
I0909 13:23:30.617285 14457 net.cpp:408] image_data_0_split -> image_data_0_split_1
I0909 13:23:30.617324 14457 net.cpp:150] Setting up image_data_0_split
I0909 13:23:30.617331 14457 net.cpp:157] Top shape: 128 4 200 200 (20480000)
I0909 13:23:30.617333 14457 net.cpp:157] Top shape: 128 4 200 200 (20480000)
I0909 13:23:30.617336 14457 net.cpp:165] Memory required for data: 266240000
I0909 13:23:30.617339 14457 layer_factory.hpp:77] Creating layer label_data_1_split
I0909 13:23:30.617344 14457 net.cpp:100] Creating Layer label_data_1_split
I0909 13:23:30.617347 14457 net.cpp:434] label_data_1_split <- label
I0909 13:23:30.617352 14457 net.cpp:408] label_data_1_split -> label_data_1_split_0
I0909 13:23:30.617357 14457 net.cpp:408] label_data_1_split -> label_data_1_split_1
I0909 13:23:30.617378 14457 net.cpp:150] Setting up label_data_1_split
I0909 13:23:30.617383 14457 net.cpp:157] Top shape: 128 1 200 200 (5120000)
I0909 13:23:30.617386 14457 net.cpp:157] Top shape: 128 1 200 200 (5120000)
I0909 13:23:30.617388 14457 net.cpp:165] Memory required for data: 307200000
I0909 13:23:30.617391 14457 layer_factory.hpp:77] Creating layer slicer_data
I0909 13:23:30.617398 14457 net.cpp:100] Creating Layer slicer_data
I0909 13:23:30.617401 14457 net.cpp:434] slicer_data <- image_data_0_split_0
I0909 13:23:30.617404 14457 net.cpp:408] slicer_data -> image_bgr
I0909 13:23:30.617411 14457 net.cpp:408] slicer_data -> face_mask
I0909 13:23:30.617437 14457 net.cpp:150] Setting up slicer_data
I0909 13:23:30.617441 14457 net.cpp:157] Top shape: 128 3 200 200 (15360000)
I0909 13:23:30.617444 14457 net.cpp:157] Top shape: 128 1 200 200 (5120000)
I0909 13:23:30.617447 14457 net.cpp:165] Memory required for data: 389120000
I0909 13:23:30.617450 14457 layer_factory.hpp:77] Creating layer pool_mask
I0909 13:23:30.617458 14457 net.cpp:100] Creating Layer pool_mask
I0909 13:23:30.617462 14457 net.cpp:434] pool_mask <- face_mask
I0909 13:23:30.617465 14457 net.cpp:408] pool_mask -> face_mask_pool
I0909 13:23:30.617489 14457 net.cpp:150] Setting up pool_mask
I0909 13:23:30.617494 14457 net.cpp:157] Top shape: 128 1 13 13 (21632)
I0909 13:23:30.617497 14457 net.cpp:165] Memory required for data: 389206528
I0909 13:23:30.617501 14457 layer_factory.hpp:77] Creating layer conv1_1
I0909 13:23:30.617513 14457 net.cpp:100] Creating Layer conv1_1
I0909 13:23:30.617516 14457 net.cpp:434] conv1_1 <- image_bgr
I0909 13:23:30.617522 14457 net.cpp:408] conv1_1 -> conv1_1
I0909 13:23:30.617662 14457 net.cpp:150] Setting up conv1_1
I0909 13:23:30.617668 14457 net.cpp:157] Top shape: 128 8 298 298 (90935296)
I0909 13:23:30.617671 14457 net.cpp:165] Memory required for data: 752947712
I0909 13:23:30.617681 14457 layer_factory.hpp:77] Creating layer pool1
I0909 13:23:30.617693 14457 net.cpp:100] Creating Layer pool1
I0909 13:23:30.617703 14457 net.cpp:434] pool1 <- conv1_1
I0909 13:23:30.617707 14457 net.cpp:408] pool1 -> pool1
I0909 13:23:30.617733 14457 net.cpp:150] Setting up pool1
I0909 13:23:30.617738 14457 net.cpp:157] Top shape: 128 8 149 149 (22733824)
I0909 13:23:30.617740 14457 net.cpp:165] Memory required for data: 843883008
I0909 13:23:30.617743 14457 layer_factory.hpp:77] Creating layer conv1_1_bn
I0909 13:23:30.617748 14457 net.cpp:100] Creating Layer conv1_1_bn
I0909 13:23:30.617751 14457 net.cpp:434] conv1_1_bn <- pool1
I0909 13:23:30.617755 14457 net.cpp:408] conv1_1_bn -> conv1_1_bn
I0909 13:23:30.618309 14457 net.cpp:150] Setting up conv1_1_bn
I0909 13:23:30.618319 14457 net.cpp:157] Top shape: 128 8 149 149 (22733824)
I0909 13:23:30.618322 14457 net.cpp:165] Memory required for data: 934818304
I0909 13:23:30.618333 14457 layer_factory.hpp:77] Creating layer conv1_1_bn_scale
I0909 13:23:30.618341 14457 net.cpp:100] Creating Layer conv1_1_bn_scale
I0909 13:23:30.618345 14457 net.cpp:434] conv1_1_bn_scale <- conv1_1_bn
I0909 13:23:30.618350 14457 net.cpp:395] conv1_1_bn_scale -> conv1_1_bn (in-place)
I0909 13:23:30.626305 14457 layer_factory.hpp:77] Creating layer conv1_1_bn_scale
I0909 13:23:30.626410 14457 net.cpp:150] Setting up conv1_1_bn_scale
I0909 13:23:30.626418 14457 net.cpp:157] Top shape: 128 8 149 149 (22733824)
I0909 13:23:30.626421 14457 net.cpp:165] Memory required for data: 1025753600
I0909 13:23:30.626428 14457 layer_factory.hpp:77] Creating layer conv1_1_relu
I0909 13:23:30.626435 14457 net.cpp:100] Creating Layer conv1_1_relu
I0909 13:23:30.626437 14457 net.cpp:434] conv1_1_relu <- conv1_1_bn
I0909 13:23:30.626441 14457 net.cpp:395] conv1_1_relu -> conv1_1_bn (in-place)
I0909 13:23:30.626446 14457 net.cpp:150] Setting up conv1_1_relu
I0909 13:23:30.626449 14457 net.cpp:157] Top shape: 128 8 149 149 (22733824)
I0909 13:23:30.626452 14457 net.cpp:165] Memory required for data: 1116688896
I0909 13:23:30.626456 14457 layer_factory.hpp:77] Creating layer conv2_1
I0909 13:23:30.626462 14457 net.cpp:100] Creating Layer conv2_1
I0909 13:23:30.626466 14457 net.cpp:434] conv2_1 <- conv1_1_bn
I0909 13:23:30.626471 14457 net.cpp:408] conv2_1 -> conv2_1
I0909 13:23:30.626992 14457 net.cpp:150] Setting up conv2_1
I0909 13:23:30.627002 14457 net.cpp:157] Top shape: 128 16 149 149 (45467648)
I0909 13:23:30.627005 14457 net.cpp:165] Memory required for data: 1298559488
I0909 13:23:30.627009 14457 layer_factory.hpp:77] Creating layer pool2
I0909 13:23:30.627015 14457 net.cpp:100] Creating Layer pool2
I0909 13:23:30.627018 14457 net.cpp:434] pool2 <- conv2_1
I0909 13:23:30.627023 14457 net.cpp:408] pool2 -> pool2
I0909 13:23:30.627048 14457 net.cpp:150] Setting up pool2
I0909 13:23:30.627051 14457 net.cpp:157] Top shape: 128 16 75 75 (11520000)
I0909 13:23:30.627054 14457 net.cpp:165] Memory required for data: 1344639488
I0909 13:23:30.627056 14457 layer_factory.hpp:77] Creating layer conv2_1_bn
I0909 13:23:30.627063 14457 net.cpp:100] Creating Layer conv2_1_bn
I0909 13:23:30.627065 14457 net.cpp:434] conv2_1_bn <- pool2
I0909 13:23:30.627069 14457 net.cpp:408] conv2_1_bn -> conv2_1_bn
I0909 13:23:30.627558 14457 net.cpp:150] Setting up conv2_1_bn
I0909 13:23:30.627568 14457 net.cpp:157] Top shape: 128 16 75 75 (11520000)
I0909 13:23:30.627569 14457 net.cpp:165] Memory required for data: 1390719488
I0909 13:23:30.627579 14457 layer_factory.hpp:77] Creating layer conv2_1_bn_scale
I0909 13:23:30.627585 14457 net.cpp:100] Creating Layer conv2_1_bn_scale
I0909 13:23:30.627588 14457 net.cpp:434] conv2_1_bn_scale <- conv2_1_bn
I0909 13:23:30.627593 14457 net.cpp:395] conv2_1_bn_scale -> conv2_1_bn (in-place)
I0909 13:23:30.627617 14457 layer_factory.hpp:77] Creating layer conv2_1_bn_scale
I0909 13:23:30.627693 14457 net.cpp:150] Setting up conv2_1_bn_scale
I0909 13:23:30.627699 14457 net.cpp:157] Top shape: 128 16 75 75 (11520000)
I0909 13:23:30.627701 14457 net.cpp:165] Memory required for data: 1436799488
I0909 13:23:30.627707 14457 layer_factory.hpp:77] Creating layer conv2_1_relu
I0909 13:23:30.627723 14457 net.cpp:100] Creating Layer conv2_1_relu
I0909 13:23:30.627727 14457 net.cpp:434] conv2_1_relu <- conv2_1_bn
I0909 13:23:30.627732 14457 net.cpp:395] conv2_1_relu -> conv2_1_bn (in-place)
I0909 13:23:30.627737 14457 net.cpp:150] Setting up conv2_1_relu
I0909 13:23:30.627742 14457 net.cpp:157] Top shape: 128 16 75 75 (11520000)
I0909 13:23:30.627743 14457 net.cpp:165] Memory required for data: 1482879488
I0909 13:23:30.627746 14457 layer_factory.hpp:77] Creating layer conv3_1
I0909 13:23:30.627753 14457 net.cpp:100] Creating Layer conv3_1
I0909 13:23:30.627756 14457 net.cpp:434] conv3_1 <- conv2_1_bn
I0909 13:23:30.627761 14457 net.cpp:408] conv3_1 -> conv3_1
I0909 13:23:30.627985 14457 net.cpp:150] Setting up conv3_1
I0909 13:23:30.627992 14457 net.cpp:157] Top shape: 128 32 75 75 (23040000)
I0909 13:23:30.627995 14457 net.cpp:165] Memory required for data: 1575039488
I0909 13:23:30.628000 14457 layer_factory.hpp:77] Creating layer pool3
I0909 13:23:30.628006 14457 net.cpp:100] Creating Layer pool3
I0909 13:23:30.628010 14457 net.cpp:434] pool3 <- conv3_1
I0909 13:23:30.628013 14457 net.cpp:408] pool3 -> pool3
I0909 13:23:30.628038 14457 net.cpp:150] Setting up pool3
I0909 13:23:30.628043 14457 net.cpp:157] Top shape: 128 32 38 38 (5914624)
I0909 13:23:30.628046 14457 net.cpp:165] Memory required for data: 1598697984
I0909 13:23:30.628049 14457 layer_factory.hpp:77] Creating layer conv3_1_bn
I0909 13:23:30.628054 14457 net.cpp:100] Creating Layer conv3_1_bn
I0909 13:23:30.628057 14457 net.cpp:434] conv3_1_bn <- pool3
I0909 13:23:30.628062 14457 net.cpp:408] conv3_1_bn -> conv3_1_bn
I0909 13:23:30.628183 14457 net.cpp:150] Setting up conv3_1_bn
I0909 13:23:30.628188 14457 net.cpp:157] Top shape: 128 32 38 38 (5914624)
I0909 13:23:30.628191 14457 net.cpp:165] Memory required for data: 1622356480
I0909 13:23:30.628196 14457 layer_factory.hpp:77] Creating layer conv3_1_bn_scale
I0909 13:23:30.628201 14457 net.cpp:100] Creating Layer conv3_1_bn_scale
I0909 13:23:30.628204 14457 net.cpp:434] conv3_1_bn_scale <- conv3_1_bn
I0909 13:23:30.628208 14457 net.cpp:395] conv3_1_bn_scale -> conv3_1_bn (in-place)
I0909 13:23:30.628231 14457 layer_factory.hpp:77] Creating layer conv3_1_bn_scale
I0909 13:23:30.628304 14457 net.cpp:150] Setting up conv3_1_bn_scale
I0909 13:23:30.628309 14457 net.cpp:157] Top shape: 128 32 38 38 (5914624)
I0909 13:23:30.628311 14457 net.cpp:165] Memory required for data: 1646014976
I0909 13:23:30.628319 14457 layer_factory.hpp:77] Creating layer conv3_1_relu
I0909 13:23:30.628324 14457 net.cpp:100] Creating Layer conv3_1_relu
I0909 13:23:30.628326 14457 net.cpp:434] conv3_1_relu <- conv3_1_bn
I0909 13:23:30.628330 14457 net.cpp:395] conv3_1_relu -> conv3_1_bn (in-place)
I0909 13:23:30.628334 14457 net.cpp:150] Setting up conv3_1_relu
I0909 13:23:30.628339 14457 net.cpp:157] Top shape: 128 32 38 38 (5914624)
I0909 13:23:30.628340 14457 net.cpp:165] Memory required for data: 1669673472
I0909 13:23:30.628343 14457 layer_factory.hpp:77] Creating layer conv4_1
I0909 13:23:30.628350 14457 net.cpp:100] Creating Layer conv4_1
I0909 13:23:30.628353 14457 net.cpp:434] conv4_1 <- conv3_1_bn
I0909 13:23:30.628357 14457 net.cpp:408] conv4_1 -> conv4_1
I0909 13:23:30.628862 14457 net.cpp:150] Setting up conv4_1
I0909 13:23:30.628868 14457 net.cpp:157] Top shape: 128 64 38 38 (11829248)
I0909 13:23:30.628871 14457 net.cpp:165] Memory required for data: 1716990464
I0909 13:23:30.628875 14457 layer_factory.hpp:77] Creating layer pool4
I0909 13:23:30.628880 14457 net.cpp:100] Creating Layer pool4
I0909 13:23:30.628882 14457 net.cpp:434] pool4 <- conv4_1
I0909 13:23:30.628886 14457 net.cpp:408] pool4 -> pool4
I0909 13:23:30.628909 14457 net.cpp:150] Setting up pool4
I0909 13:23:30.628913 14457 net.cpp:157] Top shape: 128 64 19 19 (2957312)
I0909 13:23:30.628916 14457 net.cpp:165] Memory required for data: 1728819712
I0909 13:23:30.628918 14457 layer_factory.hpp:77] Creating layer conv4_1_bn
I0909 13:23:30.628924 14457 net.cpp:100] Creating Layer conv4_1_bn
I0909 13:23:30.628931 14457 net.cpp:434] conv4_1_bn <- pool4
I0909 13:23:30.628939 14457 net.cpp:408] conv4_1_bn -> conv4_1_bn
I0909 13:23:30.629442 14457 net.cpp:150] Setting up conv4_1_bn
I0909 13:23:30.629452 14457 net.cpp:157] Top shape: 128 64 19 19 (2957312)
I0909 13:23:30.629456 14457 net.cpp:165] Memory required for data: 1740648960
I0909 13:23:30.629462 14457 layer_factory.hpp:77] Creating layer conv4_1_bn_scale
I0909 13:23:30.629467 14457 net.cpp:100] Creating Layer conv4_1_bn_scale
I0909 13:23:30.629470 14457 net.cpp:434] conv4_1_bn_scale <- conv4_1_bn
I0909 13:23:30.629475 14457 net.cpp:395] conv4_1_bn_scale -> conv4_1_bn (in-place)
I0909 13:23:30.629500 14457 layer_factory.hpp:77] Creating layer conv4_1_bn_scale
I0909 13:23:30.629576 14457 net.cpp:150] Setting up conv4_1_bn_scale
I0909 13:23:30.629581 14457 net.cpp:157] Top shape: 128 64 19 19 (2957312)
I0909 13:23:30.629585 14457 net.cpp:165] Memory required for data: 1752478208
I0909 13:23:30.629590 14457 layer_factory.hpp:77] Creating layer conv4_1_relu
I0909 13:23:30.629593 14457 net.cpp:100] Creating Layer conv4_1_relu
I0909 13:23:30.629596 14457 net.cpp:434] conv4_1_relu <- conv4_1_bn
I0909 13:23:30.629601 14457 net.cpp:395] conv4_1_relu -> conv4_1_bn (in-place)
I0909 13:23:30.629606 14457 net.cpp:150] Setting up conv4_1_relu
I0909 13:23:30.629609 14457 net.cpp:157] Top shape: 128 64 19 19 (2957312)
I0909 13:23:30.629611 14457 net.cpp:165] Memory required for data: 1764307456
I0909 13:23:30.629614 14457 layer_factory.hpp:77] Creating layer conv5_1
I0909 13:23:30.629621 14457 net.cpp:100] Creating Layer conv5_1
I0909 13:23:30.629624 14457 net.cpp:434] conv5_1 <- conv4_1_bn
I0909 13:23:30.629628 14457 net.cpp:408] conv5_1 -> conv5_1
I0909 13:23:30.630537 14457 net.cpp:150] Setting up conv5_1
I0909 13:23:30.630543 14457 net.cpp:157] Top shape: 128 64 17 17 (2367488)
I0909 13:23:30.630547 14457 net.cpp:165] Memory required for data: 1773777408
I0909 13:23:30.630550 14457 layer_factory.hpp:77] Creating layer conv5_1_bn
I0909 13:23:30.630555 14457 net.cpp:100] Creating Layer conv5_1_bn
I0909 13:23:30.630558 14457 net.cpp:434] conv5_1_bn <- conv5_1
I0909 13:23:30.630563 14457 net.cpp:408] conv5_1_bn -> conv5_1_bn
I0909 13:23:30.630692 14457 net.cpp:150] Setting up conv5_1_bn
I0909 13:23:30.630697 14457 net.cpp:157] Top shape: 128 64 17 17 (2367488)
I0909 13:23:30.630699 14457 net.cpp:165] Memory required for data: 1783247360
I0909 13:23:30.630705 14457 layer_factory.hpp:77] Creating layer conv5_1_bn_scale
I0909 13:23:30.630710 14457 net.cpp:100] Creating Layer conv5_1_bn_scale
I0909 13:23:30.630713 14457 net.cpp:434] conv5_1_bn_scale <- conv5_1_bn
I0909 13:23:30.630717 14457 net.cpp:395] conv5_1_bn_scale -> conv5_1_bn (in-place)
I0909 13:23:30.630739 14457 layer_factory.hpp:77] Creating layer conv5_1_bn_scale
I0909 13:23:30.630811 14457 net.cpp:150] Setting up conv5_1_bn_scale
I0909 13:23:30.630816 14457 net.cpp:157] Top shape: 128 64 17 17 (2367488)
I0909 13:23:30.630820 14457 net.cpp:165] Memory required for data: 1792717312
I0909 13:23:30.630823 14457 layer_factory.hpp:77] Creating layer conv5_1_relu
I0909 13:23:30.630827 14457 net.cpp:100] Creating Layer conv5_1_relu
I0909 13:23:30.630831 14457 net.cpp:434] conv5_1_relu <- conv5_1_bn
I0909 13:23:30.630836 14457 net.cpp:395] conv5_1_relu -> conv5_1_bn (in-place)
I0909 13:23:30.630839 14457 net.cpp:150] Setting up conv5_1_relu
I0909 13:23:30.630842 14457 net.cpp:157] Top shape: 128 64 17 17 (2367488)
I0909 13:23:30.630846 14457 net.cpp:165] Memory required for data: 1802187264
I0909 13:23:30.630848 14457 layer_factory.hpp:77] Creating layer conv6_1
I0909 13:23:30.630853 14457 net.cpp:100] Creating Layer conv6_1
I0909 13:23:30.630856 14457 net.cpp:434] conv6_1 <- conv5_1_bn
I0909 13:23:30.630861 14457 net.cpp:408] conv6_1 -> conv6_1
I0909 13:23:30.631762 14457 net.cpp:150] Setting up conv6_1
I0909 13:23:30.631767 14457 net.cpp:157] Top shape: 128 64 15 15 (1843200)
I0909 13:23:30.631769 14457 net.cpp:165] Memory required for data: 1809560064
I0909 13:23:30.631773 14457 layer_factory.hpp:77] Creating layer conv6_1_bn
I0909 13:23:30.631785 14457 net.cpp:100] Creating Layer conv6_1_bn
I0909 13:23:30.631794 14457 net.cpp:434] conv6_1_bn <- conv6_1
I0909 13:23:30.631798 14457 net.cpp:408] conv6_1_bn -> conv6_1_bn
I0909 13:23:30.631924 14457 net.cpp:150] Setting up conv6_1_bn
I0909 13:23:30.631929 14457 net.cpp:157] Top shape: 128 64 15 15 (1843200)
I0909 13:23:30.631932 14457 net.cpp:165] Memory required for data: 1816932864
I0909 13:23:30.631943 14457 layer_factory.hpp:77] Creating layer conv6_1_bn_scale
I0909 13:23:30.631948 14457 net.cpp:100] Creating Layer conv6_1_bn_scale
I0909 13:23:30.631952 14457 net.cpp:434] conv6_1_bn_scale <- conv6_1_bn
I0909 13:23:30.631956 14457 net.cpp:395] conv6_1_bn_scale -> conv6_1_bn (in-place)
I0909 13:23:30.631978 14457 layer_factory.hpp:77] Creating layer conv6_1_bn_scale
I0909 13:23:30.632050 14457 net.cpp:150] Setting up conv6_1_bn_scale
I0909 13:23:30.632055 14457 net.cpp:157] Top shape: 128 64 15 15 (1843200)
I0909 13:23:30.632058 14457 net.cpp:165] Memory required for data: 1824305664
I0909 13:23:30.632062 14457 layer_factory.hpp:77] Creating layer conv6_1_relu
I0909 13:23:30.632071 14457 net.cpp:100] Creating Layer conv6_1_relu
I0909 13:23:30.632073 14457 net.cpp:434] conv6_1_relu <- conv6_1_bn
I0909 13:23:30.632078 14457 net.cpp:395] conv6_1_relu -> conv6_1_bn (in-place)
I0909 13:23:30.632082 14457 net.cpp:150] Setting up conv6_1_relu
I0909 13:23:30.632086 14457 net.cpp:157] Top shape: 128 64 15 15 (1843200)
I0909 13:23:30.632088 14457 net.cpp:165] Memory required for data: 1831678464
I0909 13:23:30.632091 14457 layer_factory.hpp:77] Creating layer conv7_1
I0909 13:23:30.632098 14457 net.cpp:100] Creating Layer conv7_1
I0909 13:23:30.632102 14457 net.cpp:434] conv7_1 <- conv6_1_bn
I0909 13:23:30.632105 14457 net.cpp:408] conv7_1 -> conv7_1
I0909 13:23:30.634179 14457 net.cpp:150] Setting up conv7_1
I0909 13:23:30.634193 14457 net.cpp:157] Top shape: 128 128 13 13 (2768896)
I0909 13:23:30.634196 14457 net.cpp:165] Memory required for data: 1842754048
I0909 13:23:30.634201 14457 layer_factory.hpp:77] Creating layer conv7_1_bn
I0909 13:23:30.634207 14457 net.cpp:100] Creating Layer conv7_1_bn
I0909 13:23:30.634210 14457 net.cpp:434] conv7_1_bn <- conv7_1
I0909 13:23:30.634215 14457 net.cpp:408] conv7_1_bn -> conv7_1_bn
I0909 13:23:30.634336 14457 net.cpp:150] Setting up conv7_1_bn
I0909 13:23:30.634341 14457 net.cpp:157] Top shape: 128 128 13 13 (2768896)
I0909 13:23:30.634344 14457 net.cpp:165] Memory required for data: 1853829632
I0909 13:23:30.634349 14457 layer_factory.hpp:77] Creating layer conv7_1_bn_scale
I0909 13:23:30.634356 14457 net.cpp:100] Creating Layer conv7_1_bn_scale
I0909 13:23:30.634358 14457 net.cpp:434] conv7_1_bn_scale <- conv7_1_bn
I0909 13:23:30.634362 14457 net.cpp:395] conv7_1_bn_scale -> conv7_1_bn (in-place)
I0909 13:23:30.634392 14457 layer_factory.hpp:77] Creating layer conv7_1_bn_scale
I0909 13:23:30.634459 14457 net.cpp:150] Setting up conv7_1_bn_scale
I0909 13:23:30.634464 14457 net.cpp:157] Top shape: 128 128 13 13 (2768896)
I0909 13:23:30.634467 14457 net.cpp:165] Memory required for data: 1864905216
I0909 13:23:30.634471 14457 layer_factory.hpp:77] Creating layer conv7_1_relu
I0909 13:23:30.634476 14457 net.cpp:100] Creating Layer conv7_1_relu
I0909 13:23:30.634479 14457 net.cpp:434] conv7_1_relu <- conv7_1_bn
I0909 13:23:30.634482 14457 net.cpp:395] conv7_1_relu -> conv7_1_bn (in-place)
I0909 13:23:30.634487 14457 net.cpp:150] Setting up conv7_1_relu
I0909 13:23:30.634491 14457 net.cpp:157] Top shape: 128 128 13 13 (2768896)
I0909 13:23:30.634493 14457 net.cpp:165] Memory required for data: 1875980800
I0909 13:23:30.634496 14457 layer_factory.hpp:77] Creating layer concat
I0909 13:23:30.634502 14457 net.cpp:100] Creating Layer concat
I0909 13:23:30.634505 14457 net.cpp:434] concat <- conv7_1_bn
I0909 13:23:30.634510 14457 net.cpp:434] concat <- face_mask_pool
I0909 13:23:30.634513 14457 net.cpp:408] concat -> conv7_concat
I0909 13:23:30.634533 14457 net.cpp:150] Setting up concat
I0909 13:23:30.634537 14457 net.cpp:157] Top shape: 128 129 13 13 (2790528)
I0909 13:23:30.634546 14457 net.cpp:165] Memory required for data: 1887142912
I0909 13:23:30.634555 14457 layer_factory.hpp:77] Creating layer score
I0909 13:23:30.634564 14457 net.cpp:100] Creating Layer score
I0909 13:23:30.634567 14457 net.cpp:434] score <- conv7_concat
I0909 13:23:30.634572 14457 net.cpp:408] score -> score
I0909 13:23:30.634732 14457 net.cpp:150] Setting up score
I0909 13:23:30.634737 14457 net.cpp:157] Top shape: 128 4 13 13 (86528)
I0909 13:23:30.634740 14457 net.cpp:165] Memory required for data: 1887489024
I0909 13:23:30.634745 14457 layer_factory.hpp:77] Creating layer upscore
I0909 13:23:30.634752 14457 net.cpp:100] Creating Layer upscore
I0909 13:23:30.634755 14457 net.cpp:434] upscore <- score
I0909 13:23:30.634760 14457 net.cpp:408] upscore -> upscore
I0909 13:23:30.635226 14457 net.cpp:150] Setting up upscore
I0909 13:23:30.635231 14457 net.cpp:157] Top shape: 128 4 224 224 (25690112)
I0909 13:23:30.635234 14457 net.cpp:165] Memory required for data: 1990249472
I0909 13:23:30.635238 14457 layer_factory.hpp:77] Creating layer cropscore
I0909 13:23:30.635243 14457 net.cpp:100] Creating Layer cropscore
I0909 13:23:30.635246 14457 net.cpp:434] cropscore <- upscore
I0909 13:23:30.635251 14457 net.cpp:434] cropscore <- image_data_0_split_1
I0909 13:23:30.635256 14457 net.cpp:408] cropscore -> cropscore
I0909 13:23:30.635273 14457 net.cpp:150] Setting up cropscore
I0909 13:23:30.635277 14457 net.cpp:157] Top shape: 128 4 200 200 (20480000)
I0909 13:23:30.635279 14457 net.cpp:165] Memory required for data: 2072169472
I0909 13:23:30.635282 14457 layer_factory.hpp:77] Creating layer cropscore_cropscore_0_split
I0909 13:23:30.635288 14457 net.cpp:100] Creating Layer cropscore_cropscore_0_split
I0909 13:23:30.635290 14457 net.cpp:434] cropscore_cropscore_0_split <- cropscore
I0909 13:23:30.635293 14457 net.cpp:408] cropscore_cropscore_0_split -> cropscore_cropscore_0_split_0
I0909 13:23:30.635298 14457 net.cpp:408] cropscore_cropscore_0_split -> cropscore_cropscore_0_split_1
I0909 13:23:30.635324 14457 net.cpp:150] Setting up cropscore_cropscore_0_split
I0909 13:23:30.635327 14457 net.cpp:157] Top shape: 128 4 200 200 (20480000)
I0909 13:23:30.635332 14457 net.cpp:157] Top shape: 128 4 200 200 (20480000)
I0909 13:23:30.635334 14457 net.cpp:165] Memory required for data: 2236009472
I0909 13:23:30.635337 14457 layer_factory.hpp:77] Creating layer loss
I0909 13:23:30.635342 14457 net.cpp:100] Creating Layer loss
I0909 13:23:30.635345 14457 net.cpp:434] loss <- cropscore_cropscore_0_split_0
I0909 13:23:30.635349 14457 net.cpp:434] loss <- label_data_1_split_0
I0909 13:23:30.635354 14457 net.cpp:408] loss -> loss
…
I0909 13:23:30.670712 14457 solver.cpp:181] Creating test net (#0) specified by net file: portrait_wfm_train_test_one_stage.prototxt2
I0909 13:23:30.670756 14457 net.cpp:322] The NetState phase (1) differed from the phase (0) specified by a rule in layer data
I0909 13:23:30.670918 14457 net.cpp:58] Initializing net from parameters: 
name: "segmentation"
state {
  phase: TEST
}
layer {
  name: "data"
  type: "SegData"
  top: "image"
  top: "label"
  include {
    phase: TEST
  }
  transform_param {
    crop_size: 200
  }
  data_param {
    source: "/raid/xuehan/segmentation_wfm_test_split"
    batch_size: 64
    backend: LMDB
  }
}
layer {
  name: "slicer_data"
  type: "Slice"
  bottom: "image"
  top: "image_bgr"
  top: "face_mask"
  slice_param {
    slice_point: 3
    axis: 1
  }
}
layer {
  name: "pool_mask"
  type: "Pooling"
  bottom: "face_mask"
  top: "face_mask_pool"
  pooling_param {
    pool: AVE
    kernel_size: 17
    stride: 16
    pad: 4
  }
}
layer {
  name: "conv1_1"
  type: "Convolution"
  bottom: "image_bgr"
  top: "conv1_1"
  param {
    lr_mult: 1
    decay_mult: 1
  }
  convolution_param {
    num_output: 8
    bias_term: false
    pad: 50
    kernel_size: 3
    stride: 1
    weight_filler {
      type: "gaussian"
      std: 0.01
    }
  }
}
layer {
  name: "pool1"
  type: "Pooling"
  bottom: "conv1_1"
  top: "pool1"
  pooling_param {
    pool: MAX
    kernel_size: 2
    stride: 2
  }
}
layer {
  name: "conv1_1_bn"
  type: "BatchNorm"
  bottom: "pool1"
  top: "conv1_1_bn"
  param {
    lr_mult: 0
  }
  param {
    lr_mult: 0
  }
  param {
    lr_mult: 0
  }
}
layer {
  name: "conv1_1_bn_scale"
  type: "Scale"
  bottom: "conv1_1_bn"
  top: "conv1_1_bn"
  scale_param {
    bias_term: true
  }
}
layer {
  name: "conv1_1_relu"
  type: "ReLU"
  bottom: "conv1_1_bn"
  top: "conv1_1_bn"
}
layer {
  name: "conv2_1"
  type: "Convolution"
  bottom: "conv1_1_bn"
  top: "conv2_1"
  param {
    lr_mult: 1
    decay_mult: 1
  }
  convolution_param {
    num_output: 16
    bias_term: false
    pad: 1
    kernel_size: 3
    stride: 1
    weight_filler {
      type: "gaussian"
      std: 0.01
    }
  }
}
layer {
  name: "pool2"
  type: "Pooling"
  bottom: "conv2_1"
  top: "pool2"
  pooling_param {
    pool: MAX
    kernel_size: 2
    stride: 2
  }
}
layer {
  name: "conv2_1_bn"
  type: "BatchNorm"
  bottom: "pool2"
  top: "conv2_1_bn"
  param {
    lr_mult: 0
  }
  param {
    lr_mult: 0
  }
  param {
    lr_mult: 0
  }
}
layer {
  name: "conv2_1_bn_scale"
  type: "Scale"
  bottom: "conv2_1_bn"
  top: "conv2_1_bn"
  scale_param {
    bias_term: true
  }
}
layer {
  name: "conv2_1_relu"
  type: "ReLU"
  bottom: "conv2_1_bn"
  top: "conv2_1_bn"
}
layer {
  name: "conv3_1"
  type: "Convolution"
  bottom: "conv2_1_bn"
  top: "conv3_1"
  param {
    lr_mult: 1
    decay_mult: 1
  }
  convolution_param {
    num_output: 32
    bias_term: false
    pad: 1
    kernel_size: 3
    stride: 1
    weight_filler {
      type: "gaussian"
      std: 0.01
    }
  }
}
layer {
  name: "pool3"
  type: "Pooling"
  bottom: "conv3_1"
  top: "pool3"
  pooling_param {
    pool: MAX
    kernel_size: 2
    stride: 2
  }
}
layer {
  name: "conv3_1_bn"
  type: "BatchNorm"
  bottom: "pool3"
  top: "conv3_1_bn"
  param {
    lr_mult: 0
  }
  param {
    lr_mult: 0
  }
  param {
    lr_mult: 0
  }
}
layer {
  name: "conv3_1_bn_scale"
  type: "Scale"
  bottom: "conv3_1_bn"
  top: "conv3_1_bn"
  scale_param {
    bias_term: true
  }
}
layer {
  name: "conv3_1_relu"
  type: "ReLU"
  bottom: "conv3_1_bn"
  top: "conv3_1_bn"
}
layer {
  name: "conv4_1"
  type: "Convolution"
  bottom: "conv3_1_bn"
  top: "conv4_1"
  param {
    lr_mult: 1
    decay_mult: 1
  }
  convolution_param {
    num_output: 64
    bias_term: false
    pad: 1
    kernel_size: 3
    stride: 1
    weight_filler {
      type: "gaussian"
      std: 0.01
    }
  }
}
layer {
  name: "pool4"
  type: "Pooling"
  bottom: "conv4_1"
  top: "pool4"
  pooling_param {
    pool: MAX
    kernel_size: 2
    stride: 2
  }
}
layer {
  name: "conv4_1_bn"
  type: "BatchNorm"
  bottom: "pool4"
  top: "conv4_1_bn"
  param {
    lr_mult: 0
  }
  param {
    lr_mult: 0
  }
  param {
    lr_mult: 0
  }
}
layer {
  name: "conv4_1_bn_scale"
  type: "Scale"
  bottom: "conv4_1_bn"
  top: "conv4_1_bn"
  scale_param {
    bias_term: true
  }
}
layer {
  name: "conv4_1_relu"
  type: "ReLU"
  bottom: "conv4_1_bn"
  top: "conv4_1_bn"
}
layer {
  name: "conv5_1"
  type: "Convolution"
  bottom: "conv4_1_bn"
  top: "conv5_1"
  param {
    lr_mult: 1
    decay_mult: 1
  }
  convolution_param {
    num_output: 64
    bias_term: false
    pad: 0
    kernel_size: 3
    stride: 1
    weight_filler {
      type: "gaussian"
      std: 0.01
    }
  }
}
layer {
  name: "conv5_1_bn"
  type: "BatchNorm"
  bottom: "conv5_1"
  top: "conv5_1_bn"
  param {
    lr_mult: 0
  }
  param {
    lr_mult: 0
  }
  param {
    lr_mult: 0
  }
}
layer {
  name: "conv5_1_bn_scale"
  type: "Scale"
  bottom: "conv5_1_bn"
  top: "conv5_1_bn"
  scale_param {
    bias_term: true
  }
}
layer {
  name: "conv5_1_relu"
  type: "ReLU"
  bottom: "conv5_1_bn"
  top: "conv5_1_bn"
}
layer {
  name: "conv6_1"
  type: "Convolution"
  bottom: "conv5_1_bn"
  top: "conv6_1"
  param {
    lr_mult: 1
    decay_mult: 1
  }
  convolution_param {
    num_output: 64
    bias_term: false
    pad: 0
    kernel_size: 3
    stride: 1
    weight_filler {
      type: "gaussian"
      std: 0.01
    }
  }
}
layer {
  name: "conv6_1_bn"
  type: "BatchNorm"
  bottom: "conv6_1"
  top: "conv6_1_bn"
  param {
    lr_mult: 0
  }
  param {
    lr_mult: 0
  }
  param {
    lr_mult: 0
  }
}
layer {
  name: "conv6_1_bn_scale"
  type: "Scale"
  bottom: "conv6_1_bn"
  top: "conv6_1_bn"
  scale_param {
    bias_term: true
  }
}
layer {
  name: "conv6_1_relu"
  type: "ReLU"
  bottom: "conv6_1_bn"
  top: "conv6_1_bn"
}
layer {
  name: "conv7_1"
  type: "Convolution"
  bottom: "conv6_1_bn"
  top: "conv7_1"
  param {
    lr_mult: 1
    decay_mult: 1
  }
  convolution_param {
    num_output: 128
    bias_term: false
    pad: 0
    kernel_size: 3
    stride: 1
    weight_filler {
      type: "gaussian"
      std: 0.01
    }
  }
}
layer {
  name: "conv7_1_bn"
  type: "BatchNorm"
  bottom: "conv7_1"
  top: "conv7_1_bn"
  param {
    lr_mult: 0
  }
  param {
    lr_mult: 0
  }
  param {
    lr_mult: 0
  }
}
layer {
  name: "conv7_1_bn_scale"
  type: "Scale"
  bottom: "conv7_1_bn"
  top: "conv7_1_bn"
  scale_param {
    bias_term: true
  }
}
layer {
  name: "conv7_1_relu"
  type: "ReLU"
  bottom: "conv7_1_bn"
  top: "conv7_1_bn"
}
layer {
  name: "concat"
  type: "Concat"
  bottom: "conv7_1_bn"
  bottom: "face_mask_pool"
  top: "conv7_concat"
  concat_param {
    axis: 1
  }
}
layer {
  name: "score"
  type: "Convolution"
  bottom: "conv7_concat"
  top: "score"
  param {
    lr_mult: 1
    decay_mult: 1
  }
  param {
    lr_mult: 2
    decay_mult: 0
  }
  convolution_param {
    num_output: 4
    pad: 0
    kernel_size: 1
    stride: 1
    weight_filler {
      type: "gaussian"
      std: 0.01
    }
    bias_filler {
      type: "constant"
    }
  }
}
layer {
  name: "upscore"
  type: "Deconvolution"
  bottom: "score"
  top: "upscore"
  param {
    lr_mult: 1
    decay_mult: 1
  }
  convolution_param {
    num_output: 4
    bias_term: false
    pad: 0
    kernel_size: 32
    stride: 16
    weight_filler {
      type: "gaussian"
      std: 0.01
    }
  }
}
layer {
  name: "cropscore"
  type: "Crop"
  bottom: "upscore"
  bottom: "image"
  top: "cropscore"
  crop_param {
    axis: 2
    offset: 12
  }
}
layer {
  name: "loss"
  type: "SoftmaxWithLoss"
  bottom: "cropscore"
  bottom: "label"
  top: "loss"
  loss_weight: 1
  loss_param {
    normalize: false
  }
}
layer {
  name: "accuracy"
  type: "Accuracy"
  bottom: "cropscore"
  bottom: "label"
  top: "accuracy"
}
I0909 13:23:30.671047 14457 layer_factory.hpp:77] Creating layer data
I0909 13:23:30.671123 14457 net.cpp:100] Creating Layer data
I0909 13:23:30.671146 14457 net.cpp:408] data -> image
I0909 13:23:30.671154 14457 net.cpp:408] data -> label
I0909 13:23:30.672199 14463 db_lmdb.cpp:35] Opened lmdb /raid/xuehan/segmentation_wfm_test_split
I0909 13:23:30.672381 14457 seg_data_layer.cpp:38] 200 200 5
I0909 13:23:30.672449 14457 seg_data_layer.cpp:51] output data size: 64,4,200,200
I0909 13:23:30.672492 14457 seg_data_layer.cpp:63] output label size: 64,1,200,200
I0909 13:23:30.743158 14457 net.cpp:150] Setting up data
I0909 13:23:30.743187 14457 net.cpp:157] Top shape: 64 4 200 200 (10240000)
I0909 13:23:30.743192 14457 net.cpp:157] Top shape: 64 1 200 200 (2560000)
I0909 13:23:30.743196 14457 net.cpp:165] Memory required for data: 51200000
I0909 13:23:30.743201 14457 layer_factory.hpp:77] Creating layer image_data_0_split
I0909 13:23:30.743212 14457 net.cpp:100] Creating Layer image_data_0_split
I0909 13:23:30.743216 14457 net.cpp:434] image_data_0_split <- image
I0909 13:23:30.743223 14457 net.cpp:408] image_data_0_split -> image_data_0_split_0
I0909 13:23:30.743232 14457 net.cpp:408] image_data_0_split -> image_data_0_split_1
I0909 13:23:30.743293 14457 net.cpp:150] Setting up image_data_0_split
I0909 13:23:30.743299 14457 net.cpp:157] Top shape: 64 4 200 200 (10240000)
I0909 13:23:30.743304 14457 net.cpp:157] Top shape: 64 4 200 200 (10240000)
I0909 13:23:30.743305 14457 net.cpp:165] Memory required for data: 133120000
I0909 13:23:30.743309 14457 layer_factory.hpp:77] Creating layer label_data_1_split
I0909 13:23:30.743314 14457 net.cpp:100] Creating Layer label_data_1_split
I0909 13:23:30.743316 14457 net.cpp:434] label_data_1_split <- label
I0909 13:23:30.743320 14457 net.cpp:408] label_data_1_split -> label_data_1_split_0
I0909 13:23:30.743325 14457 net.cpp:408] label_data_1_split -> label_data_1_split_1
I0909 13:23:30.743350 14457 net.cpp:150] Setting up label_data_1_split
I0909 13:23:30.743353 14457 net.cpp:157] Top shape: 64 1 200 200 (2560000)
I0909 13:23:30.743357 14457 net.cpp:157] Top shape: 64 1 200 200 (2560000)
I0909 13:23:30.743360 14457 net.cpp:165] Memory required for data: 153600000
I0909 13:23:30.743362 14457 layer_factory.hpp:77] Creating layer slicer_data
I0909 13:23:30.743368 14457 net.cpp:100] Creating Layer slicer_data
I0909 13:23:30.743371 14457 net.cpp:434] slicer_data <- image_data_0_split_0
I0909 13:23:30.743376 14457 net.cpp:408] slicer_data -> image_bgr
I0909 13:23:30.743381 14457 net.cpp:408] slicer_data -> face_mask
I0909 13:23:30.743407 14457 net.cpp:150] Setting up slicer_data
I0909 13:23:30.743410 14457 net.cpp:157] Top shape: 64 3 200 200 (7680000)
I0909 13:23:30.743414 14457 net.cpp:157] Top shape: 64 1 200 200 (2560000)
I0909 13:23:30.743417 14457 net.cpp:165] Memory required for data: 194560000
I0909 13:23:30.743419 14457 layer_factory.hpp:77] Creating layer pool_mask
I0909 13:23:30.743427 14457 net.cpp:100] Creating Layer pool_mask
I0909 13:23:30.743429 14457 net.cpp:434] pool_mask <- face_mask
I0909 13:23:30.743433 14457 net.cpp:408] pool_mask -> face_mask_pool
I0909 13:23:30.743451 14457 net.cpp:150] Setting up pool_mask
I0909 13:23:30.743455 14457 net.cpp:157] Top shape: 64 1 13 13 (10816)
I0909 13:23:30.743458 14457 net.cpp:165] Memory required for data: 194603264
I0909 13:23:30.743460 14457 layer_factory.hpp:77] Creating layer conv1_1
I0909 13:23:30.743470 14457 net.cpp:100] Creating Layer conv1_1
I0909 13:23:30.743474 14457 net.cpp:434] conv1_1 <- image_bgr
I0909 13:23:30.743477 14457 net.cpp:408] conv1_1 -> conv1_1
I0909 13:23:30.743613 14457 net.cpp:150] Setting up conv1_1
I0909 13:23:30.743618 14457 net.cpp:157] Top shape: 64 8 298 298 (45467648)
I0909 13:23:30.743621 14457 net.cpp:165] Memory required for data: 376473856
I0909 13:23:30.743628 14457 layer_factory.hpp:77] Creating layer pool1
I0909 13:23:30.743633 14457 net.cpp:100] Creating Layer pool1
I0909 13:23:30.743636 14457 net.cpp:434] pool1 <- conv1_1
I0909 13:23:30.743640 14457 net.cpp:408] pool1 -> pool1
I0909 13:23:30.743664 14457 net.cpp:150] Setting up pool1
I0909 13:23:30.743669 14457 net.cpp:157] Top shape: 64 8 149 149 (11366912)
I0909 13:23:30.743671 14457 net.cpp:165] Memory required for data: 421941504
I0909 13:23:30.743674 14457 layer_factory.hpp:77] Creating layer conv1_1_bn
I0909 13:23:30.743680 14457 net.cpp:100] Creating Layer conv1_1_bn
I0909 13:23:30.743683 14457 net.cpp:434] conv1_1_bn <- pool1
I0909 13:23:30.743687 14457 net.cpp:408] conv1_1_bn -> conv1_1_bn
I0909 13:23:30.743835 14457 net.cpp:150] Setting up conv1_1_bn
I0909 13:23:30.743841 14457 net.cpp:157] Top shape: 64 8 149 149 (11366912)
I0909 13:23:30.743844 14457 net.cpp:165] Memory required for data: 467409152
I0909 13:23:30.743852 14457 layer_factory.hpp:77] Creating layer conv1_1_bn_scale
I0909 13:23:30.743860 14457 net.cpp:100] Creating Layer conv1_1_bn_scale
I0909 13:23:30.743862 14457 net.cpp:434] conv1_1_bn_scale <- conv1_1_bn
I0909 13:23:30.743866 14457 net.cpp:395] conv1_1_bn_scale -> conv1_1_bn (in-place)
I0909 13:23:30.743896 14457 layer_factory.hpp:77] Creating layer conv1_1_bn_scale
I0909 13:23:30.744002 14457 net.cpp:150] Setting up conv1_1_bn_scale
I0909 13:23:30.744009 14457 net.cpp:157] Top shape: 64 8 149 149 (11366912)
I0909 13:23:30.744017 14457 net.cpp:165] Memory required for data: 512876800
I0909 13:23:30.744024 14457 layer_factory.hpp:77] Creating layer conv1_1_relu
I0909 13:23:30.744031 14457 net.cpp:100] Creating Layer conv1_1_relu
I0909 13:23:30.744035 14457 net.cpp:434] conv1_1_relu <- conv1_1_bn
I0909 13:23:30.744038 14457 net.cpp:395] conv1_1_relu -> conv1_1_bn (in-place)
I0909 13:23:30.744043 14457 net.cpp:150] Setting up conv1_1_relu
I0909 13:23:30.744046 14457 net.cpp:157] Top shape: 64 8 149 149 (11366912)
I0909 13:23:30.744050 14457 net.cpp:165] Memory required for data: 558344448
I0909 13:23:30.744051 14457 layer_factory.hpp:77] Creating layer conv2_1
I0909 13:23:30.744058 14457 net.cpp:100] Creating Layer conv2_1
I0909 13:23:30.744061 14457 net.cpp:434] conv2_1 <- conv1_1_bn
I0909 13:23:30.744066 14457 net.cpp:408] conv2_1 -> conv2_1
I0909 13:23:30.744245 14457 net.cpp:150] Setting up conv2_1
I0909 13:23:30.744252 14457 net.cpp:157] Top shape: 64 16 149 149 (22733824)
I0909 13:23:30.744256 14457 net.cpp:165] Memory required for data: 649279744
I0909 13:23:30.744259 14457 layer_factory.hpp:77] Creating layer pool2
I0909 13:23:30.744266 14457 net.cpp:100] Creating Layer pool2
I0909 13:23:30.744268 14457 net.cpp:434] pool2 <- conv2_1
I0909 13:23:30.744272 14457 net.cpp:408] pool2 -> pool2
I0909 13:23:30.748855 14457 net.cpp:150] Setting up pool2
I0909 13:23:30.748870 14457 net.cpp:157] Top shape: 64 16 75 75 (5760000)
I0909 13:23:30.748874 14457 net.cpp:165] Memory required for data: 672319744
I0909 13:23:30.748878 14457 layer_factory.hpp:77] Creating layer conv2_1_bn
I0909 13:23:30.748883 14457 net.cpp:100] Creating Layer conv2_1_bn
I0909 13:23:30.748888 14457 net.cpp:434] conv2_1_bn <- pool2
I0909 13:23:30.748893 14457 net.cpp:408] conv2_1_bn -> conv2_1_bn
I0909 13:23:30.749037 14457 net.cpp:150] Setting up conv2_1_bn
I0909 13:23:30.749043 14457 net.cpp:157] Top shape: 64 16 75 75 (5760000)
I0909 13:23:30.749045 14457 net.cpp:165] Memory required for data: 695359744
I0909 13:23:30.749054 14457 layer_factory.hpp:77] Creating layer conv2_1_bn_scale
I0909 13:23:30.749063 14457 net.cpp:100] Creating Layer conv2_1_bn_scale
I0909 13:23:30.749065 14457 net.cpp:434] conv2_1_bn_scale <- conv2_1_bn
I0909 13:23:30.749069 14457 net.cpp:395] conv2_1_bn_scale -> conv2_1_bn (in-place)
I0909 13:23:30.749097 14457 layer_factory.hpp:77] Creating layer conv2_1_bn_scale
I0909 13:23:30.749181 14457 net.cpp:150] Setting up conv2_1_bn_scale
I0909 13:23:30.749186 14457 net.cpp:157] Top shape: 64 16 75 75 (5760000)
I0909 13:23:30.749189 14457 net.cpp:165] Memory required for data: 718399744
I0909 13:23:30.749194 14457 layer_factory.hpp:77] Creating layer conv2_1_relu
I0909 13:23:30.749200 14457 net.cpp:100] Creating Layer conv2_1_relu
I0909 13:23:30.749203 14457 net.cpp:434] conv2_1_relu <- conv2_1_bn
I0909 13:23:30.749207 14457 net.cpp:395] conv2_1_relu -> conv2_1_bn (in-place)
I0909 13:23:30.749212 14457 net.cpp:150] Setting up conv2_1_relu
I0909 13:23:30.749215 14457 net.cpp:157] Top shape: 64 16 75 75 (5760000)
I0909 13:23:30.749218 14457 net.cpp:165] Memory required for data: 741439744
I0909 13:23:30.749222 14457 layer_factory.hpp:77] Creating layer conv3_1
I0909 13:23:30.749228 14457 net.cpp:100] Creating Layer conv3_1
I0909 13:23:30.749230 14457 net.cpp:434] conv3_1 <- conv2_1_bn
I0909 13:23:30.749236 14457 net.cpp:408] conv3_1 -> conv3_1
I0909 13:23:30.749470 14457 net.cpp:150] Setting up conv3_1
I0909 13:23:30.749477 14457 net.cpp:157] Top shape: 64 32 75 75 (11520000)
I0909 13:23:30.749480 14457 net.cpp:165] Memory required for data: 787519744
I0909 13:23:30.749483 14457 layer_factory.hpp:77] Creating layer pool3
I0909 13:23:30.749491 14457 net.cpp:100] Creating Layer pool3
I0909 13:23:30.749495 14457 net.cpp:434] pool3 <- conv3_1
I0909 13:23:30.749498 14457 net.cpp:408] pool3 -> pool3
I0909 13:23:30.749524 14457 net.cpp:150] Setting up pool3
I0909 13:23:30.749529 14457 net.cpp:157] Top shape: 64 32 38 38 (2957312)
I0909 13:23:30.749532 14457 net.cpp:165] Memory required for data: 799348992
I0909 13:23:30.749539 14457 layer_factory.hpp:77] Creating layer conv3_1_bn
I0909 13:23:30.749549 14457 net.cpp:100] Creating Layer conv3_1_bn
I0909 13:23:30.749552 14457 net.cpp:434] conv3_1_bn <- pool3
I0909 13:23:30.749557 14457 net.cpp:408] conv3_1_bn -> conv3_1_bn
I0909 13:23:30.749691 14457 net.cpp:150] Setting up conv3_1_bn
I0909 13:23:30.749696 14457 net.cpp:157] Top shape: 64 32 38 38 (2957312)
I0909 13:23:30.749697 14457 net.cpp:165] Memory required for data: 811178240
I0909 13:23:30.749703 14457 layer_factory.hpp:77] Creating layer conv3_1_bn_scale
I0909 13:23:30.749709 14457 net.cpp:100] Creating Layer conv3_1_bn_scale
I0909 13:23:30.749712 14457 net.cpp:434] conv3_1_bn_scale <- conv3_1_bn
I0909 13:23:30.749716 14457 net.cpp:395] conv3_1_bn_scale -> conv3_1_bn (in-place)
I0909 13:23:30.749742 14457 layer_factory.hpp:77] Creating layer conv3_1_bn_scale
I0909 13:23:30.749825 14457 net.cpp:150] Setting up conv3_1_bn_scale
I0909 13:23:30.749830 14457 net.cpp:157] Top shape: 64 32 38 38 (2957312)
I0909 13:23:30.749833 14457 net.cpp:165] Memory required for data: 823007488
I0909 13:23:30.749842 14457 layer_factory.hpp:77] Creating layer conv3_1_relu
I0909 13:23:30.749846 14457 net.cpp:100] Creating Layer conv3_1_relu
I0909 13:23:30.749850 14457 net.cpp:434] conv3_1_relu <- conv3_1_bn
I0909 13:23:30.749853 14457 net.cpp:395] conv3_1_relu -> conv3_1_bn (in-place)
I0909 13:23:30.749857 14457 net.cpp:150] Setting up conv3_1_relu
I0909 13:23:30.749861 14457 net.cpp:157] Top shape: 64 32 38 38 (2957312)
I0909 13:23:30.749863 14457 net.cpp:165] Memory required for data: 834836736
I0909 13:23:30.749866 14457 layer_factory.hpp:77] Creating layer conv4_1
I0909 13:23:30.749874 14457 net.cpp:100] Creating Layer conv4_1
I0909 13:23:30.749877 14457 net.cpp:434] conv4_1 <- conv3_1_bn
I0909 13:23:30.749881 14457 net.cpp:408] conv4_1 -> conv4_1
I0909 13:23:30.750409 14457 net.cpp:150] Setting up conv4_1
I0909 13:23:30.750417 14457 net.cpp:157] Top shape: 64 64 38 38 (5914624)
I0909 13:23:30.750421 14457 net.cpp:165] Memory required for data: 858495232
I0909 13:23:30.750424 14457 layer_factory.hpp:77] Creating layer pool4
I0909 13:23:30.750429 14457 net.cpp:100] Creating Layer pool4
I0909 13:23:30.750432 14457 net.cpp:434] pool4 <- conv4_1
I0909 13:23:30.750437 14457 net.cpp:408] pool4 -> pool4
I0909 13:23:30.750465 14457 net.cpp:150] Setting up pool4
I0909 13:23:30.750470 14457 net.cpp:157] Top shape: 64 64 19 19 (1478656)
I0909 13:23:30.750473 14457 net.cpp:165] Memory required for data: 864409856
I0909 13:23:30.750475 14457 layer_factory.hpp:77] Creating layer conv4_1_bn
I0909 13:23:30.750481 14457 net.cpp:100] Creating Layer conv4_1_bn
I0909 13:23:30.750484 14457 net.cpp:434] conv4_1_bn <- pool4
I0909 13:23:30.750488 14457 net.cpp:408] conv4_1_bn -> conv4_1_bn
I0909 13:23:30.758517 14457 net.cpp:150] Setting up conv4_1_bn
I0909 13:23:30.758551 14457 net.cpp:157] Top shape: 64 64 19 19 (1478656)
I0909 13:23:30.758554 14457 net.cpp:165] Memory required for data: 870324480
I0909 13:23:30.758563 14457 layer_factory.hpp:77] Creating layer conv4_1_bn_scale
I0909 13:23:30.758574 14457 net.cpp:100] Creating Layer conv4_1_bn_scale
I0909 13:23:30.758579 14457 net.cpp:434] conv4_1_bn_scale <- conv4_1_bn
I0909 13:23:30.758584 14457 net.cpp:395] conv4_1_bn_scale -> conv4_1_bn (in-place)
I0909 13:23:30.758621 14457 layer_factory.hpp:77] Creating layer conv4_1_bn_scale
I0909 13:23:30.758705 14457 net.cpp:150] Setting up conv4_1_bn_scale
I0909 13:23:30.758711 14457 net.cpp:157] Top shape: 64 64 19 19 (1478656)
I0909 13:23:30.758713 14457 net.cpp:165] Memory required for data: 876239104
I0909 13:23:30.758718 14457 layer_factory.hpp:77] Creating layer conv4_1_relu
I0909 13:23:30.758724 14457 net.cpp:100] Creating Layer conv4_1_relu
I0909 13:23:30.758728 14457 net.cpp:434] conv4_1_relu <- conv4_1_bn
I0909 13:23:30.758731 14457 net.cpp:395] conv4_1_relu -> conv4_1_bn (in-place)
I0909 13:23:30.758736 14457 net.cpp:150] Setting up conv4_1_relu
I0909 13:23:30.758739 14457 net.cpp:157] Top shape: 64 64 19 19 (1478656)
I0909 13:23:30.758743 14457 net.cpp:165] Memory required for data: 882153728
I0909 13:23:30.758759 14457 layer_factory.hpp:77] Creating layer conv5_1
I0909 13:23:30.758769 14457 net.cpp:100] Creating Layer conv5_1
I0909 13:23:30.758772 14457 net.cpp:434] conv5_1 <- conv4_1_bn
I0909 13:23:30.758779 14457 net.cpp:408] conv5_1 -> conv5_1
I0909 13:23:30.760166 14457 net.cpp:150] Setting up conv5_1
I0909 13:23:30.760184 14457 net.cpp:157] Top shape: 64 64 17 17 (1183744)
I0909 13:23:30.760186 14457 net.cpp:165] Memory required for data: 886888704
I0909 13:23:30.760192 14457 layer_factory.hpp:77] Creating layer conv5_1_bn
I0909 13:23:30.760200 14457 net.cpp:100] Creating Layer conv5_1_bn
I0909 13:23:30.760205 14457 net.cpp:434] conv5_1_bn <- conv5_1
I0909 13:23:30.760210 14457 net.cpp:408] conv5_1_bn -> conv5_1_bn
I0909 13:23:30.760357 14457 net.cpp:150] Setting up conv5_1_bn
I0909 13:23:30.760363 14457 net.cpp:157] Top shape: 64 64 17 17 (1183744)
I0909 13:23:30.760366 14457 net.cpp:165] Memory required for data: 891623680
I0909 13:23:30.760372 14457 layer_factory.hpp:77] Creating layer conv5_1_bn_scale
I0909 13:23:30.760377 14457 net.cpp:100] Creating Layer conv5_1_bn_scale
I0909 13:23:30.760380 14457 net.cpp:434] conv5_1_bn_scale <- conv5_1_bn
I0909 13:23:30.760385 14457 net.cpp:395] conv5_1_bn_scale -> conv5_1_bn (in-place)
I0909 13:23:30.760416 14457 layer_factory.hpp:77] Creating layer conv5_1_bn_scale
I0909 13:23:30.760496 14457 net.cpp:150] Setting up conv5_1_bn_scale
I0909 13:23:30.760501 14457 net.cpp:157] Top shape: 64 64 17 17 (1183744)
I0909 13:23:30.760504 14457 net.cpp:165] Memory required for data: 896358656
I0909 13:23:30.760509 14457 layer_factory.hpp:77] Creating layer conv5_1_relu
I0909 13:23:30.760514 14457 net.cpp:100] Creating Layer conv5_1_relu
I0909 13:23:30.760517 14457 net.cpp:434] conv5_1_relu <- conv5_1_bn
I0909 13:23:30.760520 14457 net.cpp:395] conv5_1_relu -> conv5_1_bn (in-place)
I0909 13:23:30.760525 14457 net.cpp:150] Setting up conv5_1_relu
I0909 13:23:30.760529 14457 net.cpp:157] Top shape: 64 64 17 17 (1183744)
I0909 13:23:30.760531 14457 net.cpp:165] Memory required for data: 901093632
I0909 13:23:30.760535 14457 layer_factory.hpp:77] Creating layer conv6_1
I0909 13:23:30.760542 14457 net.cpp:100] Creating Layer conv6_1
I0909 13:23:30.760546 14457 net.cpp:434] conv6_1 <- conv5_1_bn
I0909 13:23:30.760551 14457 net.cpp:408] conv6_1 -> conv6_1
I0909 13:23:30.761464 14457 net.cpp:150] Setting up conv6_1
I0909 13:23:30.761472 14457 net.cpp:157] Top shape: 64 64 15 15 (921600)
I0909 13:23:30.761476 14457 net.cpp:165] Memory required for data: 904780032
I0909 13:23:30.761479 14457 layer_factory.hpp:77] Creating layer conv6_1_bn
I0909 13:23:30.761484 14457 net.cpp:100] Creating Layer conv6_1_bn
I0909 13:23:30.761487 14457 net.cpp:434] conv6_1_bn <- conv6_1
I0909 13:23:30.761494 14457 net.cpp:408] conv6_1_bn -> conv6_1_bn
I0909 13:23:30.761631 14457 net.cpp:150] Setting up conv6_1_bn
I0909 13:23:30.761636 14457 net.cpp:157] Top shape: 64 64 15 15 (921600)
I0909 13:23:30.761637 14457 net.cpp:165] Memory required for data: 908466432
I0909 13:23:30.761651 14457 layer_factory.hpp:77] Creating layer conv6_1_bn_scale
I0909 13:23:30.761656 14457 net.cpp:100] Creating Layer conv6_1_bn_scale
I0909 13:23:30.761658 14457 net.cpp:434] conv6_1_bn_scale <- conv6_1_bn
I0909 13:23:30.761662 14457 net.cpp:395] conv6_1_bn_scale -> conv6_1_bn (in-place)
I0909 13:23:30.761689 14457 layer_factory.hpp:77] Creating layer conv6_1_bn_scale
I0909 13:23:30.761765 14457 net.cpp:150] Setting up conv6_1_bn_scale
I0909 13:23:30.761770 14457 net.cpp:157] Top shape: 64 64 15 15 (921600)
I0909 13:23:30.761773 14457 net.cpp:165] Memory required for data: 912152832
I0909 13:23:30.761777 14457 layer_factory.hpp:77] Creating layer conv6_1_relu
I0909 13:23:30.761785 14457 net.cpp:100] Creating Layer conv6_1_relu
I0909 13:23:30.761788 14457 net.cpp:434] conv6_1_relu <- conv6_1_bn
I0909 13:23:30.761792 14457 net.cpp:395] conv6_1_relu -> conv6_1_bn (in-place)
I0909 13:23:30.761797 14457 net.cpp:150] Setting up conv6_1_relu
I0909 13:23:30.761801 14457 net.cpp:157] Top shape: 64 64 15 15 (921600)
I0909 13:23:30.761811 14457 net.cpp:165] Memory required for data: 915839232
I0909 13:23:30.761821 14457 layer_factory.hpp:77] Creating layer conv7_1
I0909 13:23:30.761828 14457 net.cpp:100] Creating Layer conv7_1
I0909 13:23:30.761831 14457 net.cpp:434] conv7_1 <- conv6_1_bn
I0909 13:23:30.761836 14457 net.cpp:408] conv7_1 -> conv7_1
I0909 13:23:30.763569 14457 net.cpp:150] Setting up conv7_1
I0909 13:23:30.763584 14457 net.cpp:157] Top shape: 64 128 13 13 (1384448)
I0909 13:23:30.763587 14457 net.cpp:165] Memory required for data: 921377024
I0909 13:23:30.763592 14457 layer_factory.hpp:77] Creating layer conv7_1_bn
I0909 13:23:30.763598 14457 net.cpp:100] Creating Layer conv7_1_bn
I0909 13:23:30.763602 14457 net.cpp:434] conv7_1_bn <- conv7_1
I0909 13:23:30.763613 14457 net.cpp:408] conv7_1_bn -> conv7_1_bn
I0909 13:23:30.763751 14457 net.cpp:150] Setting up conv7_1_bn
I0909 13:23:30.763756 14457 net.cpp:157] Top shape: 64 128 13 13 (1384448)
I0909 13:23:30.763759 14457 net.cpp:165] Memory required for data: 926914816
I0909 13:23:30.763764 14457 layer_factory.hpp:77] Creating layer conv7_1_bn_scale
I0909 13:23:30.763772 14457 net.cpp:100] Creating Layer conv7_1_bn_scale
I0909 13:23:30.763774 14457 net.cpp:434] conv7_1_bn_scale <- conv7_1_bn
I0909 13:23:30.763778 14457 net.cpp:395] conv7_1_bn_scale -> conv7_1_bn (in-place)
I0909 13:23:30.763806 14457 layer_factory.hpp:77] Creating layer conv7_1_bn_scale
I0909 13:23:30.763880 14457 net.cpp:150] Setting up conv7_1_bn_scale
I0909 13:23:30.763885 14457 net.cpp:157] Top shape: 64 128 13 13 (1384448)
I0909 13:23:30.763886 14457 net.cpp:165] Memory required for data: 932452608
I0909 13:23:30.763891 14457 layer_factory.hpp:77] Creating layer conv7_1_relu
I0909 13:23:30.763896 14457 net.cpp:100] Creating Layer conv7_1_relu
I0909 13:23:30.763900 14457 net.cpp:434] conv7_1_relu <- conv7_1_bn
I0909 13:23:30.763905 14457 net.cpp:395] conv7_1_relu -> conv7_1_bn (in-place)
I0909 13:23:30.763908 14457 net.cpp:150] Setting up conv7_1_relu
I0909 13:23:30.763912 14457 net.cpp:157] Top shape: 64 128 13 13 (1384448)
I0909 13:23:30.763914 14457 net.cpp:165] Memory required for data: 937990400
I0909 13:23:30.763917 14457 layer_factory.hpp:77] Creating layer concat
I0909 13:23:30.763923 14457 net.cpp:100] Creating Layer concat
I0909 13:23:30.763926 14457 net.cpp:434] concat <- conv7_1_bn
I0909 13:23:30.763929 14457 net.cpp:434] concat <- face_mask_pool
I0909 13:23:30.763934 14457 net.cpp:408] concat -> conv7_concat
I0909 13:23:30.763952 14457 net.cpp:150] Setting up concat
I0909 13:23:30.763957 14457 net.cpp:157] Top shape: 64 129 13 13 (1395264)
I0909 13:23:30.763958 14457 net.cpp:165] Memory required for data: 943571456
I0909 13:23:30.763962 14457 layer_factory.hpp:77] Creating layer score
I0909 13:23:30.763969 14457 net.cpp:100] Creating Layer score
I0909 13:23:30.763972 14457 net.cpp:434] score <- conv7_concat
I0909 13:23:30.763978 14457 net.cpp:408] score -> score
I0909 13:23:30.764152 14457 net.cpp:150] Setting up score
I0909 13:23:30.764159 14457 net.cpp:157] Top shape: 64 4 13 13 (43264)
I0909 13:23:30.764161 14457 net.cpp:165] Memory required for data: 943744512
I0909 13:23:30.764166 14457 layer_factory.hpp:77] Creating layer upscore
I0909 13:23:30.764173 14457 net.cpp:100] Creating Layer upscore
I0909 13:23:30.764174 14457 net.cpp:434] upscore <- score
I0909 13:23:30.764179 14457 net.cpp:408] upscore -> upscore
I0909 13:23:30.764658 14457 net.cpp:150] Setting up upscore
I0909 13:23:30.764664 14457 net.cpp:157] Top shape: 64 4 224 224 (12845056)
I0909 13:23:30.764667 14457 net.cpp:165] Memory required for data: 995124736
I0909 13:23:30.764670 14457 layer_factory.hpp:77] Creating layer cropscore
I0909 13:23:30.764678 14457 net.cpp:100] Creating Layer cropscore
I0909 13:23:30.764680 14457 net.cpp:434] cropscore <- upscore
I0909 13:23:30.764684 14457 net.cpp:434] cropscore <- image_data_0_split_1
I0909 13:23:30.764688 14457 net.cpp:408] cropscore -> cropscore
I0909 13:23:30.764705 14457 net.cpp:150] Setting up cropscore
I0909 13:23:30.764709 14457 net.cpp:157] Top shape: 64 4 200 200 (10240000)
I0909 13:23:30.764719 14457 net.cpp:165] Memory required for data: 1036084736
I0909 13:23:30.764730 14457 layer_factory.hpp:77] Creating layer cropscore_cropscore_0_split
I0909 13:23:30.764735 14457 net.cpp:100] Creating Layer cropscore_cropscore_0_split
I0909 13:23:30.764739 14457 net.cpp:434] cropscore_cropscore_0_split <- cropscore
I0909 13:23:30.764744 14457 net.cpp:408] cropscore_cropscore_0_split -> cropscore_cropscore_0_split_0
I0909 13:23:30.764749 14457 net.cpp:408] cropscore_cropscore_0_split -> cropscore_cropscore_0_split_1
I0909 13:23:30.764776 14457 net.cpp:150] Setting up cropscore_cropscore_0_split
I0909 13:23:30.764780 14457 net.cpp:157] Top shape: 64 4 200 200 (10240000)
I0909 13:23:30.764786 14457 net.cpp:157] Top shape: 64 4 200 200 (10240000)
I0909 13:23:30.764787 14457 net.cpp:165] Memory required for data: 1118004736
I0909 13:23:30.764791 14457 layer_factory.hpp:77] Creating layer loss
I0909 13:23:30.764796 14457 net.cpp:100] Creating Layer loss
I0909 13:23:30.764799 14457 net.cpp:434] loss <- cropscore_cropscore_0_split_0
I0909 13:23:30.764803 14457 net.cpp:434] loss <- label_data_1_split_0
I0909 13:23:30.764807 14457 net.cpp:408] loss -> loss
…
