…
I0920 08:41:27.387696 23006 solver.cpp:91] Creating training net from net file: portrait_train_test_one_stage128.prototxt
I0920 08:41:27.388520 23006 net.cpp:322] The NetState phase (0) differed from the phase (1) specified by a rule in layer data
I0920 08:41:27.388775 23006 net.cpp:58] Initializing net from parameters: 
name: "segmentation"
state {
  phase: TRAIN
  level: 0
  stage: ""
}
layer {
  name: "data"
  type: "SegData"
  top: "image"
  top: "label"
  include {
    phase: TRAIN
  }
  transform_param {
    mirror: true
    crop_size: 128
  }
  data_param {
    source: "/raid/xuehan/segmentation128_train_split"
    batch_size: 256
    backend: LMDB
  }
}
layer {
  name: "conv1_1"
  type: "Convolution"
  bottom: "image"
  top: "conv1_1"
  param {
    lr_mult: 1
    decay_mult: 1
  }
  convolution_param {
    num_output: 8
    bias_term: false
    pad: 30
    kernel_size: 3
    stride: 1
    weight_filler {
      type: "gaussian"
      std: 0.01
    }
  }
}
layer {
  name: "pool1"
  type: "Pooling"
  bottom: "conv1_1"
  top: "pool1"
  pooling_param {
    pool: MAX
    kernel_size: 2
    stride: 2
  }
}
layer {
  name: "conv1_1_bn"
  type: "BatchNorm"
  bottom: "pool1"
  top: "conv1_1_bn"
  param {
    lr_mult: 0
  }
  param {
    lr_mult: 0
  }
  param {
    lr_mult: 0
  }
}
layer {
  name: "conv1_1_bn_scale"
  type: "Scale"
  bottom: "conv1_1_bn"
  top: "conv1_1_bn"
  scale_param {
    bias_term: true
  }
}
layer {
  name: "conv1_1_relu"
  type: "ReLU"
  bottom: "conv1_1_bn"
  top: "conv1_1_bn"
}
layer {
  name: "conv2_1"
  type: "Convolution"
  bottom: "conv1_1_bn"
  top: "conv2_1"
  param {
    lr_mult: 1
    decay_mult: 1
  }
  convolution_param {
    num_output: 16
    bias_term: false
    pad: 1
    kernel_size: 3
    stride: 1
    weight_filler {
      type: "gaussian"
      std: 0.01
    }
  }
}
layer {
  name: "pool2"
  type: "Pooling"
  bottom: "conv2_1"
  top: "pool2"
  pooling_param {
    pool: MAX
    kernel_size: 2
    stride: 2
  }
}
layer {
  name: "conv2_1_bn"
  type: "BatchNorm"
  bottom: "pool2"
  top: "conv2_1_bn"
  param {
    lr_mult: 0
  }
  param {
    lr_mult: 0
  }
  param {
    lr_mult: 0
  }
}
layer {
  name: "conv2_1_bn_scale"
  type: "Scale"
  bottom: "conv2_1_bn"
  top: "conv2_1_bn"
  scale_param {
    bias_term: true
  }
}
layer {
  name: "conv2_1_relu"
  type: "ReLU"
  bottom: "conv2_1_bn"
  top: "conv2_1_bn"
}
layer {
  name: "conv3_1"
  type: "Convolution"
  bottom: "conv2_1_bn"
  top: "conv3_1"
  param {
    lr_mult: 1
    decay_mult: 1
  }
  convolution_param {
    num_output: 32
    bias_term: false
    pad: 1
    kernel_size: 3
    stride: 1
    weight_filler {
      type: "gaussian"
      std: 0.01
    }
  }
}
layer {
  name: "pool3"
  type: "Pooling"
  bottom: "conv3_1"
  top: "pool3"
  pooling_param {
    pool: MAX
    kernel_size: 2
    stride: 2
  }
}
layer {
  name: "conv3_1_bn"
  type: "BatchNorm"
  bottom: "pool3"
  top: "conv3_1_bn"
  param {
    lr_mult: 0
  }
  param {
    lr_mult: 0
  }
  param {
    lr_mult: 0
  }
}
layer {
  name: "conv3_1_bn_scale"
  type: "Scale"
  bottom: "conv3_1_bn"
  top: "conv3_1_bn"
  scale_param {
    bias_term: true
  }
}
layer {
  name: "conv3_1_relu"
  type: "ReLU"
  bottom: "conv3_1_bn"
  top: "conv3_1_bn"
}
layer {
  name: "conv5_1"
  type: "Convolution"
  bottom: "conv3_1_bn"
  top: "conv5_1"
  param {
    lr_mult: 1
    decay_mult: 1
  }
  convolution_param {
    num_output: 64
    bias_term: false
    pad: 0
    kernel_size: 3
    stride: 1
    weight_filler {
      type: "gaussian"
      std: 0.01
    }
  }
}
layer {
  name: "conv5_1_bn"
  type: "BatchNorm"
  bottom: "conv5_1"
  top: "conv5_1_bn"
  param {
    lr_mult: 0
  }
  param {
    lr_mult: 0
  }
  param {
    lr_mult: 0
  }
}
layer {
  name: "conv5_1_bn_scale"
  type: "Scale"
  bottom: "conv5_1_bn"
  top: "conv5_1_bn"
  scale_param {
    bias_term: true
  }
}
layer {
  name: "conv5_1_relu"
  type: "ReLU"
  bottom: "conv5_1_bn"
  top: "conv5_1_bn"
}
layer {
  name: "conv6_1"
  type: "Convolution"
  bottom: "conv5_1_bn"
  top: "conv6_1"
  param {
    lr_mult: 1
    decay_mult: 1
  }
  convolution_param {
    num_output: 64
    bias_term: false
    pad: 0
    kernel_size: 3
    stride: 1
    weight_filler {
      type: "gaussian"
      std: 0.01
    }
  }
}
layer {
  name: "conv6_1_bn"
  type: "BatchNorm"
  bottom: "conv6_1"
  top: "conv6_1_bn"
  param {
    lr_mult: 0
  }
  param {
    lr_mult: 0
  }
  param {
    lr_mult: 0
  }
}
layer {
  name: "conv6_1_bn_scale"
  type: "Scale"
  bottom: "conv6_1_bn"
  top: "conv6_1_bn"
  scale_param {
    bias_term: true
  }
}
layer {
  name: "conv6_1_relu"
  type: "ReLU"
  bottom: "conv6_1_bn"
  top: "conv6_1_bn"
}
layer {
  name: "conv7_1"
  type: "Convolution"
  bottom: "conv6_1_bn"
  top: "conv7_1"
  param {
    lr_mult: 1
    decay_mult: 1
  }
  convolution_param {
    num_output: 128
    bias_term: false
    pad: 0
    kernel_size: 3
    stride: 1
    weight_filler {
      type: "gaussian"
      std: 0.01
    }
  }
}
layer {
  name: "conv7_1_bn"
  type: "BatchNorm"
  bottom: "conv7_1"
  top: "conv7_1_bn"
  param {
    lr_mult: 0
  }
  param {
    lr_mult: 0
  }
  param {
    lr_mult: 0
  }
}
layer {
  name: "conv7_1_bn_scale"
  type: "Scale"
  bottom: "conv7_1_bn"
  top: "conv7_1_bn"
  scale_param {
    bias_term: true
  }
}
layer {
  name: "conv7_1_relu"
  type: "ReLU"
  bottom: "conv7_1_bn"
  top: "conv7_1_bn"
}
layer {
  name: "score"
  type: "Convolution"
  bottom: "conv7_1_bn"
  top: "score"
  param {
    lr_mult: 1
    decay_mult: 1
  }
  param {
    lr_mult: 2
    decay_mult: 0
  }
  convolution_param {
    num_output: 4
    pad: 0
    kernel_size: 1
    stride: 1
    weight_filler {
      type: "gaussian"
      std: 0.01
    }
    bias_filler {
      type: "constant"
    }
  }
}
layer {
  name: "upscore"
  type: "Deconvolution"
  bottom: "score"
  top: "upscore"
  param {
    lr_mult: 1
    decay_mult: 1
  }
  convolution_param {
    num_output: 4
    bias_term: false
    pad: 0
    kernel_size: 16
    stride: 8
    weight_filler {
      type: "gaussian"
      std: 0.01
    }
  }
}
layer {
  name: "cropscore"
  type: "Crop"
  bottom: "upscore"
  bottom: "image"
  top: "cropscore"
  crop_param {
    axis: 2
    offset: 12
  }
}
layer {
  name: "loss"
  type: "SoftmaxWithLoss"
  bottom: "cropscore"
  bottom: "label"
  top: "loss"
  loss_weight: 1
  loss_param {
    normalize: false
  }
}
layer {
  name: "accuracy"
  type: "Accuracy"
  bottom: "cropscore"
  bottom: "label"
  top: "accuracy"
}
I0920 08:41:27.388995 23006 layer_factory.hpp:77] Creating layer data
I0920 08:41:27.389735 23006 net.cpp:100] Creating Layer data
I0920 08:41:27.389751 23006 net.cpp:408] data -> image
I0920 08:41:27.389780 23006 net.cpp:408] data -> label
I0920 08:41:27.390694 23011 db_lmdb.cpp:35] Opened lmdb /raid/xuehan/segmentation128_train_split
I0920 08:41:27.390804 23006 seg_data_layer.cpp:38] 128 128 4
I0920 08:41:27.402114 23006 seg_data_layer.cpp:51] output data size: 256,3,128,128
I0920 08:41:27.402209 23006 seg_data_layer.cpp:63] output label size: 256,1,128,128
I0920 08:41:27.520241 23006 net.cpp:150] Setting up data
I0920 08:41:27.520282 23006 net.cpp:157] Top shape: 256 3 128 128 (12582912)
I0920 08:41:27.520292 23006 net.cpp:157] Top shape: 256 1 128 128 (4194304)
I0920 08:41:27.520298 23006 net.cpp:165] Memory required for data: 67108864
I0920 08:41:27.520313 23006 layer_factory.hpp:77] Creating layer image_data_0_split
I0920 08:41:27.520331 23006 net.cpp:100] Creating Layer image_data_0_split
I0920 08:41:27.520339 23006 net.cpp:434] image_data_0_split <- image
I0920 08:41:27.520356 23006 net.cpp:408] image_data_0_split -> image_data_0_split_0
I0920 08:41:27.520383 23006 net.cpp:408] image_data_0_split -> image_data_0_split_1
I0920 08:41:27.520457 23006 net.cpp:150] Setting up image_data_0_split
I0920 08:41:27.520469 23006 net.cpp:157] Top shape: 256 3 128 128 (12582912)
I0920 08:41:27.520476 23006 net.cpp:157] Top shape: 256 3 128 128 (12582912)
I0920 08:41:27.520481 23006 net.cpp:165] Memory required for data: 167772160
I0920 08:41:27.520486 23006 layer_factory.hpp:77] Creating layer label_data_1_split
I0920 08:41:27.520494 23006 net.cpp:100] Creating Layer label_data_1_split
I0920 08:41:27.520500 23006 net.cpp:434] label_data_1_split <- label
I0920 08:41:27.520508 23006 net.cpp:408] label_data_1_split -> label_data_1_split_0
I0920 08:41:27.520516 23006 net.cpp:408] label_data_1_split -> label_data_1_split_1
I0920 08:41:27.520555 23006 net.cpp:150] Setting up label_data_1_split
I0920 08:41:27.520565 23006 net.cpp:157] Top shape: 256 1 128 128 (4194304)
I0920 08:41:27.520571 23006 net.cpp:157] Top shape: 256 1 128 128 (4194304)
I0920 08:41:27.520576 23006 net.cpp:165] Memory required for data: 201326592
I0920 08:41:27.520581 23006 layer_factory.hpp:77] Creating layer conv1_1
I0920 08:41:27.520601 23006 net.cpp:100] Creating Layer conv1_1
I0920 08:41:27.520608 23006 net.cpp:434] conv1_1 <- image_data_0_split_0
I0920 08:41:27.520617 23006 net.cpp:408] conv1_1 -> conv1_1
I0920 08:41:27.520861 23006 net.cpp:150] Setting up conv1_1
I0920 08:41:27.520872 23006 net.cpp:157] Top shape: 256 8 186 186 (70852608)
I0920 08:41:27.520879 23006 net.cpp:165] Memory required for data: 484737024
I0920 08:41:27.520894 23006 layer_factory.hpp:77] Creating layer pool1
I0920 08:41:27.520905 23006 net.cpp:100] Creating Layer pool1
I0920 08:41:27.520910 23006 net.cpp:434] pool1 <- conv1_1
I0920 08:41:27.520917 23006 net.cpp:408] pool1 -> pool1
I0920 08:41:27.520965 23006 net.cpp:150] Setting up pool1
I0920 08:41:27.520975 23006 net.cpp:157] Top shape: 256 8 93 93 (17713152)
I0920 08:41:27.520982 23006 net.cpp:165] Memory required for data: 555589632
I0920 08:41:27.520987 23006 layer_factory.hpp:77] Creating layer conv1_1_bn
I0920 08:41:27.520997 23006 net.cpp:100] Creating Layer conv1_1_bn
I0920 08:41:27.521003 23006 net.cpp:434] conv1_1_bn <- pool1
I0920 08:41:27.521010 23006 net.cpp:408] conv1_1_bn -> conv1_1_bn
I0920 08:41:27.526036 23006 net.cpp:150] Setting up conv1_1_bn
I0920 08:41:27.526057 23006 net.cpp:157] Top shape: 256 8 93 93 (17713152)
I0920 08:41:27.526062 23006 net.cpp:165] Memory required for data: 626442240
I0920 08:41:27.526078 23006 layer_factory.hpp:77] Creating layer conv1_1_bn_scale
I0920 08:41:27.526090 23006 net.cpp:100] Creating Layer conv1_1_bn_scale
I0920 08:41:27.526098 23006 net.cpp:434] conv1_1_bn_scale <- conv1_1_bn
I0920 08:41:27.526108 23006 net.cpp:395] conv1_1_bn_scale -> conv1_1_bn (in-place)
I0920 08:41:27.527454 23006 layer_factory.hpp:77] Creating layer conv1_1_bn_scale
I0920 08:41:27.527608 23006 net.cpp:150] Setting up conv1_1_bn_scale
I0920 08:41:27.527621 23006 net.cpp:157] Top shape: 256 8 93 93 (17713152)
I0920 08:41:27.527626 23006 net.cpp:165] Memory required for data: 697294848
I0920 08:41:27.527637 23006 layer_factory.hpp:77] Creating layer conv1_1_relu
I0920 08:41:27.527647 23006 net.cpp:100] Creating Layer conv1_1_relu
I0920 08:41:27.527653 23006 net.cpp:434] conv1_1_relu <- conv1_1_bn
I0920 08:41:27.527662 23006 net.cpp:395] conv1_1_relu -> conv1_1_bn (in-place)
I0920 08:41:27.527673 23006 net.cpp:150] Setting up conv1_1_relu
I0920 08:41:27.527679 23006 net.cpp:157] Top shape: 256 8 93 93 (17713152)
I0920 08:41:27.527684 23006 net.cpp:165] Memory required for data: 768147456
I0920 08:41:27.527689 23006 layer_factory.hpp:77] Creating layer conv2_1
I0920 08:41:27.527703 23006 net.cpp:100] Creating Layer conv2_1
I0920 08:41:27.527709 23006 net.cpp:434] conv2_1 <- conv1_1_bn
I0920 08:41:27.527717 23006 net.cpp:408] conv2_1 -> conv2_1
I0920 08:41:27.528503 23006 net.cpp:150] Setting up conv2_1
I0920 08:41:27.528517 23006 net.cpp:157] Top shape: 256 16 93 93 (35426304)
I0920 08:41:27.528522 23006 net.cpp:165] Memory required for data: 909852672
I0920 08:41:27.528537 23006 layer_factory.hpp:77] Creating layer pool2
I0920 08:41:27.528558 23006 net.cpp:100] Creating Layer pool2
I0920 08:41:27.528565 23006 net.cpp:434] pool2 <- conv2_1
I0920 08:41:27.528573 23006 net.cpp:408] pool2 -> pool2
I0920 08:41:27.528615 23006 net.cpp:150] Setting up pool2
I0920 08:41:27.528625 23006 net.cpp:157] Top shape: 256 16 47 47 (9048064)
I0920 08:41:27.528630 23006 net.cpp:165] Memory required for data: 946044928
I0920 08:41:27.528635 23006 layer_factory.hpp:77] Creating layer conv2_1_bn
I0920 08:41:27.528647 23006 net.cpp:100] Creating Layer conv2_1_bn
I0920 08:41:27.528655 23006 net.cpp:434] conv2_1_bn <- pool2
I0920 08:41:27.528661 23006 net.cpp:408] conv2_1_bn -> conv2_1_bn
I0920 08:41:27.528874 23006 net.cpp:150] Setting up conv2_1_bn
I0920 08:41:27.528885 23006 net.cpp:157] Top shape: 256 16 47 47 (9048064)
I0920 08:41:27.528890 23006 net.cpp:165] Memory required for data: 982237184
I0920 08:41:27.528904 23006 layer_factory.hpp:77] Creating layer conv2_1_bn_scale
I0920 08:41:27.528915 23006 net.cpp:100] Creating Layer conv2_1_bn_scale
I0920 08:41:27.528923 23006 net.cpp:434] conv2_1_bn_scale <- conv2_1_bn
I0920 08:41:27.528929 23006 net.cpp:395] conv2_1_bn_scale -> conv2_1_bn (in-place)
I0920 08:41:27.528972 23006 layer_factory.hpp:77] Creating layer conv2_1_bn_scale
I0920 08:41:27.529103 23006 net.cpp:150] Setting up conv2_1_bn_scale
I0920 08:41:27.529114 23006 net.cpp:157] Top shape: 256 16 47 47 (9048064)
I0920 08:41:27.529119 23006 net.cpp:165] Memory required for data: 1018429440
I0920 08:41:27.529127 23006 layer_factory.hpp:77] Creating layer conv2_1_relu
I0920 08:41:27.529139 23006 net.cpp:100] Creating Layer conv2_1_relu
I0920 08:41:27.529145 23006 net.cpp:434] conv2_1_relu <- conv2_1_bn
I0920 08:41:27.529150 23006 net.cpp:395] conv2_1_relu -> conv2_1_bn (in-place)
I0920 08:41:27.529158 23006 net.cpp:150] Setting up conv2_1_relu
I0920 08:41:27.529166 23006 net.cpp:157] Top shape: 256 16 47 47 (9048064)
I0920 08:41:27.529171 23006 net.cpp:165] Memory required for data: 1054621696
I0920 08:41:27.529176 23006 layer_factory.hpp:77] Creating layer conv3_1
I0920 08:41:27.529189 23006 net.cpp:100] Creating Layer conv3_1
I0920 08:41:27.529196 23006 net.cpp:434] conv3_1 <- conv2_1_bn
I0920 08:41:27.529203 23006 net.cpp:408] conv3_1 -> conv3_1
I0920 08:41:27.529561 23006 net.cpp:150] Setting up conv3_1
I0920 08:41:27.529572 23006 net.cpp:157] Top shape: 256 32 47 47 (18096128)
I0920 08:41:27.529577 23006 net.cpp:165] Memory required for data: 1127006208
I0920 08:41:27.529585 23006 layer_factory.hpp:77] Creating layer pool3
I0920 08:41:27.529595 23006 net.cpp:100] Creating Layer pool3
I0920 08:41:27.529603 23006 net.cpp:434] pool3 <- conv3_1
I0920 08:41:27.529610 23006 net.cpp:408] pool3 -> pool3
I0920 08:41:27.529651 23006 net.cpp:150] Setting up pool3
I0920 08:41:27.529660 23006 net.cpp:157] Top shape: 256 32 24 24 (4718592)
I0920 08:41:27.529666 23006 net.cpp:165] Memory required for data: 1145880576
I0920 08:41:27.529671 23006 layer_factory.hpp:77] Creating layer conv3_1_bn
I0920 08:41:27.529680 23006 net.cpp:100] Creating Layer conv3_1_bn
I0920 08:41:27.529686 23006 net.cpp:434] conv3_1_bn <- pool3
I0920 08:41:27.529695 23006 net.cpp:408] conv3_1_bn -> conv3_1_bn
I0920 08:41:27.530472 23006 net.cpp:150] Setting up conv3_1_bn
I0920 08:41:27.530488 23006 net.cpp:157] Top shape: 256 32 24 24 (4718592)
I0920 08:41:27.530494 23006 net.cpp:165] Memory required for data: 1164754944
I0920 08:41:27.530505 23006 layer_factory.hpp:77] Creating layer conv3_1_bn_scale
I0920 08:41:27.530519 23006 net.cpp:100] Creating Layer conv3_1_bn_scale
I0920 08:41:27.530525 23006 net.cpp:434] conv3_1_bn_scale <- conv3_1_bn
I0920 08:41:27.530534 23006 net.cpp:395] conv3_1_bn_scale -> conv3_1_bn (in-place)
I0920 08:41:27.530577 23006 layer_factory.hpp:77] Creating layer conv3_1_bn_scale
I0920 08:41:27.530707 23006 net.cpp:150] Setting up conv3_1_bn_scale
I0920 08:41:27.530717 23006 net.cpp:157] Top shape: 256 32 24 24 (4718592)
I0920 08:41:27.530724 23006 net.cpp:165] Memory required for data: 1183629312
I0920 08:41:27.530745 23006 layer_factory.hpp:77] Creating layer conv3_1_relu
I0920 08:41:27.530763 23006 net.cpp:100] Creating Layer conv3_1_relu
I0920 08:41:27.530769 23006 net.cpp:434] conv3_1_relu <- conv3_1_bn
I0920 08:41:27.530776 23006 net.cpp:395] conv3_1_relu -> conv3_1_bn (in-place)
I0920 08:41:27.530786 23006 net.cpp:150] Setting up conv3_1_relu
I0920 08:41:27.530792 23006 net.cpp:157] Top shape: 256 32 24 24 (4718592)
I0920 08:41:27.530797 23006 net.cpp:165] Memory required for data: 1202503680
I0920 08:41:27.530803 23006 layer_factory.hpp:77] Creating layer conv5_1
I0920 08:41:27.530815 23006 net.cpp:100] Creating Layer conv5_1
I0920 08:41:27.530822 23006 net.cpp:434] conv5_1 <- conv3_1_bn
I0920 08:41:27.530830 23006 net.cpp:408] conv5_1 -> conv5_1
I0920 08:41:27.532188 23006 net.cpp:150] Setting up conv5_1
I0920 08:41:27.532203 23006 net.cpp:157] Top shape: 256 64 22 22 (7929856)
I0920 08:41:27.532209 23006 net.cpp:165] Memory required for data: 1234223104
I0920 08:41:27.532217 23006 layer_factory.hpp:77] Creating layer conv5_1_bn
I0920 08:41:27.532227 23006 net.cpp:100] Creating Layer conv5_1_bn
I0920 08:41:27.532233 23006 net.cpp:434] conv5_1_bn <- conv5_1
I0920 08:41:27.532241 23006 net.cpp:408] conv5_1_bn -> conv5_1_bn
I0920 08:41:27.532467 23006 net.cpp:150] Setting up conv5_1_bn
I0920 08:41:27.532480 23006 net.cpp:157] Top shape: 256 64 22 22 (7929856)
I0920 08:41:27.532485 23006 net.cpp:165] Memory required for data: 1265942528
I0920 08:41:27.532495 23006 layer_factory.hpp:77] Creating layer conv5_1_bn_scale
I0920 08:41:27.532505 23006 net.cpp:100] Creating Layer conv5_1_bn_scale
I0920 08:41:27.532511 23006 net.cpp:434] conv5_1_bn_scale <- conv5_1_bn
I0920 08:41:27.532519 23006 net.cpp:395] conv5_1_bn_scale -> conv5_1_bn (in-place)
I0920 08:41:27.532567 23006 layer_factory.hpp:77] Creating layer conv5_1_bn_scale
I0920 08:41:27.532701 23006 net.cpp:150] Setting up conv5_1_bn_scale
I0920 08:41:27.532712 23006 net.cpp:157] Top shape: 256 64 22 22 (7929856)
I0920 08:41:27.532718 23006 net.cpp:165] Memory required for data: 1297661952
I0920 08:41:27.532727 23006 layer_factory.hpp:77] Creating layer conv5_1_relu
I0920 08:41:27.532735 23006 net.cpp:100] Creating Layer conv5_1_relu
I0920 08:41:27.532740 23006 net.cpp:434] conv5_1_relu <- conv5_1_bn
I0920 08:41:27.532747 23006 net.cpp:395] conv5_1_relu -> conv5_1_bn (in-place)
I0920 08:41:27.532755 23006 net.cpp:150] Setting up conv5_1_relu
I0920 08:41:27.532763 23006 net.cpp:157] Top shape: 256 64 22 22 (7929856)
I0920 08:41:27.532768 23006 net.cpp:165] Memory required for data: 1329381376
I0920 08:41:27.532773 23006 layer_factory.hpp:77] Creating layer conv6_1
I0920 08:41:27.532785 23006 net.cpp:100] Creating Layer conv6_1
I0920 08:41:27.532791 23006 net.cpp:434] conv6_1 <- conv5_1_bn
I0920 08:41:27.532801 23006 net.cpp:408] conv6_1 -> conv6_1
I0920 08:41:27.534229 23006 net.cpp:150] Setting up conv6_1
I0920 08:41:27.534241 23006 net.cpp:157] Top shape: 256 64 20 20 (6553600)
I0920 08:41:27.534246 23006 net.cpp:165] Memory required for data: 1355595776
I0920 08:41:27.534253 23006 layer_factory.hpp:77] Creating layer conv6_1_bn
I0920 08:41:27.534262 23006 net.cpp:100] Creating Layer conv6_1_bn
I0920 08:41:27.534267 23006 net.cpp:434] conv6_1_bn <- conv6_1
I0920 08:41:27.534276 23006 net.cpp:408] conv6_1_bn -> conv6_1_bn
I0920 08:41:27.534505 23006 net.cpp:150] Setting up conv6_1_bn
I0920 08:41:27.534518 23006 net.cpp:157] Top shape: 256 64 20 20 (6553600)
I0920 08:41:27.534523 23006 net.cpp:165] Memory required for data: 1381810176
I0920 08:41:27.534533 23006 layer_factory.hpp:77] Creating layer conv6_1_bn_scale
I0920 08:41:27.534545 23006 net.cpp:100] Creating Layer conv6_1_bn_scale
I0920 08:41:27.534551 23006 net.cpp:434] conv6_1_bn_scale <- conv6_1_bn
I0920 08:41:27.534559 23006 net.cpp:395] conv6_1_bn_scale -> conv6_1_bn (in-place)
I0920 08:41:27.534600 23006 layer_factory.hpp:77] Creating layer conv6_1_bn_scale
I0920 08:41:27.534732 23006 net.cpp:150] Setting up conv6_1_bn_scale
I0920 08:41:27.534744 23006 net.cpp:157] Top shape: 256 64 20 20 (6553600)
I0920 08:41:27.534759 23006 net.cpp:165] Memory required for data: 1408024576
I0920 08:41:27.534778 23006 layer_factory.hpp:77] Creating layer conv6_1_relu
I0920 08:41:27.534790 23006 net.cpp:100] Creating Layer conv6_1_relu
I0920 08:41:27.534796 23006 net.cpp:434] conv6_1_relu <- conv6_1_bn
I0920 08:41:27.534803 23006 net.cpp:395] conv6_1_relu -> conv6_1_bn (in-place)
I0920 08:41:27.534813 23006 net.cpp:150] Setting up conv6_1_relu
I0920 08:41:27.534821 23006 net.cpp:157] Top shape: 256 64 20 20 (6553600)
I0920 08:41:27.534824 23006 net.cpp:165] Memory required for data: 1434238976
I0920 08:41:27.534831 23006 layer_factory.hpp:77] Creating layer conv7_1
I0920 08:41:27.534842 23006 net.cpp:100] Creating Layer conv7_1
I0920 08:41:27.534847 23006 net.cpp:434] conv7_1 <- conv6_1_bn
I0920 08:41:27.534858 23006 net.cpp:408] conv7_1 -> conv7_1
I0920 08:41:27.538103 23006 net.cpp:150] Setting up conv7_1
I0920 08:41:27.538122 23006 net.cpp:157] Top shape: 256 128 18 18 (10616832)
I0920 08:41:27.538128 23006 net.cpp:165] Memory required for data: 1476706304
I0920 08:41:27.538136 23006 layer_factory.hpp:77] Creating layer conv7_1_bn
I0920 08:41:27.538146 23006 net.cpp:100] Creating Layer conv7_1_bn
I0920 08:41:27.538152 23006 net.cpp:434] conv7_1_bn <- conv7_1
I0920 08:41:27.538161 23006 net.cpp:408] conv7_1_bn -> conv7_1_bn
I0920 08:41:27.538383 23006 net.cpp:150] Setting up conv7_1_bn
I0920 08:41:27.538395 23006 net.cpp:157] Top shape: 256 128 18 18 (10616832)
I0920 08:41:27.538400 23006 net.cpp:165] Memory required for data: 1519173632
I0920 08:41:27.538419 23006 layer_factory.hpp:77] Creating layer conv7_1_bn_scale
I0920 08:41:27.538432 23006 net.cpp:100] Creating Layer conv7_1_bn_scale
I0920 08:41:27.538440 23006 net.cpp:434] conv7_1_bn_scale <- conv7_1_bn
I0920 08:41:27.538449 23006 net.cpp:395] conv7_1_bn_scale -> conv7_1_bn (in-place)
I0920 08:41:27.538493 23006 layer_factory.hpp:77] Creating layer conv7_1_bn_scale
I0920 08:41:27.538626 23006 net.cpp:150] Setting up conv7_1_bn_scale
I0920 08:41:27.538636 23006 net.cpp:157] Top shape: 256 128 18 18 (10616832)
I0920 08:41:27.538642 23006 net.cpp:165] Memory required for data: 1561640960
I0920 08:41:27.538651 23006 layer_factory.hpp:77] Creating layer conv7_1_relu
I0920 08:41:27.538660 23006 net.cpp:100] Creating Layer conv7_1_relu
I0920 08:41:27.538666 23006 net.cpp:434] conv7_1_relu <- conv7_1_bn
I0920 08:41:27.538671 23006 net.cpp:395] conv7_1_relu -> conv7_1_bn (in-place)
I0920 08:41:27.538679 23006 net.cpp:150] Setting up conv7_1_relu
I0920 08:41:27.538687 23006 net.cpp:157] Top shape: 256 128 18 18 (10616832)
I0920 08:41:27.538692 23006 net.cpp:165] Memory required for data: 1604108288
I0920 08:41:27.538697 23006 layer_factory.hpp:77] Creating layer score
I0920 08:41:27.538712 23006 net.cpp:100] Creating Layer score
I0920 08:41:27.538718 23006 net.cpp:434] score <- conv7_1_bn
I0920 08:41:27.538727 23006 net.cpp:408] score -> score
I0920 08:41:27.539002 23006 net.cpp:150] Setting up score
I0920 08:41:27.539014 23006 net.cpp:157] Top shape: 256 4 18 18 (331776)
I0920 08:41:27.539021 23006 net.cpp:165] Memory required for data: 1605435392
I0920 08:41:27.539028 23006 layer_factory.hpp:77] Creating layer upscore
I0920 08:41:27.539041 23006 net.cpp:100] Creating Layer upscore
I0920 08:41:27.539048 23006 net.cpp:434] upscore <- score
I0920 08:41:27.539057 23006 net.cpp:408] upscore -> upscore
I0920 08:41:27.539412 23006 net.cpp:150] Setting up upscore
I0920 08:41:27.539423 23006 net.cpp:157] Top shape: 256 4 152 152 (23658496)
I0920 08:41:27.539428 23006 net.cpp:165] Memory required for data: 1700069376
I0920 08:41:27.539435 23006 layer_factory.hpp:77] Creating layer cropscore
I0920 08:41:27.539451 23006 net.cpp:100] Creating Layer cropscore
I0920 08:41:27.539458 23006 net.cpp:434] cropscore <- upscore
I0920 08:41:27.539464 23006 net.cpp:434] cropscore <- image_data_0_split_1
I0920 08:41:27.539472 23006 net.cpp:408] cropscore -> cropscore
I0920 08:41:27.539504 23006 net.cpp:150] Setting up cropscore
I0920 08:41:27.539512 23006 net.cpp:157] Top shape: 256 4 128 128 (16777216)
I0920 08:41:27.539527 23006 net.cpp:165] Memory required for data: 1767178240
I0920 08:41:27.539543 23006 layer_factory.hpp:77] Creating layer cropscore_cropscore_0_split
I0920 08:41:27.539556 23006 net.cpp:100] Creating Layer cropscore_cropscore_0_split
I0920 08:41:27.539561 23006 net.cpp:434] cropscore_cropscore_0_split <- cropscore
I0920 08:41:27.539568 23006 net.cpp:408] cropscore_cropscore_0_split -> cropscore_cropscore_0_split_0
I0920 08:41:27.539577 23006 net.cpp:408] cropscore_cropscore_0_split -> cropscore_cropscore_0_split_1
I0920 08:41:27.539623 23006 net.cpp:150] Setting up cropscore_cropscore_0_split
I0920 08:41:27.539633 23006 net.cpp:157] Top shape: 256 4 128 128 (16777216)
I0920 08:41:27.539640 23006 net.cpp:157] Top shape: 256 4 128 128 (16777216)
I0920 08:41:27.539645 23006 net.cpp:165] Memory required for data: 1901395968
I0920 08:41:27.539650 23006 layer_factory.hpp:77] Creating layer loss
I0920 08:41:27.539660 23006 net.cpp:100] Creating Layer loss
I0920 08:41:27.539667 23006 net.cpp:434] loss <- cropscore_cropscore_0_split_0
I0920 08:41:27.539674 23006 net.cpp:434] loss <- label_data_1_split_0
I0920 08:41:27.539681 23006 net.cpp:408] loss -> loss
…
