…
I0920 17:08:23.746785 11855 solver.cpp:91] Creating training net from net file: portrait_train_test_three_stage128.prototxt
I0920 17:08:23.747603 11855 net.cpp:322] The NetState phase (0) differed from the phase (1) specified by a rule in layer data
I0920 17:08:23.747834 11855 net.cpp:58] Initializing net from parameters: 
name: "segmentation"
state {
  phase: TRAIN
  level: 0
  stage: ""
}
layer {
  name: "data"
  type: "SegData"
  top: "image"
  top: "label"
  include {
    phase: TRAIN
  }
  transform_param {
    mirror: true
    crop_size: 128
  }
  data_param {
    source: "/raid/xuehan/segmentation128_train_split"
    batch_size: 256
    backend: LMDB
  }
}
layer {
  name: "conv1_1"
  type: "Convolution"
  bottom: "image"
  top: "conv1_1"
  param {
    lr_mult: 1
    decay_mult: 1
  }
  convolution_param {
    num_output: 8
    bias_term: false
    pad: 1
    kernel_size: 3
    stride: 1
    weight_filler {
      type: "gaussian"
      std: 0.01
    }
  }
}
layer {
  name: "pool1"
  type: "Pooling"
  bottom: "conv1_1"
  top: "pool1"
  pooling_param {
    pool: MAX
    kernel_size: 2
    stride: 2
  }
}
layer {
  name: "conv1_1_bn"
  type: "BatchNorm"
  bottom: "pool1"
  top: "conv1_1_bn"
  param {
    lr_mult: 0
  }
  param {
    lr_mult: 0
  }
  param {
    lr_mult: 0
  }
}
layer {
  name: "conv1_1_bn_scale"
  type: "Scale"
  bottom: "conv1_1_bn"
  top: "conv1_1_bn"
  scale_param {
    bias_term: true
  }
}
layer {
  name: "conv1_1_relu"
  type: "ReLU"
  bottom: "conv1_1_bn"
  top: "conv1_1_bn"
}
layer {
  name: "conv2_1"
  type: "Convolution"
  bottom: "conv1_1_bn"
  top: "conv2_1"
  param {
    lr_mult: 1
    decay_mult: 1
  }
  convolution_param {
    num_output: 16
    bias_term: false
    pad: 1
    kernel_size: 3
    stride: 1
    weight_filler {
      type: "gaussian"
      std: 0.01
    }
  }
}
layer {
  name: "pool2"
  type: "Pooling"
  bottom: "conv2_1"
  top: "pool2"
  pooling_param {
    pool: MAX
    kernel_size: 2
    stride: 2
  }
}
layer {
  name: "conv2_1_bn"
  type: "BatchNorm"
  bottom: "pool2"
  top: "conv2_1_bn"
  param {
    lr_mult: 0
  }
  param {
    lr_mult: 0
  }
  param {
    lr_mult: 0
  }
}
layer {
  name: "conv2_1_bn_scale"
  type: "Scale"
  bottom: "conv2_1_bn"
  top: "conv2_1_bn"
  scale_param {
    bias_term: true
  }
}
layer {
  name: "conv2_1_relu"
  type: "ReLU"
  bottom: "conv2_1_bn"
  top: "conv2_1_bn"
}
layer {
  name: "conv3_1"
  type: "Convolution"
  bottom: "conv2_1_bn"
  top: "conv3_1"
  param {
    lr_mult: 1
    decay_mult: 1
  }
  convolution_param {
    num_output: 32
    bias_term: false
    pad: 1
    kernel_size: 3
    stride: 1
    weight_filler {
      type: "gaussian"
      std: 0.01
    }
  }
}
layer {
  name: "pool3"
  type: "Pooling"
  bottom: "conv3_1"
  top: "pool3"
  pooling_param {
    pool: MAX
    kernel_size: 2
    stride: 2
  }
}
layer {
  name: "conv3_1_bn"
  type: "BatchNorm"
  bottom: "pool3"
  top: "conv3_1_bn"
  param {
    lr_mult: 0
  }
  param {
    lr_mult: 0
  }
  param {
    lr_mult: 0
  }
}
layer {
  name: "conv3_1_bn_scale"
  type: "Scale"
  bottom: "conv3_1_bn"
  top: "conv3_1_bn"
  scale_param {
    bias_term: true
  }
}
layer {
  name: "conv3_1_relu"
  type: "ReLU"
  bottom: "conv3_1_bn"
  top: "conv3_1_bn"
}
layer {
  name: "score1"
  type: "Convolution"
  bottom: "conv3_1_bn"
  top: "score1"
  param {
    lr_mult: 1
    decay_mult: 1
  }
  param {
    lr_mult: 2
    decay_mult: 0
  }
  convolution_param {
    num_output: 4
    pad: 0
    kernel_size: 1
    stride: 1
    weight_filler {
      type: "gaussian"
      std: 0.01
    }
    bias_filler {
      type: "constant"
    }
  }
}
layer {
  name: "upscore1"
  type: "Deconvolution"
  bottom: "score1"
  top: "upscore1"
  param {
    lr_mult: 1
    decay_mult: 1
  }
  convolution_param {
    num_output: 4
    bias_term: false
    pad: 0
    kernel_size: 16
    stride: 8
    weight_filler {
      type: "gaussian"
      std: 0.01
    }
  }
}
layer {
  name: "cropscore1"
  type: "Crop"
  bottom: "upscore1"
  bottom: "image"
  top: "cropscore1"
  crop_param {
    axis: 2
    offset: 8
  }
}
layer {
  name: "pool_score"
  type: "Pooling"
  bottom: "cropscore1"
  top: "pool_score"
  pooling_param {
    pool: AVE
    kernel_size: 9
    stride: 8
  }
}
layer {
  name: "concat"
  type: "Concat"
  bottom: "conv3_1_bn"
  bottom: "pool_score"
  top: "concat_score"
  concat_param {
    axis: 1
  }
}
layer {
  name: "loss1"
  type: "SoftmaxWithLoss"
  bottom: "cropscore1"
  bottom: "label"
  top: "loss1"
  loss_weight: 1
  loss_param {
    normalize: false
  }
}
layer {
  name: "accuracy1"
  type: "Accuracy"
  bottom: "cropscore1"
  bottom: "label"
  top: "accuracy1"
}
layer {
  name: "conv5_1"
  type: "Convolution"
  bottom: "concat_score"
  top: "conv5_1"
  param {
    lr_mult: 1
    decay_mult: 1
  }
  convolution_param {
    num_output: 64
    bias_term: false
    pad: 1
    kernel_size: 3
    stride: 1
    weight_filler {
      type: "gaussian"
      std: 0.01
    }
  }
}
layer {
  name: "conv5_1_bn"
  type: "BatchNorm"
  bottom: "conv5_1"
  top: "conv5_1_bn"
  param {
    lr_mult: 0
  }
  param {
    lr_mult: 0
  }
  param {
    lr_mult: 0
  }
}
layer {
  name: "conv5_1_bn_scale"
  type: "Scale"
  bottom: "conv5_1_bn"
  top: "conv5_1_bn"
  scale_param {
    bias_term: true
  }
}
layer {
  name: "conv5_1_relu"
  type: "ReLU"
  bottom: "conv5_1_bn"
  top: "conv5_1_bn"
}
layer {
  name: "conv6_1"
  type: "Convolution"
  bottom: "conv5_1_bn"
  top: "conv6_1"
  param {
    lr_mult: 1
    decay_mult: 1
  }
  convolution_param {
    num_output: 64
    bias_term: false
    pad: 1
    kernel_size: 3
    stride: 1
    weight_filler {
      type: "gaussian"
      std: 0.01
    }
  }
}
layer {
  name: "conv6_1_bn"
  type: "BatchNorm"
  bottom: "conv6_1"
  top: "conv6_1_bn"
  param {
    lr_mult: 0
  }
  param {
    lr_mult: 0
  }
  param {
    lr_mult: 0
  }
}
layer {
  name: "conv6_1_bn_scale"
  type: "Scale"
  bottom: "conv6_1_bn"
  top: "conv6_1_bn"
  scale_param {
    bias_term: true
  }
}
layer {
  name: "conv6_1_relu"
  type: "ReLU"
  bottom: "conv6_1_bn"
  top: "conv6_1_bn"
}
layer {
  name: "conv7_1"
  type: "Convolution"
  bottom: "conv6_1_bn"
  top: "conv7_1"
  param {
    lr_mult: 1
    decay_mult: 1
  }
  convolution_param {
    num_output: 128
    bias_term: false
    pad: 1
    kernel_size: 3
    stride: 1
    weight_filler {
      type: "gaussian"
      std: 0.01
    }
  }
}
layer {
  name: "conv7_1_bn"
  type: "BatchNorm"
  bottom: "conv7_1"
  top: "conv7_1_bn"
  param {
    lr_mult: 0
  }
  param {
    lr_mult: 0
  }
  param {
    lr_mult: 0
  }
}
layer {
  name: "conv7_1_bn_scale"
  type: "Scale"
  bottom: "conv7_1_bn"
  top: "conv7_1_bn"
  scale_param {
    bias_term: true
  }
}
layer {
  name: "conv7_1_relu"
  type: "ReLU"
  bottom: "conv7_1_bn"
  top: "conv7_1_bn"
}
layer {
  name: "score2"
  type: "Convolution"
  bottom: "conv7_1_bn"
  top: "score2"
  param {
    lr_mult: 1
    decay_mult: 1
  }
  param {
    lr_mult: 2
    decay_mult: 0
  }
  convolution_param {
    num_output: 4
    pad: 0
    kernel_size: 1
    stride: 1
    weight_filler {
      type: "gaussian"
      std: 0.01
    }
    bias_filler {
      type: "constant"
    }
  }
}
layer {
  name: "upscore2"
  type: "Deconvolution"
  bottom: "score2"
  top: "upscore2"
  param {
    lr_mult: 1
    decay_mult: 1
  }
  convolution_param {
    num_output: 4
    bias_term: false
    pad: 0
    kernel_size: 16
    stride: 8
    weight_filler {
      type: "gaussian"
      std: 0.01
    }
  }
}
layer {
  name: "cropscore2"
  type: "Crop"
  bottom: "upscore2"
  bottom: "image"
  top: "cropscore2"
  crop_param {
    axis: 2
    offset: 8
  }
}
layer {
  name: "loss2"
  type: "SoftmaxWithLoss"
  bottom: "cropscore2"
  bottom: "label"
  top: "loss2"
  loss_weight: 1
  loss_param {
    normalize: false
  }
}
layer {
  name: "accuracy2"
  type: "Accuracy"
  bottom: "cropscore2"
  bottom: "label"
  top: "accuracy2"
}
layer {
  name: "pool_score2"
  type: "Pooling"
  bottom: "cropscore2"
  top: "pool_score2"
  pooling_param {
    pool: AVE
    kernel_size: 9
    stride: 8
  }
}
layer {
  name: "concat"
  type: "Concat"
  bottom: "conv3_1_bn"
  bottom: "pool_score2"
  top: "concat_score2"
  concat_param {
    axis: 1
  }
}
layer {
  name: "conv5_2"
  type: "Convolution"
  bottom: "concat_score2"
  top: "conv5_2"
  param {
    lr_mult: 1
    decay_mult: 1
  }
  convolution_param {
    num_output: 64
    bias_term: false
    pad: 1
    kernel_size: 3
    stride: 1
    weight_filler {
      type: "gaussian"
      std: 0.01
    }
  }
}
layer {
  name: "conv5_2_bn"
  type: "BatchNorm"
  bottom: "conv5_2"
  top: "conv5_2_bn"
  param {
    lr_mult: 0
  }
  param {
    lr_mult: 0
  }
  param {
    lr_mult: 0
  }
}
layer {
  name: "conv5_2_bn_scale"
  type: "Scale"
  bottom: "conv5_2_bn"
  top: "conv5_2_bn"
  scale_param {
    bias_term: true
  }
}
layer {
  name: "conv5_2_relu"
  type: "ReLU"
  bottom: "conv5_2_bn"
  top: "conv5_2_bn"
}
layer {
  name: "conv6_2"
  type: "Convolution"
  bottom: "conv5_2_bn"
  top: "conv6_2"
  param {
    lr_mult: 1
    decay_mult: 1
  }
  convolution_param {
    num_output: 64
    bias_term: false
    pad: 1
    kernel_size: 3
    stride: 1
    weight_filler {
      type: "gaussian"
      std: 0.01
    }
  }
}
layer {
  name: "conv6_2_bn"
  type: "BatchNorm"
  bottom: "conv6_2"
  top: "conv6_2_bn"
  param {
    lr_mult: 0
  }
  param {
    lr_mult: 0
  }
  param {
    lr_mult: 0
  }
}
layer {
  name: "conv6_2_bn_scale"
  type: "Scale"
  bottom: "conv6_2_bn"
  top: "conv6_2_bn"
  scale_param {
    bias_term: true
  }
}
layer {
  name: "conv6_2_relu"
  type: "ReLU"
  bottom: "conv6_2_bn"
  top: "conv6_2_bn"
}
layer {
  name: "conv7_2"
  type: "Convolution"
  bottom: "conv6_2_bn"
  top: "conv7_2"
  param {
    lr_mult: 1
    decay_mult: 1
  }
  convolution_param {
    num_output: 128
    bias_term: false
    pad: 1
    kernel_size: 3
    stride: 1
    weight_filler {
      type: "gaussian"
      std: 0.01
    }
  }
}
layer {
  name: "conv7_2_bn"
  type: "BatchNorm"
  bottom: "conv7_2"
  top: "conv7_2_bn"
  param {
    lr_mult: 0
  }
  param {
    lr_mult: 0
  }
  param {
    lr_mult: 0
  }
}
layer {
  name: "conv7_2_bn_scale"
  type: "Scale"
  bottom: "conv7_2_bn"
  top: "conv7_2_bn"
  scale_param {
    bias_term: true
  }
}
layer {
  name: "conv7_2_relu"
  type: "ReLU"
  bottom: "conv7_2_bn"
  top: "conv7_2_bn"
}
layer {
  name: "score3"
  type: "Convolution"
  bottom: "conv7_2_bn"
  top: "score3"
  param {
    lr_mult: 1
    decay_mult: 1
  }
  param {
    lr_mult: 2
    decay_mult: 0
  }
  convolution_param {
    num_output: 4
    pad: 0
    kernel_size: 1
    stride: 1
    weight_filler {
      type: "gaussian"
      std: 0.01
    }
    bias_filler {
      type: "constant"
    }
  }
}
layer {
  name: "upscore3"
  type: "Deconvolution"
  bottom: "score3"
  top: "upscore3"
  param {
    lr_mult: 1
    decay_mult: 1
  }
  convolution_param {
    num_output: 4
    bias_term: false
    pad: 0
    kernel_size: 16
    stride: 8
    weight_filler {
      type: "gaussian"
      std: 0.01
    }
  }
}
layer {
  name: "cropscore3"
  type: "Crop"
  bottom: "upscore3"
  bottom: "image"
  top: "cropscore3"
  crop_param {
    axis: 2
    offset: 8
  }
}
layer {
  name: "loss3"
  type: "SoftmaxWithLoss"
  bottom: "cropscore3"
  bottom: "label"
  top: "loss3"
  loss_weight: 1
  loss_param {
    normalize: false
  }
}
layer {
  name: "accuracy3"
  type: "Accuracy"
  bottom: "cropscore3"
  bottom: "label"
  top: "accuracy3"
}
I0920 17:08:23.748064 11855 layer_factory.hpp:77] Creating layer data
I0920 17:08:23.748561 11855 net.cpp:100] Creating Layer data
I0920 17:08:23.748579 11855 net.cpp:408] data -> image
I0920 17:08:23.748599 11855 net.cpp:408] data -> label
I0920 17:08:23.749497 11861 db_lmdb.cpp:35] Opened lmdb /raid/xuehan/segmentation128_train_split
I0920 17:08:23.749608 11855 seg_data_layer.cpp:38] 128 128 4
I0920 17:08:23.756883 11855 seg_data_layer.cpp:51] output data size: 256,3,128,128
I0920 17:08:23.756942 11855 seg_data_layer.cpp:63] output label size: 256,1,128,128
I0920 17:08:23.841301 11855 net.cpp:150] Setting up data
I0920 17:08:23.841331 11855 net.cpp:157] Top shape: 256 3 128 128 (12582912)
I0920 17:08:23.841336 11855 net.cpp:157] Top shape: 256 1 128 128 (4194304)
I0920 17:08:23.841339 11855 net.cpp:165] Memory required for data: 67108864
I0920 17:08:23.841348 11855 layer_factory.hpp:77] Creating layer image_data_0_split
I0920 17:08:23.841359 11855 net.cpp:100] Creating Layer image_data_0_split
I0920 17:08:23.841364 11855 net.cpp:434] image_data_0_split <- image
I0920 17:08:23.841377 11855 net.cpp:408] image_data_0_split -> image_data_0_split_0
I0920 17:08:23.841385 11855 net.cpp:408] image_data_0_split -> image_data_0_split_1
I0920 17:08:23.841390 11855 net.cpp:408] image_data_0_split -> image_data_0_split_2
I0920 17:08:23.841395 11855 net.cpp:408] image_data_0_split -> image_data_0_split_3
I0920 17:08:23.841447 11855 net.cpp:150] Setting up image_data_0_split
I0920 17:08:23.841454 11855 net.cpp:157] Top shape: 256 3 128 128 (12582912)
I0920 17:08:23.841456 11855 net.cpp:157] Top shape: 256 3 128 128 (12582912)
I0920 17:08:23.841461 11855 net.cpp:157] Top shape: 256 3 128 128 (12582912)
I0920 17:08:23.841464 11855 net.cpp:157] Top shape: 256 3 128 128 (12582912)
I0920 17:08:23.841466 11855 net.cpp:165] Memory required for data: 268435456
I0920 17:08:23.841470 11855 layer_factory.hpp:77] Creating layer label_data_1_split
I0920 17:08:23.841475 11855 net.cpp:100] Creating Layer label_data_1_split
I0920 17:08:23.841477 11855 net.cpp:434] label_data_1_split <- label
I0920 17:08:23.841482 11855 net.cpp:408] label_data_1_split -> label_data_1_split_0
I0920 17:08:23.841487 11855 net.cpp:408] label_data_1_split -> label_data_1_split_1
I0920 17:08:23.841491 11855 net.cpp:408] label_data_1_split -> label_data_1_split_2
I0920 17:08:23.841495 11855 net.cpp:408] label_data_1_split -> label_data_1_split_3
I0920 17:08:23.841500 11855 net.cpp:408] label_data_1_split -> label_data_1_split_4
I0920 17:08:23.841503 11855 net.cpp:408] label_data_1_split -> label_data_1_split_5
I0920 17:08:23.841554 11855 net.cpp:150] Setting up label_data_1_split
I0920 17:08:23.841558 11855 net.cpp:157] Top shape: 256 1 128 128 (4194304)
I0920 17:08:23.841562 11855 net.cpp:157] Top shape: 256 1 128 128 (4194304)
I0920 17:08:23.841565 11855 net.cpp:157] Top shape: 256 1 128 128 (4194304)
I0920 17:08:23.841568 11855 net.cpp:157] Top shape: 256 1 128 128 (4194304)
I0920 17:08:23.841572 11855 net.cpp:157] Top shape: 256 1 128 128 (4194304)
I0920 17:08:23.841574 11855 net.cpp:157] Top shape: 256 1 128 128 (4194304)
I0920 17:08:23.841576 11855 net.cpp:165] Memory required for data: 369098752
I0920 17:08:23.841579 11855 layer_factory.hpp:77] Creating layer conv1_1
I0920 17:08:23.841591 11855 net.cpp:100] Creating Layer conv1_1
I0920 17:08:23.841595 11855 net.cpp:434] conv1_1 <- image_data_0_split_0
I0920 17:08:23.841599 11855 net.cpp:408] conv1_1 -> conv1_1
I0920 17:08:23.841748 11855 net.cpp:150] Setting up conv1_1
I0920 17:08:23.841755 11855 net.cpp:157] Top shape: 256 8 128 128 (33554432)
I0920 17:08:23.841758 11855 net.cpp:165] Memory required for data: 503316480
I0920 17:08:23.841768 11855 layer_factory.hpp:77] Creating layer pool1
I0920 17:08:23.841773 11855 net.cpp:100] Creating Layer pool1
I0920 17:08:23.841776 11855 net.cpp:434] pool1 <- conv1_1
I0920 17:08:23.841780 11855 net.cpp:408] pool1 -> pool1
I0920 17:08:23.841809 11855 net.cpp:150] Setting up pool1
I0920 17:08:23.841814 11855 net.cpp:157] Top shape: 256 8 64 64 (8388608)
I0920 17:08:23.841816 11855 net.cpp:165] Memory required for data: 536870912
I0920 17:08:23.841820 11855 layer_factory.hpp:77] Creating layer conv1_1_bn
I0920 17:08:23.841825 11855 net.cpp:100] Creating Layer conv1_1_bn
I0920 17:08:23.841827 11855 net.cpp:434] conv1_1_bn <- pool1
I0920 17:08:23.841840 11855 net.cpp:408] conv1_1_bn -> conv1_1_bn
I0920 17:08:23.842401 11855 net.cpp:150] Setting up conv1_1_bn
I0920 17:08:23.842412 11855 net.cpp:157] Top shape: 256 8 64 64 (8388608)
I0920 17:08:23.842416 11855 net.cpp:165] Memory required for data: 570425344
I0920 17:08:23.842424 11855 layer_factory.hpp:77] Creating layer conv1_1_bn_scale
I0920 17:08:23.842432 11855 net.cpp:100] Creating Layer conv1_1_bn_scale
I0920 17:08:23.842434 11855 net.cpp:434] conv1_1_bn_scale <- conv1_1_bn
I0920 17:08:23.842438 11855 net.cpp:395] conv1_1_bn_scale -> conv1_1_bn (in-place)
I0920 17:08:23.847769 11855 layer_factory.hpp:77] Creating layer conv1_1_bn_scale
I0920 17:08:23.847851 11855 net.cpp:150] Setting up conv1_1_bn_scale
I0920 17:08:23.847856 11855 net.cpp:157] Top shape: 256 8 64 64 (8388608)
I0920 17:08:23.847858 11855 net.cpp:165] Memory required for data: 603979776
I0920 17:08:23.847865 11855 layer_factory.hpp:77] Creating layer conv1_1_relu
I0920 17:08:23.847872 11855 net.cpp:100] Creating Layer conv1_1_relu
I0920 17:08:23.847875 11855 net.cpp:434] conv1_1_relu <- conv1_1_bn
I0920 17:08:23.847879 11855 net.cpp:395] conv1_1_relu -> conv1_1_bn (in-place)
I0920 17:08:23.847884 11855 net.cpp:150] Setting up conv1_1_relu
I0920 17:08:23.847887 11855 net.cpp:157] Top shape: 256 8 64 64 (8388608)
I0920 17:08:23.847889 11855 net.cpp:165] Memory required for data: 637534208
I0920 17:08:23.847892 11855 layer_factory.hpp:77] Creating layer conv2_1
I0920 17:08:23.847900 11855 net.cpp:100] Creating Layer conv2_1
I0920 17:08:23.847903 11855 net.cpp:434] conv2_1 <- conv1_1_bn
I0920 17:08:23.847908 11855 net.cpp:408] conv2_1 -> conv2_1
I0920 17:08:23.848050 11855 net.cpp:150] Setting up conv2_1
I0920 17:08:23.848057 11855 net.cpp:157] Top shape: 256 16 64 64 (16777216)
I0920 17:08:23.848058 11855 net.cpp:165] Memory required for data: 704643072
I0920 17:08:23.848063 11855 layer_factory.hpp:77] Creating layer pool2
I0920 17:08:23.848068 11855 net.cpp:100] Creating Layer pool2
I0920 17:08:23.848070 11855 net.cpp:434] pool2 <- conv2_1
I0920 17:08:23.848074 11855 net.cpp:408] pool2 -> pool2
I0920 17:08:23.848099 11855 net.cpp:150] Setting up pool2
I0920 17:08:23.848104 11855 net.cpp:157] Top shape: 256 16 32 32 (4194304)
I0920 17:08:23.848106 11855 net.cpp:165] Memory required for data: 721420288
I0920 17:08:23.848109 11855 layer_factory.hpp:77] Creating layer conv2_1_bn
I0920 17:08:23.848114 11855 net.cpp:100] Creating Layer conv2_1_bn
I0920 17:08:23.848116 11855 net.cpp:434] conv2_1_bn <- pool2
I0920 17:08:23.848121 11855 net.cpp:408] conv2_1_bn -> conv2_1_bn
I0920 17:08:23.848625 11855 net.cpp:150] Setting up conv2_1_bn
I0920 17:08:23.848634 11855 net.cpp:157] Top shape: 256 16 32 32 (4194304)
I0920 17:08:23.848637 11855 net.cpp:165] Memory required for data: 738197504
I0920 17:08:23.848646 11855 layer_factory.hpp:77] Creating layer conv2_1_bn_scale
I0920 17:08:23.848652 11855 net.cpp:100] Creating Layer conv2_1_bn_scale
I0920 17:08:23.848655 11855 net.cpp:434] conv2_1_bn_scale <- conv2_1_bn
I0920 17:08:23.848660 11855 net.cpp:395] conv2_1_bn_scale -> conv2_1_bn (in-place)
I0920 17:08:23.848686 11855 layer_factory.hpp:77] Creating layer conv2_1_bn_scale
I0920 17:08:23.848757 11855 net.cpp:150] Setting up conv2_1_bn_scale
I0920 17:08:23.848762 11855 net.cpp:157] Top shape: 256 16 32 32 (4194304)
I0920 17:08:23.848763 11855 net.cpp:165] Memory required for data: 754974720
I0920 17:08:23.848768 11855 layer_factory.hpp:77] Creating layer conv2_1_relu
I0920 17:08:23.848774 11855 net.cpp:100] Creating Layer conv2_1_relu
I0920 17:08:23.848778 11855 net.cpp:434] conv2_1_relu <- conv2_1_bn
I0920 17:08:23.848780 11855 net.cpp:395] conv2_1_relu -> conv2_1_bn (in-place)
I0920 17:08:23.848784 11855 net.cpp:150] Setting up conv2_1_relu
I0920 17:08:23.848788 11855 net.cpp:157] Top shape: 256 16 32 32 (4194304)
I0920 17:08:23.848790 11855 net.cpp:165] Memory required for data: 771751936
I0920 17:08:23.848793 11855 layer_factory.hpp:77] Creating layer conv3_1
I0920 17:08:23.848800 11855 net.cpp:100] Creating Layer conv3_1
I0920 17:08:23.848809 11855 net.cpp:434] conv3_1 <- conv2_1_bn
I0920 17:08:23.848821 11855 net.cpp:408] conv3_1 -> conv3_1
I0920 17:08:23.849407 11855 net.cpp:150] Setting up conv3_1
I0920 17:08:23.849416 11855 net.cpp:157] Top shape: 256 32 32 32 (8388608)
I0920 17:08:23.849419 11855 net.cpp:165] Memory required for data: 805306368
I0920 17:08:23.849423 11855 layer_factory.hpp:77] Creating layer pool3
I0920 17:08:23.849429 11855 net.cpp:100] Creating Layer pool3
I0920 17:08:23.849432 11855 net.cpp:434] pool3 <- conv3_1
I0920 17:08:23.849437 11855 net.cpp:408] pool3 -> pool3
I0920 17:08:23.849462 11855 net.cpp:150] Setting up pool3
I0920 17:08:23.849465 11855 net.cpp:157] Top shape: 256 32 16 16 (2097152)
I0920 17:08:23.849468 11855 net.cpp:165] Memory required for data: 813694976
I0920 17:08:23.849472 11855 layer_factory.hpp:77] Creating layer conv3_1_bn
I0920 17:08:23.849478 11855 net.cpp:100] Creating Layer conv3_1_bn
I0920 17:08:23.849480 11855 net.cpp:434] conv3_1_bn <- pool3
I0920 17:08:23.849484 11855 net.cpp:408] conv3_1_bn -> conv3_1_bn
I0920 17:08:23.849611 11855 net.cpp:150] Setting up conv3_1_bn
I0920 17:08:23.849617 11855 net.cpp:157] Top shape: 256 32 16 16 (2097152)
I0920 17:08:23.849618 11855 net.cpp:165] Memory required for data: 822083584
I0920 17:08:23.849624 11855 layer_factory.hpp:77] Creating layer conv3_1_bn_scale
I0920 17:08:23.849629 11855 net.cpp:100] Creating Layer conv3_1_bn_scale
I0920 17:08:23.849632 11855 net.cpp:434] conv3_1_bn_scale <- conv3_1_bn
I0920 17:08:23.849637 11855 net.cpp:395] conv3_1_bn_scale -> conv3_1_bn (in-place)
I0920 17:08:23.849661 11855 layer_factory.hpp:77] Creating layer conv3_1_bn_scale
I0920 17:08:23.849733 11855 net.cpp:150] Setting up conv3_1_bn_scale
I0920 17:08:23.849740 11855 net.cpp:157] Top shape: 256 32 16 16 (2097152)
I0920 17:08:23.849742 11855 net.cpp:165] Memory required for data: 830472192
I0920 17:08:23.849750 11855 layer_factory.hpp:77] Creating layer conv3_1_relu
I0920 17:08:23.849753 11855 net.cpp:100] Creating Layer conv3_1_relu
I0920 17:08:23.849756 11855 net.cpp:434] conv3_1_relu <- conv3_1_bn
I0920 17:08:23.849761 11855 net.cpp:395] conv3_1_relu -> conv3_1_bn (in-place)
I0920 17:08:23.849766 11855 net.cpp:150] Setting up conv3_1_relu
I0920 17:08:23.849769 11855 net.cpp:157] Top shape: 256 32 16 16 (2097152)
I0920 17:08:23.849772 11855 net.cpp:165] Memory required for data: 838860800
I0920 17:08:23.849774 11855 layer_factory.hpp:77] Creating layer conv3_1_bn_conv3_1_relu_0_split
I0920 17:08:23.849779 11855 net.cpp:100] Creating Layer conv3_1_bn_conv3_1_relu_0_split
I0920 17:08:23.849782 11855 net.cpp:434] conv3_1_bn_conv3_1_relu_0_split <- conv3_1_bn
I0920 17:08:23.849787 11855 net.cpp:408] conv3_1_bn_conv3_1_relu_0_split -> conv3_1_bn_conv3_1_relu_0_split_0
I0920 17:08:23.849792 11855 net.cpp:408] conv3_1_bn_conv3_1_relu_0_split -> conv3_1_bn_conv3_1_relu_0_split_1
I0920 17:08:23.849795 11855 net.cpp:408] conv3_1_bn_conv3_1_relu_0_split -> conv3_1_bn_conv3_1_relu_0_split_2
I0920 17:08:23.849822 11855 net.cpp:150] Setting up conv3_1_bn_conv3_1_relu_0_split
I0920 17:08:23.849828 11855 net.cpp:157] Top shape: 256 32 16 16 (2097152)
I0920 17:08:23.849830 11855 net.cpp:157] Top shape: 256 32 16 16 (2097152)
I0920 17:08:23.849833 11855 net.cpp:157] Top shape: 256 32 16 16 (2097152)
I0920 17:08:23.849835 11855 net.cpp:165] Memory required for data: 864026624
I0920 17:08:23.849838 11855 layer_factory.hpp:77] Creating layer score1
I0920 17:08:23.849848 11855 net.cpp:100] Creating Layer score1
I0920 17:08:23.849850 11855 net.cpp:434] score1 <- conv3_1_bn_conv3_1_relu_0_split_0
I0920 17:08:23.849854 11855 net.cpp:408] score1 -> score1
I0920 17:08:23.849998 11855 net.cpp:150] Setting up score1
I0920 17:08:23.850004 11855 net.cpp:157] Top shape: 256 4 16 16 (262144)
I0920 17:08:23.850006 11855 net.cpp:165] Memory required for data: 865075200
I0920 17:08:23.850011 11855 layer_factory.hpp:77] Creating layer upscore1
I0920 17:08:23.850018 11855 net.cpp:100] Creating Layer upscore1
I0920 17:08:23.850021 11855 net.cpp:434] upscore1 <- score1
I0920 17:08:23.850029 11855 net.cpp:408] upscore1 -> upscore1
I0920 17:08:23.850239 11855 net.cpp:150] Setting up upscore1
I0920 17:08:23.850244 11855 net.cpp:157] Top shape: 256 4 136 136 (18939904)
I0920 17:08:23.850246 11855 net.cpp:165] Memory required for data: 940834816
I0920 17:08:23.850250 11855 layer_factory.hpp:77] Creating layer cropscore1
I0920 17:08:23.850255 11855 net.cpp:100] Creating Layer cropscore1
I0920 17:08:23.850258 11855 net.cpp:434] cropscore1 <- upscore1
I0920 17:08:23.850262 11855 net.cpp:434] cropscore1 <- image_data_0_split_1
I0920 17:08:23.850266 11855 net.cpp:408] cropscore1 -> cropscore1
I0920 17:08:23.850286 11855 net.cpp:150] Setting up cropscore1
I0920 17:08:23.850289 11855 net.cpp:157] Top shape: 256 4 128 128 (16777216)
I0920 17:08:23.850292 11855 net.cpp:165] Memory required for data: 1007943680
I0920 17:08:23.850294 11855 layer_factory.hpp:77] Creating layer cropscore1_cropscore1_0_split
I0920 17:08:23.850299 11855 net.cpp:100] Creating Layer cropscore1_cropscore1_0_split
I0920 17:08:23.850301 11855 net.cpp:434] cropscore1_cropscore1_0_split <- cropscore1
I0920 17:08:23.850306 11855 net.cpp:408] cropscore1_cropscore1_0_split -> cropscore1_cropscore1_0_split_0
I0920 17:08:23.850309 11855 net.cpp:408] cropscore1_cropscore1_0_split -> cropscore1_cropscore1_0_split_1
I0920 17:08:23.850314 11855 net.cpp:408] cropscore1_cropscore1_0_split -> cropscore1_cropscore1_0_split_2
I0920 17:08:23.850343 11855 net.cpp:150] Setting up cropscore1_cropscore1_0_split
I0920 17:08:23.850347 11855 net.cpp:157] Top shape: 256 4 128 128 (16777216)
I0920 17:08:23.850352 11855 net.cpp:157] Top shape: 256 4 128 128 (16777216)
I0920 17:08:23.850354 11855 net.cpp:157] Top shape: 256 4 128 128 (16777216)
I0920 17:08:23.850356 11855 net.cpp:165] Memory required for data: 1209270272
I0920 17:08:23.850359 11855 layer_factory.hpp:77] Creating layer pool_score
I0920 17:08:23.850364 11855 net.cpp:100] Creating Layer pool_score
I0920 17:08:23.850375 11855 net.cpp:434] pool_score <- cropscore1_cropscore1_0_split_0
I0920 17:08:23.850380 11855 net.cpp:408] pool_score -> pool_score
I0920 17:08:23.850396 11855 net.cpp:150] Setting up pool_score
I0920 17:08:23.850400 11855 net.cpp:157] Top shape: 256 4 16 16 (262144)
I0920 17:08:23.850402 11855 net.cpp:165] Memory required for data: 1210318848
I0920 17:08:23.850405 11855 layer_factory.hpp:77] Creating layer concat
I0920 17:08:23.850411 11855 net.cpp:100] Creating Layer concat
I0920 17:08:23.850414 11855 net.cpp:434] concat <- conv3_1_bn_conv3_1_relu_0_split_1
I0920 17:08:23.850419 11855 net.cpp:434] concat <- pool_score
I0920 17:08:23.850421 11855 net.cpp:408] concat -> concat_score
I0920 17:08:23.850438 11855 net.cpp:150] Setting up concat
I0920 17:08:23.850442 11855 net.cpp:157] Top shape: 256 36 16 16 (2359296)
I0920 17:08:23.850445 11855 net.cpp:165] Memory required for data: 1219756032
I0920 17:08:23.850447 11855 layer_factory.hpp:77] Creating layer loss1
I0920 17:08:23.850452 11855 net.cpp:100] Creating Layer loss1
I0920 17:08:23.850455 11855 net.cpp:434] loss1 <- cropscore1_cropscore1_0_split_1
I0920 17:08:23.850458 11855 net.cpp:434] loss1 <- label_data_1_split_0
I0920 17:08:23.850463 11855 net.cpp:408] loss1 -> loss1
…
I0920 17:08:23.878531 11855 net.cpp:408] accuracy1 -> accuracy1
I0920 17:08:23.878540 11855 net.cpp:150] Setting up accuracy1
I0920 17:08:23.878543 11855 net.cpp:157] Top shape: (1)
I0920 17:08:23.878546 11855 net.cpp:165] Memory required for data: 1219756040
I0920 17:08:23.878556 11855 layer_factory.hpp:77] Creating layer conv5_1
I0920 17:08:23.878574 11855 net.cpp:100] Creating Layer conv5_1
I0920 17:08:23.878578 11855 net.cpp:434] conv5_1 <- concat_score
I0920 17:08:23.878583 11855 net.cpp:408] conv5_1 -> conv5_1
I0920 17:08:23.879647 11855 net.cpp:150] Setting up conv5_1
I0920 17:08:23.879658 11855 net.cpp:157] Top shape: 256 64 16 16 (4194304)
I0920 17:08:23.879660 11855 net.cpp:165] Memory required for data: 1236533256
I0920 17:08:23.879667 11855 layer_factory.hpp:77] Creating layer conv5_1_bn
I0920 17:08:23.879675 11855 net.cpp:100] Creating Layer conv5_1_bn
I0920 17:08:23.879679 11855 net.cpp:434] conv5_1_bn <- conv5_1
I0920 17:08:23.879683 11855 net.cpp:408] conv5_1_bn -> conv5_1_bn
I0920 17:08:23.879822 11855 net.cpp:150] Setting up conv5_1_bn
I0920 17:08:23.879827 11855 net.cpp:157] Top shape: 256 64 16 16 (4194304)
I0920 17:08:23.879829 11855 net.cpp:165] Memory required for data: 1253310472
I0920 17:08:23.879835 11855 layer_factory.hpp:77] Creating layer conv5_1_bn_scale
I0920 17:08:23.879842 11855 net.cpp:100] Creating Layer conv5_1_bn_scale
I0920 17:08:23.879844 11855 net.cpp:434] conv5_1_bn_scale <- conv5_1_bn
I0920 17:08:23.879848 11855 net.cpp:395] conv5_1_bn_scale -> conv5_1_bn (in-place)
I0920 17:08:23.879874 11855 layer_factory.hpp:77] Creating layer conv5_1_bn_scale
I0920 17:08:23.879948 11855 net.cpp:150] Setting up conv5_1_bn_scale
I0920 17:08:23.879953 11855 net.cpp:157] Top shape: 256 64 16 16 (4194304)
I0920 17:08:23.879956 11855 net.cpp:165] Memory required for data: 1270087688
I0920 17:08:23.879961 11855 layer_factory.hpp:77] Creating layer conv5_1_relu
I0920 17:08:23.879966 11855 net.cpp:100] Creating Layer conv5_1_relu
I0920 17:08:23.879971 11855 net.cpp:434] conv5_1_relu <- conv5_1_bn
I0920 17:08:23.879973 11855 net.cpp:395] conv5_1_relu -> conv5_1_bn (in-place)
I0920 17:08:23.879978 11855 net.cpp:150] Setting up conv5_1_relu
I0920 17:08:23.879981 11855 net.cpp:157] Top shape: 256 64 16 16 (4194304)
I0920 17:08:23.879984 11855 net.cpp:165] Memory required for data: 1286864904
I0920 17:08:23.879987 11855 layer_factory.hpp:77] Creating layer conv6_1
I0920 17:08:23.879994 11855 net.cpp:100] Creating Layer conv6_1
I0920 17:08:23.879997 11855 net.cpp:434] conv6_1 <- conv5_1_bn
I0920 17:08:23.880002 11855 net.cpp:408] conv6_1 -> conv6_1
I0920 17:08:23.880914 11855 net.cpp:150] Setting up conv6_1
I0920 17:08:23.880920 11855 net.cpp:157] Top shape: 256 64 16 16 (4194304)
I0920 17:08:23.880923 11855 net.cpp:165] Memory required for data: 1303642120
I0920 17:08:23.880928 11855 layer_factory.hpp:77] Creating layer conv6_1_bn
I0920 17:08:23.880936 11855 net.cpp:100] Creating Layer conv6_1_bn
I0920 17:08:23.880939 11855 net.cpp:434] conv6_1_bn <- conv6_1
I0920 17:08:23.880944 11855 net.cpp:408] conv6_1_bn -> conv6_1_bn
I0920 17:08:23.881067 11855 net.cpp:150] Setting up conv6_1_bn
I0920 17:08:23.881072 11855 net.cpp:157] Top shape: 256 64 16 16 (4194304)
I0920 17:08:23.881075 11855 net.cpp:165] Memory required for data: 1320419336
I0920 17:08:23.881080 11855 layer_factory.hpp:77] Creating layer conv6_1_bn_scale
I0920 17:08:23.881084 11855 net.cpp:100] Creating Layer conv6_1_bn_scale
I0920 17:08:23.881088 11855 net.cpp:434] conv6_1_bn_scale <- conv6_1_bn
I0920 17:08:23.881091 11855 net.cpp:395] conv6_1_bn_scale -> conv6_1_bn (in-place)
I0920 17:08:23.881114 11855 layer_factory.hpp:77] Creating layer conv6_1_bn_scale
I0920 17:08:23.881182 11855 net.cpp:150] Setting up conv6_1_bn_scale
I0920 17:08:23.881187 11855 net.cpp:157] Top shape: 256 64 16 16 (4194304)
I0920 17:08:23.881189 11855 net.cpp:165] Memory required for data: 1337196552
I0920 17:08:23.881199 11855 layer_factory.hpp:77] Creating layer conv6_1_relu
I0920 17:08:23.881204 11855 net.cpp:100] Creating Layer conv6_1_relu
I0920 17:08:23.881207 11855 net.cpp:434] conv6_1_relu <- conv6_1_bn
I0920 17:08:23.881213 11855 net.cpp:395] conv6_1_relu -> conv6_1_bn (in-place)
I0920 17:08:23.881217 11855 net.cpp:150] Setting up conv6_1_relu
I0920 17:08:23.881222 11855 net.cpp:157] Top shape: 256 64 16 16 (4194304)
I0920 17:08:23.881227 11855 net.cpp:165] Memory required for data: 1353973768
I0920 17:08:23.881234 11855 layer_factory.hpp:77] Creating layer conv7_1
I0920 17:08:23.881242 11855 net.cpp:100] Creating Layer conv7_1
I0920 17:08:23.881245 11855 net.cpp:434] conv7_1 <- conv6_1_bn
I0920 17:08:23.881249 11855 net.cpp:408] conv7_1 -> conv7_1
I0920 17:08:23.888520 11855 net.cpp:150] Setting up conv7_1
I0920 17:08:23.888535 11855 net.cpp:157] Top shape: 256 128 16 16 (8388608)
I0920 17:08:23.888537 11855 net.cpp:165] Memory required for data: 1387528200
I0920 17:08:23.888542 11855 layer_factory.hpp:77] Creating layer conv7_1_bn
I0920 17:08:23.888550 11855 net.cpp:100] Creating Layer conv7_1_bn
I0920 17:08:23.888555 11855 net.cpp:434] conv7_1_bn <- conv7_1
I0920 17:08:23.888558 11855 net.cpp:408] conv7_1_bn -> conv7_1_bn
I0920 17:08:23.888684 11855 net.cpp:150] Setting up conv7_1_bn
I0920 17:08:23.888689 11855 net.cpp:157] Top shape: 256 128 16 16 (8388608)
I0920 17:08:23.888692 11855 net.cpp:165] Memory required for data: 1421082632
I0920 17:08:23.888697 11855 layer_factory.hpp:77] Creating layer conv7_1_bn_scale
I0920 17:08:23.888705 11855 net.cpp:100] Creating Layer conv7_1_bn_scale
I0920 17:08:23.888707 11855 net.cpp:434] conv7_1_bn_scale <- conv7_1_bn
I0920 17:08:23.888711 11855 net.cpp:395] conv7_1_bn_scale -> conv7_1_bn (in-place)
I0920 17:08:23.888736 11855 layer_factory.hpp:77] Creating layer conv7_1_bn_scale
I0920 17:08:23.888803 11855 net.cpp:150] Setting up conv7_1_bn_scale
I0920 17:08:23.888808 11855 net.cpp:157] Top shape: 256 128 16 16 (8388608)
I0920 17:08:23.888809 11855 net.cpp:165] Memory required for data: 1454637064
I0920 17:08:23.888814 11855 layer_factory.hpp:77] Creating layer conv7_1_relu
I0920 17:08:23.888819 11855 net.cpp:100] Creating Layer conv7_1_relu
I0920 17:08:23.888823 11855 net.cpp:434] conv7_1_relu <- conv7_1_bn
I0920 17:08:23.888826 11855 net.cpp:395] conv7_1_relu -> conv7_1_bn (in-place)
I0920 17:08:23.888831 11855 net.cpp:150] Setting up conv7_1_relu
I0920 17:08:23.888834 11855 net.cpp:157] Top shape: 256 128 16 16 (8388608)
I0920 17:08:23.888837 11855 net.cpp:165] Memory required for data: 1488191496
I0920 17:08:23.888840 11855 layer_factory.hpp:77] Creating layer score2
I0920 17:08:23.888849 11855 net.cpp:100] Creating Layer score2
I0920 17:08:23.888852 11855 net.cpp:434] score2 <- conv7_1_bn
I0920 17:08:23.888856 11855 net.cpp:408] score2 -> score2
I0920 17:08:23.889014 11855 net.cpp:150] Setting up score2
I0920 17:08:23.889020 11855 net.cpp:157] Top shape: 256 4 16 16 (262144)
I0920 17:08:23.889024 11855 net.cpp:165] Memory required for data: 1489240072
I0920 17:08:23.889027 11855 layer_factory.hpp:77] Creating layer upscore2
I0920 17:08:23.889034 11855 net.cpp:100] Creating Layer upscore2
I0920 17:08:23.889037 11855 net.cpp:434] upscore2 <- score2
I0920 17:08:23.889042 11855 net.cpp:408] upscore2 -> upscore2
I0920 17:08:23.889250 11855 net.cpp:150] Setting up upscore2
I0920 17:08:23.889255 11855 net.cpp:157] Top shape: 256 4 136 136 (18939904)
I0920 17:08:23.889257 11855 net.cpp:165] Memory required for data: 1564999688
I0920 17:08:23.889261 11855 layer_factory.hpp:77] Creating layer cropscore2
I0920 17:08:23.889266 11855 net.cpp:100] Creating Layer cropscore2
I0920 17:08:23.889269 11855 net.cpp:434] cropscore2 <- upscore2
I0920 17:08:23.889273 11855 net.cpp:434] cropscore2 <- image_data_0_split_2
I0920 17:08:23.889277 11855 net.cpp:408] cropscore2 -> cropscore2
I0920 17:08:23.889294 11855 net.cpp:150] Setting up cropscore2
I0920 17:08:23.889298 11855 net.cpp:157] Top shape: 256 4 128 128 (16777216)
I0920 17:08:23.889302 11855 net.cpp:165] Memory required for data: 1632108552
I0920 17:08:23.889303 11855 layer_factory.hpp:77] Creating layer cropscore2_cropscore2_0_split
I0920 17:08:23.889308 11855 net.cpp:100] Creating Layer cropscore2_cropscore2_0_split
I0920 17:08:23.889312 11855 net.cpp:434] cropscore2_cropscore2_0_split <- cropscore2
I0920 17:08:23.889315 11855 net.cpp:408] cropscore2_cropscore2_0_split -> cropscore2_cropscore2_0_split_0
I0920 17:08:23.889319 11855 net.cpp:408] cropscore2_cropscore2_0_split -> cropscore2_cropscore2_0_split_1
I0920 17:08:23.889333 11855 net.cpp:408] cropscore2_cropscore2_0_split -> cropscore2_cropscore2_0_split_2
I0920 17:08:23.889366 11855 net.cpp:150] Setting up cropscore2_cropscore2_0_split
I0920 17:08:23.889370 11855 net.cpp:157] Top shape: 256 4 128 128 (16777216)
I0920 17:08:23.889374 11855 net.cpp:157] Top shape: 256 4 128 128 (16777216)
I0920 17:08:23.889377 11855 net.cpp:157] Top shape: 256 4 128 128 (16777216)
I0920 17:08:23.889379 11855 net.cpp:165] Memory required for data: 1833435144
I0920 17:08:23.889382 11855 layer_factory.hpp:77] Creating layer loss2
I0920 17:08:23.889387 11855 net.cpp:100] Creating Layer loss2
I0920 17:08:23.889390 11855 net.cpp:434] loss2 <- cropscore2_cropscore2_0_split_0
I0920 17:08:23.889394 11855 net.cpp:434] loss2 <- label_data_1_split_2
I0920 17:08:23.889399 11855 net.cpp:408] loss2 -> loss2
…
I0920 17:08:23.916927 11855 net.cpp:150] Setting up accuracy2
I0920 17:08:23.916931 11855 net.cpp:157] Top shape: (1)
I0920 17:08:23.916934 11855 net.cpp:165] Memory required for data: 1833435152
I0920 17:08:23.916937 11855 layer_factory.hpp:77] Creating layer pool_score2
I0920 17:08:23.916944 11855 net.cpp:100] Creating Layer pool_score2
I0920 17:08:23.916949 11855 net.cpp:434] pool_score2 <- cropscore2_cropscore2_0_split_2
I0920 17:08:23.916952 11855 net.cpp:408] pool_score2 -> pool_score2
I0920 17:08:23.916982 11855 net.cpp:150] Setting up pool_score2
I0920 17:08:23.916987 11855 net.cpp:157] Top shape: 256 4 16 16 (262144)
I0920 17:08:23.916990 11855 net.cpp:165] Memory required for data: 1834483728
I0920 17:08:23.916993 11855 layer_factory.hpp:77] Creating layer concat
I0920 17:08:23.916999 11855 net.cpp:100] Creating Layer concat
I0920 17:08:23.917003 11855 net.cpp:434] concat <- conv3_1_bn_conv3_1_relu_0_split_2
I0920 17:08:23.917007 11855 net.cpp:434] concat <- pool_score2
I0920 17:08:23.917011 11855 net.cpp:408] concat -> concat_score2
I0920 17:08:23.917031 11855 net.cpp:150] Setting up concat
I0920 17:08:23.917035 11855 net.cpp:157] Top shape: 256 36 16 16 (2359296)
I0920 17:08:23.917037 11855 net.cpp:165] Memory required for data: 1843920912
I0920 17:08:23.917040 11855 layer_factory.hpp:77] Creating layer conv5_2
I0920 17:08:23.917052 11855 net.cpp:100] Creating Layer conv5_2
I0920 17:08:23.917054 11855 net.cpp:434] conv5_2 <- concat_score2
I0920 17:08:23.917059 11855 net.cpp:408] conv5_2 -> conv5_2
I0920 17:08:23.917664 11855 net.cpp:150] Setting up conv5_2
I0920 17:08:23.917672 11855 net.cpp:157] Top shape: 256 64 16 16 (4194304)
I0920 17:08:23.917675 11855 net.cpp:165] Memory required for data: 1860698128
I0920 17:08:23.917680 11855 layer_factory.hpp:77] Creating layer conv5_2_bn
I0920 17:08:23.917686 11855 net.cpp:100] Creating Layer conv5_2_bn
I0920 17:08:23.917690 11855 net.cpp:434] conv5_2_bn <- conv5_2
I0920 17:08:23.917695 11855 net.cpp:408] conv5_2_bn -> conv5_2_bn
I0920 17:08:23.917832 11855 net.cpp:150] Setting up conv5_2_bn
I0920 17:08:23.917837 11855 net.cpp:157] Top shape: 256 64 16 16 (4194304)
I0920 17:08:23.917840 11855 net.cpp:165] Memory required for data: 1877475344
I0920 17:08:23.917846 11855 layer_factory.hpp:77] Creating layer conv5_2_bn_scale
I0920 17:08:23.917853 11855 net.cpp:100] Creating Layer conv5_2_bn_scale
I0920 17:08:23.917857 11855 net.cpp:434] conv5_2_bn_scale <- conv5_2_bn
I0920 17:08:23.917861 11855 net.cpp:395] conv5_2_bn_scale -> conv5_2_bn (in-place)
I0920 17:08:23.917906 11855 layer_factory.hpp:77] Creating layer conv5_2_bn_scale
I0920 17:08:23.917984 11855 net.cpp:150] Setting up conv5_2_bn_scale
I0920 17:08:23.917989 11855 net.cpp:157] Top shape: 256 64 16 16 (4194304)
I0920 17:08:23.917991 11855 net.cpp:165] Memory required for data: 1894252560
I0920 17:08:23.917996 11855 layer_factory.hpp:77] Creating layer conv5_2_relu
I0920 17:08:23.918001 11855 net.cpp:100] Creating Layer conv5_2_relu
I0920 17:08:23.918004 11855 net.cpp:434] conv5_2_relu <- conv5_2_bn
I0920 17:08:23.918010 11855 net.cpp:395] conv5_2_relu -> conv5_2_bn (in-place)
I0920 17:08:23.918015 11855 net.cpp:150] Setting up conv5_2_relu
I0920 17:08:23.918018 11855 net.cpp:157] Top shape: 256 64 16 16 (4194304)
I0920 17:08:23.918020 11855 net.cpp:165] Memory required for data: 1911029776
I0920 17:08:23.918023 11855 layer_factory.hpp:77] Creating layer conv6_2
I0920 17:08:23.918031 11855 net.cpp:100] Creating Layer conv6_2
I0920 17:08:23.918035 11855 net.cpp:434] conv6_2 <- conv5_2_bn
I0920 17:08:23.918038 11855 net.cpp:408] conv6_2 -> conv6_2
I0920 17:08:23.918975 11855 net.cpp:150] Setting up conv6_2
I0920 17:08:23.918982 11855 net.cpp:157] Top shape: 256 64 16 16 (4194304)
I0920 17:08:23.918985 11855 net.cpp:165] Memory required for data: 1927806992
I0920 17:08:23.918989 11855 layer_factory.hpp:77] Creating layer conv6_2_bn
I0920 17:08:23.918994 11855 net.cpp:100] Creating Layer conv6_2_bn
I0920 17:08:23.918998 11855 net.cpp:434] conv6_2_bn <- conv6_2
I0920 17:08:23.919003 11855 net.cpp:408] conv6_2_bn -> conv6_2_bn
I0920 17:08:23.919136 11855 net.cpp:150] Setting up conv6_2_bn
I0920 17:08:23.919140 11855 net.cpp:157] Top shape: 256 64 16 16 (4194304)
I0920 17:08:23.919142 11855 net.cpp:165] Memory required for data: 1944584208
I0920 17:08:23.919148 11855 layer_factory.hpp:77] Creating layer conv6_2_bn_scale
I0920 17:08:23.919154 11855 net.cpp:100] Creating Layer conv6_2_bn_scale
I0920 17:08:23.919157 11855 net.cpp:434] conv6_2_bn_scale <- conv6_2_bn
I0920 17:08:23.919162 11855 net.cpp:395] conv6_2_bn_scale -> conv6_2_bn (in-place)
I0920 17:08:23.919185 11855 layer_factory.hpp:77] Creating layer conv6_2_bn_scale
I0920 17:08:23.919257 11855 net.cpp:150] Setting up conv6_2_bn_scale
I0920 17:08:23.919262 11855 net.cpp:157] Top shape: 256 64 16 16 (4194304)
I0920 17:08:23.919265 11855 net.cpp:165] Memory required for data: 1961361424
I0920 17:08:23.919270 11855 layer_factory.hpp:77] Creating layer conv6_2_relu
I0920 17:08:23.919275 11855 net.cpp:100] Creating Layer conv6_2_relu
I0920 17:08:23.919277 11855 net.cpp:434] conv6_2_relu <- conv6_2_bn
I0920 17:08:23.919281 11855 net.cpp:395] conv6_2_relu -> conv6_2_bn (in-place)
I0920 17:08:23.919286 11855 net.cpp:150] Setting up conv6_2_relu
I0920 17:08:23.919288 11855 net.cpp:157] Top shape: 256 64 16 16 (4194304)
I0920 17:08:23.919291 11855 net.cpp:165] Memory required for data: 1978138640
I0920 17:08:23.919294 11855 layer_factory.hpp:77] Creating layer conv7_2
I0920 17:08:23.919301 11855 net.cpp:100] Creating Layer conv7_2
I0920 17:08:23.919303 11855 net.cpp:434] conv7_2 <- conv6_2_bn
I0920 17:08:23.919307 11855 net.cpp:408] conv7_2 -> conv7_2
I0920 17:08:23.921041 11855 net.cpp:150] Setting up conv7_2
I0920 17:08:23.921047 11855 net.cpp:157] Top shape: 256 128 16 16 (8388608)
I0920 17:08:23.921051 11855 net.cpp:165] Memory required for data: 2011693072
I0920 17:08:23.921054 11855 layer_factory.hpp:77] Creating layer conv7_2_bn
I0920 17:08:23.921059 11855 net.cpp:100] Creating Layer conv7_2_bn
I0920 17:08:23.921062 11855 net.cpp:434] conv7_2_bn <- conv7_2
I0920 17:08:23.921068 11855 net.cpp:408] conv7_2_bn -> conv7_2_bn
I0920 17:08:23.921191 11855 net.cpp:150] Setting up conv7_2_bn
I0920 17:08:23.921196 11855 net.cpp:157] Top shape: 256 128 16 16 (8388608)
I0920 17:08:23.921198 11855 net.cpp:165] Memory required for data: 2045247504
I0920 17:08:23.921205 11855 layer_factory.hpp:77] Creating layer conv7_2_bn_scale
I0920 17:08:23.921210 11855 net.cpp:100] Creating Layer conv7_2_bn_scale
I0920 17:08:23.921212 11855 net.cpp:434] conv7_2_bn_scale <- conv7_2_bn
I0920 17:08:23.921227 11855 net.cpp:395] conv7_2_bn_scale -> conv7_2_bn (in-place)
I0920 17:08:23.921248 11855 layer_factory.hpp:77] Creating layer conv7_2_bn_scale
I0920 17:08:23.921314 11855 net.cpp:150] Setting up conv7_2_bn_scale
I0920 17:08:23.921319 11855 net.cpp:157] Top shape: 256 128 16 16 (8388608)
I0920 17:08:23.921320 11855 net.cpp:165] Memory required for data: 2078801936
I0920 17:08:23.921325 11855 layer_factory.hpp:77] Creating layer conv7_2_relu
I0920 17:08:23.921330 11855 net.cpp:100] Creating Layer conv7_2_relu
I0920 17:08:23.921334 11855 net.cpp:434] conv7_2_relu <- conv7_2_bn
I0920 17:08:23.921337 11855 net.cpp:395] conv7_2_relu -> conv7_2_bn (in-place)
I0920 17:08:23.921341 11855 net.cpp:150] Setting up conv7_2_relu
I0920 17:08:23.921344 11855 net.cpp:157] Top shape: 256 128 16 16 (8388608)
I0920 17:08:23.921346 11855 net.cpp:165] Memory required for data: 2112356368
I0920 17:08:23.921350 11855 layer_factory.hpp:77] Creating layer score3
I0920 17:08:23.921357 11855 net.cpp:100] Creating Layer score3
I0920 17:08:23.921360 11855 net.cpp:434] score3 <- conv7_2_bn
I0920 17:08:23.921365 11855 net.cpp:408] score3 -> score3
I0920 17:08:23.921527 11855 net.cpp:150] Setting up score3
I0920 17:08:23.921533 11855 net.cpp:157] Top shape: 256 4 16 16 (262144)
I0920 17:08:23.921535 11855 net.cpp:165] Memory required for data: 2113404944
I0920 17:08:23.921540 11855 layer_factory.hpp:77] Creating layer upscore3
I0920 17:08:23.921562 11855 net.cpp:100] Creating Layer upscore3
I0920 17:08:23.921567 11855 net.cpp:434] upscore3 <- score3
I0920 17:08:23.921573 11855 net.cpp:408] upscore3 -> upscore3
I0920 17:08:23.921784 11855 net.cpp:150] Setting up upscore3
I0920 17:08:23.921790 11855 net.cpp:157] Top shape: 256 4 136 136 (18939904)
I0920 17:08:23.921792 11855 net.cpp:165] Memory required for data: 2189164560
I0920 17:08:23.921797 11855 layer_factory.hpp:77] Creating layer cropscore3
I0920 17:08:23.921802 11855 net.cpp:100] Creating Layer cropscore3
I0920 17:08:23.921804 11855 net.cpp:434] cropscore3 <- upscore3
I0920 17:08:23.921808 11855 net.cpp:434] cropscore3 <- image_data_0_split_3
I0920 17:08:23.921813 11855 net.cpp:408] cropscore3 -> cropscore3
I0920 17:08:23.921828 11855 net.cpp:150] Setting up cropscore3
I0920 17:08:23.921833 11855 net.cpp:157] Top shape: 256 4 128 128 (16777216)
I0920 17:08:23.921835 11855 net.cpp:165] Memory required for data: 2256273424
I0920 17:08:23.921838 11855 layer_factory.hpp:77] Creating layer cropscore3_cropscore3_0_split
I0920 17:08:23.921844 11855 net.cpp:100] Creating Layer cropscore3_cropscore3_0_split
I0920 17:08:23.921846 11855 net.cpp:434] cropscore3_cropscore3_0_split <- cropscore3
I0920 17:08:23.921850 11855 net.cpp:408] cropscore3_cropscore3_0_split -> cropscore3_cropscore3_0_split_0
I0920 17:08:23.921855 11855 net.cpp:408] cropscore3_cropscore3_0_split -> cropscore3_cropscore3_0_split_1
I0920 17:08:23.921877 11855 net.cpp:150] Setting up cropscore3_cropscore3_0_split
I0920 17:08:23.921881 11855 net.cpp:157] Top shape: 256 4 128 128 (16777216)
I0920 17:08:23.921885 11855 net.cpp:157] Top shape: 256 4 128 128 (16777216)
I0920 17:08:23.921886 11855 net.cpp:165] Memory required for data: 2390491152
I0920 17:08:23.921890 11855 layer_factory.hpp:77] Creating layer loss3
I0920 17:08:23.921895 11855 net.cpp:100] Creating Layer loss3
I0920 17:08:23.921898 11855 net.cpp:434] loss3 <- cropscore3_cropscore3_0_split_0
I0920 17:08:23.921902 11855 net.cpp:434] loss3 <- label_data_1_split_4
I0920 17:08:23.921906 11855 net.cpp:408] loss3 -> loss3
…
