…
I0818 19:33:27.126682 23166 solver.cpp:91] Creating training net from net file: portrait_train_test_two_stages.prototxt
I0818 19:33:27.127360 23166 net.cpp:322] The NetState phase (0) differed from the phase (1) specified by a rule in layer data
I0818 19:33:27.127553 23166 net.cpp:58] Initializing net from parameters: 
name: "segmentation"
state {
  phase: TRAIN
  level: 0
  stage: ""
}
layer {
  name: "data"
  type: "SegData"
  top: "image"
  top: "label"
  include {
    phase: TRAIN
  }
  transform_param {
    mirror: true
    crop_size: 200
  }
  data_param {
    source: "/raid/xuehan/segmentation_train_split"
    batch_size: 64
    backend: LMDB
  }
}
layer {
  name: "conv1_1"
  type: "Convolution"
  bottom: "image"
  top: "conv1_1"
  param {
    lr_mult: 1
    decay_mult: 1
  }
  convolution_param {
    num_output: 8
    bias_term: false
    pad: 50
    kernel_size: 3
    stride: 1
    weight_filler {
      type: "gaussian"
      std: 0.01
    }
  }
}
layer {
  name: "conv1_1_bn"
  type: "BatchNorm"
  bottom: "conv1_1"
  top: "conv1_1_bn"
  param {
    lr_mult: 0
  }
  param {
    lr_mult: 0
  }
  param {
    lr_mult: 0
  }
}
layer {
  name: "conv1_1_bn_scale"
  type: "Scale"
  bottom: "conv1_1_bn"
  top: "conv1_1_bn"
  scale_param {
    bias_term: true
  }
}
layer {
  name: "conv1_1_relu"
  type: "ReLU"
  bottom: "conv1_1_bn"
  top: "conv1_1_bn"
}
layer {
  name: "pool1"
  type: "Pooling"
  bottom: "conv1_1_bn"
  top: "pool1"
  pooling_param {
    pool: MAX
    kernel_size: 2
    stride: 2
  }
}
layer {
  name: "conv2_1"
  type: "Convolution"
  bottom: "pool1"
  top: "conv2_1"
  param {
    lr_mult: 1
    decay_mult: 1
  }
  convolution_param {
    num_output: 16
    bias_term: false
    pad: 1
    kernel_size: 3
    stride: 1
    weight_filler {
      type: "gaussian"
      std: 0.01
    }
  }
}
layer {
  name: "conv2_1_bn"
  type: "BatchNorm"
  bottom: "conv2_1"
  top: "conv2_1_bn"
  param {
    lr_mult: 0
  }
  param {
    lr_mult: 0
  }
  param {
    lr_mult: 0
  }
}
layer {
  name: "conv2_1_bn_scale"
  type: "Scale"
  bottom: "conv2_1_bn"
  top: "conv2_1_bn"
  scale_param {
    bias_term: true
  }
}
layer {
  name: "conv2_1_relu"
  type: "ReLU"
  bottom: "conv2_1_bn"
  top: "conv2_1_bn"
}
layer {
  name: "pool2"
  type: "Pooling"
  bottom: "conv2_1_bn"
  top: "pool2"
  pooling_param {
    pool: MAX
    kernel_size: 2
    stride: 2
  }
}
layer {
  name: "conv3_1"
  type: "Convolution"
  bottom: "pool2"
  top: "conv3_1"
  param {
    lr_mult: 1
    decay_mult: 1
  }
  convolution_param {
    num_output: 32
    bias_term: false
    pad: 1
    kernel_size: 3
    stride: 1
    weight_filler {
      type: "gaussian"
      std: 0.01
    }
  }
}
layer {
  name: "conv3_1_bn"
  type: "BatchNorm"
  bottom: "conv3_1"
  top: "conv3_1_bn"
  param {
    lr_mult: 0
  }
  param {
    lr_mult: 0
  }
  param {
    lr_mult: 0
  }
}
layer {
  name: "conv3_1_bn_scale"
  type: "Scale"
  bottom: "conv3_1_bn"
  top: "conv3_1_bn"
  scale_param {
    bias_term: true
  }
}
layer {
  name: "conv3_1_relu"
  type: "ReLU"
  bottom: "conv3_1_bn"
  top: "conv3_1_bn"
}
layer {
  name: "pool3"
  type: "Pooling"
  bottom: "conv3_1_bn"
  top: "pool3"
  pooling_param {
    pool: MAX
    kernel_size: 2
    stride: 2
  }
}
layer {
  name: "conv4_1"
  type: "Convolution"
  bottom: "pool3"
  top: "conv4_1"
  param {
    lr_mult: 1
    decay_mult: 1
  }
  convolution_param {
    num_output: 64
    bias_term: false
    pad: 1
    kernel_size: 3
    stride: 1
    weight_filler {
      type: "gaussian"
      std: 0.01
    }
  }
}
layer {
  name: "conv4_1_bn"
  type: "BatchNorm"
  bottom: "conv4_1"
  top: "conv4_1_bn"
  param {
    lr_mult: 0
  }
  param {
    lr_mult: 0
  }
  param {
    lr_mult: 0
  }
}
layer {
  name: "conv4_1_bn_scale"
  type: "Scale"
  bottom: "conv4_1_bn"
  top: "conv4_1_bn"
  scale_param {
    bias_term: true
  }
}
layer {
  name: "conv4_1_relu"
  type: "ReLU"
  bottom: "conv4_1_bn"
  top: "conv4_1_bn"
}
layer {
  name: "pool4"
  type: "Pooling"
  bottom: "conv4_1_bn"
  top: "pool4"
  pooling_param {
    pool: MAX
    kernel_size: 2
    stride: 2
  }
}
layer {
  name: "conv5_1"
  type: "Convolution"
  bottom: "pool4"
  top: "conv5_1"
  param {
    lr_mult: 1
    decay_mult: 1
  }
  convolution_param {
    num_output: 128
    bias_term: false
    pad: 1
    kernel_size: 3
    stride: 1
    weight_filler {
      type: "gaussian"
      std: 0.01
    }
  }
}
layer {
  name: "conv5_1_bn"
  type: "BatchNorm"
  bottom: "conv5_1"
  top: "conv5_1_bn"
  param {
    lr_mult: 0
  }
  param {
    lr_mult: 0
  }
  param {
    lr_mult: 0
  }
}
layer {
  name: "conv5_1_bn_scale"
  type: "Scale"
  bottom: "conv5_1_bn"
  top: "conv5_1_bn"
  scale_param {
    bias_term: true
  }
}
layer {
  name: "conv5_1_relu"
  type: "ReLU"
  bottom: "conv5_1_bn"
  top: "conv5_1_bn"
}
layer {
  name: "score_1"
  type: "Convolution"
  bottom: "conv5_1_bn"
  top: "score_1"
  param {
    lr_mult: 1
    decay_mult: 1
  }
  param {
    lr_mult: 2
    decay_mult: 0
  }
  convolution_param {
    num_output: 4
    pad: 0
    kernel_size: 1
    stride: 1
    weight_filler {
      type: "gaussian"
      std: 0.01
    }
    bias_filler {
      type: "constant"
    }
  }
}
layer {
  name: "upscore_1"
  type: "Deconvolution"
  bottom: "score_1"
  top: "upscore_1"
  param {
    lr_mult: 1
    decay_mult: 1
  }
  convolution_param {
    num_output: 4
    bias_term: false
    pad: 0
    kernel_size: 32
    stride: 16
    weight_filler {
      type: "gaussian"
      std: 0.01
    }
  }
}
layer {
  name: "cropscore_1"
  type: "Crop"
  bottom: "upscore_1"
  bottom: "image"
  top: "cropscore_1"
  crop_param {
    axis: 2
    offset: 60
  }
}
layer {
  name: "loss_1"
  type: "SoftmaxWithLoss"
  bottom: "cropscore_1"
  bottom: "label"
  top: "loss_1"
  loss_weight: 1
  loss_param {
    normalize: false
  }
}
layer {
  name: "accuracy_1"
  type: "Accuracy"
  bottom: "cropscore_1"
  bottom: "label"
  top: "accuracy_1"
}
layer {
  name: "concat_2"
  type: "Concat"
  bottom: "pool4"
  bottom: "score_1"
  top: "concat_2"
  concat_param {
    axis: 1
  }
}
layer {
  name: "conv5_2"
  type: "Convolution"
  bottom: "concat_2"
  top: "conv5_2"
  param {
    lr_mult: 1
    decay_mult: 1
  }
  convolution_param {
    num_output: 64
    bias_term: false
    pad: 0
    kernel_size: 3
    stride: 1
    weight_filler {
      type: "gaussian"
      std: 0.01
    }
  }
}
layer {
  name: "conv5_2_bn"
  type: "BatchNorm"
  bottom: "conv5_2"
  top: "conv5_2_bn"
  param {
    lr_mult: 0
  }
  param {
    lr_mult: 0
  }
  param {
    lr_mult: 0
  }
}
layer {
  name: "conv5_2_bn_scale"
  type: "Scale"
  bottom: "conv5_2_bn"
  top: "conv5_2_bn"
  scale_param {
    bias_term: true
  }
}
layer {
  name: "conv5_2_relu"
  type: "ReLU"
  bottom: "conv5_2_bn"
  top: "conv5_2_bn"
}
layer {
  name: "conv6_2"
  type: "Convolution"
  bottom: "conv5_2_bn"
  top: "conv6_2"
  param {
    lr_mult: 1
    decay_mult: 1
  }
  convolution_param {
    num_output: 64
    bias_term: false
    pad: 0
    kernel_size: 3
    stride: 1
    weight_filler {
      type: "gaussian"
      std: 0.01
    }
  }
}
layer {
  name: "conv6_2_bn"
  type: "BatchNorm"
  bottom: "conv6_2"
  top: "conv6_2_bn"
  param {
    lr_mult: 0
  }
  param {
    lr_mult: 0
  }
  param {
    lr_mult: 0
  }
}
layer {
  name: "conv6_2_bn_scale"
  type: "Scale"
  bottom: "conv6_2_bn"
  top: "conv6_2_bn"
  scale_param {
    bias_term: true
  }
}
layer {
  name: "conv6_2_relu"
  type: "ReLU"
  bottom: "conv6_2_bn"
  top: "conv6_2_bn"
}
layer {
  name: "conv7_2"
  type: "Convolution"
  bottom: "conv6_2_bn"
  top: "conv7_2"
  param {
    lr_mult: 1
    decay_mult: 1
  }
  convolution_param {
    num_output: 128
    bias_term: false
    pad: 0
    kernel_size: 3
    stride: 1
    weight_filler {
      type: "gaussian"
      std: 0.01
    }
  }
}
layer {
  name: "conv7_2_bn"
  type: "BatchNorm"
  bottom: "conv7_2"
  top: "conv7_2_bn"
  param {
    lr_mult: 0
  }
  param {
    lr_mult: 0
  }
  param {
    lr_mult: 0
  }
}
layer {
  name: "conv7_2_bn_scale"
  type: "Scale"
  bottom: "conv7_2_bn"
  top: "conv7_2_bn"
  scale_param {
    bias_term: true
  }
}
layer {
  name: "conv7_2_relu"
  type: "ReLU"
  bottom: "conv7_2_bn"
  top: "conv7_2_bn"
}
layer {
  name: "score_2"
  type: "Convolution"
  bottom: "conv7_2_bn"
  top: "score_2"
  param {
    lr_mult: 1
    decay_mult: 1
  }
  param {
    lr_mult: 2
    decay_mult: 0
  }
  convolution_param {
    num_output: 4
    pad: 0
    kernel_size: 1
    stride: 1
    weight_filler {
      type: "gaussian"
      std: 0.01
    }
    bias_filler {
      type: "constant"
    }
  }
}
layer {
  name: "upscore_2"
  type: "Deconvolution"
  bottom: "score_2"
  top: "upscore_2"
  param {
    lr_mult: 1
    decay_mult: 1
  }
  convolution_param {
    num_output: 4
    bias_term: false
    pad: 0
    kernel_size: 32
    stride: 16
    weight_filler {
      type: "gaussian"
      std: 0.01
    }
  }
}
layer {
  name: "cropscore_2"
  type: "Crop"
  bottom: "upscore_2"
  bottom: "image"
  top: "cropscore_2"
  crop_param {
    axis: 2
    offset: 12
  }
}
layer {
  name: "loss_2"
  type: "SoftmaxWithLoss"
  bottom: "cropscore_2"
  bottom: "label"
  top: "loss_2"
  loss_weight: 1
  loss_param {
    normalize: false
  }
}
layer {
  name: "accuracy_2"
  type: "Accuracy"
  bottom: "cropscore_2"
  bottom: "label"
  top: "accuracy_2"
}
I0818 19:33:27.127743 23166 layer_factory.hpp:77] Creating layer data
I0818 19:33:27.128162 23166 net.cpp:100] Creating Layer data
I0818 19:33:27.128173 23166 net.cpp:408] data -> image
I0818 19:33:27.128190 23166 net.cpp:408] data -> label
I0818 19:33:27.129127 23170 db_lmdb.cpp:35] Opened lmdb /raid/xuehan/segmentation_train_split
I0818 19:33:27.129303 23166 seg_data_layer.cpp:38] 200 200 4
I0818 19:33:27.136611 23166 seg_data_layer.cpp:51] output data size: 64,3,200,200
I0818 19:33:27.136672 23166 seg_data_layer.cpp:63] output label size: 64,1,200,200
I0818 19:33:27.189291 23166 net.cpp:150] Setting up data
I0818 19:33:27.189322 23166 net.cpp:157] Top shape: 64 3 200 200 (7680000)
I0818 19:33:27.189327 23166 net.cpp:157] Top shape: 64 1 200 200 (2560000)
I0818 19:33:27.189329 23166 net.cpp:165] Memory required for data: 40960000
I0818 19:33:27.189338 23166 layer_factory.hpp:77] Creating layer image_data_0_split
I0818 19:33:27.189350 23166 net.cpp:100] Creating Layer image_data_0_split
I0818 19:33:27.189355 23166 net.cpp:434] image_data_0_split <- image
I0818 19:33:27.189366 23166 net.cpp:408] image_data_0_split -> image_data_0_split_0
I0818 19:33:27.189374 23166 net.cpp:408] image_data_0_split -> image_data_0_split_1
I0818 19:33:27.189379 23166 net.cpp:408] image_data_0_split -> image_data_0_split_2
I0818 19:33:27.189430 23166 net.cpp:150] Setting up image_data_0_split
I0818 19:33:27.189436 23166 net.cpp:157] Top shape: 64 3 200 200 (7680000)
I0818 19:33:27.189440 23166 net.cpp:157] Top shape: 64 3 200 200 (7680000)
I0818 19:33:27.189443 23166 net.cpp:157] Top shape: 64 3 200 200 (7680000)
I0818 19:33:27.189445 23166 net.cpp:165] Memory required for data: 133120000
I0818 19:33:27.189448 23166 layer_factory.hpp:77] Creating layer label_data_1_split
I0818 19:33:27.189453 23166 net.cpp:100] Creating Layer label_data_1_split
I0818 19:33:27.189456 23166 net.cpp:434] label_data_1_split <- label
I0818 19:33:27.189461 23166 net.cpp:408] label_data_1_split -> label_data_1_split_0
I0818 19:33:27.189466 23166 net.cpp:408] label_data_1_split -> label_data_1_split_1
I0818 19:33:27.189471 23166 net.cpp:408] label_data_1_split -> label_data_1_split_2
I0818 19:33:27.189473 23166 net.cpp:408] label_data_1_split -> label_data_1_split_3
I0818 19:33:27.189513 23166 net.cpp:150] Setting up label_data_1_split
I0818 19:33:27.189517 23166 net.cpp:157] Top shape: 64 1 200 200 (2560000)
I0818 19:33:27.189527 23166 net.cpp:157] Top shape: 64 1 200 200 (2560000)
I0818 19:33:27.189538 23166 net.cpp:157] Top shape: 64 1 200 200 (2560000)
I0818 19:33:27.189540 23166 net.cpp:157] Top shape: 64 1 200 200 (2560000)
I0818 19:33:27.189543 23166 net.cpp:165] Memory required for data: 174080000
I0818 19:33:27.189545 23166 layer_factory.hpp:77] Creating layer conv1_1
I0818 19:33:27.189559 23166 net.cpp:100] Creating Layer conv1_1
I0818 19:33:27.189563 23166 net.cpp:434] conv1_1 <- image_data_0_split_0
I0818 19:33:27.189568 23166 net.cpp:408] conv1_1 -> conv1_1
I0818 19:33:27.189726 23166 net.cpp:150] Setting up conv1_1
I0818 19:33:27.189733 23166 net.cpp:157] Top shape: 64 8 298 298 (45467648)
I0818 19:33:27.189736 23166 net.cpp:165] Memory required for data: 355950592
I0818 19:33:27.189745 23166 layer_factory.hpp:77] Creating layer conv1_1_bn
I0818 19:33:27.189752 23166 net.cpp:100] Creating Layer conv1_1_bn
I0818 19:33:27.189755 23166 net.cpp:434] conv1_1_bn <- conv1_1
I0818 19:33:27.189759 23166 net.cpp:408] conv1_1_bn -> conv1_1_bn
I0818 19:33:27.190330 23166 net.cpp:150] Setting up conv1_1_bn
I0818 19:33:27.190340 23166 net.cpp:157] Top shape: 64 8 298 298 (45467648)
I0818 19:33:27.190343 23166 net.cpp:165] Memory required for data: 537821184
I0818 19:33:27.190352 23166 layer_factory.hpp:77] Creating layer conv1_1_bn_scale
I0818 19:33:27.190361 23166 net.cpp:100] Creating Layer conv1_1_bn_scale
I0818 19:33:27.190364 23166 net.cpp:434] conv1_1_bn_scale <- conv1_1_bn
I0818 19:33:27.190368 23166 net.cpp:395] conv1_1_bn_scale -> conv1_1_bn (in-place)
I0818 19:33:27.190400 23166 layer_factory.hpp:77] Creating layer conv1_1_bn_scale
I0818 19:33:27.190958 23166 net.cpp:150] Setting up conv1_1_bn_scale
I0818 19:33:27.190968 23166 net.cpp:157] Top shape: 64 8 298 298 (45467648)
I0818 19:33:27.190971 23166 net.cpp:165] Memory required for data: 719691776
I0818 19:33:27.190981 23166 layer_factory.hpp:77] Creating layer conv1_1_relu
I0818 19:33:27.190987 23166 net.cpp:100] Creating Layer conv1_1_relu
I0818 19:33:27.190991 23166 net.cpp:434] conv1_1_relu <- conv1_1_bn
I0818 19:33:27.190995 23166 net.cpp:395] conv1_1_relu -> conv1_1_bn (in-place)
I0818 19:33:27.191000 23166 net.cpp:150] Setting up conv1_1_relu
I0818 19:33:27.191004 23166 net.cpp:157] Top shape: 64 8 298 298 (45467648)
I0818 19:33:27.191006 23166 net.cpp:165] Memory required for data: 901562368
I0818 19:33:27.191009 23166 layer_factory.hpp:77] Creating layer pool1
I0818 19:33:27.191015 23166 net.cpp:100] Creating Layer pool1
I0818 19:33:27.191016 23166 net.cpp:434] pool1 <- conv1_1_bn
I0818 19:33:27.191022 23166 net.cpp:408] pool1 -> pool1
I0818 19:33:27.194345 23166 net.cpp:150] Setting up pool1
I0818 19:33:27.194355 23166 net.cpp:157] Top shape: 64 8 149 149 (11366912)
I0818 19:33:27.194357 23166 net.cpp:165] Memory required for data: 947030016
I0818 19:33:27.194360 23166 layer_factory.hpp:77] Creating layer conv2_1
I0818 19:33:27.194370 23166 net.cpp:100] Creating Layer conv2_1
I0818 19:33:27.194373 23166 net.cpp:434] conv2_1 <- pool1
I0818 19:33:27.194377 23166 net.cpp:408] conv2_1 -> conv2_1
I0818 19:33:27.194960 23166 net.cpp:150] Setting up conv2_1
I0818 19:33:27.194970 23166 net.cpp:157] Top shape: 64 16 149 149 (22733824)
I0818 19:33:27.194972 23166 net.cpp:165] Memory required for data: 1037965312
I0818 19:33:27.194977 23166 layer_factory.hpp:77] Creating layer conv2_1_bn
I0818 19:33:27.194983 23166 net.cpp:100] Creating Layer conv2_1_bn
I0818 19:33:27.194986 23166 net.cpp:434] conv2_1_bn <- conv2_1
I0818 19:33:27.194990 23166 net.cpp:408] conv2_1_bn -> conv2_1_bn
I0818 19:33:27.195540 23166 net.cpp:150] Setting up conv2_1_bn
I0818 19:33:27.195549 23166 net.cpp:157] Top shape: 64 16 149 149 (22733824)
I0818 19:33:27.195552 23166 net.cpp:165] Memory required for data: 1128900608
I0818 19:33:27.195562 23166 layer_factory.hpp:77] Creating layer conv2_1_bn_scale
I0818 19:33:27.195569 23166 net.cpp:100] Creating Layer conv2_1_bn_scale
I0818 19:33:27.195572 23166 net.cpp:434] conv2_1_bn_scale <- conv2_1_bn
I0818 19:33:27.195576 23166 net.cpp:395] conv2_1_bn_scale -> conv2_1_bn (in-place)
I0818 19:33:27.195616 23166 layer_factory.hpp:77] Creating layer conv2_1_bn_scale
I0818 19:33:27.195708 23166 net.cpp:150] Setting up conv2_1_bn_scale
I0818 19:33:27.195715 23166 net.cpp:157] Top shape: 64 16 149 149 (22733824)
I0818 19:33:27.195718 23166 net.cpp:165] Memory required for data: 1219835904
I0818 19:33:27.195722 23166 layer_factory.hpp:77] Creating layer conv2_1_relu
I0818 19:33:27.195729 23166 net.cpp:100] Creating Layer conv2_1_relu
I0818 19:33:27.195731 23166 net.cpp:434] conv2_1_relu <- conv2_1_bn
I0818 19:33:27.195735 23166 net.cpp:395] conv2_1_relu -> conv2_1_bn (in-place)
I0818 19:33:27.195739 23166 net.cpp:150] Setting up conv2_1_relu
I0818 19:33:27.195744 23166 net.cpp:157] Top shape: 64 16 149 149 (22733824)
I0818 19:33:27.195746 23166 net.cpp:165] Memory required for data: 1310771200
I0818 19:33:27.195749 23166 layer_factory.hpp:77] Creating layer pool2
I0818 19:33:27.195754 23166 net.cpp:100] Creating Layer pool2
I0818 19:33:27.195755 23166 net.cpp:434] pool2 <- conv2_1_bn
I0818 19:33:27.195760 23166 net.cpp:408] pool2 -> pool2
I0818 19:33:27.195785 23166 net.cpp:150] Setting up pool2
I0818 19:33:27.195790 23166 net.cpp:157] Top shape: 64 16 75 75 (5760000)
I0818 19:33:27.195791 23166 net.cpp:165] Memory required for data: 1333811200
I0818 19:33:27.195794 23166 layer_factory.hpp:77] Creating layer conv3_1
I0818 19:33:27.195802 23166 net.cpp:100] Creating Layer conv3_1
I0818 19:33:27.195806 23166 net.cpp:434] conv3_1 <- pool2
I0818 19:33:27.195811 23166 net.cpp:408] conv3_1 -> conv3_1
I0818 19:33:27.196435 23166 net.cpp:150] Setting up conv3_1
I0818 19:33:27.196445 23166 net.cpp:157] Top shape: 64 32 75 75 (11520000)
I0818 19:33:27.196449 23166 net.cpp:165] Memory required for data: 1379891200
I0818 19:33:27.196454 23166 layer_factory.hpp:77] Creating layer conv3_1_bn
I0818 19:33:27.196460 23166 net.cpp:100] Creating Layer conv3_1_bn
I0818 19:33:27.196463 23166 net.cpp:434] conv3_1_bn <- conv3_1
I0818 19:33:27.196468 23166 net.cpp:408] conv3_1_bn -> conv3_1_bn
I0818 19:33:27.196597 23166 net.cpp:150] Setting up conv3_1_bn
I0818 19:33:27.196604 23166 net.cpp:157] Top shape: 64 32 75 75 (11520000)
I0818 19:33:27.196605 23166 net.cpp:165] Memory required for data: 1425971200
I0818 19:33:27.196611 23166 layer_factory.hpp:77] Creating layer conv3_1_bn_scale
I0818 19:33:27.196616 23166 net.cpp:100] Creating Layer conv3_1_bn_scale
I0818 19:33:27.196619 23166 net.cpp:434] conv3_1_bn_scale <- conv3_1_bn
I0818 19:33:27.196624 23166 net.cpp:395] conv3_1_bn_scale -> conv3_1_bn (in-place)
I0818 19:33:27.196650 23166 layer_factory.hpp:77] Creating layer conv3_1_bn_scale
I0818 19:33:27.196730 23166 net.cpp:150] Setting up conv3_1_bn_scale
I0818 19:33:27.196737 23166 net.cpp:157] Top shape: 64 32 75 75 (11520000)
I0818 19:33:27.196739 23166 net.cpp:165] Memory required for data: 1472051200
I0818 19:33:27.196746 23166 layer_factory.hpp:77] Creating layer conv3_1_relu
I0818 19:33:27.196753 23166 net.cpp:100] Creating Layer conv3_1_relu
I0818 19:33:27.196756 23166 net.cpp:434] conv3_1_relu <- conv3_1_bn
I0818 19:33:27.196760 23166 net.cpp:395] conv3_1_relu -> conv3_1_bn (in-place)
I0818 19:33:27.196769 23166 net.cpp:150] Setting up conv3_1_relu
I0818 19:33:27.196773 23166 net.cpp:157] Top shape: 64 32 75 75 (11520000)
I0818 19:33:27.196775 23166 net.cpp:165] Memory required for data: 1518131200
I0818 19:33:27.196779 23166 layer_factory.hpp:77] Creating layer pool3
I0818 19:33:27.196782 23166 net.cpp:100] Creating Layer pool3
I0818 19:33:27.196785 23166 net.cpp:434] pool3 <- conv3_1_bn
I0818 19:33:27.196789 23166 net.cpp:408] pool3 -> pool3
I0818 19:33:27.196815 23166 net.cpp:150] Setting up pool3
I0818 19:33:27.196820 23166 net.cpp:157] Top shape: 64 32 38 38 (2957312)
I0818 19:33:27.196822 23166 net.cpp:165] Memory required for data: 1529960448
I0818 19:33:27.196825 23166 layer_factory.hpp:77] Creating layer conv4_1
I0818 19:33:27.196832 23166 net.cpp:100] Creating Layer conv4_1
I0818 19:33:27.196835 23166 net.cpp:434] conv4_1 <- pool3
I0818 19:33:27.196840 23166 net.cpp:408] conv4_1 -> conv4_1
I0818 19:33:27.197368 23166 net.cpp:150] Setting up conv4_1
I0818 19:33:27.197381 23166 net.cpp:157] Top shape: 64 64 38 38 (5914624)
I0818 19:33:27.197383 23166 net.cpp:165] Memory required for data: 1553618944
I0818 19:33:27.197387 23166 layer_factory.hpp:77] Creating layer conv4_1_bn
I0818 19:33:27.197392 23166 net.cpp:100] Creating Layer conv4_1_bn
I0818 19:33:27.197394 23166 net.cpp:434] conv4_1_bn <- conv4_1
I0818 19:33:27.197399 23166 net.cpp:408] conv4_1_bn -> conv4_1_bn
I0818 19:33:27.197523 23166 net.cpp:150] Setting up conv4_1_bn
I0818 19:33:27.197530 23166 net.cpp:157] Top shape: 64 64 38 38 (5914624)
I0818 19:33:27.197531 23166 net.cpp:165] Memory required for data: 1577277440
I0818 19:33:27.197537 23166 layer_factory.hpp:77] Creating layer conv4_1_bn_scale
I0818 19:33:27.197543 23166 net.cpp:100] Creating Layer conv4_1_bn_scale
I0818 19:33:27.197546 23166 net.cpp:434] conv4_1_bn_scale <- conv4_1_bn
I0818 19:33:27.197551 23166 net.cpp:395] conv4_1_bn_scale -> conv4_1_bn (in-place)
I0818 19:33:27.197576 23166 layer_factory.hpp:77] Creating layer conv4_1_bn_scale
I0818 19:33:27.197654 23166 net.cpp:150] Setting up conv4_1_bn_scale
I0818 19:33:27.197659 23166 net.cpp:157] Top shape: 64 64 38 38 (5914624)
I0818 19:33:27.197660 23166 net.cpp:165] Memory required for data: 1600935936
I0818 19:33:27.197665 23166 layer_factory.hpp:77] Creating layer conv4_1_relu
I0818 19:33:27.197670 23166 net.cpp:100] Creating Layer conv4_1_relu
I0818 19:33:27.197674 23166 net.cpp:434] conv4_1_relu <- conv4_1_bn
I0818 19:33:27.197677 23166 net.cpp:395] conv4_1_relu -> conv4_1_bn (in-place)
I0818 19:33:27.197681 23166 net.cpp:150] Setting up conv4_1_relu
I0818 19:33:27.197685 23166 net.cpp:157] Top shape: 64 64 38 38 (5914624)
I0818 19:33:27.197687 23166 net.cpp:165] Memory required for data: 1624594432
I0818 19:33:27.197690 23166 layer_factory.hpp:77] Creating layer pool4
I0818 19:33:27.197696 23166 net.cpp:100] Creating Layer pool4
I0818 19:33:27.197700 23166 net.cpp:434] pool4 <- conv4_1_bn
I0818 19:33:27.197703 23166 net.cpp:408] pool4 -> pool4
I0818 19:33:27.197742 23166 net.cpp:150] Setting up pool4
I0818 19:33:27.197748 23166 net.cpp:157] Top shape: 64 64 19 19 (1478656)
I0818 19:33:27.197751 23166 net.cpp:165] Memory required for data: 1630509056
I0818 19:33:27.197754 23166 layer_factory.hpp:77] Creating layer pool4_pool4_0_split
I0818 19:33:27.197758 23166 net.cpp:100] Creating Layer pool4_pool4_0_split
I0818 19:33:27.197762 23166 net.cpp:434] pool4_pool4_0_split <- pool4
I0818 19:33:27.197765 23166 net.cpp:408] pool4_pool4_0_split -> pool4_pool4_0_split_0
I0818 19:33:27.197772 23166 net.cpp:408] pool4_pool4_0_split -> pool4_pool4_0_split_1
I0818 19:33:27.197793 23166 net.cpp:150] Setting up pool4_pool4_0_split
I0818 19:33:27.197798 23166 net.cpp:157] Top shape: 64 64 19 19 (1478656)
I0818 19:33:27.197800 23166 net.cpp:157] Top shape: 64 64 19 19 (1478656)
I0818 19:33:27.197803 23166 net.cpp:165] Memory required for data: 1642338304
I0818 19:33:27.197805 23166 layer_factory.hpp:77] Creating layer conv5_1
I0818 19:33:27.197813 23166 net.cpp:100] Creating Layer conv5_1
I0818 19:33:27.197815 23166 net.cpp:434] conv5_1 <- pool4_pool4_0_split_0
I0818 19:33:27.197820 23166 net.cpp:408] conv5_1 -> conv5_1
I0818 19:33:27.199527 23166 net.cpp:150] Setting up conv5_1
I0818 19:33:27.199534 23166 net.cpp:157] Top shape: 64 128 19 19 (2957312)
I0818 19:33:27.199537 23166 net.cpp:165] Memory required for data: 1654167552
I0818 19:33:27.199542 23166 layer_factory.hpp:77] Creating layer conv5_1_bn
I0818 19:33:27.199547 23166 net.cpp:100] Creating Layer conv5_1_bn
I0818 19:33:27.199549 23166 net.cpp:434] conv5_1_bn <- conv5_1
I0818 19:33:27.199558 23166 net.cpp:408] conv5_1_bn -> conv5_1_bn
I0818 19:33:27.200137 23166 net.cpp:150] Setting up conv5_1_bn
I0818 19:33:27.200147 23166 net.cpp:157] Top shape: 64 128 19 19 (2957312)
I0818 19:33:27.200150 23166 net.cpp:165] Memory required for data: 1665996800
I0818 19:33:27.200156 23166 layer_factory.hpp:77] Creating layer conv5_1_bn_scale
I0818 19:33:27.200161 23166 net.cpp:100] Creating Layer conv5_1_bn_scale
I0818 19:33:27.200170 23166 net.cpp:434] conv5_1_bn_scale <- conv5_1_bn
I0818 19:33:27.200179 23166 net.cpp:395] conv5_1_bn_scale -> conv5_1_bn (in-place)
I0818 19:33:27.200211 23166 layer_factory.hpp:77] Creating layer conv5_1_bn_scale
I0818 19:33:27.200283 23166 net.cpp:150] Setting up conv5_1_bn_scale
I0818 19:33:27.200287 23166 net.cpp:157] Top shape: 64 128 19 19 (2957312)
I0818 19:33:27.200290 23166 net.cpp:165] Memory required for data: 1677826048
I0818 19:33:27.200294 23166 layer_factory.hpp:77] Creating layer conv5_1_relu
I0818 19:33:27.200299 23166 net.cpp:100] Creating Layer conv5_1_relu
I0818 19:33:27.200302 23166 net.cpp:434] conv5_1_relu <- conv5_1_bn
I0818 19:33:27.200307 23166 net.cpp:395] conv5_1_relu -> conv5_1_bn (in-place)
I0818 19:33:27.200312 23166 net.cpp:150] Setting up conv5_1_relu
I0818 19:33:27.200316 23166 net.cpp:157] Top shape: 64 128 19 19 (2957312)
I0818 19:33:27.200320 23166 net.cpp:165] Memory required for data: 1689655296
I0818 19:33:27.200321 23166 layer_factory.hpp:77] Creating layer score_1
I0818 19:33:27.200328 23166 net.cpp:100] Creating Layer score_1
I0818 19:33:27.200331 23166 net.cpp:434] score_1 <- conv5_1_bn
I0818 19:33:27.200336 23166 net.cpp:408] score_1 -> score_1
I0818 19:33:27.200496 23166 net.cpp:150] Setting up score_1
I0818 19:33:27.200502 23166 net.cpp:157] Top shape: 64 4 19 19 (92416)
I0818 19:33:27.200505 23166 net.cpp:165] Memory required for data: 1690024960
I0818 19:33:27.200510 23166 layer_factory.hpp:77] Creating layer score_1_score_1_0_split
I0818 19:33:27.200515 23166 net.cpp:100] Creating Layer score_1_score_1_0_split
I0818 19:33:27.200517 23166 net.cpp:434] score_1_score_1_0_split <- score_1
I0818 19:33:27.200522 23166 net.cpp:408] score_1_score_1_0_split -> score_1_score_1_0_split_0
I0818 19:33:27.200527 23166 net.cpp:408] score_1_score_1_0_split -> score_1_score_1_0_split_1
I0818 19:33:27.200553 23166 net.cpp:150] Setting up score_1_score_1_0_split
I0818 19:33:27.200557 23166 net.cpp:157] Top shape: 64 4 19 19 (92416)
I0818 19:33:27.200562 23166 net.cpp:157] Top shape: 64 4 19 19 (92416)
I0818 19:33:27.200563 23166 net.cpp:165] Memory required for data: 1690764288
I0818 19:33:27.200567 23166 layer_factory.hpp:77] Creating layer upscore_1
I0818 19:33:27.200574 23166 net.cpp:100] Creating Layer upscore_1
I0818 19:33:27.200577 23166 net.cpp:434] upscore_1 <- score_1_score_1_0_split_0
I0818 19:33:27.200582 23166 net.cpp:408] upscore_1 -> upscore_1
I0818 19:33:27.201050 23166 net.cpp:150] Setting up upscore_1
I0818 19:33:27.201055 23166 net.cpp:157] Top shape: 64 4 320 320 (26214400)
I0818 19:33:27.201057 23166 net.cpp:165] Memory required for data: 1795621888
I0818 19:33:27.201066 23166 layer_factory.hpp:77] Creating layer cropscore_1
I0818 19:33:27.201072 23166 net.cpp:100] Creating Layer cropscore_1
I0818 19:33:27.201076 23166 net.cpp:434] cropscore_1 <- upscore_1
I0818 19:33:27.201079 23166 net.cpp:434] cropscore_1 <- image_data_0_split_1
I0818 19:33:27.201083 23166 net.cpp:408] cropscore_1 -> cropscore_1
I0818 19:33:27.201102 23166 net.cpp:150] Setting up cropscore_1
I0818 19:33:27.201107 23166 net.cpp:157] Top shape: 64 4 200 200 (10240000)
I0818 19:33:27.201109 23166 net.cpp:165] Memory required for data: 1836581888
I0818 19:33:27.201112 23166 layer_factory.hpp:77] Creating layer cropscore_1_cropscore_1_0_split
I0818 19:33:27.201119 23166 net.cpp:100] Creating Layer cropscore_1_cropscore_1_0_split
I0818 19:33:27.201122 23166 net.cpp:434] cropscore_1_cropscore_1_0_split <- cropscore_1
I0818 19:33:27.201128 23166 net.cpp:408] cropscore_1_cropscore_1_0_split -> cropscore_1_cropscore_1_0_split_0
I0818 19:33:27.201133 23166 net.cpp:408] cropscore_1_cropscore_1_0_split -> cropscore_1_cropscore_1_0_split_1
I0818 19:33:27.201154 23166 net.cpp:150] Setting up cropscore_1_cropscore_1_0_split
I0818 19:33:27.201160 23166 net.cpp:157] Top shape: 64 4 200 200 (10240000)
I0818 19:33:27.201164 23166 net.cpp:157] Top shape: 64 4 200 200 (10240000)
I0818 19:33:27.201165 23166 net.cpp:165] Memory required for data: 1918501888
I0818 19:33:27.201171 23166 layer_factory.hpp:77] Creating layer loss_1
I0818 19:33:27.201180 23166 net.cpp:100] Creating Layer loss_1
I0818 19:33:27.201184 23166 net.cpp:434] loss_1 <- cropscore_1_cropscore_1_0_split_0
I0818 19:33:27.201187 23166 net.cpp:434] loss_1 <- label_data_1_split_0
I0818 19:33:27.201191 23166 net.cpp:408] loss_1 -> loss_1
…
I0818 19:33:27.219677 23166 net.cpp:150] Setting up accuracy_1
I0818 19:33:27.219681 23166 net.cpp:157] Top shape: (1)
I0818 19:33:27.219683 23166 net.cpp:165] Memory required for data: 1918501896
I0818 19:33:27.219686 23166 layer_factory.hpp:77] Creating layer concat_2
I0818 19:33:27.219697 23166 net.cpp:100] Creating Layer concat_2
I0818 19:33:27.219702 23166 net.cpp:434] concat_2 <- pool4_pool4_0_split_1
I0818 19:33:27.219705 23166 net.cpp:434] concat_2 <- score_1_score_1_0_split_1
I0818 19:33:27.219709 23166 net.cpp:408] concat_2 -> concat_2
I0818 19:33:27.219735 23166 net.cpp:150] Setting up concat_2
I0818 19:33:27.219740 23166 net.cpp:157] Top shape: 64 68 19 19 (1571072)
I0818 19:33:27.219743 23166 net.cpp:165] Memory required for data: 1924786184
I0818 19:33:27.219746 23166 layer_factory.hpp:77] Creating layer conv5_2
I0818 19:33:27.219754 23166 net.cpp:100] Creating Layer conv5_2
I0818 19:33:27.219758 23166 net.cpp:434] conv5_2 <- concat_2
I0818 19:33:27.219763 23166 net.cpp:408] conv5_2 -> conv5_2
I0818 19:33:27.220736 23166 net.cpp:150] Setting up conv5_2
I0818 19:33:27.220743 23166 net.cpp:157] Top shape: 64 64 17 17 (1183744)
I0818 19:33:27.220746 23166 net.cpp:165] Memory required for data: 1929521160
I0818 19:33:27.220751 23166 layer_factory.hpp:77] Creating layer conv5_2_bn
I0818 19:33:27.220757 23166 net.cpp:100] Creating Layer conv5_2_bn
I0818 19:33:27.220760 23166 net.cpp:434] conv5_2_bn <- conv5_2
I0818 19:33:27.220764 23166 net.cpp:408] conv5_2_bn -> conv5_2_bn
I0818 19:33:27.220904 23166 net.cpp:150] Setting up conv5_2_bn
I0818 19:33:27.220911 23166 net.cpp:157] Top shape: 64 64 17 17 (1183744)
I0818 19:33:27.220913 23166 net.cpp:165] Memory required for data: 1934256136
I0818 19:33:27.220918 23166 layer_factory.hpp:77] Creating layer conv5_2_bn_scale
I0818 19:33:27.220924 23166 net.cpp:100] Creating Layer conv5_2_bn_scale
I0818 19:33:27.220927 23166 net.cpp:434] conv5_2_bn_scale <- conv5_2_bn
I0818 19:33:27.220932 23166 net.cpp:395] conv5_2_bn_scale -> conv5_2_bn (in-place)
I0818 19:33:27.220960 23166 layer_factory.hpp:77] Creating layer conv5_2_bn_scale
I0818 19:33:27.221040 23166 net.cpp:150] Setting up conv5_2_bn_scale
I0818 19:33:27.221045 23166 net.cpp:157] Top shape: 64 64 17 17 (1183744)
I0818 19:33:27.221047 23166 net.cpp:165] Memory required for data: 1938991112
I0818 19:33:27.221051 23166 layer_factory.hpp:77] Creating layer conv5_2_relu
I0818 19:33:27.221056 23166 net.cpp:100] Creating Layer conv5_2_relu
I0818 19:33:27.221060 23166 net.cpp:434] conv5_2_relu <- conv5_2_bn
I0818 19:33:27.221065 23166 net.cpp:395] conv5_2_relu -> conv5_2_bn (in-place)
I0818 19:33:27.221068 23166 net.cpp:150] Setting up conv5_2_relu
I0818 19:33:27.221072 23166 net.cpp:157] Top shape: 64 64 17 17 (1183744)
I0818 19:33:27.221074 23166 net.cpp:165] Memory required for data: 1943726088
I0818 19:33:27.221077 23166 layer_factory.hpp:77] Creating layer conv6_2
I0818 19:33:27.221086 23166 net.cpp:100] Creating Layer conv6_2
I0818 19:33:27.221087 23166 net.cpp:434] conv6_2 <- conv5_2_bn
I0818 19:33:27.221099 23166 net.cpp:408] conv6_2 -> conv6_2
I0818 19:33:27.222044 23166 net.cpp:150] Setting up conv6_2
I0818 19:33:27.222053 23166 net.cpp:157] Top shape: 64 64 15 15 (921600)
I0818 19:33:27.222054 23166 net.cpp:165] Memory required for data: 1947412488
I0818 19:33:27.222059 23166 layer_factory.hpp:77] Creating layer conv6_2_bn
I0818 19:33:27.222064 23166 net.cpp:100] Creating Layer conv6_2_bn
I0818 19:33:27.222066 23166 net.cpp:434] conv6_2_bn <- conv6_2
I0818 19:33:27.222072 23166 net.cpp:408] conv6_2_bn -> conv6_2_bn
I0818 19:33:27.222203 23166 net.cpp:150] Setting up conv6_2_bn
I0818 19:33:27.222209 23166 net.cpp:157] Top shape: 64 64 15 15 (921600)
I0818 19:33:27.222211 23166 net.cpp:165] Memory required for data: 1951098888
I0818 19:33:27.222218 23166 layer_factory.hpp:77] Creating layer conv6_2_bn_scale
I0818 19:33:27.222223 23166 net.cpp:100] Creating Layer conv6_2_bn_scale
I0818 19:33:27.222226 23166 net.cpp:434] conv6_2_bn_scale <- conv6_2_bn
I0818 19:33:27.222229 23166 net.cpp:395] conv6_2_bn_scale -> conv6_2_bn (in-place)
I0818 19:33:27.222255 23166 layer_factory.hpp:77] Creating layer conv6_2_bn_scale
I0818 19:33:27.222332 23166 net.cpp:150] Setting up conv6_2_bn_scale
I0818 19:33:27.222337 23166 net.cpp:157] Top shape: 64 64 15 15 (921600)
I0818 19:33:27.222339 23166 net.cpp:165] Memory required for data: 1954785288
I0818 19:33:27.222344 23166 layer_factory.hpp:77] Creating layer conv6_2_relu
I0818 19:33:27.222348 23166 net.cpp:100] Creating Layer conv6_2_relu
I0818 19:33:27.222352 23166 net.cpp:434] conv6_2_relu <- conv6_2_bn
I0818 19:33:27.222357 23166 net.cpp:395] conv6_2_relu -> conv6_2_bn (in-place)
I0818 19:33:27.222360 23166 net.cpp:150] Setting up conv6_2_relu
I0818 19:33:27.222364 23166 net.cpp:157] Top shape: 64 64 15 15 (921600)
I0818 19:33:27.222368 23166 net.cpp:165] Memory required for data: 1958471688
I0818 19:33:27.222369 23166 layer_factory.hpp:77] Creating layer conv7_2
I0818 19:33:27.222376 23166 net.cpp:100] Creating Layer conv7_2
I0818 19:33:27.222379 23166 net.cpp:434] conv7_2 <- conv6_2_bn
I0818 19:33:27.222383 23166 net.cpp:408] conv7_2 -> conv7_2
I0818 19:33:27.224089 23166 net.cpp:150] Setting up conv7_2
I0818 19:33:27.224095 23166 net.cpp:157] Top shape: 64 128 13 13 (1384448)
I0818 19:33:27.224098 23166 net.cpp:165] Memory required for data: 1964009480
I0818 19:33:27.224102 23166 layer_factory.hpp:77] Creating layer conv7_2_bn
I0818 19:33:27.224107 23166 net.cpp:100] Creating Layer conv7_2_bn
I0818 19:33:27.224109 23166 net.cpp:434] conv7_2_bn <- conv7_2
I0818 19:33:27.224113 23166 net.cpp:408] conv7_2_bn -> conv7_2_bn
I0818 19:33:27.224236 23166 net.cpp:150] Setting up conv7_2_bn
I0818 19:33:27.224242 23166 net.cpp:157] Top shape: 64 128 13 13 (1384448)
I0818 19:33:27.224244 23166 net.cpp:165] Memory required for data: 1969547272
I0818 19:33:27.224249 23166 layer_factory.hpp:77] Creating layer conv7_2_bn_scale
I0818 19:33:27.224254 23166 net.cpp:100] Creating Layer conv7_2_bn_scale
I0818 19:33:27.224257 23166 net.cpp:434] conv7_2_bn_scale <- conv7_2_bn
I0818 19:33:27.224261 23166 net.cpp:395] conv7_2_bn_scale -> conv7_2_bn (in-place)
I0818 19:33:27.224289 23166 layer_factory.hpp:77] Creating layer conv7_2_bn_scale
I0818 19:33:27.224354 23166 net.cpp:150] Setting up conv7_2_bn_scale
I0818 19:33:27.224359 23166 net.cpp:157] Top shape: 64 128 13 13 (1384448)
I0818 19:33:27.224361 23166 net.cpp:165] Memory required for data: 1975085064
I0818 19:33:27.224365 23166 layer_factory.hpp:77] Creating layer conv7_2_relu
I0818 19:33:27.224370 23166 net.cpp:100] Creating Layer conv7_2_relu
I0818 19:33:27.224373 23166 net.cpp:434] conv7_2_relu <- conv7_2_bn
I0818 19:33:27.224377 23166 net.cpp:395] conv7_2_relu -> conv7_2_bn (in-place)
I0818 19:33:27.224381 23166 net.cpp:150] Setting up conv7_2_relu
I0818 19:33:27.224385 23166 net.cpp:157] Top shape: 64 128 13 13 (1384448)
I0818 19:33:27.224386 23166 net.cpp:165] Memory required for data: 1980622856
I0818 19:33:27.224390 23166 layer_factory.hpp:77] Creating layer score_2
I0818 19:33:27.224397 23166 net.cpp:100] Creating Layer score_2
I0818 19:33:27.224405 23166 net.cpp:434] score_2 <- conv7_2_bn
I0818 19:33:27.224416 23166 net.cpp:408] score_2 -> score_2
I0818 19:33:27.224578 23166 net.cpp:150] Setting up score_2
I0818 19:33:27.224584 23166 net.cpp:157] Top shape: 64 4 13 13 (43264)
I0818 19:33:27.224586 23166 net.cpp:165] Memory required for data: 1980795912
I0818 19:33:27.224591 23166 layer_factory.hpp:77] Creating layer upscore_2
I0818 19:33:27.224598 23166 net.cpp:100] Creating Layer upscore_2
I0818 19:33:27.224601 23166 net.cpp:434] upscore_2 <- score_2
I0818 19:33:27.224606 23166 net.cpp:408] upscore_2 -> upscore_2
I0818 19:33:27.225096 23166 net.cpp:150] Setting up upscore_2
I0818 19:33:27.225102 23166 net.cpp:157] Top shape: 64 4 224 224 (12845056)
I0818 19:33:27.225106 23166 net.cpp:165] Memory required for data: 2032176136
I0818 19:33:27.225108 23166 layer_factory.hpp:77] Creating layer cropscore_2
I0818 19:33:27.225114 23166 net.cpp:100] Creating Layer cropscore_2
I0818 19:33:27.225117 23166 net.cpp:434] cropscore_2 <- upscore_2
I0818 19:33:27.225121 23166 net.cpp:434] cropscore_2 <- image_data_0_split_2
I0818 19:33:27.225126 23166 net.cpp:408] cropscore_2 -> cropscore_2
I0818 19:33:27.225143 23166 net.cpp:150] Setting up cropscore_2
I0818 19:33:27.225147 23166 net.cpp:157] Top shape: 64 4 200 200 (10240000)
I0818 19:33:27.225150 23166 net.cpp:165] Memory required for data: 2073136136
I0818 19:33:27.225152 23166 layer_factory.hpp:77] Creating layer cropscore_2_cropscore_2_0_split
I0818 19:33:27.225157 23166 net.cpp:100] Creating Layer cropscore_2_cropscore_2_0_split
I0818 19:33:27.225160 23166 net.cpp:434] cropscore_2_cropscore_2_0_split <- cropscore_2
I0818 19:33:27.225164 23166 net.cpp:408] cropscore_2_cropscore_2_0_split -> cropscore_2_cropscore_2_0_split_0
I0818 19:33:27.225168 23166 net.cpp:408] cropscore_2_cropscore_2_0_split -> cropscore_2_cropscore_2_0_split_1
I0818 19:33:27.225191 23166 net.cpp:150] Setting up cropscore_2_cropscore_2_0_split
I0818 19:33:27.225196 23166 net.cpp:157] Top shape: 64 4 200 200 (10240000)
I0818 19:33:27.225199 23166 net.cpp:157] Top shape: 64 4 200 200 (10240000)
I0818 19:33:27.225203 23166 net.cpp:165] Memory required for data: 2155056136
I0818 19:33:27.225204 23166 layer_factory.hpp:77] Creating layer loss_2
I0818 19:33:27.225209 23166 net.cpp:100] Creating Layer loss_2
I0818 19:33:27.225213 23166 net.cpp:434] loss_2 <- cropscore_2_cropscore_2_0_split_0
I0818 19:33:27.225216 23166 net.cpp:434] loss_2 <- label_data_1_split_2
I0818 19:33:27.225222 23166 net.cpp:408] loss_2 -> loss_2
…
