…
I0826 16:36:06.562415  4567 solver.cpp:91] Creating training net from net file: portrait_train_test_one_stage.prototxt3
I0826 16:36:06.563293  4567 net.cpp:322] The NetState phase (0) differed from the phase (1) specified by a rule in layer data
I0826 16:36:06.563561  4567 net.cpp:58] Initializing net from parameters: 
name: "segmentation"
state {
  phase: TRAIN
  level: 0
  stage: ""
}
layer {
  name: "data"
  type: "SegData"
  top: "image"
  top: "label"
  include {
    phase: TRAIN
  }
  transform_param {
    mirror: true
    crop_size: 200
  }
  data_param {
    source: "/raid/xuehan/segmentation_train_split"
    batch_size: 128
    backend: LMDB
  }
}
layer {
  name: "conv1_1"
  type: "Convolution"
  bottom: "image"
  top: "conv1_1"
  param {
    lr_mult: 1
    decay_mult: 1
  }
  convolution_param {
    num_output: 8
    bias_term: false
    pad: 50
    kernel_size: 3
    stride: 1
    weight_filler {
      type: "gaussian"
      std: 0.01
    }
  }
}
layer {
  name: "pool1"
  type: "Pooling"
  bottom: "conv1_1"
  top: "pool1"
  pooling_param {
    pool: MAX
    kernel_size: 2
    stride: 2
  }
}
layer {
  name: "conv1_1_bn"
  type: "BatchNorm"
  bottom: "pool1"
  top: "conv1_1_bn"
  param {
    lr_mult: 0
  }
  param {
    lr_mult: 0
  }
  param {
    lr_mult: 0
  }
}
layer {
  name: "conv1_1_bn_scale"
  type: "Scale"
  bottom: "conv1_1_bn"
  top: "conv1_1_bn"
  scale_param {
    bias_term: true
  }
}
layer {
  name: "conv1_1_relu"
  type: "ReLU"
  bottom: "conv1_1_bn"
  top: "conv1_1_bn"
}
layer {
  name: "conv2_1"
  type: "Convolution"
  bottom: "conv1_1_bn"
  top: "conv2_1"
  param {
    lr_mult: 1
    decay_mult: 1
  }
  convolution_param {
    num_output: 16
    bias_term: false
    pad: 1
    kernel_size: 3
    stride: 1
    weight_filler {
      type: "gaussian"
      std: 0.01
    }
  }
}
layer {
  name: "pool2"
  type: "Pooling"
  bottom: "conv2_1"
  top: "pool2"
  pooling_param {
    pool: MAX
    kernel_size: 2
    stride: 2
  }
}
layer {
  name: "conv2_1_bn"
  type: "BatchNorm"
  bottom: "pool2"
  top: "conv2_1_bn"
  param {
    lr_mult: 0
  }
  param {
    lr_mult: 0
  }
  param {
    lr_mult: 0
  }
}
layer {
  name: "conv2_1_bn_scale"
  type: "Scale"
  bottom: "conv2_1_bn"
  top: "conv2_1_bn"
  scale_param {
    bias_term: true
  }
}
layer {
  name: "conv2_1_relu"
  type: "ReLU"
  bottom: "conv2_1_bn"
  top: "conv2_1_bn"
}
layer {
  name: "conv3_1"
  type: "Convolution"
  bottom: "conv2_1_bn"
  top: "conv3_1"
  param {
    lr_mult: 1
    decay_mult: 1
  }
  convolution_param {
    num_output: 32
    bias_term: false
    pad: 1
    kernel_size: 3
    stride: 1
    weight_filler {
      type: "gaussian"
      std: 0.01
    }
  }
}
layer {
  name: "pool3"
  type: "Pooling"
  bottom: "conv3_1"
  top: "pool3"
  pooling_param {
    pool: MAX
    kernel_size: 2
    stride: 2
  }
}
layer {
  name: "conv3_1_bn"
  type: "BatchNorm"
  bottom: "pool3"
  top: "conv3_1_bn"
  param {
    lr_mult: 0
  }
  param {
    lr_mult: 0
  }
  param {
    lr_mult: 0
  }
}
layer {
  name: "conv3_1_bn_scale"
  type: "Scale"
  bottom: "conv3_1_bn"
  top: "conv3_1_bn"
  scale_param {
    bias_term: true
  }
}
layer {
  name: "conv3_1_relu"
  type: "ReLU"
  bottom: "conv3_1_bn"
  top: "conv3_1_bn"
}
layer {
  name: "conv4_1"
  type: "Convolution"
  bottom: "conv3_1_bn"
  top: "conv4_1"
  param {
    lr_mult: 1
    decay_mult: 1
  }
  convolution_param {
    num_output: 64
    bias_term: false
    pad: 1
    kernel_size: 3
    stride: 1
    weight_filler {
      type: "gaussian"
      std: 0.01
    }
  }
}
layer {
  name: "pool4"
  type: "Pooling"
  bottom: "conv4_1"
  top: "pool4"
  pooling_param {
    pool: MAX
    kernel_size: 2
    stride: 2
  }
}
layer {
  name: "conv4_1_bn"
  type: "BatchNorm"
  bottom: "pool4"
  top: "conv4_1_bn"
  param {
    lr_mult: 0
  }
  param {
    lr_mult: 0
  }
  param {
    lr_mult: 0
  }
}
layer {
  name: "conv4_1_bn_scale"
  type: "Scale"
  bottom: "conv4_1_bn"
  top: "conv4_1_bn"
  scale_param {
    bias_term: true
  }
}
layer {
  name: "conv4_1_relu"
  type: "ReLU"
  bottom: "conv4_1_bn"
  top: "conv4_1_bn"
}
layer {
  name: "conv5_1"
  type: "Convolution"
  bottom: "conv4_1_bn"
  top: "conv5_1"
  param {
    lr_mult: 1
    decay_mult: 1
  }
  convolution_param {
    num_output: 64
    bias_term: false
    pad: 0
    kernel_size: 3
    stride: 1
    weight_filler {
      type: "gaussian"
      std: 0.01
    }
  }
}
layer {
  name: "conv5_1_bn"
  type: "BatchNorm"
  bottom: "conv5_1"
  top: "conv5_1_bn"
  param {
    lr_mult: 0
  }
  param {
    lr_mult: 0
  }
  param {
    lr_mult: 0
  }
}
layer {
  name: "conv5_1_bn_scale"
  type: "Scale"
  bottom: "conv5_1_bn"
  top: "conv5_1_bn"
  scale_param {
    bias_term: true
  }
}
layer {
  name: "conv5_1_relu"
  type: "ReLU"
  bottom: "conv5_1_bn"
  top: "conv5_1_bn"
}
layer {
  name: "conv6_1"
  type: "Convolution"
  bottom: "conv5_1_bn"
  top: "conv6_1"
  param {
    lr_mult: 1
    decay_mult: 1
  }
  convolution_param {
    num_output: 64
    bias_term: false
    pad: 0
    kernel_size: 3
    stride: 1
    weight_filler {
      type: "gaussian"
      std: 0.01
    }
  }
}
layer {
  name: "conv6_1_bn"
  type: "BatchNorm"
  bottom: "conv6_1"
  top: "conv6_1_bn"
  param {
    lr_mult: 0
  }
  param {
    lr_mult: 0
  }
  param {
    lr_mult: 0
  }
}
layer {
  name: "conv6_1_bn_scale"
  type: "Scale"
  bottom: "conv6_1_bn"
  top: "conv6_1_bn"
  scale_param {
    bias_term: true
  }
}
layer {
  name: "conv6_1_relu"
  type: "ReLU"
  bottom: "conv6_1_bn"
  top: "conv6_1_bn"
}
layer {
  name: "conv7_1"
  type: "Convolution"
  bottom: "conv6_1_bn"
  top: "conv7_1"
  param {
    lr_mult: 1
    decay_mult: 1
  }
  convolution_param {
    num_output: 128
    bias_term: false
    pad: 0
    kernel_size: 3
    stride: 1
    weight_filler {
      type: "gaussian"
      std: 0.01
    }
  }
}
layer {
  name: "conv7_1_bn"
  type: "BatchNorm"
  bottom: "conv7_1"
  top: "conv7_1_bn"
  param {
    lr_mult: 0
  }
  param {
    lr_mult: 0
  }
  param {
    lr_mult: 0
  }
}
layer {
  name: "conv7_1_bn_scale"
  type: "Scale"
  bottom: "conv7_1_bn"
  top: "conv7_1_bn"
  scale_param {
    bias_term: true
  }
}
layer {
  name: "conv7_1_relu"
  type: "ReLU"
  bottom: "conv7_1_bn"
  top: "conv7_1_bn"
}
layer {
  name: "score"
  type: "Convolution"
  bottom: "conv7_1_bn"
  top: "score"
  param {
    lr_mult: 1
    decay_mult: 1
  }
  param {
    lr_mult: 2
    decay_mult: 0
  }
  convolution_param {
    num_output: 4
    pad: 0
    kernel_size: 1
    stride: 1
    weight_filler {
      type: "gaussian"
      std: 0.01
    }
    bias_filler {
      type: "constant"
    }
  }
}
layer {
  name: "upscore"
  type: "Deconvolution"
  bottom: "score"
  top: "upscore"
  param {
    lr_mult: 1
    decay_mult: 1
  }
  convolution_param {
    num_output: 4
    bias_term: false
    pad: 0
    kernel_size: 32
    stride: 16
    weight_filler {
      type: "gaussian"
      std: 0.01
    }
  }
}
layer {
  name: "cropscore"
  type: "Crop"
  bottom: "upscore"
  bottom: "image"
  top: "cropscore"
  crop_param {
    axis: 2
    offset: 12
  }
}
layer {
  name: "loss"
  type: "SoftmaxWithLoss"
  bottom: "cropscore"
  bottom: "label"
  top: "loss"
  loss_weight: 1
  loss_param {
    normalize: false
  }
}
layer {
  name: "accuracy"
  type: "Accuracy"
  bottom: "cropscore"
  bottom: "label"
  top: "accuracy"
}
I0826 16:36:06.563778  4567 layer_factory.hpp:77] Creating layer data
I0826 16:36:06.564384  4567 net.cpp:100] Creating Layer data
I0826 16:36:06.564396  4567 net.cpp:408] data -> image
I0826 16:36:06.564416  4567 net.cpp:408] data -> label
I0826 16:36:06.565361  4571 db_lmdb.cpp:35] Opened lmdb /raid/xuehan/segmentation_train_split
I0826 16:36:06.565510  4567 seg_data_layer.cpp:38] 200 200 4
I0826 16:36:06.572863  4567 seg_data_layer.cpp:51] output data size: 128,3,200,200
I0826 16:36:06.572922  4567 seg_data_layer.cpp:63] output label size: 128,1,200,200
I0826 16:36:06.681324  4567 net.cpp:150] Setting up data
I0826 16:36:06.681363  4567 net.cpp:157] Top shape: 128 3 200 200 (15360000)
I0826 16:36:06.681370  4567 net.cpp:157] Top shape: 128 1 200 200 (5120000)
I0826 16:36:06.681375  4567 net.cpp:165] Memory required for data: 81920000
I0826 16:36:06.681391  4567 layer_factory.hpp:77] Creating layer image_data_0_split
I0826 16:36:06.681408  4567 net.cpp:100] Creating Layer image_data_0_split
I0826 16:36:06.681416  4567 net.cpp:434] image_data_0_split <- image
I0826 16:36:06.681429  4567 net.cpp:408] image_data_0_split -> image_data_0_split_0
I0826 16:36:06.681443  4567 net.cpp:408] image_data_0_split -> image_data_0_split_1
I0826 16:36:06.681498  4567 net.cpp:150] Setting up image_data_0_split
I0826 16:36:06.681505  4567 net.cpp:157] Top shape: 128 3 200 200 (15360000)
I0826 16:36:06.681510  4567 net.cpp:157] Top shape: 128 3 200 200 (15360000)
I0826 16:36:06.681514  4567 net.cpp:165] Memory required for data: 204800000
I0826 16:36:06.681519  4567 layer_factory.hpp:77] Creating layer label_data_1_split
I0826 16:36:06.681530  4567 net.cpp:100] Creating Layer label_data_1_split
I0826 16:36:06.681535  4567 net.cpp:434] label_data_1_split <- label
I0826 16:36:06.681541  4567 net.cpp:408] label_data_1_split -> label_data_1_split_0
I0826 16:36:06.681548  4567 net.cpp:408] label_data_1_split -> label_data_1_split_1
I0826 16:36:06.681582  4567 net.cpp:150] Setting up label_data_1_split
I0826 16:36:06.681591  4567 net.cpp:157] Top shape: 128 1 200 200 (5120000)
I0826 16:36:06.681596  4567 net.cpp:157] Top shape: 128 1 200 200 (5120000)
I0826 16:36:06.681601  4567 net.cpp:165] Memory required for data: 245760000
I0826 16:36:06.681604  4567 layer_factory.hpp:77] Creating layer conv1_1
I0826 16:36:06.681622  4567 net.cpp:100] Creating Layer conv1_1
I0826 16:36:06.681627  4567 net.cpp:434] conv1_1 <- image_data_0_split_0
I0826 16:36:06.681633  4567 net.cpp:408] conv1_1 -> conv1_1
I0826 16:36:06.681846  4567 net.cpp:150] Setting up conv1_1
I0826 16:36:06.681856  4567 net.cpp:157] Top shape: 128 8 298 298 (90935296)
I0826 16:36:06.681860  4567 net.cpp:165] Memory required for data: 609501184
I0826 16:36:06.681874  4567 layer_factory.hpp:77] Creating layer pool1
I0826 16:36:06.681885  4567 net.cpp:100] Creating Layer pool1
I0826 16:36:06.681890  4567 net.cpp:434] pool1 <- conv1_1
I0826 16:36:06.681895  4567 net.cpp:408] pool1 -> pool1
I0826 16:36:06.681937  4567 net.cpp:150] Setting up pool1
I0826 16:36:06.681944  4567 net.cpp:157] Top shape: 128 8 149 149 (22733824)
I0826 16:36:06.681949  4567 net.cpp:165] Memory required for data: 700436480
I0826 16:36:06.681953  4567 layer_factory.hpp:77] Creating layer conv1_1_bn
I0826 16:36:06.681962  4567 net.cpp:100] Creating Layer conv1_1_bn
I0826 16:36:06.681967  4567 net.cpp:434] conv1_1_bn <- pool1
I0826 16:36:06.681972  4567 net.cpp:408] conv1_1_bn -> conv1_1_bn
I0826 16:36:06.682760  4567 net.cpp:150] Setting up conv1_1_bn
I0826 16:36:06.682777  4567 net.cpp:157] Top shape: 128 8 149 149 (22733824)
I0826 16:36:06.682782  4567 net.cpp:165] Memory required for data: 791371776
I0826 16:36:06.682799  4567 layer_factory.hpp:77] Creating layer conv1_1_bn_scale
I0826 16:36:06.682814  4567 net.cpp:100] Creating Layer conv1_1_bn_scale
I0826 16:36:06.682819  4567 net.cpp:434] conv1_1_bn_scale <- conv1_1_bn
I0826 16:36:06.682826  4567 net.cpp:395] conv1_1_bn_scale -> conv1_1_bn (in-place)
I0826 16:36:06.690253  4567 layer_factory.hpp:77] Creating layer conv1_1_bn_scale
I0826 16:36:06.690443  4567 net.cpp:150] Setting up conv1_1_bn_scale
I0826 16:36:06.690457  4567 net.cpp:157] Top shape: 128 8 149 149 (22733824)
I0826 16:36:06.690461  4567 net.cpp:165] Memory required for data: 882307072
I0826 16:36:06.690477  4567 layer_factory.hpp:77] Creating layer conv1_1_relu
I0826 16:36:06.690487  4567 net.cpp:100] Creating Layer conv1_1_relu
I0826 16:36:06.690503  4567 net.cpp:434] conv1_1_relu <- conv1_1_bn
I0826 16:36:06.690523  4567 net.cpp:395] conv1_1_relu -> conv1_1_bn (in-place)
I0826 16:36:06.690531  4567 net.cpp:150] Setting up conv1_1_relu
I0826 16:36:06.690537  4567 net.cpp:157] Top shape: 128 8 149 149 (22733824)
I0826 16:36:06.690541  4567 net.cpp:165] Memory required for data: 973242368
I0826 16:36:06.690546  4567 layer_factory.hpp:77] Creating layer conv2_1
I0826 16:36:06.690560  4567 net.cpp:100] Creating Layer conv2_1
I0826 16:36:06.690564  4567 net.cpp:434] conv2_1 <- conv1_1_bn
I0826 16:36:06.690572  4567 net.cpp:408] conv2_1 -> conv2_1
I0826 16:36:06.691354  4567 net.cpp:150] Setting up conv2_1
I0826 16:36:06.691370  4567 net.cpp:157] Top shape: 128 16 149 149 (45467648)
I0826 16:36:06.691373  4567 net.cpp:165] Memory required for data: 1155112960
I0826 16:36:06.691380  4567 layer_factory.hpp:77] Creating layer pool2
I0826 16:36:06.691390  4567 net.cpp:100] Creating Layer pool2
I0826 16:36:06.691395  4567 net.cpp:434] pool2 <- conv2_1
I0826 16:36:06.691404  4567 net.cpp:408] pool2 -> pool2
I0826 16:36:06.691440  4567 net.cpp:150] Setting up pool2
I0826 16:36:06.691448  4567 net.cpp:157] Top shape: 128 16 75 75 (11520000)
I0826 16:36:06.691452  4567 net.cpp:165] Memory required for data: 1201192960
I0826 16:36:06.691457  4567 layer_factory.hpp:77] Creating layer conv2_1_bn
I0826 16:36:06.691465  4567 net.cpp:100] Creating Layer conv2_1_bn
I0826 16:36:06.691469  4567 net.cpp:434] conv2_1_bn <- pool2
I0826 16:36:06.691476  4567 net.cpp:408] conv2_1_bn -> conv2_1_bn
I0826 16:36:06.692188  4567 net.cpp:150] Setting up conv2_1_bn
I0826 16:36:06.692204  4567 net.cpp:157] Top shape: 128 16 75 75 (11520000)
I0826 16:36:06.692209  4567 net.cpp:165] Memory required for data: 1247272960
I0826 16:36:06.692225  4567 layer_factory.hpp:77] Creating layer conv2_1_bn_scale
I0826 16:36:06.692234  4567 net.cpp:100] Creating Layer conv2_1_bn_scale
I0826 16:36:06.692240  4567 net.cpp:434] conv2_1_bn_scale <- conv2_1_bn
I0826 16:36:06.692246  4567 net.cpp:395] conv2_1_bn_scale -> conv2_1_bn (in-place)
I0826 16:36:06.692283  4567 layer_factory.hpp:77] Creating layer conv2_1_bn_scale
I0826 16:36:06.692404  4567 net.cpp:150] Setting up conv2_1_bn_scale
I0826 16:36:06.692414  4567 net.cpp:157] Top shape: 128 16 75 75 (11520000)
I0826 16:36:06.692416  4567 net.cpp:165] Memory required for data: 1293352960
I0826 16:36:06.692422  4567 layer_factory.hpp:77] Creating layer conv2_1_relu
I0826 16:36:06.692428  4567 net.cpp:100] Creating Layer conv2_1_relu
I0826 16:36:06.692431  4567 net.cpp:434] conv2_1_relu <- conv2_1_bn
I0826 16:36:06.692436  4567 net.cpp:395] conv2_1_relu -> conv2_1_bn (in-place)
I0826 16:36:06.692445  4567 net.cpp:150] Setting up conv2_1_relu
I0826 16:36:06.692448  4567 net.cpp:157] Top shape: 128 16 75 75 (11520000)
I0826 16:36:06.692451  4567 net.cpp:165] Memory required for data: 1339432960
I0826 16:36:06.692453  4567 layer_factory.hpp:77] Creating layer conv3_1
I0826 16:36:06.692461  4567 net.cpp:100] Creating Layer conv3_1
I0826 16:36:06.692464  4567 net.cpp:434] conv3_1 <- conv2_1_bn
I0826 16:36:06.692471  4567 net.cpp:408] conv3_1 -> conv3_1
I0826 16:36:06.692813  4567 net.cpp:150] Setting up conv3_1
I0826 16:36:06.692828  4567 net.cpp:157] Top shape: 128 32 75 75 (23040000)
I0826 16:36:06.692833  4567 net.cpp:165] Memory required for data: 1431592960
I0826 16:36:06.692839  4567 layer_factory.hpp:77] Creating layer pool3
I0826 16:36:06.692848  4567 net.cpp:100] Creating Layer pool3
I0826 16:36:06.692853  4567 net.cpp:434] pool3 <- conv3_1
I0826 16:36:06.692860  4567 net.cpp:408] pool3 -> pool3
I0826 16:36:06.692903  4567 net.cpp:150] Setting up pool3
I0826 16:36:06.692910  4567 net.cpp:157] Top shape: 128 32 38 38 (5914624)
I0826 16:36:06.692914  4567 net.cpp:165] Memory required for data: 1455251456
I0826 16:36:06.692916  4567 layer_factory.hpp:77] Creating layer conv3_1_bn
I0826 16:36:06.692921  4567 net.cpp:100] Creating Layer conv3_1_bn
I0826 16:36:06.692924  4567 net.cpp:434] conv3_1_bn <- pool3
I0826 16:36:06.692939  4567 net.cpp:408] conv3_1_bn -> conv3_1_bn
I0826 16:36:06.693074  4567 net.cpp:150] Setting up conv3_1_bn
I0826 16:36:06.693080  4567 net.cpp:157] Top shape: 128 32 38 38 (5914624)
I0826 16:36:06.693084  4567 net.cpp:165] Memory required for data: 1478909952
I0826 16:36:06.693089  4567 layer_factory.hpp:77] Creating layer conv3_1_bn_scale
I0826 16:36:06.693097  4567 net.cpp:100] Creating Layer conv3_1_bn_scale
I0826 16:36:06.693100  4567 net.cpp:434] conv3_1_bn_scale <- conv3_1_bn
I0826 16:36:06.693104  4567 net.cpp:395] conv3_1_bn_scale -> conv3_1_bn (in-place)
I0826 16:36:06.693128  4567 layer_factory.hpp:77] Creating layer conv3_1_bn_scale
I0826 16:36:06.693228  4567 net.cpp:150] Setting up conv3_1_bn_scale
I0826 16:36:06.693238  4567 net.cpp:157] Top shape: 128 32 38 38 (5914624)
I0826 16:36:06.693243  4567 net.cpp:165] Memory required for data: 1502568448
I0826 16:36:06.693256  4567 layer_factory.hpp:77] Creating layer conv3_1_relu
I0826 16:36:06.693265  4567 net.cpp:100] Creating Layer conv3_1_relu
I0826 16:36:06.693269  4567 net.cpp:434] conv3_1_relu <- conv3_1_bn
I0826 16:36:06.693275  4567 net.cpp:395] conv3_1_relu -> conv3_1_bn (in-place)
I0826 16:36:06.693282  4567 net.cpp:150] Setting up conv3_1_relu
I0826 16:36:06.693289  4567 net.cpp:157] Top shape: 128 32 38 38 (5914624)
I0826 16:36:06.693291  4567 net.cpp:165] Memory required for data: 1526226944
I0826 16:36:06.693295  4567 layer_factory.hpp:77] Creating layer conv4_1
I0826 16:36:06.693305  4567 net.cpp:100] Creating Layer conv4_1
I0826 16:36:06.693310  4567 net.cpp:434] conv4_1 <- conv3_1_bn
I0826 16:36:06.693317  4567 net.cpp:408] conv4_1 -> conv4_1
I0826 16:36:06.693886  4567 net.cpp:150] Setting up conv4_1
I0826 16:36:06.693897  4567 net.cpp:157] Top shape: 128 64 38 38 (11829248)
I0826 16:36:06.693899  4567 net.cpp:165] Memory required for data: 1573543936
I0826 16:36:06.693903  4567 layer_factory.hpp:77] Creating layer pool4
I0826 16:36:06.693909  4567 net.cpp:100] Creating Layer pool4
I0826 16:36:06.693912  4567 net.cpp:434] pool4 <- conv4_1
I0826 16:36:06.693917  4567 net.cpp:408] pool4 -> pool4
I0826 16:36:06.693943  4567 net.cpp:150] Setting up pool4
I0826 16:36:06.693950  4567 net.cpp:157] Top shape: 128 64 19 19 (2957312)
I0826 16:36:06.693953  4567 net.cpp:165] Memory required for data: 1585373184
I0826 16:36:06.693955  4567 layer_factory.hpp:77] Creating layer conv4_1_bn
I0826 16:36:06.693961  4567 net.cpp:100] Creating Layer conv4_1_bn
I0826 16:36:06.693964  4567 net.cpp:434] conv4_1_bn <- pool4
I0826 16:36:06.693969  4567 net.cpp:408] conv4_1_bn -> conv4_1_bn
I0826 16:36:06.694528  4567 net.cpp:150] Setting up conv4_1_bn
I0826 16:36:06.694540  4567 net.cpp:157] Top shape: 128 64 19 19 (2957312)
I0826 16:36:06.694542  4567 net.cpp:165] Memory required for data: 1597202432
I0826 16:36:06.694550  4567 layer_factory.hpp:77] Creating layer conv4_1_bn_scale
I0826 16:36:06.694555  4567 net.cpp:100] Creating Layer conv4_1_bn_scale
I0826 16:36:06.694558  4567 net.cpp:434] conv4_1_bn_scale <- conv4_1_bn
I0826 16:36:06.694563  4567 net.cpp:395] conv4_1_bn_scale -> conv4_1_bn (in-place)
I0826 16:36:06.694591  4567 layer_factory.hpp:77] Creating layer conv4_1_bn_scale
I0826 16:36:06.694667  4567 net.cpp:150] Setting up conv4_1_bn_scale
I0826 16:36:06.694672  4567 net.cpp:157] Top shape: 128 64 19 19 (2957312)
I0826 16:36:06.694675  4567 net.cpp:165] Memory required for data: 1609031680
I0826 16:36:06.694680  4567 layer_factory.hpp:77] Creating layer conv4_1_relu
I0826 16:36:06.694685  4567 net.cpp:100] Creating Layer conv4_1_relu
I0826 16:36:06.694687  4567 net.cpp:434] conv4_1_relu <- conv4_1_bn
I0826 16:36:06.694692  4567 net.cpp:395] conv4_1_relu -> conv4_1_bn (in-place)
I0826 16:36:06.694697  4567 net.cpp:150] Setting up conv4_1_relu
I0826 16:36:06.694701  4567 net.cpp:157] Top shape: 128 64 19 19 (2957312)
I0826 16:36:06.694703  4567 net.cpp:165] Memory required for data: 1620860928
I0826 16:36:06.694706  4567 layer_factory.hpp:77] Creating layer conv5_1
I0826 16:36:06.694715  4567 net.cpp:100] Creating Layer conv5_1
I0826 16:36:06.694717  4567 net.cpp:434] conv5_1 <- conv4_1_bn
I0826 16:36:06.694736  4567 net.cpp:408] conv5_1 -> conv5_1
I0826 16:36:06.695667  4567 net.cpp:150] Setting up conv5_1
I0826 16:36:06.695675  4567 net.cpp:157] Top shape: 128 64 17 17 (2367488)
I0826 16:36:06.695678  4567 net.cpp:165] Memory required for data: 1630330880
I0826 16:36:06.695683  4567 layer_factory.hpp:77] Creating layer conv5_1_bn
I0826 16:36:06.695688  4567 net.cpp:100] Creating Layer conv5_1_bn
I0826 16:36:06.695690  4567 net.cpp:434] conv5_1_bn <- conv5_1
I0826 16:36:06.695695  4567 net.cpp:408] conv5_1_bn -> conv5_1_bn
I0826 16:36:06.695828  4567 net.cpp:150] Setting up conv5_1_bn
I0826 16:36:06.695834  4567 net.cpp:157] Top shape: 128 64 17 17 (2367488)
I0826 16:36:06.695837  4567 net.cpp:165] Memory required for data: 1639800832
I0826 16:36:06.695842  4567 layer_factory.hpp:77] Creating layer conv5_1_bn_scale
I0826 16:36:06.695847  4567 net.cpp:100] Creating Layer conv5_1_bn_scale
I0826 16:36:06.695850  4567 net.cpp:434] conv5_1_bn_scale <- conv5_1_bn
I0826 16:36:06.695854  4567 net.cpp:395] conv5_1_bn_scale -> conv5_1_bn (in-place)
I0826 16:36:06.695879  4567 layer_factory.hpp:77] Creating layer conv5_1_bn_scale
I0826 16:36:06.695960  4567 net.cpp:150] Setting up conv5_1_bn_scale
I0826 16:36:06.695966  4567 net.cpp:157] Top shape: 128 64 17 17 (2367488)
I0826 16:36:06.695967  4567 net.cpp:165] Memory required for data: 1649270784
I0826 16:36:06.695972  4567 layer_factory.hpp:77] Creating layer conv5_1_relu
I0826 16:36:06.695977  4567 net.cpp:100] Creating Layer conv5_1_relu
I0826 16:36:06.695979  4567 net.cpp:434] conv5_1_relu <- conv5_1_bn
I0826 16:36:06.695984  4567 net.cpp:395] conv5_1_relu -> conv5_1_bn (in-place)
I0826 16:36:06.695989  4567 net.cpp:150] Setting up conv5_1_relu
I0826 16:36:06.695992  4567 net.cpp:157] Top shape: 128 64 17 17 (2367488)
I0826 16:36:06.695996  4567 net.cpp:165] Memory required for data: 1658740736
I0826 16:36:06.695997  4567 layer_factory.hpp:77] Creating layer conv6_1
I0826 16:36:06.696004  4567 net.cpp:100] Creating Layer conv6_1
I0826 16:36:06.696007  4567 net.cpp:434] conv6_1 <- conv5_1_bn
I0826 16:36:06.696012  4567 net.cpp:408] conv6_1 -> conv6_1
I0826 16:36:06.696914  4567 net.cpp:150] Setting up conv6_1
I0826 16:36:06.696921  4567 net.cpp:157] Top shape: 128 64 15 15 (1843200)
I0826 16:36:06.696923  4567 net.cpp:165] Memory required for data: 1666113536
I0826 16:36:06.696928  4567 layer_factory.hpp:77] Creating layer conv6_1_bn
I0826 16:36:06.696933  4567 net.cpp:100] Creating Layer conv6_1_bn
I0826 16:36:06.696936  4567 net.cpp:434] conv6_1_bn <- conv6_1
I0826 16:36:06.696939  4567 net.cpp:408] conv6_1_bn -> conv6_1_bn
I0826 16:36:06.697064  4567 net.cpp:150] Setting up conv6_1_bn
I0826 16:36:06.697070  4567 net.cpp:157] Top shape: 128 64 15 15 (1843200)
I0826 16:36:06.697072  4567 net.cpp:165] Memory required for data: 1673486336
I0826 16:36:06.697084  4567 layer_factory.hpp:77] Creating layer conv6_1_bn_scale
I0826 16:36:06.697089  4567 net.cpp:100] Creating Layer conv6_1_bn_scale
I0826 16:36:06.697091  4567 net.cpp:434] conv6_1_bn_scale <- conv6_1_bn
I0826 16:36:06.697096  4567 net.cpp:395] conv6_1_bn_scale -> conv6_1_bn (in-place)
I0826 16:36:06.697119  4567 layer_factory.hpp:77] Creating layer conv6_1_bn_scale
I0826 16:36:06.697192  4567 net.cpp:150] Setting up conv6_1_bn_scale
I0826 16:36:06.697197  4567 net.cpp:157] Top shape: 128 64 15 15 (1843200)
I0826 16:36:06.697201  4567 net.cpp:165] Memory required for data: 1680859136
I0826 16:36:06.697204  4567 layer_factory.hpp:77] Creating layer conv6_1_relu
I0826 16:36:06.697209  4567 net.cpp:100] Creating Layer conv6_1_relu
I0826 16:36:06.697212  4567 net.cpp:434] conv6_1_relu <- conv6_1_bn
I0826 16:36:06.697216  4567 net.cpp:395] conv6_1_relu -> conv6_1_bn (in-place)
I0826 16:36:06.697221  4567 net.cpp:150] Setting up conv6_1_relu
I0826 16:36:06.697224  4567 net.cpp:157] Top shape: 128 64 15 15 (1843200)
I0826 16:36:06.697227  4567 net.cpp:165] Memory required for data: 1688231936
I0826 16:36:06.697229  4567 layer_factory.hpp:77] Creating layer conv7_1
I0826 16:36:06.697243  4567 net.cpp:100] Creating Layer conv7_1
I0826 16:36:06.697252  4567 net.cpp:434] conv7_1 <- conv6_1_bn
I0826 16:36:06.697257  4567 net.cpp:408] conv7_1 -> conv7_1
I0826 16:36:06.699692  4567 net.cpp:150] Setting up conv7_1
I0826 16:36:06.699717  4567 net.cpp:157] Top shape: 128 128 13 13 (2768896)
I0826 16:36:06.699719  4567 net.cpp:165] Memory required for data: 1699307520
I0826 16:36:06.699725  4567 layer_factory.hpp:77] Creating layer conv7_1_bn
I0826 16:36:06.699738  4567 net.cpp:100] Creating Layer conv7_1_bn
I0826 16:36:06.699741  4567 net.cpp:434] conv7_1_bn <- conv7_1
I0826 16:36:06.699748  4567 net.cpp:408] conv7_1_bn -> conv7_1_bn
I0826 16:36:06.699882  4567 net.cpp:150] Setting up conv7_1_bn
I0826 16:36:06.699888  4567 net.cpp:157] Top shape: 128 128 13 13 (2768896)
I0826 16:36:06.699892  4567 net.cpp:165] Memory required for data: 1710383104
I0826 16:36:06.699898  4567 layer_factory.hpp:77] Creating layer conv7_1_bn_scale
I0826 16:36:06.699903  4567 net.cpp:100] Creating Layer conv7_1_bn_scale
I0826 16:36:06.699908  4567 net.cpp:434] conv7_1_bn_scale <- conv7_1_bn
I0826 16:36:06.699911  4567 net.cpp:395] conv7_1_bn_scale -> conv7_1_bn (in-place)
I0826 16:36:06.699937  4567 layer_factory.hpp:77] Creating layer conv7_1_bn_scale
I0826 16:36:06.700008  4567 net.cpp:150] Setting up conv7_1_bn_scale
I0826 16:36:06.700013  4567 net.cpp:157] Top shape: 128 128 13 13 (2768896)
I0826 16:36:06.700016  4567 net.cpp:165] Memory required for data: 1721458688
I0826 16:36:06.700021  4567 layer_factory.hpp:77] Creating layer conv7_1_relu
I0826 16:36:06.700026  4567 net.cpp:100] Creating Layer conv7_1_relu
I0826 16:36:06.700028  4567 net.cpp:434] conv7_1_relu <- conv7_1_bn
I0826 16:36:06.700031  4567 net.cpp:395] conv7_1_relu -> conv7_1_bn (in-place)
I0826 16:36:06.700037  4567 net.cpp:150] Setting up conv7_1_relu
I0826 16:36:06.700040  4567 net.cpp:157] Top shape: 128 128 13 13 (2768896)
I0826 16:36:06.700042  4567 net.cpp:165] Memory required for data: 1732534272
I0826 16:36:06.700045  4567 layer_factory.hpp:77] Creating layer score
I0826 16:36:06.700055  4567 net.cpp:100] Creating Layer score
I0826 16:36:06.700058  4567 net.cpp:434] score <- conv7_1_bn
I0826 16:36:06.700062  4567 net.cpp:408] score -> score
I0826 16:36:06.700243  4567 net.cpp:150] Setting up score
I0826 16:36:06.700253  4567 net.cpp:157] Top shape: 128 4 13 13 (86528)
I0826 16:36:06.700255  4567 net.cpp:165] Memory required for data: 1732880384
I0826 16:36:06.700260  4567 layer_factory.hpp:77] Creating layer upscore
I0826 16:36:06.700268  4567 net.cpp:100] Creating Layer upscore
I0826 16:36:06.700270  4567 net.cpp:434] upscore <- score
I0826 16:36:06.700275  4567 net.cpp:408] upscore -> upscore
I0826 16:36:06.700790  4567 net.cpp:150] Setting up upscore
I0826 16:36:06.700801  4567 net.cpp:157] Top shape: 128 4 224 224 (25690112)
I0826 16:36:06.700804  4567 net.cpp:165] Memory required for data: 1835640832
I0826 16:36:06.700809  4567 layer_factory.hpp:77] Creating layer cropscore
I0826 16:36:06.700815  4567 net.cpp:100] Creating Layer cropscore
I0826 16:36:06.700819  4567 net.cpp:434] cropscore <- upscore
I0826 16:36:06.700822  4567 net.cpp:434] cropscore <- image_data_0_split_1
I0826 16:36:06.700827  4567 net.cpp:408] cropscore -> cropscore
I0826 16:36:06.700855  4567 net.cpp:150] Setting up cropscore
I0826 16:36:06.700862  4567 net.cpp:157] Top shape: 128 4 200 200 (20480000)
I0826 16:36:06.700866  4567 net.cpp:165] Memory required for data: 1917560832
I0826 16:36:06.700871  4567 layer_factory.hpp:77] Creating layer cropscore_cropscore_0_split
I0826 16:36:06.700878  4567 net.cpp:100] Creating Layer cropscore_cropscore_0_split
I0826 16:36:06.700882  4567 net.cpp:434] cropscore_cropscore_0_split <- cropscore
I0826 16:36:06.700891  4567 net.cpp:408] cropscore_cropscore_0_split -> cropscore_cropscore_0_split_0
I0826 16:36:06.700897  4567 net.cpp:408] cropscore_cropscore_0_split -> cropscore_cropscore_0_split_1
I0826 16:36:06.700923  4567 net.cpp:150] Setting up cropscore_cropscore_0_split
I0826 16:36:06.700928  4567 net.cpp:157] Top shape: 128 4 200 200 (20480000)
I0826 16:36:06.700939  4567 net.cpp:157] Top shape: 128 4 200 200 (20480000)
I0826 16:36:06.700947  4567 net.cpp:165] Memory required for data: 2081400832
I0826 16:36:06.700950  4567 layer_factory.hpp:77] Creating layer loss
I0826 16:36:06.700958  4567 net.cpp:100] Creating Layer loss
I0826 16:36:06.700960  4567 net.cpp:434] loss <- cropscore_cropscore_0_split_0
I0826 16:36:06.700963  4567 net.cpp:434] loss <- label_data_1_split_0
I0826 16:36:06.700968  4567 net.cpp:408] loss -> loss
…
I0826 16:36:06.738294  4567 solver.cpp:181] Creating test net (#0) specified by net file: portrait_train_test_one_stage.prototxt3
I0826 16:36:06.738335  4567 net.cpp:322] The NetState phase (1) differed from the phase (0) specified by a rule in layer data
I0826 16:36:06.738495  4567 net.cpp:58] Initializing net from parameters: 
name: "segmentation"
state {
  phase: TEST
}
layer {
  name: "data"
  type: "SegData"
  top: "image"
  top: "label"
  include {
    phase: TEST
  }
  transform_param {
    crop_size: 200
  }
  data_param {
    source: "/raid/xuehan/segmentation_test_split"
    batch_size: 64
    backend: LMDB
  }
}
layer {
  name: "conv1_1"
  type: "Convolution"
  bottom: "image"
  top: "conv1_1"
  param {
    lr_mult: 1
    decay_mult: 1
  }
  convolution_param {
    num_output: 8
    bias_term: false
    pad: 50
    kernel_size: 3
    stride: 1
    weight_filler {
      type: "gaussian"
      std: 0.01
    }
  }
}
layer {
  name: "pool1"
  type: "Pooling"
  bottom: "conv1_1"
  top: "pool1"
  pooling_param {
    pool: MAX
    kernel_size: 2
    stride: 2
  }
}
layer {
  name: "conv1_1_bn"
  type: "BatchNorm"
  bottom: "pool1"
  top: "conv1_1_bn"
  param {
    lr_mult: 0
  }
  param {
    lr_mult: 0
  }
  param {
    lr_mult: 0
  }
}
layer {
  name: "conv1_1_bn_scale"
  type: "Scale"
  bottom: "conv1_1_bn"
  top: "conv1_1_bn"
  scale_param {
    bias_term: true
  }
}
layer {
  name: "conv1_1_relu"
  type: "ReLU"
  bottom: "conv1_1_bn"
  top: "conv1_1_bn"
}
layer {
  name: "conv2_1"
  type: "Convolution"
  bottom: "conv1_1_bn"
  top: "conv2_1"
  param {
    lr_mult: 1
    decay_mult: 1
  }
  convolution_param {
    num_output: 16
    bias_term: false
    pad: 1
    kernel_size: 3
    stride: 1
    weight_filler {
      type: "gaussian"
      std: 0.01
    }
  }
}
layer {
  name: "pool2"
  type: "Pooling"
  bottom: "conv2_1"
  top: "pool2"
  pooling_param {
    pool: MAX
    kernel_size: 2
    stride: 2
  }
}
layer {
  name: "conv2_1_bn"
  type: "BatchNorm"
  bottom: "pool2"
  top: "conv2_1_bn"
  param {
    lr_mult: 0
  }
  param {
    lr_mult: 0
  }
  param {
    lr_mult: 0
  }
}
layer {
  name: "conv2_1_bn_scale"
  type: "Scale"
  bottom: "conv2_1_bn"
  top: "conv2_1_bn"
  scale_param {
    bias_term: true
  }
}
layer {
  name: "conv2_1_relu"
  type: "ReLU"
  bottom: "conv2_1_bn"
  top: "conv2_1_bn"
}
layer {
  name: "conv3_1"
  type: "Convolution"
  bottom: "conv2_1_bn"
  top: "conv3_1"
  param {
    lr_mult: 1
    decay_mult: 1
  }
  convolution_param {
    num_output: 32
    bias_term: false
    pad: 1
    kernel_size: 3
    stride: 1
    weight_filler {
      type: "gaussian"
      std: 0.01
    }
  }
}
layer {
  name: "pool3"
  type: "Pooling"
  bottom: "conv3_1"
  top: "pool3"
  pooling_param {
    pool: MAX
    kernel_size: 2
    stride: 2
  }
}
layer {
  name: "conv3_1_bn"
  type: "BatchNorm"
  bottom: "pool3"
  top: "conv3_1_bn"
  param {
    lr_mult: 0
  }
  param {
    lr_mult: 0
  }
  param {
    lr_mult: 0
  }
}
layer {
  name: "conv3_1_bn_scale"
  type: "Scale"
  bottom: "conv3_1_bn"
  top: "conv3_1_bn"
  scale_param {
    bias_term: true
  }
}
layer {
  name: "conv3_1_relu"
  type: "ReLU"
  bottom: "conv3_1_bn"
  top: "conv3_1_bn"
}
layer {
  name: "conv4_1"
  type: "Convolution"
  bottom: "conv3_1_bn"
  top: "conv4_1"
  param {
    lr_mult: 1
    decay_mult: 1
  }
  convolution_param {
    num_output: 64
    bias_term: false
    pad: 1
    kernel_size: 3
    stride: 1
    weight_filler {
      type: "gaussian"
      std: 0.01
    }
  }
}
layer {
  name: "pool4"
  type: "Pooling"
  bottom: "conv4_1"
  top: "pool4"
  pooling_param {
    pool: MAX
    kernel_size: 2
    stride: 2
  }
}
layer {
  name: "conv4_1_bn"
  type: "BatchNorm"
  bottom: "pool4"
  top: "conv4_1_bn"
  param {
    lr_mult: 0
  }
  param {
    lr_mult: 0
  }
  param {
    lr_mult: 0
  }
}
layer {
  name: "conv4_1_bn_scale"
  type: "Scale"
  bottom: "conv4_1_bn"
  top: "conv4_1_bn"
  scale_param {
    bias_term: true
  }
}
layer {
  name: "conv4_1_relu"
  type: "ReLU"
  bottom: "conv4_1_bn"
  top: "conv4_1_bn"
}
layer {
  name: "conv5_1"
  type: "Convolution"
  bottom: "conv4_1_bn"
  top: "conv5_1"
  param {
    lr_mult: 1
    decay_mult: 1
  }
  convolution_param {
    num_output: 64
    bias_term: false
    pad: 0
    kernel_size: 3
    stride: 1
    weight_filler {
      type: "gaussian"
      std: 0.01
    }
  }
}
layer {
  name: "conv5_1_bn"
  type: "BatchNorm"
  bottom: "conv5_1"
  top: "conv5_1_bn"
  param {
    lr_mult: 0
  }
  param {
    lr_mult: 0
  }
  param {
    lr_mult: 0
  }
}
layer {
  name: "conv5_1_bn_scale"
  type: "Scale"
  bottom: "conv5_1_bn"
  top: "conv5_1_bn"
  scale_param {
    bias_term: true
  }
}
layer {
  name: "conv5_1_relu"
  type: "ReLU"
  bottom: "conv5_1_bn"
  top: "conv5_1_bn"
}
layer {
  name: "conv6_1"
  type: "Convolution"
  bottom: "conv5_1_bn"
  top: "conv6_1"
  param {
    lr_mult: 1
    decay_mult: 1
  }
  convolution_param {
    num_output: 64
    bias_term: false
    pad: 0
    kernel_size: 3
    stride: 1
    weight_filler {
      type: "gaussian"
      std: 0.01
    }
  }
}
layer {
  name: "conv6_1_bn"
  type: "BatchNorm"
  bottom: "conv6_1"
  top: "conv6_1_bn"
  param {
    lr_mult: 0
  }
  param {
    lr_mult: 0
  }
  param {
    lr_mult: 0
  }
}
layer {
  name: "conv6_1_bn_scale"
  type: "Scale"
  bottom: "conv6_1_bn"
  top: "conv6_1_bn"
  scale_param {
    bias_term: true
  }
}
layer {
  name: "conv6_1_relu"
  type: "ReLU"
  bottom: "conv6_1_bn"
  top: "conv6_1_bn"
}
layer {
  name: "conv7_1"
  type: "Convolution"
  bottom: "conv6_1_bn"
  top: "conv7_1"
  param {
    lr_mult: 1
    decay_mult: 1
  }
  convolution_param {
    num_output: 128
    bias_term: false
    pad: 0
    kernel_size: 3
    stride: 1
    weight_filler {
      type: "gaussian"
      std: 0.01
    }
  }
}
layer {
  name: "conv7_1_bn"
  type: "BatchNorm"
  bottom: "conv7_1"
  top: "conv7_1_bn"
  param {
    lr_mult: 0
  }
  param {
    lr_mult: 0
  }
  param {
    lr_mult: 0
  }
}
layer {
  name: "conv7_1_bn_scale"
  type: "Scale"
  bottom: "conv7_1_bn"
  top: "conv7_1_bn"
  scale_param {
    bias_term: true
  }
}
layer {
  name: "conv7_1_relu"
  type: "ReLU"
  bottom: "conv7_1_bn"
  top: "conv7_1_bn"
}
layer {
  name: "score"
  type: "Convolution"
  bottom: "conv7_1_bn"
  top: "score"
  param {
    lr_mult: 1
    decay_mult: 1
  }
  param {
    lr_mult: 2
    decay_mult: 0
  }
  convolution_param {
    num_output: 4
    pad: 0
    kernel_size: 1
    stride: 1
    weight_filler {
      type: "gaussian"
      std: 0.01
    }
    bias_filler {
      type: "constant"
    }
  }
}
layer {
  name: "upscore"
  type: "Deconvolution"
  bottom: "score"
  top: "upscore"
  param {
    lr_mult: 1
    decay_mult: 1
  }
  convolution_param {
    num_output: 4
    bias_term: false
    pad: 0
    kernel_size: 32
    stride: 16
    weight_filler {
      type: "gaussian"
      std: 0.01
    }
  }
}
layer {
  name: "cropscore"
  type: "Crop"
  bottom: "upscore"
  bottom: "image"
  top: "cropscore"
  crop_param {
    axis: 2
    offset: 12
  }
}
layer {
  name: "loss"
  type: "SoftmaxWithLoss"
  bottom: "cropscore"
  bottom: "label"
  top: "loss"
  loss_weight: 1
  loss_param {
    normalize: false
  }
}
layer {
  name: "accuracy"
  type: "Accuracy"
  bottom: "cropscore"
  bottom: "label"
  top: "accuracy"
}
I0826 16:36:06.738615  4567 layer_factory.hpp:77] Creating layer data
I0826 16:36:06.738834  4567 net.cpp:100] Creating Layer data
I0826 16:36:06.738842  4567 net.cpp:408] data -> image
I0826 16:36:06.738849  4567 net.cpp:408] data -> label
I0826 16:36:06.739887  4573 db_lmdb.cpp:35] Opened lmdb /raid/xuehan/segmentation_test_split
I0826 16:36:06.740022  4567 seg_data_layer.cpp:38] 200 200 4
I0826 16:36:06.740119  4567 seg_data_layer.cpp:51] output data size: 64,3,200,200
I0826 16:36:06.740171  4567 seg_data_layer.cpp:63] output label size: 64,1,200,200
I0826 16:36:06.808511  4567 net.cpp:150] Setting up data
I0826 16:36:06.808537  4567 net.cpp:157] Top shape: 64 3 200 200 (7680000)
I0826 16:36:06.808542  4567 net.cpp:157] Top shape: 64 1 200 200 (2560000)
I0826 16:36:06.808545  4567 net.cpp:165] Memory required for data: 40960000
I0826 16:36:06.808550  4567 layer_factory.hpp:77] Creating layer image_data_0_split
I0826 16:36:06.808562  4567 net.cpp:100] Creating Layer image_data_0_split
I0826 16:36:06.808564  4567 net.cpp:434] image_data_0_split <- image
I0826 16:36:06.808573  4567 net.cpp:408] image_data_0_split -> image_data_0_split_0
I0826 16:36:06.808580  4567 net.cpp:408] image_data_0_split -> image_data_0_split_1
I0826 16:36:06.808653  4567 net.cpp:150] Setting up image_data_0_split
I0826 16:36:06.808661  4567 net.cpp:157] Top shape: 64 3 200 200 (7680000)
I0826 16:36:06.808665  4567 net.cpp:157] Top shape: 64 3 200 200 (7680000)
I0826 16:36:06.808666  4567 net.cpp:165] Memory required for data: 102400000
I0826 16:36:06.808670  4567 layer_factory.hpp:77] Creating layer label_data_1_split
I0826 16:36:06.808677  4567 net.cpp:100] Creating Layer label_data_1_split
I0826 16:36:06.808681  4567 net.cpp:434] label_data_1_split <- label
I0826 16:36:06.808686  4567 net.cpp:408] label_data_1_split -> label_data_1_split_0
I0826 16:36:06.808691  4567 net.cpp:408] label_data_1_split -> label_data_1_split_1
I0826 16:36:06.808717  4567 net.cpp:150] Setting up label_data_1_split
I0826 16:36:06.808722  4567 net.cpp:157] Top shape: 64 1 200 200 (2560000)
I0826 16:36:06.808727  4567 net.cpp:157] Top shape: 64 1 200 200 (2560000)
I0826 16:36:06.808728  4567 net.cpp:165] Memory required for data: 122880000
I0826 16:36:06.808732  4567 layer_factory.hpp:77] Creating layer conv1_1
I0826 16:36:06.808740  4567 net.cpp:100] Creating Layer conv1_1
I0826 16:36:06.808743  4567 net.cpp:434] conv1_1 <- image_data_0_split_0
I0826 16:36:06.808748  4567 net.cpp:408] conv1_1 -> conv1_1
I0826 16:36:06.808897  4567 net.cpp:150] Setting up conv1_1
I0826 16:36:06.808902  4567 net.cpp:157] Top shape: 64 8 298 298 (45467648)
I0826 16:36:06.808904  4567 net.cpp:165] Memory required for data: 304750592
I0826 16:36:06.808912  4567 layer_factory.hpp:77] Creating layer pool1
I0826 16:36:06.808917  4567 net.cpp:100] Creating Layer pool1
I0826 16:36:06.808920  4567 net.cpp:434] pool1 <- conv1_1
I0826 16:36:06.808923  4567 net.cpp:408] pool1 -> pool1
I0826 16:36:06.808949  4567 net.cpp:150] Setting up pool1
I0826 16:36:06.808954  4567 net.cpp:157] Top shape: 64 8 149 149 (11366912)
I0826 16:36:06.808956  4567 net.cpp:165] Memory required for data: 350218240
I0826 16:36:06.808959  4567 layer_factory.hpp:77] Creating layer conv1_1_bn
I0826 16:36:06.808964  4567 net.cpp:100] Creating Layer conv1_1_bn
I0826 16:36:06.808967  4567 net.cpp:434] conv1_1_bn <- pool1
I0826 16:36:06.808972  4567 net.cpp:408] conv1_1_bn -> conv1_1_bn
I0826 16:36:06.809129  4567 net.cpp:150] Setting up conv1_1_bn
I0826 16:36:06.809136  4567 net.cpp:157] Top shape: 64 8 149 149 (11366912)
I0826 16:36:06.809139  4567 net.cpp:165] Memory required for data: 395685888
I0826 16:36:06.809149  4567 layer_factory.hpp:77] Creating layer conv1_1_bn_scale
I0826 16:36:06.809154  4567 net.cpp:100] Creating Layer conv1_1_bn_scale
I0826 16:36:06.809157  4567 net.cpp:434] conv1_1_bn_scale <- conv1_1_bn
I0826 16:36:06.809160  4567 net.cpp:395] conv1_1_bn_scale -> conv1_1_bn (in-place)
I0826 16:36:06.809190  4567 layer_factory.hpp:77] Creating layer conv1_1_bn_scale
I0826 16:36:06.809298  4567 net.cpp:150] Setting up conv1_1_bn_scale
I0826 16:36:06.809310  4567 net.cpp:157] Top shape: 64 8 149 149 (11366912)
I0826 16:36:06.809319  4567 net.cpp:165] Memory required for data: 441153536
I0826 16:36:06.809325  4567 layer_factory.hpp:77] Creating layer conv1_1_relu
I0826 16:36:06.809332  4567 net.cpp:100] Creating Layer conv1_1_relu
I0826 16:36:06.809335  4567 net.cpp:434] conv1_1_relu <- conv1_1_bn
I0826 16:36:06.809340  4567 net.cpp:395] conv1_1_relu -> conv1_1_bn (in-place)
I0826 16:36:06.809345  4567 net.cpp:150] Setting up conv1_1_relu
I0826 16:36:06.809348  4567 net.cpp:157] Top shape: 64 8 149 149 (11366912)
I0826 16:36:06.809350  4567 net.cpp:165] Memory required for data: 486621184
I0826 16:36:06.809353  4567 layer_factory.hpp:77] Creating layer conv2_1
I0826 16:36:06.809361  4567 net.cpp:100] Creating Layer conv2_1
I0826 16:36:06.809363  4567 net.cpp:434] conv2_1 <- conv1_1_bn
I0826 16:36:06.809367  4567 net.cpp:408] conv2_1 -> conv2_1
I0826 16:36:06.809522  4567 net.cpp:150] Setting up conv2_1
I0826 16:36:06.809528  4567 net.cpp:157] Top shape: 64 16 149 149 (22733824)
I0826 16:36:06.809531  4567 net.cpp:165] Memory required for data: 577556480
I0826 16:36:06.809535  4567 layer_factory.hpp:77] Creating layer pool2
I0826 16:36:06.809540  4567 net.cpp:100] Creating Layer pool2
I0826 16:36:06.809542  4567 net.cpp:434] pool2 <- conv2_1
I0826 16:36:06.809546  4567 net.cpp:408] pool2 -> pool2
I0826 16:36:06.809571  4567 net.cpp:150] Setting up pool2
I0826 16:36:06.809576  4567 net.cpp:157] Top shape: 64 16 75 75 (5760000)
I0826 16:36:06.809577  4567 net.cpp:165] Memory required for data: 600596480
I0826 16:36:06.809581  4567 layer_factory.hpp:77] Creating layer conv2_1_bn
I0826 16:36:06.809586  4567 net.cpp:100] Creating Layer conv2_1_bn
I0826 16:36:06.809587  4567 net.cpp:434] conv2_1_bn <- pool2
I0826 16:36:06.809592  4567 net.cpp:408] conv2_1_bn -> conv2_1_bn
I0826 16:36:06.809727  4567 net.cpp:150] Setting up conv2_1_bn
I0826 16:36:06.809732  4567 net.cpp:157] Top shape: 64 16 75 75 (5760000)
I0826 16:36:06.809736  4567 net.cpp:165] Memory required for data: 623636480
I0826 16:36:06.809744  4567 layer_factory.hpp:77] Creating layer conv2_1_bn_scale
I0826 16:36:06.809749  4567 net.cpp:100] Creating Layer conv2_1_bn_scale
I0826 16:36:06.809752  4567 net.cpp:434] conv2_1_bn_scale <- conv2_1_bn
I0826 16:36:06.809756  4567 net.cpp:395] conv2_1_bn_scale -> conv2_1_bn (in-place)
I0826 16:36:06.809783  4567 layer_factory.hpp:77] Creating layer conv2_1_bn_scale
I0826 16:36:06.809928  4567 net.cpp:150] Setting up conv2_1_bn_scale
I0826 16:36:06.809936  4567 net.cpp:157] Top shape: 64 16 75 75 (5760000)
I0826 16:36:06.809938  4567 net.cpp:165] Memory required for data: 646676480
I0826 16:36:06.809943  4567 layer_factory.hpp:77] Creating layer conv2_1_relu
I0826 16:36:06.809949  4567 net.cpp:100] Creating Layer conv2_1_relu
I0826 16:36:06.809952  4567 net.cpp:434] conv2_1_relu <- conv2_1_bn
I0826 16:36:06.809955  4567 net.cpp:395] conv2_1_relu -> conv2_1_bn (in-place)
I0826 16:36:06.809960  4567 net.cpp:150] Setting up conv2_1_relu
I0826 16:36:06.809963  4567 net.cpp:157] Top shape: 64 16 75 75 (5760000)
I0826 16:36:06.809967  4567 net.cpp:165] Memory required for data: 669716480
I0826 16:36:06.809968  4567 layer_factory.hpp:77] Creating layer conv3_1
I0826 16:36:06.809976  4567 net.cpp:100] Creating Layer conv3_1
I0826 16:36:06.809978  4567 net.cpp:434] conv3_1 <- conv2_1_bn
I0826 16:36:06.809983  4567 net.cpp:408] conv3_1 -> conv3_1
I0826 16:36:06.815151  4567 net.cpp:150] Setting up conv3_1
I0826 16:36:06.815170  4567 net.cpp:157] Top shape: 64 32 75 75 (11520000)
I0826 16:36:06.815174  4567 net.cpp:165] Memory required for data: 715796480
I0826 16:36:06.815181  4567 layer_factory.hpp:77] Creating layer pool3
I0826 16:36:06.815191  4567 net.cpp:100] Creating Layer pool3
I0826 16:36:06.815196  4567 net.cpp:434] pool3 <- conv3_1
I0826 16:36:06.815204  4567 net.cpp:408] pool3 -> pool3
I0826 16:36:06.815251  4567 net.cpp:150] Setting up pool3
I0826 16:36:06.815263  4567 net.cpp:157] Top shape: 64 32 38 38 (2957312)
I0826 16:36:06.815268  4567 net.cpp:165] Memory required for data: 727625728
I0826 16:36:06.815286  4567 layer_factory.hpp:77] Creating layer conv3_1_bn
I0826 16:36:06.815295  4567 net.cpp:100] Creating Layer conv3_1_bn
I0826 16:36:06.815301  4567 net.cpp:434] conv3_1_bn <- pool3
I0826 16:36:06.815309  4567 net.cpp:408] conv3_1_bn -> conv3_1_bn
I0826 16:36:06.815488  4567 net.cpp:150] Setting up conv3_1_bn
I0826 16:36:06.815496  4567 net.cpp:157] Top shape: 64 32 38 38 (2957312)
I0826 16:36:06.815498  4567 net.cpp:165] Memory required for data: 739454976
I0826 16:36:06.815505  4567 layer_factory.hpp:77] Creating layer conv3_1_bn_scale
I0826 16:36:06.815512  4567 net.cpp:100] Creating Layer conv3_1_bn_scale
I0826 16:36:06.815515  4567 net.cpp:434] conv3_1_bn_scale <- conv3_1_bn
I0826 16:36:06.815520  4567 net.cpp:395] conv3_1_bn_scale -> conv3_1_bn (in-place)
I0826 16:36:06.815549  4567 layer_factory.hpp:77] Creating layer conv3_1_bn_scale
I0826 16:36:06.815632  4567 net.cpp:150] Setting up conv3_1_bn_scale
I0826 16:36:06.815640  4567 net.cpp:157] Top shape: 64 32 38 38 (2957312)
I0826 16:36:06.815645  4567 net.cpp:165] Memory required for data: 751284224
I0826 16:36:06.815659  4567 layer_factory.hpp:77] Creating layer conv3_1_relu
I0826 16:36:06.815668  4567 net.cpp:100] Creating Layer conv3_1_relu
I0826 16:36:06.815675  4567 net.cpp:434] conv3_1_relu <- conv3_1_bn
I0826 16:36:06.815681  4567 net.cpp:395] conv3_1_relu -> conv3_1_bn (in-place)
I0826 16:36:06.815692  4567 net.cpp:150] Setting up conv3_1_relu
I0826 16:36:06.815702  4567 net.cpp:157] Top shape: 64 32 38 38 (2957312)
I0826 16:36:06.815708  4567 net.cpp:165] Memory required for data: 763113472
I0826 16:36:06.815713  4567 layer_factory.hpp:77] Creating layer conv4_1
I0826 16:36:06.815723  4567 net.cpp:100] Creating Layer conv4_1
I0826 16:36:06.815727  4567 net.cpp:434] conv4_1 <- conv3_1_bn
I0826 16:36:06.815732  4567 net.cpp:408] conv4_1 -> conv4_1
I0826 16:36:06.823088  4567 net.cpp:150] Setting up conv4_1
I0826 16:36:06.823113  4567 net.cpp:157] Top shape: 64 64 38 38 (5914624)
I0826 16:36:06.823117  4567 net.cpp:165] Memory required for data: 786771968
I0826 16:36:06.823122  4567 layer_factory.hpp:77] Creating layer pool4
I0826 16:36:06.823132  4567 net.cpp:100] Creating Layer pool4
I0826 16:36:06.823137  4567 net.cpp:434] pool4 <- conv4_1
I0826 16:36:06.823150  4567 net.cpp:408] pool4 -> pool4
I0826 16:36:06.823210  4567 net.cpp:150] Setting up pool4
I0826 16:36:06.823218  4567 net.cpp:157] Top shape: 64 64 19 19 (1478656)
I0826 16:36:06.823221  4567 net.cpp:165] Memory required for data: 792686592
I0826 16:36:06.823225  4567 layer_factory.hpp:77] Creating layer conv4_1_bn
I0826 16:36:06.823232  4567 net.cpp:100] Creating Layer conv4_1_bn
I0826 16:36:06.823235  4567 net.cpp:434] conv4_1_bn <- pool4
I0826 16:36:06.823240  4567 net.cpp:408] conv4_1_bn -> conv4_1_bn
I0826 16:36:06.823388  4567 net.cpp:150] Setting up conv4_1_bn
I0826 16:36:06.823395  4567 net.cpp:157] Top shape: 64 64 19 19 (1478656)
I0826 16:36:06.823397  4567 net.cpp:165] Memory required for data: 798601216
I0826 16:36:06.823403  4567 layer_factory.hpp:77] Creating layer conv4_1_bn_scale
I0826 16:36:06.823410  4567 net.cpp:100] Creating Layer conv4_1_bn_scale
I0826 16:36:06.823412  4567 net.cpp:434] conv4_1_bn_scale <- conv4_1_bn
I0826 16:36:06.823416  4567 net.cpp:395] conv4_1_bn_scale -> conv4_1_bn (in-place)
I0826 16:36:06.823448  4567 layer_factory.hpp:77] Creating layer conv4_1_bn_scale
I0826 16:36:06.823593  4567 net.cpp:150] Setting up conv4_1_bn_scale
I0826 16:36:06.823604  4567 net.cpp:157] Top shape: 64 64 19 19 (1478656)
I0826 16:36:06.823608  4567 net.cpp:165] Memory required for data: 804515840
I0826 16:36:06.823616  4567 layer_factory.hpp:77] Creating layer conv4_1_relu
I0826 16:36:06.823623  4567 net.cpp:100] Creating Layer conv4_1_relu
I0826 16:36:06.823628  4567 net.cpp:434] conv4_1_relu <- conv4_1_bn
I0826 16:36:06.823635  4567 net.cpp:395] conv4_1_relu -> conv4_1_bn (in-place)
I0826 16:36:06.823642  4567 net.cpp:150] Setting up conv4_1_relu
I0826 16:36:06.823648  4567 net.cpp:157] Top shape: 64 64 19 19 (1478656)
I0826 16:36:06.823662  4567 net.cpp:165] Memory required for data: 810430464
I0826 16:36:06.823678  4567 layer_factory.hpp:77] Creating layer conv5_1
I0826 16:36:06.823689  4567 net.cpp:100] Creating Layer conv5_1
I0826 16:36:06.823694  4567 net.cpp:434] conv5_1 <- conv4_1_bn
I0826 16:36:06.823700  4567 net.cpp:408] conv5_1 -> conv5_1
I0826 16:36:06.825726  4567 net.cpp:150] Setting up conv5_1
I0826 16:36:06.825752  4567 net.cpp:157] Top shape: 64 64 17 17 (1183744)
I0826 16:36:06.825757  4567 net.cpp:165] Memory required for data: 815165440
I0826 16:36:06.825764  4567 layer_factory.hpp:77] Creating layer conv5_1_bn
I0826 16:36:06.825775  4567 net.cpp:100] Creating Layer conv5_1_bn
I0826 16:36:06.825781  4567 net.cpp:434] conv5_1_bn <- conv5_1
I0826 16:36:06.825788  4567 net.cpp:408] conv5_1_bn -> conv5_1_bn
I0826 16:36:06.826027  4567 net.cpp:150] Setting up conv5_1_bn
I0826 16:36:06.826045  4567 net.cpp:157] Top shape: 64 64 17 17 (1183744)
I0826 16:36:06.826052  4567 net.cpp:165] Memory required for data: 819900416
I0826 16:36:06.826064  4567 layer_factory.hpp:77] Creating layer conv5_1_bn_scale
I0826 16:36:06.826077  4567 net.cpp:100] Creating Layer conv5_1_bn_scale
I0826 16:36:06.826086  4567 net.cpp:434] conv5_1_bn_scale <- conv5_1_bn
I0826 16:36:06.826097  4567 net.cpp:395] conv5_1_bn_scale -> conv5_1_bn (in-place)
I0826 16:36:06.826154  4567 layer_factory.hpp:77] Creating layer conv5_1_bn_scale
I0826 16:36:06.826329  4567 net.cpp:150] Setting up conv5_1_bn_scale
I0826 16:36:06.826339  4567 net.cpp:157] Top shape: 64 64 17 17 (1183744)
I0826 16:36:06.826340  4567 net.cpp:165] Memory required for data: 824635392
I0826 16:36:06.826346  4567 layer_factory.hpp:77] Creating layer conv5_1_relu
I0826 16:36:06.826351  4567 net.cpp:100] Creating Layer conv5_1_relu
I0826 16:36:06.826354  4567 net.cpp:434] conv5_1_relu <- conv5_1_bn
I0826 16:36:06.826359  4567 net.cpp:395] conv5_1_relu -> conv5_1_bn (in-place)
I0826 16:36:06.826364  4567 net.cpp:150] Setting up conv5_1_relu
I0826 16:36:06.826376  4567 net.cpp:157] Top shape: 64 64 17 17 (1183744)
I0826 16:36:06.826380  4567 net.cpp:165] Memory required for data: 829370368
I0826 16:36:06.826383  4567 layer_factory.hpp:77] Creating layer conv6_1
I0826 16:36:06.826391  4567 net.cpp:100] Creating Layer conv6_1
I0826 16:36:06.826395  4567 net.cpp:434] conv6_1 <- conv5_1_bn
I0826 16:36:06.826398  4567 net.cpp:408] conv6_1 -> conv6_1
I0826 16:36:06.827446  4567 net.cpp:150] Setting up conv6_1
I0826 16:36:06.827457  4567 net.cpp:157] Top shape: 64 64 15 15 (921600)
I0826 16:36:06.827460  4567 net.cpp:165] Memory required for data: 833056768
I0826 16:36:06.827464  4567 layer_factory.hpp:77] Creating layer conv6_1_bn
I0826 16:36:06.827469  4567 net.cpp:100] Creating Layer conv6_1_bn
I0826 16:36:06.827472  4567 net.cpp:434] conv6_1_bn <- conv6_1
I0826 16:36:06.827477  4567 net.cpp:408] conv6_1_bn -> conv6_1_bn
I0826 16:36:06.827623  4567 net.cpp:150] Setting up conv6_1_bn
I0826 16:36:06.827630  4567 net.cpp:157] Top shape: 64 64 15 15 (921600)
I0826 16:36:06.827632  4567 net.cpp:165] Memory required for data: 836743168
I0826 16:36:06.827652  4567 layer_factory.hpp:77] Creating layer conv6_1_bn_scale
I0826 16:36:06.827666  4567 net.cpp:100] Creating Layer conv6_1_bn_scale
I0826 16:36:06.827673  4567 net.cpp:434] conv6_1_bn_scale <- conv6_1_bn
I0826 16:36:06.827684  4567 net.cpp:395] conv6_1_bn_scale -> conv6_1_bn (in-place)
I0826 16:36:06.827723  4567 layer_factory.hpp:77] Creating layer conv6_1_bn_scale
I0826 16:36:06.827803  4567 net.cpp:150] Setting up conv6_1_bn_scale
I0826 16:36:06.827810  4567 net.cpp:157] Top shape: 64 64 15 15 (921600)
I0826 16:36:06.827811  4567 net.cpp:165] Memory required for data: 840429568
I0826 16:36:06.827816  4567 layer_factory.hpp:77] Creating layer conv6_1_relu
I0826 16:36:06.827821  4567 net.cpp:100] Creating Layer conv6_1_relu
I0826 16:36:06.827824  4567 net.cpp:434] conv6_1_relu <- conv6_1_bn
I0826 16:36:06.827828  4567 net.cpp:395] conv6_1_relu -> conv6_1_bn (in-place)
I0826 16:36:06.827833  4567 net.cpp:150] Setting up conv6_1_relu
I0826 16:36:06.827846  4567 net.cpp:157] Top shape: 64 64 15 15 (921600)
I0826 16:36:06.827855  4567 net.cpp:165] Memory required for data: 844115968
I0826 16:36:06.827858  4567 layer_factory.hpp:77] Creating layer conv7_1
I0826 16:36:06.827865  4567 net.cpp:100] Creating Layer conv7_1
I0826 16:36:06.827867  4567 net.cpp:434] conv7_1 <- conv6_1_bn
I0826 16:36:06.827873  4567 net.cpp:408] conv7_1 -> conv7_1
I0826 16:36:06.829792  4567 net.cpp:150] Setting up conv7_1
I0826 16:36:06.829813  4567 net.cpp:157] Top shape: 64 128 13 13 (1384448)
I0826 16:36:06.829816  4567 net.cpp:165] Memory required for data: 849653760
I0826 16:36:06.829821  4567 layer_factory.hpp:77] Creating layer conv7_1_bn
I0826 16:36:06.829833  4567 net.cpp:100] Creating Layer conv7_1_bn
I0826 16:36:06.829836  4567 net.cpp:434] conv7_1_bn <- conv7_1
I0826 16:36:06.829841  4567 net.cpp:408] conv7_1_bn -> conv7_1_bn
I0826 16:36:06.829984  4567 net.cpp:150] Setting up conv7_1_bn
I0826 16:36:06.829990  4567 net.cpp:157] Top shape: 64 128 13 13 (1384448)
I0826 16:36:06.829994  4567 net.cpp:165] Memory required for data: 855191552
I0826 16:36:06.830003  4567 layer_factory.hpp:77] Creating layer conv7_1_bn_scale
I0826 16:36:06.830013  4567 net.cpp:100] Creating Layer conv7_1_bn_scale
I0826 16:36:06.830019  4567 net.cpp:434] conv7_1_bn_scale <- conv7_1_bn
I0826 16:36:06.830027  4567 net.cpp:395] conv7_1_bn_scale -> conv7_1_bn (in-place)
I0826 16:36:06.830075  4567 layer_factory.hpp:77] Creating layer conv7_1_bn_scale
I0826 16:36:06.830165  4567 net.cpp:150] Setting up conv7_1_bn_scale
I0826 16:36:06.830173  4567 net.cpp:157] Top shape: 64 128 13 13 (1384448)
I0826 16:36:06.830174  4567 net.cpp:165] Memory required for data: 860729344
I0826 16:36:06.830179  4567 layer_factory.hpp:77] Creating layer conv7_1_relu
I0826 16:36:06.830186  4567 net.cpp:100] Creating Layer conv7_1_relu
I0826 16:36:06.830189  4567 net.cpp:434] conv7_1_relu <- conv7_1_bn
I0826 16:36:06.830193  4567 net.cpp:395] conv7_1_relu -> conv7_1_bn (in-place)
I0826 16:36:06.830198  4567 net.cpp:150] Setting up conv7_1_relu
I0826 16:36:06.830200  4567 net.cpp:157] Top shape: 64 128 13 13 (1384448)
I0826 16:36:06.830204  4567 net.cpp:165] Memory required for data: 866267136
I0826 16:36:06.830206  4567 layer_factory.hpp:77] Creating layer score
I0826 16:36:06.830214  4567 net.cpp:100] Creating Layer score
I0826 16:36:06.830217  4567 net.cpp:434] score <- conv7_1_bn
I0826 16:36:06.830222  4567 net.cpp:408] score -> score
I0826 16:36:06.830441  4567 net.cpp:150] Setting up score
I0826 16:36:06.830449  4567 net.cpp:157] Top shape: 64 4 13 13 (43264)
I0826 16:36:06.830452  4567 net.cpp:165] Memory required for data: 866440192
I0826 16:36:06.830457  4567 layer_factory.hpp:77] Creating layer upscore
I0826 16:36:06.830466  4567 net.cpp:100] Creating Layer upscore
I0826 16:36:06.830468  4567 net.cpp:434] upscore <- score
I0826 16:36:06.830473  4567 net.cpp:408] upscore -> upscore
I0826 16:36:06.831063  4567 net.cpp:150] Setting up upscore
I0826 16:36:06.831071  4567 net.cpp:157] Top shape: 64 4 224 224 (12845056)
I0826 16:36:06.831074  4567 net.cpp:165] Memory required for data: 917820416
I0826 16:36:06.831079  4567 layer_factory.hpp:77] Creating layer cropscore
I0826 16:36:06.831085  4567 net.cpp:100] Creating Layer cropscore
I0826 16:36:06.831089  4567 net.cpp:434] cropscore <- upscore
I0826 16:36:06.831092  4567 net.cpp:434] cropscore <- image_data_0_split_1
I0826 16:36:06.831096  4567 net.cpp:408] cropscore -> cropscore
I0826 16:36:06.831115  4567 net.cpp:150] Setting up cropscore
I0826 16:36:06.831120  4567 net.cpp:157] Top shape: 64 4 200 200 (10240000)
I0826 16:36:06.831122  4567 net.cpp:165] Memory required for data: 958780416
I0826 16:36:06.831125  4567 layer_factory.hpp:77] Creating layer cropscore_cropscore_0_split
I0826 16:36:06.831130  4567 net.cpp:100] Creating Layer cropscore_cropscore_0_split
I0826 16:36:06.831132  4567 net.cpp:434] cropscore_cropscore_0_split <- cropscore
I0826 16:36:06.831137  4567 net.cpp:408] cropscore_cropscore_0_split -> cropscore_cropscore_0_split_0
I0826 16:36:06.831149  4567 net.cpp:408] cropscore_cropscore_0_split -> cropscore_cropscore_0_split_1
I0826 16:36:06.831182  4567 net.cpp:150] Setting up cropscore_cropscore_0_split
I0826 16:36:06.831187  4567 net.cpp:157] Top shape: 64 4 200 200 (10240000)
I0826 16:36:06.831189  4567 net.cpp:157] Top shape: 64 4 200 200 (10240000)
I0826 16:36:06.831192  4567 net.cpp:165] Memory required for data: 1040700416
I0826 16:36:06.831194  4567 layer_factory.hpp:77] Creating layer loss
I0826 16:36:06.831199  4567 net.cpp:100] Creating Layer loss
I0826 16:36:06.831202  4567 net.cpp:434] loss <- cropscore_cropscore_0_split_0
I0826 16:36:06.831207  4567 net.cpp:434] loss <- label_data_1_split_0
I0826 16:36:06.831212  4567 net.cpp:408] loss -> loss
…
