…
I0831 12:58:56.827097 24386 solver.cpp:91] Creating training net from net file: portrait_wb_train_test_one_stage.prototxt3
I0831 12:58:56.827661 24386 net.cpp:322] The NetState phase (0) differed from the phase (1) specified by a rule in layer data
I0831 12:58:56.827823 24386 net.cpp:58] Initializing net from parameters: 
name: "segmentation"
state {
  phase: TRAIN
  level: 0
  stage: ""
}
layer {
  name: "data"
  type: "SegData"
  top: "image"
  top: "label"
  include {
    phase: TRAIN
  }
  transform_param {
    mirror: true
    crop_size: 200
  }
  data_param {
    source: "/raid/xuehan/segmentation_wb_train_split"
    batch_size: 128
    backend: LMDB
  }
}
layer {
  name: "conv1_1"
  type: "Convolution"
  bottom: "image"
  top: "conv1_1"
  param {
    lr_mult: 1
    decay_mult: 1
  }
  convolution_param {
    num_output: 8
    bias_term: false
    pad: 50
    kernel_size: 3
    stride: 1
    weight_filler {
      type: "gaussian"
      std: 0.01
    }
  }
}
layer {
  name: "pool1"
  type: "Pooling"
  bottom: "conv1_1"
  top: "pool1"
  pooling_param {
    pool: MAX
    kernel_size: 2
    stride: 2
  }
}
layer {
  name: "conv1_1_bn"
  type: "BatchNorm"
  bottom: "pool1"
  top: "conv1_1_bn"
  param {
    lr_mult: 0
  }
  param {
    lr_mult: 0
  }
  param {
    lr_mult: 0
  }
}
layer {
  name: "conv1_1_bn_scale"
  type: "Scale"
  bottom: "conv1_1_bn"
  top: "conv1_1_bn"
  scale_param {
    bias_term: true
  }
}
layer {
  name: "conv1_1_relu"
  type: "ReLU"
  bottom: "conv1_1_bn"
  top: "conv1_1_bn"
}
layer {
  name: "conv2_1"
  type: "Convolution"
  bottom: "conv1_1_bn"
  top: "conv2_1"
  param {
    lr_mult: 1
    decay_mult: 1
  }
  convolution_param {
    num_output: 16
    bias_term: false
    pad: 1
    kernel_size: 3
    stride: 1
    weight_filler {
      type: "gaussian"
      std: 0.01
    }
  }
}
layer {
  name: "pool2"
  type: "Pooling"
  bottom: "conv2_1"
  top: "pool2"
  pooling_param {
    pool: MAX
    kernel_size: 2
    stride: 2
  }
}
layer {
  name: "conv2_1_bn"
  type: "BatchNorm"
  bottom: "pool2"
  top: "conv2_1_bn"
  param {
    lr_mult: 0
  }
  param {
    lr_mult: 0
  }
  param {
    lr_mult: 0
  }
}
layer {
  name: "conv2_1_bn_scale"
  type: "Scale"
  bottom: "conv2_1_bn"
  top: "conv2_1_bn"
  scale_param {
    bias_term: true
  }
}
layer {
  name: "conv2_1_relu"
  type: "ReLU"
  bottom: "conv2_1_bn"
  top: "conv2_1_bn"
}
layer {
  name: "conv3_1"
  type: "Convolution"
  bottom: "conv2_1_bn"
  top: "conv3_1"
  param {
    lr_mult: 1
    decay_mult: 1
  }
  convolution_param {
    num_output: 32
    bias_term: false
    pad: 1
    kernel_size: 3
    stride: 1
    weight_filler {
      type: "gaussian"
      std: 0.01
    }
  }
}
layer {
  name: "pool3"
  type: "Pooling"
  bottom: "conv3_1"
  top: "pool3"
  pooling_param {
    pool: MAX
    kernel_size: 2
    stride: 2
  }
}
layer {
  name: "conv3_1_bn"
  type: "BatchNorm"
  bottom: "pool3"
  top: "conv3_1_bn"
  param {
    lr_mult: 0
  }
  param {
    lr_mult: 0
  }
  param {
    lr_mult: 0
  }
}
layer {
  name: "conv3_1_bn_scale"
  type: "Scale"
  bottom: "conv3_1_bn"
  top: "conv3_1_bn"
  scale_param {
    bias_term: true
  }
}
layer {
  name: "conv3_1_relu"
  type: "ReLU"
  bottom: "conv3_1_bn"
  top: "conv3_1_bn"
}
layer {
  name: "conv4_1"
  type: "Convolution"
  bottom: "conv3_1_bn"
  top: "conv4_1"
  param {
    lr_mult: 1
    decay_mult: 1
  }
  convolution_param {
    num_output: 64
    bias_term: false
    pad: 1
    kernel_size: 3
    stride: 1
    weight_filler {
      type: "gaussian"
      std: 0.01
    }
  }
}
layer {
  name: "pool4"
  type: "Pooling"
  bottom: "conv4_1"
  top: "pool4"
  pooling_param {
    pool: MAX
    kernel_size: 2
    stride: 2
  }
}
layer {
  name: "conv4_1_bn"
  type: "BatchNorm"
  bottom: "pool4"
  top: "conv4_1_bn"
  param {
    lr_mult: 0
  }
  param {
    lr_mult: 0
  }
  param {
    lr_mult: 0
  }
}
layer {
  name: "conv4_1_bn_scale"
  type: "Scale"
  bottom: "conv4_1_bn"
  top: "conv4_1_bn"
  scale_param {
    bias_term: true
  }
}
layer {
  name: "conv4_1_relu"
  type: "ReLU"
  bottom: "conv4_1_bn"
  top: "conv4_1_bn"
}
layer {
  name: "conv5_1"
  type: "Convolution"
  bottom: "conv4_1_bn"
  top: "conv5_1"
  param {
    lr_mult: 1
    decay_mult: 1
  }
  convolution_param {
    num_output: 64
    bias_term: false
    pad: 0
    kernel_size: 3
    stride: 1
    weight_filler {
      type: "gaussian"
      std: 0.01
    }
  }
}
layer {
  name: "conv5_1_bn"
  type: "BatchNorm"
  bottom: "conv5_1"
  top: "conv5_1_bn"
  param {
    lr_mult: 0
  }
  param {
    lr_mult: 0
  }
  param {
    lr_mult: 0
  }
}
layer {
  name: "conv5_1_bn_scale"
  type: "Scale"
  bottom: "conv5_1_bn"
  top: "conv5_1_bn"
  scale_param {
    bias_term: true
  }
}
layer {
  name: "conv5_1_relu"
  type: "ReLU"
  bottom: "conv5_1_bn"
  top: "conv5_1_bn"
}
layer {
  name: "conv6_1"
  type: "Convolution"
  bottom: "conv5_1_bn"
  top: "conv6_1"
  param {
    lr_mult: 1
    decay_mult: 1
  }
  convolution_param {
    num_output: 64
    bias_term: false
    pad: 0
    kernel_size: 3
    stride: 1
    weight_filler {
      type: "gaussian"
      std: 0.01
    }
  }
}
layer {
  name: "conv6_1_bn"
  type: "BatchNorm"
  bottom: "conv6_1"
  top: "conv6_1_bn"
  param {
    lr_mult: 0
  }
  param {
    lr_mult: 0
  }
  param {
    lr_mult: 0
  }
}
layer {
  name: "conv6_1_bn_scale"
  type: "Scale"
  bottom: "conv6_1_bn"
  top: "conv6_1_bn"
  scale_param {
    bias_term: true
  }
}
layer {
  name: "conv6_1_relu"
  type: "ReLU"
  bottom: "conv6_1_bn"
  top: "conv6_1_bn"
}
layer {
  name: "conv7_1"
  type: "Convolution"
  bottom: "conv6_1_bn"
  top: "conv7_1"
  param {
    lr_mult: 1
    decay_mult: 1
  }
  convolution_param {
    num_output: 128
    bias_term: false
    pad: 0
    kernel_size: 3
    stride: 1
    weight_filler {
      type: "gaussian"
      std: 0.01
    }
  }
}
layer {
  name: "conv7_1_bn"
  type: "BatchNorm"
  bottom: "conv7_1"
  top: "conv7_1_bn"
  param {
    lr_mult: 0
  }
  param {
    lr_mult: 0
  }
  param {
    lr_mult: 0
  }
}
layer {
  name: "conv7_1_bn_scale"
  type: "Scale"
  bottom: "conv7_1_bn"
  top: "conv7_1_bn"
  scale_param {
    bias_term: true
  }
}
layer {
  name: "conv7_1_relu"
  type: "ReLU"
  bottom: "conv7_1_bn"
  top: "conv7_1_bn"
}
layer {
  name: "score"
  type: "Convolution"
  bottom: "conv7_1_bn"
  top: "score"
  param {
    lr_mult: 1
    decay_mult: 1
  }
  param {
    lr_mult: 2
    decay_mult: 0
  }
  convolution_param {
    num_output: 4
    pad: 0
    kernel_size: 1
    stride: 1
    weight_filler {
      type: "gaussian"
      std: 0.01
    }
    bias_filler {
      type: "constant"
    }
  }
}
layer {
  name: "upscore"
  type: "Deconvolution"
  bottom: "score"
  top: "upscore"
  param {
    lr_mult: 1
    decay_mult: 1
  }
  convolution_param {
    num_output: 4
    bias_term: false
    pad: 0
    kernel_size: 32
    stride: 16
    weight_filler {
      type: "gaussian"
      std: 0.01
    }
  }
}
layer {
  name: "cropscore"
  type: "Crop"
  bottom: "upscore"
  bottom: "image"
  top: "cropscore"
  crop_param {
    axis: 2
    offset: 12
  }
}
layer {
  name: "loss"
  type: "SoftmaxWithLoss"
  bottom: "cropscore"
  bottom: "label"
  top: "loss"
  loss_weight: 1
  loss_param {
    normalize: false
  }
}
layer {
  name: "accuracy"
  type: "Accuracy"
  bottom: "cropscore"
  bottom: "label"
  top: "accuracy"
}
I0831 12:58:56.827970 24386 layer_factory.hpp:77] Creating layer data
I0831 12:58:56.828428 24386 net.cpp:100] Creating Layer data
I0831 12:58:56.828438 24386 net.cpp:408] data -> image
I0831 12:58:56.828455 24386 net.cpp:408] data -> label
I0831 12:58:56.829336 24391 db_lmdb.cpp:35] Opened lmdb /raid/xuehan/segmentation_wb_train_split
I0831 12:58:56.829532 24386 seg_data_layer.cpp:38] 200 200 4
I0831 12:58:56.836982 24386 seg_data_layer.cpp:51] output data size: 128,3,200,200
I0831 12:58:56.837050 24386 seg_data_layer.cpp:63] output label size: 128,1,200,200
I0831 12:58:56.945956 24386 net.cpp:150] Setting up data
I0831 12:58:56.945991 24386 net.cpp:157] Top shape: 128 3 200 200 (15360000)
I0831 12:58:56.945994 24386 net.cpp:157] Top shape: 128 1 200 200 (5120000)
I0831 12:58:56.945997 24386 net.cpp:165] Memory required for data: 81920000
I0831 12:58:56.946008 24386 layer_factory.hpp:77] Creating layer image_data_0_split
I0831 12:58:56.946019 24386 net.cpp:100] Creating Layer image_data_0_split
I0831 12:58:56.946024 24386 net.cpp:434] image_data_0_split <- image
I0831 12:58:56.946034 24386 net.cpp:408] image_data_0_split -> image_data_0_split_0
I0831 12:58:56.946044 24386 net.cpp:408] image_data_0_split -> image_data_0_split_1
I0831 12:58:56.946105 24386 net.cpp:150] Setting up image_data_0_split
I0831 12:58:56.946111 24386 net.cpp:157] Top shape: 128 3 200 200 (15360000)
I0831 12:58:56.946115 24386 net.cpp:157] Top shape: 128 3 200 200 (15360000)
I0831 12:58:56.946117 24386 net.cpp:165] Memory required for data: 204800000
I0831 12:58:56.946120 24386 layer_factory.hpp:77] Creating layer label_data_1_split
I0831 12:58:56.946126 24386 net.cpp:100] Creating Layer label_data_1_split
I0831 12:58:56.946130 24386 net.cpp:434] label_data_1_split <- label
I0831 12:58:56.946132 24386 net.cpp:408] label_data_1_split -> label_data_1_split_0
I0831 12:58:56.946137 24386 net.cpp:408] label_data_1_split -> label_data_1_split_1
I0831 12:58:56.946161 24386 net.cpp:150] Setting up label_data_1_split
I0831 12:58:56.946166 24386 net.cpp:157] Top shape: 128 1 200 200 (5120000)
I0831 12:58:56.946169 24386 net.cpp:157] Top shape: 128 1 200 200 (5120000)
I0831 12:58:56.946172 24386 net.cpp:165] Memory required for data: 245760000
I0831 12:58:56.946174 24386 layer_factory.hpp:77] Creating layer conv1_1
I0831 12:58:56.946189 24386 net.cpp:100] Creating Layer conv1_1
I0831 12:58:56.946192 24386 net.cpp:434] conv1_1 <- image_data_0_split_0
I0831 12:58:56.946199 24386 net.cpp:408] conv1_1 -> conv1_1
I0831 12:58:56.946354 24386 net.cpp:150] Setting up conv1_1
I0831 12:58:56.946362 24386 net.cpp:157] Top shape: 128 8 298 298 (90935296)
I0831 12:58:56.946363 24386 net.cpp:165] Memory required for data: 609501184
I0831 12:58:56.946380 24386 layer_factory.hpp:77] Creating layer pool1
I0831 12:58:56.946389 24386 net.cpp:100] Creating Layer pool1
I0831 12:58:56.946393 24386 net.cpp:434] pool1 <- conv1_1
I0831 12:58:56.946396 24386 net.cpp:408] pool1 -> pool1
I0831 12:58:56.946426 24386 net.cpp:150] Setting up pool1
I0831 12:58:56.946431 24386 net.cpp:157] Top shape: 128 8 149 149 (22733824)
I0831 12:58:56.946434 24386 net.cpp:165] Memory required for data: 700436480
I0831 12:58:56.946436 24386 layer_factory.hpp:77] Creating layer conv1_1_bn
I0831 12:58:56.946441 24386 net.cpp:100] Creating Layer conv1_1_bn
I0831 12:58:56.946444 24386 net.cpp:434] conv1_1_bn <- pool1
I0831 12:58:56.946447 24386 net.cpp:408] conv1_1_bn -> conv1_1_bn
I0831 12:58:56.947039 24386 net.cpp:150] Setting up conv1_1_bn
I0831 12:58:56.947052 24386 net.cpp:157] Top shape: 128 8 149 149 (22733824)
I0831 12:58:56.947054 24386 net.cpp:165] Memory required for data: 791371776
I0831 12:58:56.947064 24386 layer_factory.hpp:77] Creating layer conv1_1_bn_scale
I0831 12:58:56.947072 24386 net.cpp:100] Creating Layer conv1_1_bn_scale
I0831 12:58:56.947074 24386 net.cpp:434] conv1_1_bn_scale <- conv1_1_bn
I0831 12:58:56.947078 24386 net.cpp:395] conv1_1_bn_scale -> conv1_1_bn (in-place)
I0831 12:58:56.947108 24386 layer_factory.hpp:77] Creating layer conv1_1_bn_scale
I0831 12:58:56.947203 24386 net.cpp:150] Setting up conv1_1_bn_scale
I0831 12:58:56.947211 24386 net.cpp:157] Top shape: 128 8 149 149 (22733824)
I0831 12:58:56.947213 24386 net.cpp:165] Memory required for data: 882307072
I0831 12:58:56.947221 24386 layer_factory.hpp:77] Creating layer conv1_1_relu
I0831 12:58:56.947226 24386 net.cpp:100] Creating Layer conv1_1_relu
I0831 12:58:56.947243 24386 net.cpp:434] conv1_1_relu <- conv1_1_bn
I0831 12:58:56.947247 24386 net.cpp:395] conv1_1_relu -> conv1_1_bn (in-place)
I0831 12:58:56.947252 24386 net.cpp:150] Setting up conv1_1_relu
I0831 12:58:56.947255 24386 net.cpp:157] Top shape: 128 8 149 149 (22733824)
I0831 12:58:56.947258 24386 net.cpp:165] Memory required for data: 973242368
I0831 12:58:56.947262 24386 layer_factory.hpp:77] Creating layer conv2_1
I0831 12:58:56.947269 24386 net.cpp:100] Creating Layer conv2_1
I0831 12:58:56.947273 24386 net.cpp:434] conv2_1 <- conv1_1_bn
I0831 12:58:56.947278 24386 net.cpp:408] conv2_1 -> conv2_1
I0831 12:58:56.947898 24386 net.cpp:150] Setting up conv2_1
I0831 12:58:56.947911 24386 net.cpp:157] Top shape: 128 16 149 149 (45467648)
I0831 12:58:56.947914 24386 net.cpp:165] Memory required for data: 1155112960
I0831 12:58:56.947919 24386 layer_factory.hpp:77] Creating layer pool2
I0831 12:58:56.947927 24386 net.cpp:100] Creating Layer pool2
I0831 12:58:56.947932 24386 net.cpp:434] pool2 <- conv2_1
I0831 12:58:56.947935 24386 net.cpp:408] pool2 -> pool2
I0831 12:58:56.953047 24386 net.cpp:150] Setting up pool2
I0831 12:58:56.953095 24386 net.cpp:157] Top shape: 128 16 75 75 (11520000)
I0831 12:58:56.953104 24386 net.cpp:165] Memory required for data: 1201192960
I0831 12:58:56.953114 24386 layer_factory.hpp:77] Creating layer conv2_1_bn
I0831 12:58:56.953133 24386 net.cpp:100] Creating Layer conv2_1_bn
I0831 12:58:56.953143 24386 net.cpp:434] conv2_1_bn <- pool2
I0831 12:58:56.953155 24386 net.cpp:408] conv2_1_bn -> conv2_1_bn
I0831 12:58:56.955454 24386 net.cpp:150] Setting up conv2_1_bn
I0831 12:58:56.955481 24386 net.cpp:157] Top shape: 128 16 75 75 (11520000)
I0831 12:58:56.955483 24386 net.cpp:165] Memory required for data: 1247272960
I0831 12:58:56.955500 24386 layer_factory.hpp:77] Creating layer conv2_1_bn_scale
I0831 12:58:56.955513 24386 net.cpp:100] Creating Layer conv2_1_bn_scale
I0831 12:58:56.955516 24386 net.cpp:434] conv2_1_bn_scale <- conv2_1_bn
I0831 12:58:56.955521 24386 net.cpp:395] conv2_1_bn_scale -> conv2_1_bn (in-place)
I0831 12:58:56.955554 24386 layer_factory.hpp:77] Creating layer conv2_1_bn_scale
I0831 12:58:56.955641 24386 net.cpp:150] Setting up conv2_1_bn_scale
I0831 12:58:56.955646 24386 net.cpp:157] Top shape: 128 16 75 75 (11520000)
I0831 12:58:56.955648 24386 net.cpp:165] Memory required for data: 1293352960
I0831 12:58:56.955653 24386 layer_factory.hpp:77] Creating layer conv2_1_relu
I0831 12:58:56.955659 24386 net.cpp:100] Creating Layer conv2_1_relu
I0831 12:58:56.955662 24386 net.cpp:434] conv2_1_relu <- conv2_1_bn
I0831 12:58:56.955667 24386 net.cpp:395] conv2_1_relu -> conv2_1_bn (in-place)
I0831 12:58:56.955672 24386 net.cpp:150] Setting up conv2_1_relu
I0831 12:58:56.955675 24386 net.cpp:157] Top shape: 128 16 75 75 (11520000)
I0831 12:58:56.955678 24386 net.cpp:165] Memory required for data: 1339432960
I0831 12:58:56.955680 24386 layer_factory.hpp:77] Creating layer conv3_1
I0831 12:58:56.955690 24386 net.cpp:100] Creating Layer conv3_1
I0831 12:58:56.955693 24386 net.cpp:434] conv3_1 <- conv2_1_bn
I0831 12:58:56.955698 24386 net.cpp:408] conv3_1 -> conv3_1
I0831 12:58:56.955921 24386 net.cpp:150] Setting up conv3_1
I0831 12:58:56.955927 24386 net.cpp:157] Top shape: 128 32 75 75 (23040000)
I0831 12:58:56.955930 24386 net.cpp:165] Memory required for data: 1431592960
I0831 12:58:56.955934 24386 layer_factory.hpp:77] Creating layer pool3
I0831 12:58:56.955940 24386 net.cpp:100] Creating Layer pool3
I0831 12:58:56.955942 24386 net.cpp:434] pool3 <- conv3_1
I0831 12:58:56.955946 24386 net.cpp:408] pool3 -> pool3
I0831 12:58:56.955971 24386 net.cpp:150] Setting up pool3
I0831 12:58:56.955976 24386 net.cpp:157] Top shape: 128 32 38 38 (5914624)
I0831 12:58:56.955977 24386 net.cpp:165] Memory required for data: 1455251456
I0831 12:58:56.955981 24386 layer_factory.hpp:77] Creating layer conv3_1_bn
I0831 12:58:56.955986 24386 net.cpp:100] Creating Layer conv3_1_bn
I0831 12:58:56.955988 24386 net.cpp:434] conv3_1_bn <- pool3
I0831 12:58:56.956009 24386 net.cpp:408] conv3_1_bn -> conv3_1_bn
I0831 12:58:56.956148 24386 net.cpp:150] Setting up conv3_1_bn
I0831 12:58:56.956154 24386 net.cpp:157] Top shape: 128 32 38 38 (5914624)
I0831 12:58:56.956156 24386 net.cpp:165] Memory required for data: 1478909952
I0831 12:58:56.956162 24386 layer_factory.hpp:77] Creating layer conv3_1_bn_scale
I0831 12:58:56.956171 24386 net.cpp:100] Creating Layer conv3_1_bn_scale
I0831 12:58:56.956173 24386 net.cpp:434] conv3_1_bn_scale <- conv3_1_bn
I0831 12:58:56.956176 24386 net.cpp:395] conv3_1_bn_scale -> conv3_1_bn (in-place)
I0831 12:58:56.956200 24386 layer_factory.hpp:77] Creating layer conv3_1_bn_scale
I0831 12:58:56.956281 24386 net.cpp:150] Setting up conv3_1_bn_scale
I0831 12:58:56.956286 24386 net.cpp:157] Top shape: 128 32 38 38 (5914624)
I0831 12:58:56.956290 24386 net.cpp:165] Memory required for data: 1502568448
I0831 12:58:56.956297 24386 layer_factory.hpp:77] Creating layer conv3_1_relu
I0831 12:58:56.956302 24386 net.cpp:100] Creating Layer conv3_1_relu
I0831 12:58:56.956305 24386 net.cpp:434] conv3_1_relu <- conv3_1_bn
I0831 12:58:56.956310 24386 net.cpp:395] conv3_1_relu -> conv3_1_bn (in-place)
I0831 12:58:56.956313 24386 net.cpp:150] Setting up conv3_1_relu
I0831 12:58:56.956317 24386 net.cpp:157] Top shape: 128 32 38 38 (5914624)
I0831 12:58:56.956320 24386 net.cpp:165] Memory required for data: 1526226944
I0831 12:58:56.956322 24386 layer_factory.hpp:77] Creating layer conv4_1
I0831 12:58:56.956329 24386 net.cpp:100] Creating Layer conv4_1
I0831 12:58:56.956332 24386 net.cpp:434] conv4_1 <- conv3_1_bn
I0831 12:58:56.956336 24386 net.cpp:408] conv4_1 -> conv4_1
I0831 12:58:56.956851 24386 net.cpp:150] Setting up conv4_1
I0831 12:58:56.956859 24386 net.cpp:157] Top shape: 128 64 38 38 (11829248)
I0831 12:58:56.956861 24386 net.cpp:165] Memory required for data: 1573543936
I0831 12:58:56.956866 24386 layer_factory.hpp:77] Creating layer pool4
I0831 12:58:56.956871 24386 net.cpp:100] Creating Layer pool4
I0831 12:58:56.956873 24386 net.cpp:434] pool4 <- conv4_1
I0831 12:58:56.956877 24386 net.cpp:408] pool4 -> pool4
I0831 12:58:56.956907 24386 net.cpp:150] Setting up pool4
I0831 12:58:56.956912 24386 net.cpp:157] Top shape: 128 64 19 19 (2957312)
I0831 12:58:56.956914 24386 net.cpp:165] Memory required for data: 1585373184
I0831 12:58:56.956918 24386 layer_factory.hpp:77] Creating layer conv4_1_bn
I0831 12:58:56.956923 24386 net.cpp:100] Creating Layer conv4_1_bn
I0831 12:58:56.956928 24386 net.cpp:434] conv4_1_bn <- pool4
I0831 12:58:56.956933 24386 net.cpp:408] conv4_1_bn -> conv4_1_bn
I0831 12:58:56.957685 24386 net.cpp:150] Setting up conv4_1_bn
I0831 12:58:56.957703 24386 net.cpp:157] Top shape: 128 64 19 19 (2957312)
I0831 12:58:56.957707 24386 net.cpp:165] Memory required for data: 1597202432
I0831 12:58:56.957715 24386 layer_factory.hpp:77] Creating layer conv4_1_bn_scale
I0831 12:58:56.957722 24386 net.cpp:100] Creating Layer conv4_1_bn_scale
I0831 12:58:56.957726 24386 net.cpp:434] conv4_1_bn_scale <- conv4_1_bn
I0831 12:58:56.957731 24386 net.cpp:395] conv4_1_bn_scale -> conv4_1_bn (in-place)
I0831 12:58:56.957762 24386 layer_factory.hpp:77] Creating layer conv4_1_bn_scale
I0831 12:58:56.957841 24386 net.cpp:150] Setting up conv4_1_bn_scale
I0831 12:58:56.957847 24386 net.cpp:157] Top shape: 128 64 19 19 (2957312)
I0831 12:58:56.957849 24386 net.cpp:165] Memory required for data: 1609031680
I0831 12:58:56.957854 24386 layer_factory.hpp:77] Creating layer conv4_1_relu
I0831 12:58:56.957860 24386 net.cpp:100] Creating Layer conv4_1_relu
I0831 12:58:56.957862 24386 net.cpp:434] conv4_1_relu <- conv4_1_bn
I0831 12:58:56.957867 24386 net.cpp:395] conv4_1_relu -> conv4_1_bn (in-place)
I0831 12:58:56.957872 24386 net.cpp:150] Setting up conv4_1_relu
I0831 12:58:56.957876 24386 net.cpp:157] Top shape: 128 64 19 19 (2957312)
I0831 12:58:56.957878 24386 net.cpp:165] Memory required for data: 1620860928
I0831 12:58:56.957881 24386 layer_factory.hpp:77] Creating layer conv5_1
I0831 12:58:56.957890 24386 net.cpp:100] Creating Layer conv5_1
I0831 12:58:56.957900 24386 net.cpp:434] conv5_1 <- conv4_1_bn
I0831 12:58:56.957911 24386 net.cpp:408] conv5_1 -> conv5_1
I0831 12:58:56.958871 24386 net.cpp:150] Setting up conv5_1
I0831 12:58:56.958889 24386 net.cpp:157] Top shape: 128 64 17 17 (2367488)
I0831 12:58:56.958894 24386 net.cpp:165] Memory required for data: 1630330880
I0831 12:58:56.958901 24386 layer_factory.hpp:77] Creating layer conv5_1_bn
I0831 12:58:56.958911 24386 net.cpp:100] Creating Layer conv5_1_bn
I0831 12:58:56.958917 24386 net.cpp:434] conv5_1_bn <- conv5_1
I0831 12:58:56.958927 24386 net.cpp:408] conv5_1_bn -> conv5_1_bn
I0831 12:58:56.959117 24386 net.cpp:150] Setting up conv5_1_bn
I0831 12:58:56.959127 24386 net.cpp:157] Top shape: 128 64 17 17 (2367488)
I0831 12:58:56.959131 24386 net.cpp:165] Memory required for data: 1639800832
I0831 12:58:56.959136 24386 layer_factory.hpp:77] Creating layer conv5_1_bn_scale
I0831 12:58:56.959143 24386 net.cpp:100] Creating Layer conv5_1_bn_scale
I0831 12:58:56.959146 24386 net.cpp:434] conv5_1_bn_scale <- conv5_1_bn
I0831 12:58:56.959151 24386 net.cpp:395] conv5_1_bn_scale -> conv5_1_bn (in-place)
I0831 12:58:56.959190 24386 layer_factory.hpp:77] Creating layer conv5_1_bn_scale
I0831 12:58:56.959316 24386 net.cpp:150] Setting up conv5_1_bn_scale
I0831 12:58:56.959327 24386 net.cpp:157] Top shape: 128 64 17 17 (2367488)
I0831 12:58:56.959331 24386 net.cpp:165] Memory required for data: 1649270784
I0831 12:58:56.959339 24386 layer_factory.hpp:77] Creating layer conv5_1_relu
I0831 12:58:56.959347 24386 net.cpp:100] Creating Layer conv5_1_relu
I0831 12:58:56.959352 24386 net.cpp:434] conv5_1_relu <- conv5_1_bn
I0831 12:58:56.959360 24386 net.cpp:395] conv5_1_relu -> conv5_1_bn (in-place)
I0831 12:58:56.959369 24386 net.cpp:150] Setting up conv5_1_relu
I0831 12:58:56.959377 24386 net.cpp:157] Top shape: 128 64 17 17 (2367488)
I0831 12:58:56.959381 24386 net.cpp:165] Memory required for data: 1658740736
I0831 12:58:56.959386 24386 layer_factory.hpp:77] Creating layer conv6_1
I0831 12:58:56.959398 24386 net.cpp:100] Creating Layer conv6_1
I0831 12:58:56.959403 24386 net.cpp:434] conv6_1 <- conv5_1_bn
I0831 12:58:56.959414 24386 net.cpp:408] conv6_1 -> conv6_1
I0831 12:58:56.960453 24386 net.cpp:150] Setting up conv6_1
I0831 12:58:56.960469 24386 net.cpp:157] Top shape: 128 64 15 15 (1843200)
I0831 12:58:56.960470 24386 net.cpp:165] Memory required for data: 1666113536
I0831 12:58:56.960475 24386 layer_factory.hpp:77] Creating layer conv6_1_bn
I0831 12:58:56.960484 24386 net.cpp:100] Creating Layer conv6_1_bn
I0831 12:58:56.960487 24386 net.cpp:434] conv6_1_bn <- conv6_1
I0831 12:58:56.960492 24386 net.cpp:408] conv6_1_bn -> conv6_1_bn
I0831 12:58:56.960623 24386 net.cpp:150] Setting up conv6_1_bn
I0831 12:58:56.960629 24386 net.cpp:157] Top shape: 128 64 15 15 (1843200)
I0831 12:58:56.960631 24386 net.cpp:165] Memory required for data: 1673486336
I0831 12:58:56.960644 24386 layer_factory.hpp:77] Creating layer conv6_1_bn_scale
I0831 12:58:56.960650 24386 net.cpp:100] Creating Layer conv6_1_bn_scale
I0831 12:58:56.960654 24386 net.cpp:434] conv6_1_bn_scale <- conv6_1_bn
I0831 12:58:56.960659 24386 net.cpp:395] conv6_1_bn_scale -> conv6_1_bn (in-place)
I0831 12:58:56.960683 24386 layer_factory.hpp:77] Creating layer conv6_1_bn_scale
I0831 12:58:56.960758 24386 net.cpp:150] Setting up conv6_1_bn_scale
I0831 12:58:56.960763 24386 net.cpp:157] Top shape: 128 64 15 15 (1843200)
I0831 12:58:56.960767 24386 net.cpp:165] Memory required for data: 1680859136
I0831 12:58:56.960770 24386 layer_factory.hpp:77] Creating layer conv6_1_relu
I0831 12:58:56.960777 24386 net.cpp:100] Creating Layer conv6_1_relu
I0831 12:58:56.960779 24386 net.cpp:434] conv6_1_relu <- conv6_1_bn
I0831 12:58:56.960783 24386 net.cpp:395] conv6_1_relu -> conv6_1_bn (in-place)
I0831 12:58:56.960788 24386 net.cpp:150] Setting up conv6_1_relu
I0831 12:58:56.960791 24386 net.cpp:157] Top shape: 128 64 15 15 (1843200)
I0831 12:58:56.960794 24386 net.cpp:165] Memory required for data: 1688231936
I0831 12:58:56.960798 24386 layer_factory.hpp:77] Creating layer conv7_1
I0831 12:58:56.960813 24386 net.cpp:100] Creating Layer conv7_1
I0831 12:58:56.960824 24386 net.cpp:434] conv7_1 <- conv6_1_bn
I0831 12:58:56.960829 24386 net.cpp:408] conv7_1 -> conv7_1
I0831 12:58:56.963083 24386 net.cpp:150] Setting up conv7_1
I0831 12:58:56.963117 24386 net.cpp:157] Top shape: 128 128 13 13 (2768896)
I0831 12:58:56.963120 24386 net.cpp:165] Memory required for data: 1699307520
I0831 12:58:56.963127 24386 layer_factory.hpp:77] Creating layer conv7_1_bn
I0831 12:58:56.963143 24386 net.cpp:100] Creating Layer conv7_1_bn
I0831 12:58:56.963148 24386 net.cpp:434] conv7_1_bn <- conv7_1
I0831 12:58:56.963156 24386 net.cpp:408] conv7_1_bn -> conv7_1_bn
I0831 12:58:56.963291 24386 net.cpp:150] Setting up conv7_1_bn
I0831 12:58:56.963297 24386 net.cpp:157] Top shape: 128 128 13 13 (2768896)
I0831 12:58:56.963300 24386 net.cpp:165] Memory required for data: 1710383104
I0831 12:58:56.963306 24386 layer_factory.hpp:77] Creating layer conv7_1_bn_scale
I0831 12:58:56.963313 24386 net.cpp:100] Creating Layer conv7_1_bn_scale
I0831 12:58:56.963316 24386 net.cpp:434] conv7_1_bn_scale <- conv7_1_bn
I0831 12:58:56.963320 24386 net.cpp:395] conv7_1_bn_scale -> conv7_1_bn (in-place)
I0831 12:58:56.963351 24386 layer_factory.hpp:77] Creating layer conv7_1_bn_scale
I0831 12:58:56.963421 24386 net.cpp:150] Setting up conv7_1_bn_scale
I0831 12:58:56.963428 24386 net.cpp:157] Top shape: 128 128 13 13 (2768896)
I0831 12:58:56.963429 24386 net.cpp:165] Memory required for data: 1721458688
I0831 12:58:56.963434 24386 layer_factory.hpp:77] Creating layer conv7_1_relu
I0831 12:58:56.963439 24386 net.cpp:100] Creating Layer conv7_1_relu
I0831 12:58:56.963443 24386 net.cpp:434] conv7_1_relu <- conv7_1_bn
I0831 12:58:56.963448 24386 net.cpp:395] conv7_1_relu -> conv7_1_bn (in-place)
I0831 12:58:56.963452 24386 net.cpp:150] Setting up conv7_1_relu
I0831 12:58:56.963456 24386 net.cpp:157] Top shape: 128 128 13 13 (2768896)
I0831 12:58:56.963459 24386 net.cpp:165] Memory required for data: 1732534272
I0831 12:58:56.963461 24386 layer_factory.hpp:77] Creating layer score
I0831 12:58:56.963471 24386 net.cpp:100] Creating Layer score
I0831 12:58:56.963474 24386 net.cpp:434] score <- conv7_1_bn
I0831 12:58:56.963479 24386 net.cpp:408] score -> score
I0831 12:58:56.963647 24386 net.cpp:150] Setting up score
I0831 12:58:56.963655 24386 net.cpp:157] Top shape: 128 4 13 13 (86528)
I0831 12:58:56.963659 24386 net.cpp:165] Memory required for data: 1732880384
I0831 12:58:56.963662 24386 layer_factory.hpp:77] Creating layer upscore
I0831 12:58:56.963670 24386 net.cpp:100] Creating Layer upscore
I0831 12:58:56.963671 24386 net.cpp:434] upscore <- score
I0831 12:58:56.963677 24386 net.cpp:408] upscore -> upscore
I0831 12:58:56.964155 24386 net.cpp:150] Setting up upscore
I0831 12:58:56.964162 24386 net.cpp:157] Top shape: 128 4 224 224 (25690112)
I0831 12:58:56.964165 24386 net.cpp:165] Memory required for data: 1835640832
I0831 12:58:56.964169 24386 layer_factory.hpp:77] Creating layer cropscore
I0831 12:58:56.964176 24386 net.cpp:100] Creating Layer cropscore
I0831 12:58:56.964179 24386 net.cpp:434] cropscore <- upscore
I0831 12:58:56.964184 24386 net.cpp:434] cropscore <- image_data_0_split_1
I0831 12:58:56.964188 24386 net.cpp:408] cropscore -> cropscore
I0831 12:58:56.964208 24386 net.cpp:150] Setting up cropscore
I0831 12:58:56.964212 24386 net.cpp:157] Top shape: 128 4 200 200 (20480000)
I0831 12:58:56.964215 24386 net.cpp:165] Memory required for data: 1917560832
I0831 12:58:56.964218 24386 layer_factory.hpp:77] Creating layer cropscore_cropscore_0_split
I0831 12:58:56.964223 24386 net.cpp:100] Creating Layer cropscore_cropscore_0_split
I0831 12:58:56.964226 24386 net.cpp:434] cropscore_cropscore_0_split <- cropscore
I0831 12:58:56.964231 24386 net.cpp:408] cropscore_cropscore_0_split -> cropscore_cropscore_0_split_0
I0831 12:58:56.964236 24386 net.cpp:408] cropscore_cropscore_0_split -> cropscore_cropscore_0_split_1
I0831 12:58:56.964257 24386 net.cpp:150] Setting up cropscore_cropscore_0_split
I0831 12:58:56.964260 24386 net.cpp:157] Top shape: 128 4 200 200 (20480000)
I0831 12:58:56.964277 24386 net.cpp:157] Top shape: 128 4 200 200 (20480000)
I0831 12:58:56.964288 24386 net.cpp:165] Memory required for data: 2081400832
I0831 12:58:56.964292 24386 layer_factory.hpp:77] Creating layer loss
I0831 12:58:56.964299 24386 net.cpp:100] Creating Layer loss
I0831 12:58:56.964303 24386 net.cpp:434] loss <- cropscore_cropscore_0_split_0
I0831 12:58:56.964305 24386 net.cpp:434] loss <- label_data_1_split_0
I0831 12:58:56.964310 24386 net.cpp:408] loss -> loss
…
I0831 12:58:57.012553 24386 solver.cpp:181] Creating test net (#0) specified by net file: portrait_wb_train_test_one_stage.prototxt3
I0831 12:58:57.012594 24386 net.cpp:322] The NetState phase (1) differed from the phase (0) specified by a rule in layer data
I0831 12:58:57.012748 24386 net.cpp:58] Initializing net from parameters: 
name: "segmentation"
state {
  phase: TEST
}
layer {
  name: "data"
  type: "SegData"
  top: "image"
  top: "label"
  include {
    phase: TEST
  }
  transform_param {
    crop_size: 200
  }
  data_param {
    source: "/raid/xuehan/segmentation_wb_test_split"
    batch_size: 64
    backend: LMDB
  }
}
layer {
  name: "conv1_1"
  type: "Convolution"
  bottom: "image"
  top: "conv1_1"
  param {
    lr_mult: 1
    decay_mult: 1
  }
  convolution_param {
    num_output: 8
    bias_term: false
    pad: 50
    kernel_size: 3
    stride: 1
    weight_filler {
      type: "gaussian"
      std: 0.01
    }
  }
}
layer {
  name: "pool1"
  type: "Pooling"
  bottom: "conv1_1"
  top: "pool1"
  pooling_param {
    pool: MAX
    kernel_size: 2
    stride: 2
  }
}
layer {
  name: "conv1_1_bn"
  type: "BatchNorm"
  bottom: "pool1"
  top: "conv1_1_bn"
  param {
    lr_mult: 0
  }
  param {
    lr_mult: 0
  }
  param {
    lr_mult: 0
  }
}
layer {
  name: "conv1_1_bn_scale"
  type: "Scale"
  bottom: "conv1_1_bn"
  top: "conv1_1_bn"
  scale_param {
    bias_term: true
  }
}
layer {
  name: "conv1_1_relu"
  type: "ReLU"
  bottom: "conv1_1_bn"
  top: "conv1_1_bn"
}
layer {
  name: "conv2_1"
  type: "Convolution"
  bottom: "conv1_1_bn"
  top: "conv2_1"
  param {
    lr_mult: 1
    decay_mult: 1
  }
  convolution_param {
    num_output: 16
    bias_term: false
    pad: 1
    kernel_size: 3
    stride: 1
    weight_filler {
      type: "gaussian"
      std: 0.01
    }
  }
}
layer {
  name: "pool2"
  type: "Pooling"
  bottom: "conv2_1"
  top: "pool2"
  pooling_param {
    pool: MAX
    kernel_size: 2
    stride: 2
  }
}
layer {
  name: "conv2_1_bn"
  type: "BatchNorm"
  bottom: "pool2"
  top: "conv2_1_bn"
  param {
    lr_mult: 0
  }
  param {
    lr_mult: 0
  }
  param {
    lr_mult: 0
  }
}
layer {
  name: "conv2_1_bn_scale"
  type: "Scale"
  bottom: "conv2_1_bn"
  top: "conv2_1_bn"
  scale_param {
    bias_term: true
  }
}
layer {
  name: "conv2_1_relu"
  type: "ReLU"
  bottom: "conv2_1_bn"
  top: "conv2_1_bn"
}
layer {
  name: "conv3_1"
  type: "Convolution"
  bottom: "conv2_1_bn"
  top: "conv3_1"
  param {
    lr_mult: 1
    decay_mult: 1
  }
  convolution_param {
    num_output: 32
    bias_term: false
    pad: 1
    kernel_size: 3
    stride: 1
    weight_filler {
      type: "gaussian"
      std: 0.01
    }
  }
}
layer {
  name: "pool3"
  type: "Pooling"
  bottom: "conv3_1"
  top: "pool3"
  pooling_param {
    pool: MAX
    kernel_size: 2
    stride: 2
  }
}
layer {
  name: "conv3_1_bn"
  type: "BatchNorm"
  bottom: "pool3"
  top: "conv3_1_bn"
  param {
    lr_mult: 0
  }
  param {
    lr_mult: 0
  }
  param {
    lr_mult: 0
  }
}
layer {
  name: "conv3_1_bn_scale"
  type: "Scale"
  bottom: "conv3_1_bn"
  top: "conv3_1_bn"
  scale_param {
    bias_term: true
  }
}
layer {
  name: "conv3_1_relu"
  type: "ReLU"
  bottom: "conv3_1_bn"
  top: "conv3_1_bn"
}
layer {
  name: "conv4_1"
  type: "Convolution"
  bottom: "conv3_1_bn"
  top: "conv4_1"
  param {
    lr_mult: 1
    decay_mult: 1
  }
  convolution_param {
    num_output: 64
    bias_term: false
    pad: 1
    kernel_size: 3
    stride: 1
    weight_filler {
      type: "gaussian"
      std: 0.01
    }
  }
}
layer {
  name: "pool4"
  type: "Pooling"
  bottom: "conv4_1"
  top: "pool4"
  pooling_param {
    pool: MAX
    kernel_size: 2
    stride: 2
  }
}
layer {
  name: "conv4_1_bn"
  type: "BatchNorm"
  bottom: "pool4"
  top: "conv4_1_bn"
  param {
    lr_mult: 0
  }
  param {
    lr_mult: 0
  }
  param {
    lr_mult: 0
  }
}
layer {
  name: "conv4_1_bn_scale"
  type: "Scale"
  bottom: "conv4_1_bn"
  top: "conv4_1_bn"
  scale_param {
    bias_term: true
  }
}
layer {
  name: "conv4_1_relu"
  type: "ReLU"
  bottom: "conv4_1_bn"
  top: "conv4_1_bn"
}
layer {
  name: "conv5_1"
  type: "Convolution"
  bottom: "conv4_1_bn"
  top: "conv5_1"
  param {
    lr_mult: 1
    decay_mult: 1
  }
  convolution_param {
    num_output: 64
    bias_term: false
    pad: 0
    kernel_size: 3
    stride: 1
    weight_filler {
      type: "gaussian"
      std: 0.01
    }
  }
}
layer {
  name: "conv5_1_bn"
  type: "BatchNorm"
  bottom: "conv5_1"
  top: "conv5_1_bn"
  param {
    lr_mult: 0
  }
  param {
    lr_mult: 0
  }
  param {
    lr_mult: 0
  }
}
layer {
  name: "conv5_1_bn_scale"
  type: "Scale"
  bottom: "conv5_1_bn"
  top: "conv5_1_bn"
  scale_param {
    bias_term: true
  }
}
layer {
  name: "conv5_1_relu"
  type: "ReLU"
  bottom: "conv5_1_bn"
  top: "conv5_1_bn"
}
layer {
  name: "conv6_1"
  type: "Convolution"
  bottom: "conv5_1_bn"
  top: "conv6_1"
  param {
    lr_mult: 1
    decay_mult: 1
  }
  convolution_param {
    num_output: 64
    bias_term: false
    pad: 0
    kernel_size: 3
    stride: 1
    weight_filler {
      type: "gaussian"
      std: 0.01
    }
  }
}
layer {
  name: "conv6_1_bn"
  type: "BatchNorm"
  bottom: "conv6_1"
  top: "conv6_1_bn"
  param {
    lr_mult: 0
  }
  param {
    lr_mult: 0
  }
  param {
    lr_mult: 0
  }
}
layer {
  name: "conv6_1_bn_scale"
  type: "Scale"
  bottom: "conv6_1_bn"
  top: "conv6_1_bn"
  scale_param {
    bias_term: true
  }
}
layer {
  name: "conv6_1_relu"
  type: "ReLU"
  bottom: "conv6_1_bn"
  top: "conv6_1_bn"
}
layer {
  name: "conv7_1"
  type: "Convolution"
  bottom: "conv6_1_bn"
  top: "conv7_1"
  param {
    lr_mult: 1
    decay_mult: 1
  }
  convolution_param {
    num_output: 128
    bias_term: false
    pad: 0
    kernel_size: 3
    stride: 1
    weight_filler {
      type: "gaussian"
      std: 0.01
    }
  }
}
layer {
  name: "conv7_1_bn"
  type: "BatchNorm"
  bottom: "conv7_1"
  top: "conv7_1_bn"
  param {
    lr_mult: 0
  }
  param {
    lr_mult: 0
  }
  param {
    lr_mult: 0
  }
}
layer {
  name: "conv7_1_bn_scale"
  type: "Scale"
  bottom: "conv7_1_bn"
  top: "conv7_1_bn"
  scale_param {
    bias_term: true
  }
}
layer {
  name: "conv7_1_relu"
  type: "ReLU"
  bottom: "conv7_1_bn"
  top: "conv7_1_bn"
}
layer {
  name: "score"
  type: "Convolution"
  bottom: "conv7_1_bn"
  top: "score"
  param {
    lr_mult: 1
    decay_mult: 1
  }
  param {
    lr_mult: 2
    decay_mult: 0
  }
  convolution_param {
    num_output: 4
    pad: 0
    kernel_size: 1
    stride: 1
    weight_filler {
      type: "gaussian"
      std: 0.01
    }
    bias_filler {
      type: "constant"
    }
  }
}
layer {
  name: "upscore"
  type: "Deconvolution"
  bottom: "score"
  top: "upscore"
  param {
    lr_mult: 1
    decay_mult: 1
  }
  convolution_param {
    num_output: 4
    bias_term: false
    pad: 0
    kernel_size: 32
    stride: 16
    weight_filler {
      type: "gaussian"
      std: 0.01
    }
  }
}
layer {
  name: "cropscore"
  type: "Crop"
  bottom: "upscore"
  bottom: "image"
  top: "cropscore"
  crop_param {
    axis: 2
    offset: 12
  }
}
layer {
  name: "loss"
  type: "SoftmaxWithLoss"
  bottom: "cropscore"
  bottom: "label"
  top: "loss"
  loss_weight: 1
  loss_param {
    normalize: false
  }
}
layer {
  name: "accuracy"
  type: "Accuracy"
  bottom: "cropscore"
  bottom: "label"
  top: "accuracy"
}
I0831 12:58:57.012866 24386 layer_factory.hpp:77] Creating layer data
I0831 12:58:57.012955 24386 net.cpp:100] Creating Layer data
I0831 12:58:57.012962 24386 net.cpp:408] data -> image
I0831 12:58:57.012969 24386 net.cpp:408] data -> label
I0831 12:58:57.015447 24394 db_lmdb.cpp:35] Opened lmdb /raid/xuehan/segmentation_wb_test_split
I0831 12:58:57.015597 24386 seg_data_layer.cpp:38] 200 200 4
I0831 12:58:57.015686 24386 seg_data_layer.cpp:51] output data size: 64,3,200,200
I0831 12:58:57.015734 24386 seg_data_layer.cpp:63] output label size: 64,1,200,200
I0831 12:58:57.087985 24386 net.cpp:150] Setting up data
I0831 12:58:57.088014 24386 net.cpp:157] Top shape: 64 3 200 200 (7680000)
I0831 12:58:57.088021 24386 net.cpp:157] Top shape: 64 1 200 200 (2560000)
I0831 12:58:57.088022 24386 net.cpp:165] Memory required for data: 40960000
I0831 12:58:57.088028 24386 layer_factory.hpp:77] Creating layer image_data_0_split
I0831 12:58:57.088039 24386 net.cpp:100] Creating Layer image_data_0_split
I0831 12:58:57.088043 24386 net.cpp:434] image_data_0_split <- image
I0831 12:58:57.088052 24386 net.cpp:408] image_data_0_split -> image_data_0_split_0
I0831 12:58:57.088059 24386 net.cpp:408] image_data_0_split -> image_data_0_split_1
I0831 12:58:57.088126 24386 net.cpp:150] Setting up image_data_0_split
I0831 12:58:57.088134 24386 net.cpp:157] Top shape: 64 3 200 200 (7680000)
I0831 12:58:57.088137 24386 net.cpp:157] Top shape: 64 3 200 200 (7680000)
I0831 12:58:57.088140 24386 net.cpp:165] Memory required for data: 102400000
I0831 12:58:57.088142 24386 layer_factory.hpp:77] Creating layer label_data_1_split
I0831 12:58:57.088147 24386 net.cpp:100] Creating Layer label_data_1_split
I0831 12:58:57.088150 24386 net.cpp:434] label_data_1_split <- label
I0831 12:58:57.088155 24386 net.cpp:408] label_data_1_split -> label_data_1_split_0
I0831 12:58:57.088160 24386 net.cpp:408] label_data_1_split -> label_data_1_split_1
I0831 12:58:57.088186 24386 net.cpp:150] Setting up label_data_1_split
I0831 12:58:57.088191 24386 net.cpp:157] Top shape: 64 1 200 200 (2560000)
I0831 12:58:57.088194 24386 net.cpp:157] Top shape: 64 1 200 200 (2560000)
I0831 12:58:57.088197 24386 net.cpp:165] Memory required for data: 122880000
I0831 12:58:57.088199 24386 layer_factory.hpp:77] Creating layer conv1_1
I0831 12:58:57.088209 24386 net.cpp:100] Creating Layer conv1_1
I0831 12:58:57.088212 24386 net.cpp:434] conv1_1 <- image_data_0_split_0
I0831 12:58:57.088218 24386 net.cpp:408] conv1_1 -> conv1_1
I0831 12:58:57.088371 24386 net.cpp:150] Setting up conv1_1
I0831 12:58:57.088377 24386 net.cpp:157] Top shape: 64 8 298 298 (45467648)
I0831 12:58:57.088381 24386 net.cpp:165] Memory required for data: 304750592
I0831 12:58:57.088387 24386 layer_factory.hpp:77] Creating layer pool1
I0831 12:58:57.088393 24386 net.cpp:100] Creating Layer pool1
I0831 12:58:57.088397 24386 net.cpp:434] pool1 <- conv1_1
I0831 12:58:57.088400 24386 net.cpp:408] pool1 -> pool1
I0831 12:58:57.088426 24386 net.cpp:150] Setting up pool1
I0831 12:58:57.088431 24386 net.cpp:157] Top shape: 64 8 149 149 (11366912)
I0831 12:58:57.088434 24386 net.cpp:165] Memory required for data: 350218240
I0831 12:58:57.088436 24386 layer_factory.hpp:77] Creating layer conv1_1_bn
I0831 12:58:57.088443 24386 net.cpp:100] Creating Layer conv1_1_bn
I0831 12:58:57.088445 24386 net.cpp:434] conv1_1_bn <- pool1
I0831 12:58:57.088449 24386 net.cpp:408] conv1_1_bn -> conv1_1_bn
I0831 12:58:57.088604 24386 net.cpp:150] Setting up conv1_1_bn
I0831 12:58:57.088610 24386 net.cpp:157] Top shape: 64 8 149 149 (11366912)
I0831 12:58:57.088613 24386 net.cpp:165] Memory required for data: 395685888
I0831 12:58:57.088621 24386 layer_factory.hpp:77] Creating layer conv1_1_bn_scale
I0831 12:58:57.088629 24386 net.cpp:100] Creating Layer conv1_1_bn_scale
I0831 12:58:57.088631 24386 net.cpp:434] conv1_1_bn_scale <- conv1_1_bn
I0831 12:58:57.088634 24386 net.cpp:395] conv1_1_bn_scale -> conv1_1_bn (in-place)
I0831 12:58:57.088662 24386 layer_factory.hpp:77] Creating layer conv1_1_bn_scale
I0831 12:58:57.088771 24386 net.cpp:150] Setting up conv1_1_bn_scale
I0831 12:58:57.088791 24386 net.cpp:157] Top shape: 64 8 149 149 (11366912)
I0831 12:58:57.088794 24386 net.cpp:165] Memory required for data: 441153536
I0831 12:58:57.088801 24386 layer_factory.hpp:77] Creating layer conv1_1_relu
I0831 12:58:57.088809 24386 net.cpp:100] Creating Layer conv1_1_relu
I0831 12:58:57.088811 24386 net.cpp:434] conv1_1_relu <- conv1_1_bn
I0831 12:58:57.088815 24386 net.cpp:395] conv1_1_relu -> conv1_1_bn (in-place)
I0831 12:58:57.088820 24386 net.cpp:150] Setting up conv1_1_relu
I0831 12:58:57.088824 24386 net.cpp:157] Top shape: 64 8 149 149 (11366912)
I0831 12:58:57.088826 24386 net.cpp:165] Memory required for data: 486621184
I0831 12:58:57.088829 24386 layer_factory.hpp:77] Creating layer conv2_1
I0831 12:58:57.088836 24386 net.cpp:100] Creating Layer conv2_1
I0831 12:58:57.088840 24386 net.cpp:434] conv2_1 <- conv1_1_bn
I0831 12:58:57.088843 24386 net.cpp:408] conv2_1 -> conv2_1
I0831 12:58:57.088997 24386 net.cpp:150] Setting up conv2_1
I0831 12:58:57.089004 24386 net.cpp:157] Top shape: 64 16 149 149 (22733824)
I0831 12:58:57.089005 24386 net.cpp:165] Memory required for data: 577556480
I0831 12:58:57.089010 24386 layer_factory.hpp:77] Creating layer pool2
I0831 12:58:57.089015 24386 net.cpp:100] Creating Layer pool2
I0831 12:58:57.089017 24386 net.cpp:434] pool2 <- conv2_1
I0831 12:58:57.089020 24386 net.cpp:408] pool2 -> pool2
I0831 12:58:57.089045 24386 net.cpp:150] Setting up pool2
I0831 12:58:57.089049 24386 net.cpp:157] Top shape: 64 16 75 75 (5760000)
I0831 12:58:57.089051 24386 net.cpp:165] Memory required for data: 600596480
I0831 12:58:57.089054 24386 layer_factory.hpp:77] Creating layer conv2_1_bn
I0831 12:58:57.089061 24386 net.cpp:100] Creating Layer conv2_1_bn
I0831 12:58:57.089063 24386 net.cpp:434] conv2_1_bn <- pool2
I0831 12:58:57.089066 24386 net.cpp:408] conv2_1_bn -> conv2_1_bn
I0831 12:58:57.089211 24386 net.cpp:150] Setting up conv2_1_bn
I0831 12:58:57.089216 24386 net.cpp:157] Top shape: 64 16 75 75 (5760000)
I0831 12:58:57.089220 24386 net.cpp:165] Memory required for data: 623636480
I0831 12:58:57.089226 24386 layer_factory.hpp:77] Creating layer conv2_1_bn_scale
I0831 12:58:57.089231 24386 net.cpp:100] Creating Layer conv2_1_bn_scale
I0831 12:58:57.089234 24386 net.cpp:434] conv2_1_bn_scale <- conv2_1_bn
I0831 12:58:57.089237 24386 net.cpp:395] conv2_1_bn_scale -> conv2_1_bn (in-place)
I0831 12:58:57.089284 24386 layer_factory.hpp:77] Creating layer conv2_1_bn_scale
I0831 12:58:57.094454 24386 net.cpp:150] Setting up conv2_1_bn_scale
I0831 12:58:57.094467 24386 net.cpp:157] Top shape: 64 16 75 75 (5760000)
I0831 12:58:57.094470 24386 net.cpp:165] Memory required for data: 646676480
I0831 12:58:57.094476 24386 layer_factory.hpp:77] Creating layer conv2_1_relu
I0831 12:58:57.094482 24386 net.cpp:100] Creating Layer conv2_1_relu
I0831 12:58:57.094485 24386 net.cpp:434] conv2_1_relu <- conv2_1_bn
I0831 12:58:57.094490 24386 net.cpp:395] conv2_1_relu -> conv2_1_bn (in-place)
I0831 12:58:57.094496 24386 net.cpp:150] Setting up conv2_1_relu
I0831 12:58:57.094498 24386 net.cpp:157] Top shape: 64 16 75 75 (5760000)
I0831 12:58:57.094501 24386 net.cpp:165] Memory required for data: 669716480
I0831 12:58:57.094504 24386 layer_factory.hpp:77] Creating layer conv3_1
I0831 12:58:57.094512 24386 net.cpp:100] Creating Layer conv3_1
I0831 12:58:57.094514 24386 net.cpp:434] conv3_1 <- conv2_1_bn
I0831 12:58:57.094519 24386 net.cpp:408] conv3_1 -> conv3_1
I0831 12:58:57.094779 24386 net.cpp:150] Setting up conv3_1
I0831 12:58:57.094789 24386 net.cpp:157] Top shape: 64 32 75 75 (11520000)
I0831 12:58:57.094790 24386 net.cpp:165] Memory required for data: 715796480
I0831 12:58:57.094794 24386 layer_factory.hpp:77] Creating layer pool3
I0831 12:58:57.094800 24386 net.cpp:100] Creating Layer pool3
I0831 12:58:57.094804 24386 net.cpp:434] pool3 <- conv3_1
I0831 12:58:57.094807 24386 net.cpp:408] pool3 -> pool3
I0831 12:58:57.094843 24386 net.cpp:150] Setting up pool3
I0831 12:58:57.094851 24386 net.cpp:157] Top shape: 64 32 38 38 (2957312)
I0831 12:58:57.094862 24386 net.cpp:165] Memory required for data: 727625728
I0831 12:58:57.094872 24386 layer_factory.hpp:77] Creating layer conv3_1_bn
I0831 12:58:57.094880 24386 net.cpp:100] Creating Layer conv3_1_bn
I0831 12:58:57.094884 24386 net.cpp:434] conv3_1_bn <- pool3
I0831 12:58:57.094888 24386 net.cpp:408] conv3_1_bn -> conv3_1_bn
I0831 12:58:57.095032 24386 net.cpp:150] Setting up conv3_1_bn
I0831 12:58:57.095037 24386 net.cpp:157] Top shape: 64 32 38 38 (2957312)
I0831 12:58:57.095041 24386 net.cpp:165] Memory required for data: 739454976
I0831 12:58:57.095046 24386 layer_factory.hpp:77] Creating layer conv3_1_bn_scale
I0831 12:58:57.095054 24386 net.cpp:100] Creating Layer conv3_1_bn_scale
I0831 12:58:57.095057 24386 net.cpp:434] conv3_1_bn_scale <- conv3_1_bn
I0831 12:58:57.095060 24386 net.cpp:395] conv3_1_bn_scale -> conv3_1_bn (in-place)
I0831 12:58:57.095089 24386 layer_factory.hpp:77] Creating layer conv3_1_bn_scale
I0831 12:58:57.095209 24386 net.cpp:150] Setting up conv3_1_bn_scale
I0831 12:58:57.095224 24386 net.cpp:157] Top shape: 64 32 38 38 (2957312)
I0831 12:58:57.095230 24386 net.cpp:165] Memory required for data: 751284224
I0831 12:58:57.095242 24386 layer_factory.hpp:77] Creating layer conv3_1_relu
I0831 12:58:57.095252 24386 net.cpp:100] Creating Layer conv3_1_relu
I0831 12:58:57.095257 24386 net.cpp:434] conv3_1_relu <- conv3_1_bn
I0831 12:58:57.095265 24386 net.cpp:395] conv3_1_relu -> conv3_1_bn (in-place)
I0831 12:58:57.095274 24386 net.cpp:150] Setting up conv3_1_relu
I0831 12:58:57.095281 24386 net.cpp:157] Top shape: 64 32 38 38 (2957312)
I0831 12:58:57.095285 24386 net.cpp:165] Memory required for data: 763113472
I0831 12:58:57.095289 24386 layer_factory.hpp:77] Creating layer conv4_1
I0831 12:58:57.095300 24386 net.cpp:100] Creating Layer conv4_1
I0831 12:58:57.095306 24386 net.cpp:434] conv4_1 <- conv3_1_bn
I0831 12:58:57.095314 24386 net.cpp:408] conv4_1 -> conv4_1
I0831 12:58:57.102851 24386 net.cpp:150] Setting up conv4_1
I0831 12:58:57.102891 24386 net.cpp:157] Top shape: 64 64 38 38 (5914624)
I0831 12:58:57.102897 24386 net.cpp:165] Memory required for data: 786771968
I0831 12:58:57.102907 24386 layer_factory.hpp:77] Creating layer pool4
I0831 12:58:57.102921 24386 net.cpp:100] Creating Layer pool4
I0831 12:58:57.102926 24386 net.cpp:434] pool4 <- conv4_1
I0831 12:58:57.102936 24386 net.cpp:408] pool4 -> pool4
I0831 12:58:57.102982 24386 net.cpp:150] Setting up pool4
I0831 12:58:57.102993 24386 net.cpp:157] Top shape: 64 64 19 19 (1478656)
I0831 12:58:57.102996 24386 net.cpp:165] Memory required for data: 792686592
I0831 12:58:57.103001 24386 layer_factory.hpp:77] Creating layer conv4_1_bn
I0831 12:58:57.103011 24386 net.cpp:100] Creating Layer conv4_1_bn
I0831 12:58:57.103016 24386 net.cpp:434] conv4_1_bn <- pool4
I0831 12:58:57.103023 24386 net.cpp:408] conv4_1_bn -> conv4_1_bn
I0831 12:58:57.103231 24386 net.cpp:150] Setting up conv4_1_bn
I0831 12:58:57.103240 24386 net.cpp:157] Top shape: 64 64 19 19 (1478656)
I0831 12:58:57.103245 24386 net.cpp:165] Memory required for data: 798601216
I0831 12:58:57.103255 24386 layer_factory.hpp:77] Creating layer conv4_1_bn_scale
I0831 12:58:57.103265 24386 net.cpp:100] Creating Layer conv4_1_bn_scale
I0831 12:58:57.103269 24386 net.cpp:434] conv4_1_bn_scale <- conv4_1_bn
I0831 12:58:57.103276 24386 net.cpp:395] conv4_1_bn_scale -> conv4_1_bn (in-place)
I0831 12:58:57.103319 24386 layer_factory.hpp:77] Creating layer conv4_1_bn_scale
I0831 12:58:57.103441 24386 net.cpp:150] Setting up conv4_1_bn_scale
I0831 12:58:57.103449 24386 net.cpp:157] Top shape: 64 64 19 19 (1478656)
I0831 12:58:57.103453 24386 net.cpp:165] Memory required for data: 804515840
I0831 12:58:57.103461 24386 layer_factory.hpp:77] Creating layer conv4_1_relu
I0831 12:58:57.103469 24386 net.cpp:100] Creating Layer conv4_1_relu
I0831 12:58:57.103473 24386 net.cpp:434] conv4_1_relu <- conv4_1_bn
I0831 12:58:57.103482 24386 net.cpp:395] conv4_1_relu -> conv4_1_bn (in-place)
I0831 12:58:57.103489 24386 net.cpp:150] Setting up conv4_1_relu
I0831 12:58:57.103495 24386 net.cpp:157] Top shape: 64 64 19 19 (1478656)
I0831 12:58:57.103521 24386 net.cpp:165] Memory required for data: 810430464
I0831 12:58:57.103526 24386 layer_factory.hpp:77] Creating layer conv5_1
I0831 12:58:57.103538 24386 net.cpp:100] Creating Layer conv5_1
I0831 12:58:57.103543 24386 net.cpp:434] conv5_1 <- conv4_1_bn
I0831 12:58:57.103550 24386 net.cpp:408] conv5_1 -> conv5_1
I0831 12:58:57.109344 24386 net.cpp:150] Setting up conv5_1
I0831 12:58:57.109387 24386 net.cpp:157] Top shape: 64 64 17 17 (1183744)
I0831 12:58:57.109392 24386 net.cpp:165] Memory required for data: 815165440
I0831 12:58:57.109402 24386 layer_factory.hpp:77] Creating layer conv5_1_bn
I0831 12:58:57.109417 24386 net.cpp:100] Creating Layer conv5_1_bn
I0831 12:58:57.109424 24386 net.cpp:434] conv5_1_bn <- conv5_1
I0831 12:58:57.109433 24386 net.cpp:408] conv5_1_bn -> conv5_1_bn
I0831 12:58:57.109653 24386 net.cpp:150] Setting up conv5_1_bn
I0831 12:58:57.109663 24386 net.cpp:157] Top shape: 64 64 17 17 (1183744)
I0831 12:58:57.109666 24386 net.cpp:165] Memory required for data: 819900416
I0831 12:58:57.109675 24386 layer_factory.hpp:77] Creating layer conv5_1_bn_scale
I0831 12:58:57.109686 24386 net.cpp:100] Creating Layer conv5_1_bn_scale
I0831 12:58:57.109691 24386 net.cpp:434] conv5_1_bn_scale <- conv5_1_bn
I0831 12:58:57.109699 24386 net.cpp:395] conv5_1_bn_scale -> conv5_1_bn (in-place)
I0831 12:58:57.109743 24386 layer_factory.hpp:77] Creating layer conv5_1_bn_scale
I0831 12:58:57.109863 24386 net.cpp:150] Setting up conv5_1_bn_scale
I0831 12:58:57.109872 24386 net.cpp:157] Top shape: 64 64 17 17 (1183744)
I0831 12:58:57.109876 24386 net.cpp:165] Memory required for data: 824635392
I0831 12:58:57.109884 24386 layer_factory.hpp:77] Creating layer conv5_1_relu
I0831 12:58:57.109891 24386 net.cpp:100] Creating Layer conv5_1_relu
I0831 12:58:57.109896 24386 net.cpp:434] conv5_1_relu <- conv5_1_bn
I0831 12:58:57.109904 24386 net.cpp:395] conv5_1_relu -> conv5_1_bn (in-place)
I0831 12:58:57.109910 24386 net.cpp:150] Setting up conv5_1_relu
I0831 12:58:57.109916 24386 net.cpp:157] Top shape: 64 64 17 17 (1183744)
I0831 12:58:57.109920 24386 net.cpp:165] Memory required for data: 829370368
I0831 12:58:57.109925 24386 layer_factory.hpp:77] Creating layer conv6_1
I0831 12:58:57.109936 24386 net.cpp:100] Creating Layer conv6_1
I0831 12:58:57.109941 24386 net.cpp:434] conv6_1 <- conv5_1_bn
I0831 12:58:57.109947 24386 net.cpp:408] conv6_1 -> conv6_1
I0831 12:58:57.111444 24386 net.cpp:150] Setting up conv6_1
I0831 12:58:57.111474 24386 net.cpp:157] Top shape: 64 64 15 15 (921600)
I0831 12:58:57.111479 24386 net.cpp:165] Memory required for data: 833056768
I0831 12:58:57.111486 24386 layer_factory.hpp:77] Creating layer conv6_1_bn
I0831 12:58:57.111497 24386 net.cpp:100] Creating Layer conv6_1_bn
I0831 12:58:57.111502 24386 net.cpp:434] conv6_1_bn <- conv6_1
I0831 12:58:57.111517 24386 net.cpp:408] conv6_1_bn -> conv6_1_bn
I0831 12:58:57.111733 24386 net.cpp:150] Setting up conv6_1_bn
I0831 12:58:57.111744 24386 net.cpp:157] Top shape: 64 64 15 15 (921600)
I0831 12:58:57.111747 24386 net.cpp:165] Memory required for data: 836743168
I0831 12:58:57.111759 24386 layer_factory.hpp:77] Creating layer conv6_1_bn_scale
I0831 12:58:57.111766 24386 net.cpp:100] Creating Layer conv6_1_bn_scale
I0831 12:58:57.111769 24386 net.cpp:434] conv6_1_bn_scale <- conv6_1_bn
I0831 12:58:57.111775 24386 net.cpp:395] conv6_1_bn_scale -> conv6_1_bn (in-place)
I0831 12:58:57.111806 24386 layer_factory.hpp:77] Creating layer conv6_1_bn_scale
I0831 12:58:57.111887 24386 net.cpp:150] Setting up conv6_1_bn_scale
I0831 12:58:57.111893 24386 net.cpp:157] Top shape: 64 64 15 15 (921600)
I0831 12:58:57.111896 24386 net.cpp:165] Memory required for data: 840429568
I0831 12:58:57.111901 24386 layer_factory.hpp:77] Creating layer conv6_1_relu
I0831 12:58:57.111908 24386 net.cpp:100] Creating Layer conv6_1_relu
I0831 12:58:57.111912 24386 net.cpp:434] conv6_1_relu <- conv6_1_bn
I0831 12:58:57.111915 24386 net.cpp:395] conv6_1_relu -> conv6_1_bn (in-place)
I0831 12:58:57.111919 24386 net.cpp:150] Setting up conv6_1_relu
I0831 12:58:57.111932 24386 net.cpp:157] Top shape: 64 64 15 15 (921600)
I0831 12:58:57.111943 24386 net.cpp:165] Memory required for data: 844115968
I0831 12:58:57.111946 24386 layer_factory.hpp:77] Creating layer conv7_1
I0831 12:58:57.111954 24386 net.cpp:100] Creating Layer conv7_1
I0831 12:58:57.111958 24386 net.cpp:434] conv7_1 <- conv6_1_bn
I0831 12:58:57.111961 24386 net.cpp:408] conv7_1 -> conv7_1
I0831 12:58:57.114501 24386 net.cpp:150] Setting up conv7_1
I0831 12:58:57.114550 24386 net.cpp:157] Top shape: 64 128 13 13 (1384448)
I0831 12:58:57.114555 24386 net.cpp:165] Memory required for data: 849653760
I0831 12:58:57.114565 24386 layer_factory.hpp:77] Creating layer conv7_1_bn
I0831 12:58:57.114584 24386 net.cpp:100] Creating Layer conv7_1_bn
I0831 12:58:57.114591 24386 net.cpp:434] conv7_1_bn <- conv7_1
I0831 12:58:57.114600 24386 net.cpp:408] conv7_1_bn -> conv7_1_bn
I0831 12:58:57.114809 24386 net.cpp:150] Setting up conv7_1_bn
I0831 12:58:57.114817 24386 net.cpp:157] Top shape: 64 128 13 13 (1384448)
I0831 12:58:57.114821 24386 net.cpp:165] Memory required for data: 855191552
I0831 12:58:57.114831 24386 layer_factory.hpp:77] Creating layer conv7_1_bn_scale
I0831 12:58:57.114840 24386 net.cpp:100] Creating Layer conv7_1_bn_scale
I0831 12:58:57.114845 24386 net.cpp:434] conv7_1_bn_scale <- conv7_1_bn
I0831 12:58:57.114850 24386 net.cpp:395] conv7_1_bn_scale -> conv7_1_bn (in-place)
I0831 12:58:57.114897 24386 layer_factory.hpp:77] Creating layer conv7_1_bn_scale
I0831 12:58:57.115008 24386 net.cpp:150] Setting up conv7_1_bn_scale
I0831 12:58:57.115017 24386 net.cpp:157] Top shape: 64 128 13 13 (1384448)
I0831 12:58:57.115021 24386 net.cpp:165] Memory required for data: 860729344
I0831 12:58:57.115030 24386 layer_factory.hpp:77] Creating layer conv7_1_relu
I0831 12:58:57.115038 24386 net.cpp:100] Creating Layer conv7_1_relu
I0831 12:58:57.115042 24386 net.cpp:434] conv7_1_relu <- conv7_1_bn
I0831 12:58:57.115051 24386 net.cpp:395] conv7_1_relu -> conv7_1_bn (in-place)
I0831 12:58:57.115057 24386 net.cpp:150] Setting up conv7_1_relu
I0831 12:58:57.115063 24386 net.cpp:157] Top shape: 64 128 13 13 (1384448)
I0831 12:58:57.115068 24386 net.cpp:165] Memory required for data: 866267136
I0831 12:58:57.115072 24386 layer_factory.hpp:77] Creating layer score
I0831 12:58:57.115083 24386 net.cpp:100] Creating Layer score
I0831 12:58:57.115088 24386 net.cpp:434] score <- conv7_1_bn
I0831 12:58:57.115104 24386 net.cpp:408] score -> score
I0831 12:58:57.115365 24386 net.cpp:150] Setting up score
I0831 12:58:57.115375 24386 net.cpp:157] Top shape: 64 4 13 13 (43264)
I0831 12:58:57.115380 24386 net.cpp:165] Memory required for data: 866440192
I0831 12:58:57.115387 24386 layer_factory.hpp:77] Creating layer upscore
I0831 12:58:57.115401 24386 net.cpp:100] Creating Layer upscore
I0831 12:58:57.115406 24386 net.cpp:434] upscore <- score
I0831 12:58:57.115414 24386 net.cpp:408] upscore -> upscore
I0831 12:58:57.116019 24386 net.cpp:150] Setting up upscore
I0831 12:58:57.116036 24386 net.cpp:157] Top shape: 64 4 224 224 (12845056)
I0831 12:58:57.116041 24386 net.cpp:165] Memory required for data: 917820416
I0831 12:58:57.116049 24386 layer_factory.hpp:77] Creating layer cropscore
I0831 12:58:57.116057 24386 net.cpp:100] Creating Layer cropscore
I0831 12:58:57.116062 24386 net.cpp:434] cropscore <- upscore
I0831 12:58:57.116068 24386 net.cpp:434] cropscore <- image_data_0_split_1
I0831 12:58:57.116075 24386 net.cpp:408] cropscore -> cropscore
I0831 12:58:57.116102 24386 net.cpp:150] Setting up cropscore
I0831 12:58:57.116109 24386 net.cpp:157] Top shape: 64 4 200 200 (10240000)
I0831 12:58:57.116113 24386 net.cpp:165] Memory required for data: 958780416
I0831 12:58:57.116118 24386 layer_factory.hpp:77] Creating layer cropscore_cropscore_0_split
I0831 12:58:57.116125 24386 net.cpp:100] Creating Layer cropscore_cropscore_0_split
I0831 12:58:57.116130 24386 net.cpp:434] cropscore_cropscore_0_split <- cropscore
I0831 12:58:57.116135 24386 net.cpp:408] cropscore_cropscore_0_split -> cropscore_cropscore_0_split_0
I0831 12:58:57.116154 24386 net.cpp:408] cropscore_cropscore_0_split -> cropscore_cropscore_0_split_1
I0831 12:58:57.116201 24386 net.cpp:150] Setting up cropscore_cropscore_0_split
I0831 12:58:57.116210 24386 net.cpp:157] Top shape: 64 4 200 200 (10240000)
I0831 12:58:57.116215 24386 net.cpp:157] Top shape: 64 4 200 200 (10240000)
I0831 12:58:57.116220 24386 net.cpp:165] Memory required for data: 1040700416
I0831 12:58:57.116225 24386 layer_factory.hpp:77] Creating layer loss
I0831 12:58:57.116232 24386 net.cpp:100] Creating Layer loss
I0831 12:58:57.116236 24386 net.cpp:434] loss <- cropscore_cropscore_0_split_0
I0831 12:58:57.116242 24386 net.cpp:434] loss <- label_data_1_split_0
I0831 12:58:57.116248 24386 net.cpp:408] loss -> loss
…
