…
I0920 18:05:43.097843 14425 solver.cpp:91] Creating training net from net file: portrait_train_test_one_stage128.prototxt3
I0920 18:05:43.098345 14425 net.cpp:322] The NetState phase (0) differed from the phase (1) specified by a rule in layer data
I0920 18:05:43.098500 14425 net.cpp:58] Initializing net from parameters: 
name: "segmentation"
state {
  phase: TRAIN
  level: 0
  stage: ""
}
layer {
  name: "data"
  type: "SegData"
  top: "image"
  top: "label"
  include {
    phase: TRAIN
  }
  transform_param {
    mirror: true
    crop_size: 128
  }
  data_param {
    source: "/raid/xuehan/segmentation128_train_split"
    batch_size: 256
    backend: LMDB
  }
}
layer {
  name: "conv1_1"
  type: "Convolution"
  bottom: "image"
  top: "conv1_1"
  param {
    lr_mult: 1
    decay_mult: 1
  }
  convolution_param {
    num_output: 8
    bias_term: false
    pad: 1
    kernel_size: 3
    stride: 1
    weight_filler {
      type: "gaussian"
      std: 0.01
    }
  }
}
layer {
  name: "pool1"
  type: "Pooling"
  bottom: "conv1_1"
  top: "pool1"
  pooling_param {
    pool: MAX
    kernel_size: 2
    stride: 2
  }
}
layer {
  name: "conv1_1_bn"
  type: "BatchNorm"
  bottom: "pool1"
  top: "conv1_1_bn"
  param {
    lr_mult: 0
  }
  param {
    lr_mult: 0
  }
  param {
    lr_mult: 0
  }
}
layer {
  name: "conv1_1_bn_scale"
  type: "Scale"
  bottom: "conv1_1_bn"
  top: "conv1_1_bn"
  scale_param {
    bias_term: true
  }
}
layer {
  name: "conv1_1_relu"
  type: "ReLU"
  bottom: "conv1_1_bn"
  top: "conv1_1_bn"
}
layer {
  name: "conv2_1"
  type: "Convolution"
  bottom: "conv1_1_bn"
  top: "conv2_1"
  param {
    lr_mult: 1
    decay_mult: 1
  }
  convolution_param {
    num_output: 16
    bias_term: false
    pad: 1
    kernel_size: 3
    stride: 1
    weight_filler {
      type: "gaussian"
      std: 0.01
    }
  }
}
layer {
  name: "pool2"
  type: "Pooling"
  bottom: "conv2_1"
  top: "pool2"
  pooling_param {
    pool: MAX
    kernel_size: 2
    stride: 2
  }
}
layer {
  name: "conv2_1_bn"
  type: "BatchNorm"
  bottom: "pool2"
  top: "conv2_1_bn"
  param {
    lr_mult: 0
  }
  param {
    lr_mult: 0
  }
  param {
    lr_mult: 0
  }
}
layer {
  name: "conv2_1_bn_scale"
  type: "Scale"
  bottom: "conv2_1_bn"
  top: "conv2_1_bn"
  scale_param {
    bias_term: true
  }
}
layer {
  name: "conv2_1_relu"
  type: "ReLU"
  bottom: "conv2_1_bn"
  top: "conv2_1_bn"
}
layer {
  name: "conv3_1"
  type: "Convolution"
  bottom: "conv2_1_bn"
  top: "conv3_1"
  param {
    lr_mult: 1
    decay_mult: 1
  }
  convolution_param {
    num_output: 32
    bias_term: false
    pad: 1
    kernel_size: 3
    stride: 1
    weight_filler {
      type: "gaussian"
      std: 0.01
    }
  }
}
layer {
  name: "pool3"
  type: "Pooling"
  bottom: "conv3_1"
  top: "pool3"
  pooling_param {
    pool: MAX
    kernel_size: 2
    stride: 2
  }
}
layer {
  name: "conv3_1_bn"
  type: "BatchNorm"
  bottom: "pool3"
  top: "conv3_1_bn"
  param {
    lr_mult: 0
  }
  param {
    lr_mult: 0
  }
  param {
    lr_mult: 0
  }
}
layer {
  name: "conv3_1_bn_scale"
  type: "Scale"
  bottom: "conv3_1_bn"
  top: "conv3_1_bn"
  scale_param {
    bias_term: true
  }
}
layer {
  name: "conv3_1_relu"
  type: "ReLU"
  bottom: "conv3_1_bn"
  top: "conv3_1_bn"
}
layer {
  name: "conv5_1"
  type: "Convolution"
  bottom: "conv3_1_bn"
  top: "conv5_1"
  param {
    lr_mult: 1
    decay_mult: 1
  }
  convolution_param {
    num_output: 64
    bias_term: false
    pad: 1
    kernel_size: 3
    stride: 1
    weight_filler {
      type: "gaussian"
      std: 0.01
    }
  }
}
layer {
  name: "conv5_1_bn"
  type: "BatchNorm"
  bottom: "conv5_1"
  top: "conv5_1_bn"
  param {
    lr_mult: 0
  }
  param {
    lr_mult: 0
  }
  param {
    lr_mult: 0
  }
}
layer {
  name: "conv5_1_bn_scale"
  type: "Scale"
  bottom: "conv5_1_bn"
  top: "conv5_1_bn"
  scale_param {
    bias_term: true
  }
}
layer {
  name: "conv5_1_relu"
  type: "ReLU"
  bottom: "conv5_1_bn"
  top: "conv5_1_bn"
}
layer {
  name: "conv6_1"
  type: "Convolution"
  bottom: "conv5_1_bn"
  top: "conv6_1"
  param {
    lr_mult: 1
    decay_mult: 1
  }
  convolution_param {
    num_output: 64
    bias_term: false
    pad: 1
    kernel_size: 3
    stride: 1
    weight_filler {
      type: "gaussian"
      std: 0.01
    }
  }
}
layer {
  name: "conv6_1_bn"
  type: "BatchNorm"
  bottom: "conv6_1"
  top: "conv6_1_bn"
  param {
    lr_mult: 0
  }
  param {
    lr_mult: 0
  }
  param {
    lr_mult: 0
  }
}
layer {
  name: "conv6_1_bn_scale"
  type: "Scale"
  bottom: "conv6_1_bn"
  top: "conv6_1_bn"
  scale_param {
    bias_term: true
  }
}
layer {
  name: "conv6_1_relu"
  type: "ReLU"
  bottom: "conv6_1_bn"
  top: "conv6_1_bn"
}
layer {
  name: "conv7_1"
  type: "Convolution"
  bottom: "conv6_1_bn"
  top: "conv7_1"
  param {
    lr_mult: 1
    decay_mult: 1
  }
  convolution_param {
    num_output: 128
    bias_term: false
    pad: 1
    kernel_size: 3
    stride: 1
    weight_filler {
      type: "gaussian"
      std: 0.01
    }
  }
}
layer {
  name: "conv7_1_bn"
  type: "BatchNorm"
  bottom: "conv7_1"
  top: "conv7_1_bn"
  param {
    lr_mult: 0
  }
  param {
    lr_mult: 0
  }
  param {
    lr_mult: 0
  }
}
layer {
  name: "conv7_1_bn_scale"
  type: "Scale"
  bottom: "conv7_1_bn"
  top: "conv7_1_bn"
  scale_param {
    bias_term: true
  }
}
layer {
  name: "conv7_1_relu"
  type: "ReLU"
  bottom: "conv7_1_bn"
  top: "conv7_1_bn"
}
layer {
  name: "score"
  type: "Convolution"
  bottom: "conv7_1_bn"
  top: "score"
  param {
    lr_mult: 1
    decay_mult: 1
  }
  param {
    lr_mult: 2
    decay_mult: 0
  }
  convolution_param {
    num_output: 4
    pad: 0
    kernel_size: 1
    stride: 1
    weight_filler {
      type: "gaussian"
      std: 0.01
    }
    bias_filler {
      type: "constant"
    }
  }
}
layer {
  name: "upscore"
  type: "Deconvolution"
  bottom: "score"
  top: "upscore"
  param {
    lr_mult: 1
    decay_mult: 1
  }
  convolution_param {
    num_output: 4
    bias_term: false
    pad: 0
    kernel_size: 16
    stride: 8
    weight_filler {
      type: "gaussian"
      std: 0.01
    }
  }
}
layer {
  name: "cropscore"
  type: "Crop"
  bottom: "upscore"
  bottom: "image"
  top: "cropscore"
  crop_param {
    axis: 2
    offset: 8
  }
}
layer {
  name: "loss"
  type: "SoftmaxWithLoss"
  bottom: "cropscore"
  bottom: "label"
  top: "loss"
  loss_weight: 1
  loss_param {
    normalize: false
  }
}
layer {
  name: "accuracy"
  type: "Accuracy"
  bottom: "cropscore"
  bottom: "label"
  top: "accuracy"
}
I0920 18:05:43.098642 14425 layer_factory.hpp:77] Creating layer data
I0920 18:05:43.099141 14425 net.cpp:100] Creating Layer data
I0920 18:05:43.099151 14425 net.cpp:408] data -> image
I0920 18:05:43.099167 14425 net.cpp:408] data -> label
I0920 18:05:43.100098 14429 db_lmdb.cpp:35] Opened lmdb /raid/xuehan/segmentation128_train_split
I0920 18:05:43.100229 14425 seg_data_layer.cpp:38] 128 128 4
I0920 18:05:43.107728 14425 seg_data_layer.cpp:51] output data size: 256,3,128,128
I0920 18:05:43.107789 14425 seg_data_layer.cpp:63] output label size: 256,1,128,128
I0920 18:05:43.204828 14425 net.cpp:150] Setting up data
I0920 18:05:43.204856 14425 net.cpp:157] Top shape: 256 3 128 128 (12582912)
I0920 18:05:43.204861 14425 net.cpp:157] Top shape: 256 1 128 128 (4194304)
I0920 18:05:43.204864 14425 net.cpp:165] Memory required for data: 67108864
I0920 18:05:43.204874 14425 layer_factory.hpp:77] Creating layer image_data_0_split
I0920 18:05:43.204885 14425 net.cpp:100] Creating Layer image_data_0_split
I0920 18:05:43.204890 14425 net.cpp:434] image_data_0_split <- image
I0920 18:05:43.204905 14425 net.cpp:408] image_data_0_split -> image_data_0_split_0
I0920 18:05:43.204921 14425 net.cpp:408] image_data_0_split -> image_data_0_split_1
I0920 18:05:43.204972 14425 net.cpp:150] Setting up image_data_0_split
I0920 18:05:43.204977 14425 net.cpp:157] Top shape: 256 3 128 128 (12582912)
I0920 18:05:43.204980 14425 net.cpp:157] Top shape: 256 3 128 128 (12582912)
I0920 18:05:43.204983 14425 net.cpp:165] Memory required for data: 167772160
I0920 18:05:43.204987 14425 layer_factory.hpp:77] Creating layer label_data_1_split
I0920 18:05:43.204991 14425 net.cpp:100] Creating Layer label_data_1_split
I0920 18:05:43.204994 14425 net.cpp:434] label_data_1_split <- label
I0920 18:05:43.204998 14425 net.cpp:408] label_data_1_split -> label_data_1_split_0
I0920 18:05:43.205003 14425 net.cpp:408] label_data_1_split -> label_data_1_split_1
I0920 18:05:43.205024 14425 net.cpp:150] Setting up label_data_1_split
I0920 18:05:43.205030 14425 net.cpp:157] Top shape: 256 1 128 128 (4194304)
I0920 18:05:43.205034 14425 net.cpp:157] Top shape: 256 1 128 128 (4194304)
I0920 18:05:43.205036 14425 net.cpp:165] Memory required for data: 201326592
I0920 18:05:43.205039 14425 layer_factory.hpp:77] Creating layer conv1_1
I0920 18:05:43.205051 14425 net.cpp:100] Creating Layer conv1_1
I0920 18:05:43.205054 14425 net.cpp:434] conv1_1 <- image_data_0_split_0
I0920 18:05:43.205060 14425 net.cpp:408] conv1_1 -> conv1_1
I0920 18:05:43.205211 14425 net.cpp:150] Setting up conv1_1
I0920 18:05:43.205217 14425 net.cpp:157] Top shape: 256 8 128 128 (33554432)
I0920 18:05:43.205220 14425 net.cpp:165] Memory required for data: 335544320
I0920 18:05:43.205230 14425 layer_factory.hpp:77] Creating layer pool1
I0920 18:05:43.205237 14425 net.cpp:100] Creating Layer pool1
I0920 18:05:43.205241 14425 net.cpp:434] pool1 <- conv1_1
I0920 18:05:43.205245 14425 net.cpp:408] pool1 -> pool1
I0920 18:05:43.205274 14425 net.cpp:150] Setting up pool1
I0920 18:05:43.205281 14425 net.cpp:157] Top shape: 256 8 64 64 (8388608)
I0920 18:05:43.205282 14425 net.cpp:165] Memory required for data: 369098752
I0920 18:05:43.205286 14425 layer_factory.hpp:77] Creating layer conv1_1_bn
I0920 18:05:43.205291 14425 net.cpp:100] Creating Layer conv1_1_bn
I0920 18:05:43.205293 14425 net.cpp:434] conv1_1_bn <- pool1
I0920 18:05:43.205298 14425 net.cpp:408] conv1_1_bn -> conv1_1_bn
I0920 18:05:43.205870 14425 net.cpp:150] Setting up conv1_1_bn
I0920 18:05:43.205881 14425 net.cpp:157] Top shape: 256 8 64 64 (8388608)
I0920 18:05:43.205883 14425 net.cpp:165] Memory required for data: 402653184
I0920 18:05:43.205893 14425 layer_factory.hpp:77] Creating layer conv1_1_bn_scale
I0920 18:05:43.205900 14425 net.cpp:100] Creating Layer conv1_1_bn_scale
I0920 18:05:43.205904 14425 net.cpp:434] conv1_1_bn_scale <- conv1_1_bn
I0920 18:05:43.205907 14425 net.cpp:395] conv1_1_bn_scale -> conv1_1_bn (in-place)
I0920 18:05:43.205938 14425 layer_factory.hpp:77] Creating layer conv1_1_bn_scale
I0920 18:05:43.206018 14425 net.cpp:150] Setting up conv1_1_bn_scale
I0920 18:05:43.206025 14425 net.cpp:157] Top shape: 256 8 64 64 (8388608)
I0920 18:05:43.206027 14425 net.cpp:165] Memory required for data: 436207616
I0920 18:05:43.206034 14425 layer_factory.hpp:77] Creating layer conv1_1_relu
I0920 18:05:43.206042 14425 net.cpp:100] Creating Layer conv1_1_relu
I0920 18:05:43.206045 14425 net.cpp:434] conv1_1_relu <- conv1_1_bn
I0920 18:05:43.206048 14425 net.cpp:395] conv1_1_relu -> conv1_1_bn (in-place)
I0920 18:05:43.206053 14425 net.cpp:150] Setting up conv1_1_relu
I0920 18:05:43.206058 14425 net.cpp:157] Top shape: 256 8 64 64 (8388608)
I0920 18:05:43.206059 14425 net.cpp:165] Memory required for data: 469762048
I0920 18:05:43.206063 14425 layer_factory.hpp:77] Creating layer conv2_1
I0920 18:05:43.206070 14425 net.cpp:100] Creating Layer conv2_1
I0920 18:05:43.206073 14425 net.cpp:434] conv2_1 <- conv1_1_bn
I0920 18:05:43.206077 14425 net.cpp:408] conv2_1 -> conv2_1
I0920 18:05:43.211787 14425 net.cpp:150] Setting up conv2_1
I0920 18:05:43.211798 14425 net.cpp:157] Top shape: 256 16 64 64 (16777216)
I0920 18:05:43.211802 14425 net.cpp:165] Memory required for data: 536870912
I0920 18:05:43.211810 14425 layer_factory.hpp:77] Creating layer pool2
I0920 18:05:43.211822 14425 net.cpp:100] Creating Layer pool2
I0920 18:05:43.211824 14425 net.cpp:434] pool2 <- conv2_1
I0920 18:05:43.211829 14425 net.cpp:408] pool2 -> pool2
I0920 18:05:43.211853 14425 net.cpp:150] Setting up pool2
I0920 18:05:43.211858 14425 net.cpp:157] Top shape: 256 16 32 32 (4194304)
I0920 18:05:43.211861 14425 net.cpp:165] Memory required for data: 553648128
I0920 18:05:43.211864 14425 layer_factory.hpp:77] Creating layer conv2_1_bn
I0920 18:05:43.211869 14425 net.cpp:100] Creating Layer conv2_1_bn
I0920 18:05:43.211871 14425 net.cpp:434] conv2_1_bn <- pool2
I0920 18:05:43.211876 14425 net.cpp:408] conv2_1_bn -> conv2_1_bn
I0920 18:05:43.212440 14425 net.cpp:150] Setting up conv2_1_bn
I0920 18:05:43.212450 14425 net.cpp:157] Top shape: 256 16 32 32 (4194304)
I0920 18:05:43.212453 14425 net.cpp:165] Memory required for data: 570425344
I0920 18:05:43.212462 14425 layer_factory.hpp:77] Creating layer conv2_1_bn_scale
I0920 18:05:43.212468 14425 net.cpp:100] Creating Layer conv2_1_bn_scale
I0920 18:05:43.212471 14425 net.cpp:434] conv2_1_bn_scale <- conv2_1_bn
I0920 18:05:43.212477 14425 net.cpp:395] conv2_1_bn_scale -> conv2_1_bn (in-place)
I0920 18:05:43.212503 14425 layer_factory.hpp:77] Creating layer conv2_1_bn_scale
I0920 18:05:43.212574 14425 net.cpp:150] Setting up conv2_1_bn_scale
I0920 18:05:43.212580 14425 net.cpp:157] Top shape: 256 16 32 32 (4194304)
I0920 18:05:43.212584 14425 net.cpp:165] Memory required for data: 587202560
I0920 18:05:43.212589 14425 layer_factory.hpp:77] Creating layer conv2_1_relu
I0920 18:05:43.212594 14425 net.cpp:100] Creating Layer conv2_1_relu
I0920 18:05:43.212597 14425 net.cpp:434] conv2_1_relu <- conv2_1_bn
I0920 18:05:43.212601 14425 net.cpp:395] conv2_1_relu -> conv2_1_bn (in-place)
I0920 18:05:43.212605 14425 net.cpp:150] Setting up conv2_1_relu
I0920 18:05:43.212610 14425 net.cpp:157] Top shape: 256 16 32 32 (4194304)
I0920 18:05:43.212611 14425 net.cpp:165] Memory required for data: 603979776
I0920 18:05:43.212615 14425 layer_factory.hpp:77] Creating layer conv3_1
I0920 18:05:43.212622 14425 net.cpp:100] Creating Layer conv3_1
I0920 18:05:43.212625 14425 net.cpp:434] conv3_1 <- conv2_1_bn
I0920 18:05:43.212630 14425 net.cpp:408] conv3_1 -> conv3_1
I0920 18:05:43.213273 14425 net.cpp:150] Setting up conv3_1
I0920 18:05:43.213282 14425 net.cpp:157] Top shape: 256 32 32 32 (8388608)
I0920 18:05:43.213284 14425 net.cpp:165] Memory required for data: 637534208
I0920 18:05:43.213289 14425 layer_factory.hpp:77] Creating layer pool3
I0920 18:05:43.213295 14425 net.cpp:100] Creating Layer pool3
I0920 18:05:43.213299 14425 net.cpp:434] pool3 <- conv3_1
I0920 18:05:43.213304 14425 net.cpp:408] pool3 -> pool3
I0920 18:05:43.213328 14425 net.cpp:150] Setting up pool3
I0920 18:05:43.213333 14425 net.cpp:157] Top shape: 256 32 16 16 (2097152)
I0920 18:05:43.213335 14425 net.cpp:165] Memory required for data: 645922816
I0920 18:05:43.213338 14425 layer_factory.hpp:77] Creating layer conv3_1_bn
I0920 18:05:43.213345 14425 net.cpp:100] Creating Layer conv3_1_bn
I0920 18:05:43.213347 14425 net.cpp:434] conv3_1_bn <- pool3
I0920 18:05:43.213352 14425 net.cpp:408] conv3_1_bn -> conv3_1_bn
I0920 18:05:43.213476 14425 net.cpp:150] Setting up conv3_1_bn
I0920 18:05:43.213481 14425 net.cpp:157] Top shape: 256 32 16 16 (2097152)
I0920 18:05:43.213485 14425 net.cpp:165] Memory required for data: 654311424
I0920 18:05:43.213490 14425 layer_factory.hpp:77] Creating layer conv3_1_bn_scale
I0920 18:05:43.213496 14425 net.cpp:100] Creating Layer conv3_1_bn_scale
I0920 18:05:43.213500 14425 net.cpp:434] conv3_1_bn_scale <- conv3_1_bn
I0920 18:05:43.213505 14425 net.cpp:395] conv3_1_bn_scale -> conv3_1_bn (in-place)
I0920 18:05:43.213531 14425 layer_factory.hpp:77] Creating layer conv3_1_bn_scale
I0920 18:05:43.213603 14425 net.cpp:150] Setting up conv3_1_bn_scale
I0920 18:05:43.213608 14425 net.cpp:157] Top shape: 256 32 16 16 (2097152)
I0920 18:05:43.213610 14425 net.cpp:165] Memory required for data: 662700032
I0920 18:05:43.213624 14425 layer_factory.hpp:77] Creating layer conv3_1_relu
I0920 18:05:43.213634 14425 net.cpp:100] Creating Layer conv3_1_relu
I0920 18:05:43.213639 14425 net.cpp:434] conv3_1_relu <- conv3_1_bn
I0920 18:05:43.213641 14425 net.cpp:395] conv3_1_relu -> conv3_1_bn (in-place)
I0920 18:05:43.213646 14425 net.cpp:150] Setting up conv3_1_relu
I0920 18:05:43.213650 14425 net.cpp:157] Top shape: 256 32 16 16 (2097152)
I0920 18:05:43.213652 14425 net.cpp:165] Memory required for data: 671088640
I0920 18:05:43.213655 14425 layer_factory.hpp:77] Creating layer conv5_1
I0920 18:05:43.213663 14425 net.cpp:100] Creating Layer conv5_1
I0920 18:05:43.213666 14425 net.cpp:434] conv5_1 <- conv3_1_bn
I0920 18:05:43.213671 14425 net.cpp:408] conv5_1 -> conv5_1
I0920 18:05:43.214633 14425 net.cpp:150] Setting up conv5_1
I0920 18:05:43.214644 14425 net.cpp:157] Top shape: 256 64 16 16 (4194304)
I0920 18:05:43.214648 14425 net.cpp:165] Memory required for data: 687865856
I0920 18:05:43.214651 14425 layer_factory.hpp:77] Creating layer conv5_1_bn
I0920 18:05:43.214659 14425 net.cpp:100] Creating Layer conv5_1_bn
I0920 18:05:43.214663 14425 net.cpp:434] conv5_1_bn <- conv5_1
I0920 18:05:43.214666 14425 net.cpp:408] conv5_1_bn -> conv5_1_bn
I0920 18:05:43.214798 14425 net.cpp:150] Setting up conv5_1_bn
I0920 18:05:43.214804 14425 net.cpp:157] Top shape: 256 64 16 16 (4194304)
I0920 18:05:43.214807 14425 net.cpp:165] Memory required for data: 704643072
I0920 18:05:43.214812 14425 layer_factory.hpp:77] Creating layer conv5_1_bn_scale
I0920 18:05:43.214818 14425 net.cpp:100] Creating Layer conv5_1_bn_scale
I0920 18:05:43.214821 14425 net.cpp:434] conv5_1_bn_scale <- conv5_1_bn
I0920 18:05:43.214824 14425 net.cpp:395] conv5_1_bn_scale -> conv5_1_bn (in-place)
I0920 18:05:43.214851 14425 layer_factory.hpp:77] Creating layer conv5_1_bn_scale
I0920 18:05:43.214928 14425 net.cpp:150] Setting up conv5_1_bn_scale
I0920 18:05:43.214934 14425 net.cpp:157] Top shape: 256 64 16 16 (4194304)
I0920 18:05:43.214937 14425 net.cpp:165] Memory required for data: 721420288
I0920 18:05:43.214942 14425 layer_factory.hpp:77] Creating layer conv5_1_relu
I0920 18:05:43.214947 14425 net.cpp:100] Creating Layer conv5_1_relu
I0920 18:05:43.214949 14425 net.cpp:434] conv5_1_relu <- conv5_1_bn
I0920 18:05:43.214956 14425 net.cpp:395] conv5_1_relu -> conv5_1_bn (in-place)
I0920 18:05:43.214959 14425 net.cpp:150] Setting up conv5_1_relu
I0920 18:05:43.214963 14425 net.cpp:157] Top shape: 256 64 16 16 (4194304)
I0920 18:05:43.214967 14425 net.cpp:165] Memory required for data: 738197504
I0920 18:05:43.214968 14425 layer_factory.hpp:77] Creating layer conv6_1
I0920 18:05:43.214977 14425 net.cpp:100] Creating Layer conv6_1
I0920 18:05:43.214979 14425 net.cpp:434] conv6_1 <- conv5_1_bn
I0920 18:05:43.214983 14425 net.cpp:408] conv6_1 -> conv6_1
I0920 18:05:43.215895 14425 net.cpp:150] Setting up conv6_1
I0920 18:05:43.215903 14425 net.cpp:157] Top shape: 256 64 16 16 (4194304)
I0920 18:05:43.215904 14425 net.cpp:165] Memory required for data: 754974720
I0920 18:05:43.215909 14425 layer_factory.hpp:77] Creating layer conv6_1_bn
I0920 18:05:43.215915 14425 net.cpp:100] Creating Layer conv6_1_bn
I0920 18:05:43.215919 14425 net.cpp:434] conv6_1_bn <- conv6_1
I0920 18:05:43.215922 14425 net.cpp:408] conv6_1_bn -> conv6_1_bn
I0920 18:05:43.216060 14425 net.cpp:150] Setting up conv6_1_bn
I0920 18:05:43.216068 14425 net.cpp:157] Top shape: 256 64 16 16 (4194304)
I0920 18:05:43.216070 14425 net.cpp:165] Memory required for data: 771751936
I0920 18:05:43.216076 14425 layer_factory.hpp:77] Creating layer conv6_1_bn_scale
I0920 18:05:43.216083 14425 net.cpp:100] Creating Layer conv6_1_bn_scale
I0920 18:05:43.216085 14425 net.cpp:434] conv6_1_bn_scale <- conv6_1_bn
I0920 18:05:43.216089 14425 net.cpp:395] conv6_1_bn_scale -> conv6_1_bn (in-place)
I0920 18:05:43.216115 14425 layer_factory.hpp:77] Creating layer conv6_1_bn_scale
I0920 18:05:43.216187 14425 net.cpp:150] Setting up conv6_1_bn_scale
I0920 18:05:43.216192 14425 net.cpp:157] Top shape: 256 64 16 16 (4194304)
I0920 18:05:43.216198 14425 net.cpp:165] Memory required for data: 788529152
I0920 18:05:43.216209 14425 layer_factory.hpp:77] Creating layer conv6_1_relu
I0920 18:05:43.216217 14425 net.cpp:100] Creating Layer conv6_1_relu
I0920 18:05:43.216219 14425 net.cpp:434] conv6_1_relu <- conv6_1_bn
I0920 18:05:43.216223 14425 net.cpp:395] conv6_1_relu -> conv6_1_bn (in-place)
I0920 18:05:43.216228 14425 net.cpp:150] Setting up conv6_1_relu
I0920 18:05:43.216230 14425 net.cpp:157] Top shape: 256 64 16 16 (4194304)
I0920 18:05:43.216233 14425 net.cpp:165] Memory required for data: 805306368
I0920 18:05:43.216236 14425 layer_factory.hpp:77] Creating layer conv7_1
I0920 18:05:43.216244 14425 net.cpp:100] Creating Layer conv7_1
I0920 18:05:43.216248 14425 net.cpp:434] conv7_1 <- conv6_1_bn
I0920 18:05:43.216253 14425 net.cpp:408] conv7_1 -> conv7_1
I0920 18:05:43.218446 14425 net.cpp:150] Setting up conv7_1
I0920 18:05:43.218458 14425 net.cpp:157] Top shape: 256 128 16 16 (8388608)
I0920 18:05:43.218461 14425 net.cpp:165] Memory required for data: 838860800
I0920 18:05:43.218466 14425 layer_factory.hpp:77] Creating layer conv7_1_bn
I0920 18:05:43.218472 14425 net.cpp:100] Creating Layer conv7_1_bn
I0920 18:05:43.218477 14425 net.cpp:434] conv7_1_bn <- conv7_1
I0920 18:05:43.218482 14425 net.cpp:408] conv7_1_bn -> conv7_1_bn
I0920 18:05:43.218606 14425 net.cpp:150] Setting up conv7_1_bn
I0920 18:05:43.218612 14425 net.cpp:157] Top shape: 256 128 16 16 (8388608)
I0920 18:05:43.218616 14425 net.cpp:165] Memory required for data: 872415232
I0920 18:05:43.218628 14425 layer_factory.hpp:77] Creating layer conv7_1_bn_scale
I0920 18:05:43.218634 14425 net.cpp:100] Creating Layer conv7_1_bn_scale
I0920 18:05:43.218637 14425 net.cpp:434] conv7_1_bn_scale <- conv7_1_bn
I0920 18:05:43.218641 14425 net.cpp:395] conv7_1_bn_scale -> conv7_1_bn (in-place)
I0920 18:05:43.218667 14425 layer_factory.hpp:77] Creating layer conv7_1_bn_scale
I0920 18:05:43.218734 14425 net.cpp:150] Setting up conv7_1_bn_scale
I0920 18:05:43.218739 14425 net.cpp:157] Top shape: 256 128 16 16 (8388608)
I0920 18:05:43.218741 14425 net.cpp:165] Memory required for data: 905969664
I0920 18:05:43.218746 14425 layer_factory.hpp:77] Creating layer conv7_1_relu
I0920 18:05:43.218750 14425 net.cpp:100] Creating Layer conv7_1_relu
I0920 18:05:43.218753 14425 net.cpp:434] conv7_1_relu <- conv7_1_bn
I0920 18:05:43.218758 14425 net.cpp:395] conv7_1_relu -> conv7_1_bn (in-place)
I0920 18:05:43.218763 14425 net.cpp:150] Setting up conv7_1_relu
I0920 18:05:43.218767 14425 net.cpp:157] Top shape: 256 128 16 16 (8388608)
I0920 18:05:43.218770 14425 net.cpp:165] Memory required for data: 939524096
I0920 18:05:43.218772 14425 layer_factory.hpp:77] Creating layer score
I0920 18:05:43.218780 14425 net.cpp:100] Creating Layer score
I0920 18:05:43.218783 14425 net.cpp:434] score <- conv7_1_bn
I0920 18:05:43.218787 14425 net.cpp:408] score -> score
I0920 18:05:43.218946 14425 net.cpp:150] Setting up score
I0920 18:05:43.218953 14425 net.cpp:157] Top shape: 256 4 16 16 (262144)
I0920 18:05:43.218955 14425 net.cpp:165] Memory required for data: 940572672
I0920 18:05:43.218961 14425 layer_factory.hpp:77] Creating layer upscore
I0920 18:05:43.218968 14425 net.cpp:100] Creating Layer upscore
I0920 18:05:43.218971 14425 net.cpp:434] upscore <- score
I0920 18:05:43.218976 14425 net.cpp:408] upscore -> upscore
I0920 18:05:43.219194 14425 net.cpp:150] Setting up upscore
I0920 18:05:43.219202 14425 net.cpp:157] Top shape: 256 4 136 136 (18939904)
I0920 18:05:43.219204 14425 net.cpp:165] Memory required for data: 1016332288
I0920 18:05:43.219208 14425 layer_factory.hpp:77] Creating layer cropscore
I0920 18:05:43.219218 14425 net.cpp:100] Creating Layer cropscore
I0920 18:05:43.219220 14425 net.cpp:434] cropscore <- upscore
I0920 18:05:43.219224 14425 net.cpp:434] cropscore <- image_data_0_split_1
I0920 18:05:43.219228 14425 net.cpp:408] cropscore -> cropscore
I0920 18:05:43.219249 14425 net.cpp:150] Setting up cropscore
I0920 18:05:43.219254 14425 net.cpp:157] Top shape: 256 4 128 128 (16777216)
I0920 18:05:43.219261 14425 net.cpp:165] Memory required for data: 1083441152
I0920 18:05:43.219270 14425 layer_factory.hpp:77] Creating layer cropscore_cropscore_0_split
I0920 18:05:43.219275 14425 net.cpp:100] Creating Layer cropscore_cropscore_0_split
I0920 18:05:43.219279 14425 net.cpp:434] cropscore_cropscore_0_split <- cropscore
I0920 18:05:43.219282 14425 net.cpp:408] cropscore_cropscore_0_split -> cropscore_cropscore_0_split_0
I0920 18:05:43.219287 14425 net.cpp:408] cropscore_cropscore_0_split -> cropscore_cropscore_0_split_1
I0920 18:05:43.219313 14425 net.cpp:150] Setting up cropscore_cropscore_0_split
I0920 18:05:43.219317 14425 net.cpp:157] Top shape: 256 4 128 128 (16777216)
I0920 18:05:43.219321 14425 net.cpp:157] Top shape: 256 4 128 128 (16777216)
I0920 18:05:43.219323 14425 net.cpp:165] Memory required for data: 1217658880
I0920 18:05:43.219326 14425 layer_factory.hpp:77] Creating layer loss
I0920 18:05:43.219332 14425 net.cpp:100] Creating Layer loss
I0920 18:05:43.219336 14425 net.cpp:434] loss <- cropscore_cropscore_0_split_0
I0920 18:05:43.219338 14425 net.cpp:434] loss <- label_data_1_split_0
I0920 18:05:43.219343 14425 net.cpp:408] loss -> loss
…
