…
I0919 17:39:41.696712 15769 solver.cpp:91] Creating training net from net file: portrait_train_test_one_stage128.prototxt
I0919 17:39:41.697520 15769 net.cpp:322] The NetState phase (0) differed from the phase (1) specified by a rule in layer data
I0919 17:39:41.697772 15769 net.cpp:58] Initializing net from parameters: 
name: "segmentation"
state {
  phase: TRAIN
  level: 0
  stage: ""
}
layer {
  name: "data"
  type: "SegData"
  top: "image"
  top: "label"
  include {
    phase: TRAIN
  }
  transform_param {
    mirror: true
    crop_size: 128
  }
  data_param {
    source: "/raid/xuehan/segmentation128_train_split"
    batch_size: 256
    backend: LMDB
  }
}
layer {
  name: "conv1_1"
  type: "Convolution"
  bottom: "image"
  top: "conv1_1"
  param {
    lr_mult: 1
    decay_mult: 1
  }
  convolution_param {
    num_output: 8
    bias_term: false
    pad: 30
    kernel_size: 3
    stride: 1
    weight_filler {
      type: "gaussian"
      std: 0.01
    }
  }
}
layer {
  name: "pool1"
  type: "Pooling"
  bottom: "conv1_1"
  top: "pool1"
  pooling_param {
    pool: MAX
    kernel_size: 2
    stride: 2
  }
}
layer {
  name: "conv1_1_bn"
  type: "BatchNorm"
  bottom: "pool1"
  top: "conv1_1_bn"
  param {
    lr_mult: 0
  }
  param {
    lr_mult: 0
  }
  param {
    lr_mult: 0
  }
}
layer {
  name: "conv1_1_bn_scale"
  type: "Scale"
  bottom: "conv1_1_bn"
  top: "conv1_1_bn"
  scale_param {
    bias_term: true
  }
}
layer {
  name: "conv1_1_relu"
  type: "ReLU"
  bottom: "conv1_1_bn"
  top: "conv1_1_bn"
}
layer {
  name: "conv2_1"
  type: "Convolution"
  bottom: "conv1_1_bn"
  top: "conv2_1"
  param {
    lr_mult: 1
    decay_mult: 1
  }
  convolution_param {
    num_output: 16
    bias_term: false
    pad: 1
    kernel_size: 3
    stride: 1
    weight_filler {
      type: "gaussian"
      std: 0.01
    }
  }
}
layer {
  name: "pool2"
  type: "Pooling"
  bottom: "conv2_1"
  top: "pool2"
  pooling_param {
    pool: MAX
    kernel_size: 2
    stride: 2
  }
}
layer {
  name: "conv2_1_bn"
  type: "BatchNorm"
  bottom: "pool2"
  top: "conv2_1_bn"
  param {
    lr_mult: 0
  }
  param {
    lr_mult: 0
  }
  param {
    lr_mult: 0
  }
}
layer {
  name: "conv2_1_bn_scale"
  type: "Scale"
  bottom: "conv2_1_bn"
  top: "conv2_1_bn"
  scale_param {
    bias_term: true
  }
}
layer {
  name: "conv2_1_relu"
  type: "ReLU"
  bottom: "conv2_1_bn"
  top: "conv2_1_bn"
}
layer {
  name: "conv3_1"
  type: "Convolution"
  bottom: "conv2_1_bn"
  top: "conv3_1"
  param {
    lr_mult: 1
    decay_mult: 1
  }
  convolution_param {
    num_output: 32
    bias_term: false
    pad: 1
    kernel_size: 3
    stride: 1
    weight_filler {
      type: "gaussian"
      std: 0.01
    }
  }
}
layer {
  name: "pool3"
  type: "Pooling"
  bottom: "conv3_1"
  top: "pool3"
  pooling_param {
    pool: MAX
    kernel_size: 2
    stride: 2
  }
}
layer {
  name: "conv3_1_bn"
  type: "BatchNorm"
  bottom: "pool3"
  top: "conv3_1_bn"
  param {
    lr_mult: 0
  }
  param {
    lr_mult: 0
  }
  param {
    lr_mult: 0
  }
}
layer {
  name: "conv3_1_bn_scale"
  type: "Scale"
  bottom: "conv3_1_bn"
  top: "conv3_1_bn"
  scale_param {
    bias_term: true
  }
}
layer {
  name: "conv3_1_relu"
  type: "ReLU"
  bottom: "conv3_1_bn"
  top: "conv3_1_bn"
}
layer {
  name: "conv5_1"
  type: "Convolution"
  bottom: "conv3_1_bn"
  top: "conv5_1"
  param {
    lr_mult: 1
    decay_mult: 1
  }
  convolution_param {
    num_output: 64
    bias_term: false
    pad: 0
    kernel_size: 3
    stride: 1
    weight_filler {
      type: "gaussian"
      std: 0.01
    }
  }
}
layer {
  name: "conv5_1_bn"
  type: "BatchNorm"
  bottom: "conv5_1"
  top: "conv5_1_bn"
  param {
    lr_mult: 0
  }
  param {
    lr_mult: 0
  }
  param {
    lr_mult: 0
  }
}
layer {
  name: "conv5_1_bn_scale"
  type: "Scale"
  bottom: "conv5_1_bn"
  top: "conv5_1_bn"
  scale_param {
    bias_term: true
  }
}
layer {
  name: "conv5_1_relu"
  type: "ReLU"
  bottom: "conv5_1_bn"
  top: "conv5_1_bn"
}
layer {
  name: "conv6_1"
  type: "Convolution"
  bottom: "conv5_1_bn"
  top: "conv6_1"
  param {
    lr_mult: 1
    decay_mult: 1
  }
  convolution_param {
    num_output: 64
    bias_term: false
    pad: 0
    kernel_size: 3
    stride: 1
    weight_filler {
      type: "gaussian"
      std: 0.01
    }
  }
}
layer {
  name: "conv6_1_bn"
  type: "BatchNorm"
  bottom: "conv6_1"
  top: "conv6_1_bn"
  param {
    lr_mult: 0
  }
  param {
    lr_mult: 0
  }
  param {
    lr_mult: 0
  }
}
layer {
  name: "conv6_1_bn_scale"
  type: "Scale"
  bottom: "conv6_1_bn"
  top: "conv6_1_bn"
  scale_param {
    bias_term: true
  }
}
layer {
  name: "conv6_1_relu"
  type: "ReLU"
  bottom: "conv6_1_bn"
  top: "conv6_1_bn"
}
layer {
  name: "conv7_1"
  type: "Convolution"
  bottom: "conv6_1_bn"
  top: "conv7_1"
  param {
    lr_mult: 1
    decay_mult: 1
  }
  convolution_param {
    num_output: 128
    bias_term: false
    pad: 0
    kernel_size: 3
    stride: 1
    weight_filler {
      type: "gaussian"
      std: 0.01
    }
  }
}
layer {
  name: "conv7_1_bn"
  type: "BatchNorm"
  bottom: "conv7_1"
  top: "conv7_1_bn"
  param {
    lr_mult: 0
  }
  param {
    lr_mult: 0
  }
  param {
    lr_mult: 0
  }
}
layer {
  name: "conv7_1_bn_scale"
  type: "Scale"
  bottom: "conv7_1_bn"
  top: "conv7_1_bn"
  scale_param {
    bias_term: true
  }
}
layer {
  name: "conv7_1_relu"
  type: "ReLU"
  bottom: "conv7_1_bn"
  top: "conv7_1_bn"
}
layer {
  name: "score"
  type: "Convolution"
  bottom: "conv7_1_bn"
  top: "score"
  param {
    lr_mult: 1
    decay_mult: 1
  }
  param {
    lr_mult: 2
    decay_mult: 0
  }
  convolution_param {
    num_output: 4
    pad: 0
    kernel_size: 1
    stride: 1
    weight_filler {
      type: "gaussian"
      std: 0.01
    }
    bias_filler {
      type: "constant"
    }
  }
}
layer {
  name: "upscore"
  type: "Deconvolution"
  bottom: "score"
  top: "upscore"
  param {
    lr_mult: 1
    decay_mult: 1
  }
  convolution_param {
    num_output: 4
    bias_term: false
    pad: 0
    kernel_size: 16
    stride: 8
    weight_filler {
      type: "gaussian"
      std: 0.01
    }
  }
}
layer {
  name: "cropscore"
  type: "Crop"
  bottom: "upscore"
  bottom: "image"
  top: "cropscore"
  crop_param {
    axis: 2
    offset: 12
  }
}
layer {
  name: "loss"
  type: "SoftmaxWithLoss"
  bottom: "cropscore"
  bottom: "label"
  top: "loss"
  loss_weight: 1
  loss_param {
    normalize: false
  }
}
layer {
  name: "accuracy"
  type: "Accuracy"
  bottom: "cropscore"
  bottom: "label"
  top: "accuracy"
}
I0919 17:39:41.697988 15769 layer_factory.hpp:77] Creating layer data
I0919 17:39:41.698717 15769 net.cpp:100] Creating Layer data
I0919 17:39:41.698734 15769 net.cpp:408] data -> image
I0919 17:39:41.698762 15769 net.cpp:408] data -> label
I0919 17:39:41.699692 15773 db_lmdb.cpp:35] Opened lmdb /raid/xuehan/segmentation128_train_split
I0919 17:39:41.699796 15769 seg_data_layer.cpp:38] 128 128 4
I0919 17:39:41.710733 15769 seg_data_layer.cpp:51] output data size: 256,3,128,128
I0919 17:39:41.710826 15769 seg_data_layer.cpp:63] output label size: 256,1,128,128
I0919 17:39:41.809541 15769 net.cpp:150] Setting up data
I0919 17:39:41.809581 15769 net.cpp:157] Top shape: 256 3 128 128 (12582912)
I0919 17:39:41.809588 15769 net.cpp:157] Top shape: 256 1 128 128 (4194304)
I0919 17:39:41.809592 15769 net.cpp:165] Memory required for data: 67108864
I0919 17:39:41.809604 15769 layer_factory.hpp:77] Creating layer image_data_0_split
I0919 17:39:41.809619 15769 net.cpp:100] Creating Layer image_data_0_split
I0919 17:39:41.809625 15769 net.cpp:434] image_data_0_split <- image
I0919 17:39:41.809639 15769 net.cpp:408] image_data_0_split -> image_data_0_split_0
I0919 17:39:41.809662 15769 net.cpp:408] image_data_0_split -> image_data_0_split_1
I0919 17:39:41.809722 15769 net.cpp:150] Setting up image_data_0_split
I0919 17:39:41.809731 15769 net.cpp:157] Top shape: 256 3 128 128 (12582912)
I0919 17:39:41.809737 15769 net.cpp:157] Top shape: 256 3 128 128 (12582912)
I0919 17:39:41.809741 15769 net.cpp:165] Memory required for data: 167772160
I0919 17:39:41.809746 15769 layer_factory.hpp:77] Creating layer label_data_1_split
I0919 17:39:41.809752 15769 net.cpp:100] Creating Layer label_data_1_split
I0919 17:39:41.809757 15769 net.cpp:434] label_data_1_split <- label
I0919 17:39:41.809763 15769 net.cpp:408] label_data_1_split -> label_data_1_split_0
I0919 17:39:41.809770 15769 net.cpp:408] label_data_1_split -> label_data_1_split_1
I0919 17:39:41.809803 15769 net.cpp:150] Setting up label_data_1_split
I0919 17:39:41.809810 15769 net.cpp:157] Top shape: 256 1 128 128 (4194304)
I0919 17:39:41.809815 15769 net.cpp:157] Top shape: 256 1 128 128 (4194304)
I0919 17:39:41.809819 15769 net.cpp:165] Memory required for data: 201326592
I0919 17:39:41.809824 15769 layer_factory.hpp:77] Creating layer conv1_1
I0919 17:39:41.809841 15769 net.cpp:100] Creating Layer conv1_1
I0919 17:39:41.809846 15769 net.cpp:434] conv1_1 <- image_data_0_split_0
I0919 17:39:41.809854 15769 net.cpp:408] conv1_1 -> conv1_1
I0919 17:39:41.810081 15769 net.cpp:150] Setting up conv1_1
I0919 17:39:41.810091 15769 net.cpp:157] Top shape: 256 8 186 186 (70852608)
I0919 17:39:41.810096 15769 net.cpp:165] Memory required for data: 484737024
I0919 17:39:41.810108 15769 layer_factory.hpp:77] Creating layer pool1
I0919 17:39:41.810118 15769 net.cpp:100] Creating Layer pool1
I0919 17:39:41.810122 15769 net.cpp:434] pool1 <- conv1_1
I0919 17:39:41.810128 15769 net.cpp:408] pool1 -> pool1
I0919 17:39:41.810170 15769 net.cpp:150] Setting up pool1
I0919 17:39:41.810178 15769 net.cpp:157] Top shape: 256 8 93 93 (17713152)
I0919 17:39:41.810181 15769 net.cpp:165] Memory required for data: 555589632
I0919 17:39:41.810186 15769 layer_factory.hpp:77] Creating layer conv1_1_bn
I0919 17:39:41.810196 15769 net.cpp:100] Creating Layer conv1_1_bn
I0919 17:39:41.810201 15769 net.cpp:434] conv1_1_bn <- pool1
I0919 17:39:41.810207 15769 net.cpp:408] conv1_1_bn -> conv1_1_bn
I0919 17:39:41.810961 15769 net.cpp:150] Setting up conv1_1_bn
I0919 17:39:41.810976 15769 net.cpp:157] Top shape: 256 8 93 93 (17713152)
I0919 17:39:41.810981 15769 net.cpp:165] Memory required for data: 626442240
I0919 17:39:41.810994 15769 layer_factory.hpp:77] Creating layer conv1_1_bn_scale
I0919 17:39:41.811004 15769 net.cpp:100] Creating Layer conv1_1_bn_scale
I0919 17:39:41.811009 15769 net.cpp:434] conv1_1_bn_scale <- conv1_1_bn
I0919 17:39:41.811017 15769 net.cpp:395] conv1_1_bn_scale -> conv1_1_bn (in-place)
I0919 17:39:41.816172 15769 layer_factory.hpp:77] Creating layer conv1_1_bn_scale
I0919 17:39:41.816304 15769 net.cpp:150] Setting up conv1_1_bn_scale
I0919 17:39:41.816313 15769 net.cpp:157] Top shape: 256 8 93 93 (17713152)
I0919 17:39:41.816318 15769 net.cpp:165] Memory required for data: 697294848
I0919 17:39:41.816329 15769 layer_factory.hpp:77] Creating layer conv1_1_relu
I0919 17:39:41.816336 15769 net.cpp:100] Creating Layer conv1_1_relu
I0919 17:39:41.816341 15769 net.cpp:434] conv1_1_relu <- conv1_1_bn
I0919 17:39:41.816360 15769 net.cpp:395] conv1_1_relu -> conv1_1_bn (in-place)
I0919 17:39:41.816368 15769 net.cpp:150] Setting up conv1_1_relu
I0919 17:39:41.816375 15769 net.cpp:157] Top shape: 256 8 93 93 (17713152)
I0919 17:39:41.816378 15769 net.cpp:165] Memory required for data: 768147456
I0919 17:39:41.816382 15769 layer_factory.hpp:77] Creating layer conv2_1
I0919 17:39:41.816395 15769 net.cpp:100] Creating Layer conv2_1
I0919 17:39:41.816398 15769 net.cpp:434] conv2_1 <- conv1_1_bn
I0919 17:39:41.816406 15769 net.cpp:408] conv2_1 -> conv2_1
I0919 17:39:41.817114 15769 net.cpp:150] Setting up conv2_1
I0919 17:39:41.817127 15769 net.cpp:157] Top shape: 256 16 93 93 (35426304)
I0919 17:39:41.817132 15769 net.cpp:165] Memory required for data: 909852672
I0919 17:39:41.817144 15769 layer_factory.hpp:77] Creating layer pool2
I0919 17:39:41.817160 15769 net.cpp:100] Creating Layer pool2
I0919 17:39:41.817165 15769 net.cpp:434] pool2 <- conv2_1
I0919 17:39:41.817173 15769 net.cpp:408] pool2 -> pool2
I0919 17:39:41.817208 15769 net.cpp:150] Setting up pool2
I0919 17:39:41.817215 15769 net.cpp:157] Top shape: 256 16 47 47 (9048064)
I0919 17:39:41.817219 15769 net.cpp:165] Memory required for data: 946044928
I0919 17:39:41.817224 15769 layer_factory.hpp:77] Creating layer conv2_1_bn
I0919 17:39:41.817232 15769 net.cpp:100] Creating Layer conv2_1_bn
I0919 17:39:41.817237 15769 net.cpp:434] conv2_1_bn <- pool2
I0919 17:39:41.817243 15769 net.cpp:408] conv2_1_bn -> conv2_1_bn
I0919 17:39:41.817427 15769 net.cpp:150] Setting up conv2_1_bn
I0919 17:39:41.817435 15769 net.cpp:157] Top shape: 256 16 47 47 (9048064)
I0919 17:39:41.817440 15769 net.cpp:165] Memory required for data: 982237184
I0919 17:39:41.817452 15769 layer_factory.hpp:77] Creating layer conv2_1_bn_scale
I0919 17:39:41.817461 15769 net.cpp:100] Creating Layer conv2_1_bn_scale
I0919 17:39:41.817466 15769 net.cpp:434] conv2_1_bn_scale <- conv2_1_bn
I0919 17:39:41.817471 15769 net.cpp:395] conv2_1_bn_scale -> conv2_1_bn (in-place)
I0919 17:39:41.817507 15769 layer_factory.hpp:77] Creating layer conv2_1_bn_scale
I0919 17:39:41.817636 15769 net.cpp:150] Setting up conv2_1_bn_scale
I0919 17:39:41.817646 15769 net.cpp:157] Top shape: 256 16 47 47 (9048064)
I0919 17:39:41.817651 15769 net.cpp:165] Memory required for data: 1018429440
I0919 17:39:41.817659 15769 layer_factory.hpp:77] Creating layer conv2_1_relu
I0919 17:39:41.817667 15769 net.cpp:100] Creating Layer conv2_1_relu
I0919 17:39:41.817672 15769 net.cpp:434] conv2_1_relu <- conv2_1_bn
I0919 17:39:41.817678 15769 net.cpp:395] conv2_1_relu -> conv2_1_bn (in-place)
I0919 17:39:41.817685 15769 net.cpp:150] Setting up conv2_1_relu
I0919 17:39:41.817692 15769 net.cpp:157] Top shape: 256 16 47 47 (9048064)
I0919 17:39:41.817695 15769 net.cpp:165] Memory required for data: 1054621696
I0919 17:39:41.817700 15769 layer_factory.hpp:77] Creating layer conv3_1
I0919 17:39:41.817710 15769 net.cpp:100] Creating Layer conv3_1
I0919 17:39:41.817715 15769 net.cpp:434] conv3_1 <- conv2_1_bn
I0919 17:39:41.817721 15769 net.cpp:408] conv3_1 -> conv3_1
I0919 17:39:41.818050 15769 net.cpp:150] Setting up conv3_1
I0919 17:39:41.818059 15769 net.cpp:157] Top shape: 256 32 47 47 (18096128)
I0919 17:39:41.818063 15769 net.cpp:165] Memory required for data: 1127006208
I0919 17:39:41.818070 15769 layer_factory.hpp:77] Creating layer pool3
I0919 17:39:41.818078 15769 net.cpp:100] Creating Layer pool3
I0919 17:39:41.818084 15769 net.cpp:434] pool3 <- conv3_1
I0919 17:39:41.818089 15769 net.cpp:408] pool3 -> pool3
I0919 17:39:41.818125 15769 net.cpp:150] Setting up pool3
I0919 17:39:41.818131 15769 net.cpp:157] Top shape: 256 32 24 24 (4718592)
I0919 17:39:41.818135 15769 net.cpp:165] Memory required for data: 1145880576
I0919 17:39:41.818140 15769 layer_factory.hpp:77] Creating layer conv3_1_bn
I0919 17:39:41.818147 15769 net.cpp:100] Creating Layer conv3_1_bn
I0919 17:39:41.818152 15769 net.cpp:434] conv3_1_bn <- pool3
I0919 17:39:41.818158 15769 net.cpp:408] conv3_1_bn -> conv3_1_bn
I0919 17:39:41.818850 15769 net.cpp:150] Setting up conv3_1_bn
I0919 17:39:41.818863 15769 net.cpp:157] Top shape: 256 32 24 24 (4718592)
I0919 17:39:41.818868 15769 net.cpp:165] Memory required for data: 1164754944
I0919 17:39:41.818878 15769 layer_factory.hpp:77] Creating layer conv3_1_bn_scale
I0919 17:39:41.818889 15769 net.cpp:100] Creating Layer conv3_1_bn_scale
I0919 17:39:41.818894 15769 net.cpp:434] conv3_1_bn_scale <- conv3_1_bn
I0919 17:39:41.818902 15769 net.cpp:395] conv3_1_bn_scale -> conv3_1_bn (in-place)
I0919 17:39:41.818938 15769 layer_factory.hpp:77] Creating layer conv3_1_bn_scale
I0919 17:39:41.819048 15769 net.cpp:150] Setting up conv3_1_bn_scale
I0919 17:39:41.819056 15769 net.cpp:157] Top shape: 256 32 24 24 (4718592)
I0919 17:39:41.819061 15769 net.cpp:165] Memory required for data: 1183629312
I0919 17:39:41.819079 15769 layer_factory.hpp:77] Creating layer conv3_1_relu
I0919 17:39:41.819093 15769 net.cpp:100] Creating Layer conv3_1_relu
I0919 17:39:41.819098 15769 net.cpp:434] conv3_1_relu <- conv3_1_bn
I0919 17:39:41.819104 15769 net.cpp:395] conv3_1_relu -> conv3_1_bn (in-place)
I0919 17:39:41.819111 15769 net.cpp:150] Setting up conv3_1_relu
I0919 17:39:41.819118 15769 net.cpp:157] Top shape: 256 32 24 24 (4718592)
I0919 17:39:41.819123 15769 net.cpp:165] Memory required for data: 1202503680
I0919 17:39:41.819126 15769 layer_factory.hpp:77] Creating layer conv5_1
I0919 17:39:41.819138 15769 net.cpp:100] Creating Layer conv5_1
I0919 17:39:41.819142 15769 net.cpp:434] conv5_1 <- conv3_1_bn
I0919 17:39:41.819149 15769 net.cpp:408] conv5_1 -> conv5_1
I0919 17:39:41.820749 15769 net.cpp:150] Setting up conv5_1
I0919 17:39:41.820763 15769 net.cpp:157] Top shape: 256 64 22 22 (7929856)
I0919 17:39:41.820767 15769 net.cpp:165] Memory required for data: 1234223104
I0919 17:39:41.820775 15769 layer_factory.hpp:77] Creating layer conv5_1_bn
I0919 17:39:41.820783 15769 net.cpp:100] Creating Layer conv5_1_bn
I0919 17:39:41.820788 15769 net.cpp:434] conv5_1_bn <- conv5_1
I0919 17:39:41.820796 15769 net.cpp:408] conv5_1_bn -> conv5_1_bn
I0919 17:39:41.820991 15769 net.cpp:150] Setting up conv5_1_bn
I0919 17:39:41.821000 15769 net.cpp:157] Top shape: 256 64 22 22 (7929856)
I0919 17:39:41.821004 15769 net.cpp:165] Memory required for data: 1265942528
I0919 17:39:41.821014 15769 layer_factory.hpp:77] Creating layer conv5_1_bn_scale
I0919 17:39:41.821022 15769 net.cpp:100] Creating Layer conv5_1_bn_scale
I0919 17:39:41.821027 15769 net.cpp:434] conv5_1_bn_scale <- conv5_1_bn
I0919 17:39:41.821033 15769 net.cpp:395] conv5_1_bn_scale -> conv5_1_bn (in-place)
I0919 17:39:41.821069 15769 layer_factory.hpp:77] Creating layer conv5_1_bn_scale
I0919 17:39:41.821177 15769 net.cpp:150] Setting up conv5_1_bn_scale
I0919 17:39:41.821185 15769 net.cpp:157] Top shape: 256 64 22 22 (7929856)
I0919 17:39:41.821189 15769 net.cpp:165] Memory required for data: 1297661952
I0919 17:39:41.821197 15769 layer_factory.hpp:77] Creating layer conv5_1_relu
I0919 17:39:41.821204 15769 net.cpp:100] Creating Layer conv5_1_relu
I0919 17:39:41.821209 15769 net.cpp:434] conv5_1_relu <- conv5_1_bn
I0919 17:39:41.821215 15769 net.cpp:395] conv5_1_relu -> conv5_1_bn (in-place)
I0919 17:39:41.821221 15769 net.cpp:150] Setting up conv5_1_relu
I0919 17:39:41.821228 15769 net.cpp:157] Top shape: 256 64 22 22 (7929856)
I0919 17:39:41.821231 15769 net.cpp:165] Memory required for data: 1329381376
I0919 17:39:41.821238 15769 layer_factory.hpp:77] Creating layer conv6_1
I0919 17:39:41.821249 15769 net.cpp:100] Creating Layer conv6_1
I0919 17:39:41.821254 15769 net.cpp:434] conv6_1 <- conv5_1_bn
I0919 17:39:41.821260 15769 net.cpp:408] conv6_1 -> conv6_1
I0919 17:39:41.822685 15769 net.cpp:150] Setting up conv6_1
I0919 17:39:41.822695 15769 net.cpp:157] Top shape: 256 64 20 20 (6553600)
I0919 17:39:41.822700 15769 net.cpp:165] Memory required for data: 1355595776
I0919 17:39:41.822706 15769 layer_factory.hpp:77] Creating layer conv6_1_bn
I0919 17:39:41.822715 15769 net.cpp:100] Creating Layer conv6_1_bn
I0919 17:39:41.822718 15769 net.cpp:434] conv6_1_bn <- conv6_1
I0919 17:39:41.822726 15769 net.cpp:408] conv6_1_bn -> conv6_1_bn
I0919 17:39:41.822917 15769 net.cpp:150] Setting up conv6_1_bn
I0919 17:39:41.822926 15769 net.cpp:157] Top shape: 256 64 20 20 (6553600)
I0919 17:39:41.822931 15769 net.cpp:165] Memory required for data: 1381810176
I0919 17:39:41.822939 15769 layer_factory.hpp:77] Creating layer conv6_1_bn_scale
I0919 17:39:41.822947 15769 net.cpp:100] Creating Layer conv6_1_bn_scale
I0919 17:39:41.822952 15769 net.cpp:434] conv6_1_bn_scale <- conv6_1_bn
I0919 17:39:41.822958 15769 net.cpp:395] conv6_1_bn_scale -> conv6_1_bn (in-place)
I0919 17:39:41.822991 15769 layer_factory.hpp:77] Creating layer conv6_1_bn_scale
I0919 17:39:41.823101 15769 net.cpp:150] Setting up conv6_1_bn_scale
I0919 17:39:41.823108 15769 net.cpp:157] Top shape: 256 64 20 20 (6553600)
I0919 17:39:41.823119 15769 net.cpp:165] Memory required for data: 1408024576
I0919 17:39:41.823137 15769 layer_factory.hpp:77] Creating layer conv6_1_relu
I0919 17:39:41.823145 15769 net.cpp:100] Creating Layer conv6_1_relu
I0919 17:39:41.823150 15769 net.cpp:434] conv6_1_relu <- conv6_1_bn
I0919 17:39:41.823156 15769 net.cpp:395] conv6_1_relu -> conv6_1_bn (in-place)
I0919 17:39:41.823164 15769 net.cpp:150] Setting up conv6_1_relu
I0919 17:39:41.823170 15769 net.cpp:157] Top shape: 256 64 20 20 (6553600)
I0919 17:39:41.823174 15769 net.cpp:165] Memory required for data: 1434238976
I0919 17:39:41.823179 15769 layer_factory.hpp:77] Creating layer conv7_1
I0919 17:39:41.823187 15769 net.cpp:100] Creating Layer conv7_1
I0919 17:39:41.823192 15769 net.cpp:434] conv7_1 <- conv6_1_bn
I0919 17:39:41.823200 15769 net.cpp:408] conv7_1 -> conv7_1
I0919 17:39:41.826406 15769 net.cpp:150] Setting up conv7_1
I0919 17:39:41.826428 15769 net.cpp:157] Top shape: 256 128 18 18 (10616832)
I0919 17:39:41.826433 15769 net.cpp:165] Memory required for data: 1476706304
I0919 17:39:41.826442 15769 layer_factory.hpp:77] Creating layer conv7_1_bn
I0919 17:39:41.826449 15769 net.cpp:100] Creating Layer conv7_1_bn
I0919 17:39:41.826455 15769 net.cpp:434] conv7_1_bn <- conv7_1
I0919 17:39:41.826462 15769 net.cpp:408] conv7_1_bn -> conv7_1_bn
I0919 17:39:41.826649 15769 net.cpp:150] Setting up conv7_1_bn
I0919 17:39:41.826658 15769 net.cpp:157] Top shape: 256 128 18 18 (10616832)
I0919 17:39:41.826663 15769 net.cpp:165] Memory required for data: 1519173632
I0919 17:39:41.826679 15769 layer_factory.hpp:77] Creating layer conv7_1_bn_scale
I0919 17:39:41.826690 15769 net.cpp:100] Creating Layer conv7_1_bn_scale
I0919 17:39:41.826694 15769 net.cpp:434] conv7_1_bn_scale <- conv7_1_bn
I0919 17:39:41.826701 15769 net.cpp:395] conv7_1_bn_scale -> conv7_1_bn (in-place)
I0919 17:39:41.826738 15769 layer_factory.hpp:77] Creating layer conv7_1_bn_scale
I0919 17:39:41.826846 15769 net.cpp:150] Setting up conv7_1_bn_scale
I0919 17:39:41.826854 15769 net.cpp:157] Top shape: 256 128 18 18 (10616832)
I0919 17:39:41.826858 15769 net.cpp:165] Memory required for data: 1561640960
I0919 17:39:41.826866 15769 layer_factory.hpp:77] Creating layer conv7_1_relu
I0919 17:39:41.826874 15769 net.cpp:100] Creating Layer conv7_1_relu
I0919 17:39:41.826879 15769 net.cpp:434] conv7_1_relu <- conv7_1_bn
I0919 17:39:41.826884 15769 net.cpp:395] conv7_1_relu -> conv7_1_bn (in-place)
I0919 17:39:41.826890 15769 net.cpp:150] Setting up conv7_1_relu
I0919 17:39:41.826896 15769 net.cpp:157] Top shape: 256 128 18 18 (10616832)
I0919 17:39:41.826900 15769 net.cpp:165] Memory required for data: 1604108288
I0919 17:39:41.826905 15769 layer_factory.hpp:77] Creating layer score
I0919 17:39:41.826917 15769 net.cpp:100] Creating Layer score
I0919 17:39:41.826922 15769 net.cpp:434] score <- conv7_1_bn
I0919 17:39:41.826930 15769 net.cpp:408] score -> score
I0919 17:39:41.827162 15769 net.cpp:150] Setting up score
I0919 17:39:41.827172 15769 net.cpp:157] Top shape: 256 4 18 18 (331776)
I0919 17:39:41.827175 15769 net.cpp:165] Memory required for data: 1605435392
I0919 17:39:41.827183 15769 layer_factory.hpp:77] Creating layer upscore
I0919 17:39:41.827193 15769 net.cpp:100] Creating Layer upscore
I0919 17:39:41.827198 15769 net.cpp:434] upscore <- score
I0919 17:39:41.827204 15769 net.cpp:408] upscore -> upscore
I0919 17:39:41.827525 15769 net.cpp:150] Setting up upscore
I0919 17:39:41.827534 15769 net.cpp:157] Top shape: 256 4 152 152 (23658496)
I0919 17:39:41.827538 15769 net.cpp:165] Memory required for data: 1700069376
I0919 17:39:41.827544 15769 layer_factory.hpp:77] Creating layer cropscore
I0919 17:39:41.827558 15769 net.cpp:100] Creating Layer cropscore
I0919 17:39:41.827563 15769 net.cpp:434] cropscore <- upscore
I0919 17:39:41.827567 15769 net.cpp:434] cropscore <- image_data_0_split_1
I0919 17:39:41.827574 15769 net.cpp:408] cropscore -> cropscore
I0919 17:39:41.827600 15769 net.cpp:150] Setting up cropscore
I0919 17:39:41.827608 15769 net.cpp:157] Top shape: 256 4 128 128 (16777216)
I0919 17:39:41.827621 15769 net.cpp:165] Memory required for data: 1767178240
I0919 17:39:41.827635 15769 layer_factory.hpp:77] Creating layer cropscore_cropscore_0_split
I0919 17:39:41.827643 15769 net.cpp:100] Creating Layer cropscore_cropscore_0_split
I0919 17:39:41.827647 15769 net.cpp:434] cropscore_cropscore_0_split <- cropscore
I0919 17:39:41.827654 15769 net.cpp:408] cropscore_cropscore_0_split -> cropscore_cropscore_0_split_0
I0919 17:39:41.827661 15769 net.cpp:408] cropscore_cropscore_0_split -> cropscore_cropscore_0_split_1
I0919 17:39:41.827860 15769 net.cpp:150] Setting up cropscore_cropscore_0_split
I0919 17:39:41.827869 15769 net.cpp:157] Top shape: 256 4 128 128 (16777216)
I0919 17:39:41.827875 15769 net.cpp:157] Top shape: 256 4 128 128 (16777216)
I0919 17:39:41.827879 15769 net.cpp:165] Memory required for data: 1901395968
I0919 17:39:41.827884 15769 layer_factory.hpp:77] Creating layer loss
I0919 17:39:41.827893 15769 net.cpp:100] Creating Layer loss
I0919 17:39:41.827898 15769 net.cpp:434] loss <- cropscore_cropscore_0_split_0
I0919 17:39:41.827904 15769 net.cpp:434] loss <- label_data_1_split_0
I0919 17:39:41.827910 15769 net.cpp:408] loss -> loss
…
