…
I0920 08:39:58.712728 22627 solver.cpp:91] Creating training net from net file: portrait_train_test_one_stage128.prototxt
I0920 08:39:58.713223 22627 net.cpp:322] The NetState phase (0) differed from the phase (1) specified by a rule in layer data
I0920 08:39:58.713366 22627 net.cpp:58] Initializing net from parameters: 
name: "segmentation"
state {
  phase: TRAIN
  level: 0
  stage: ""
}
layer {
  name: "data"
  type: "SegData"
  top: "image"
  top: "label"
  include {
    phase: TRAIN
  }
  transform_param {
    mirror: true
    crop_size: 128
  }
  data_param {
    source: "/raid/xuehan/segmentation128_train_split"
    batch_size: 256
    backend: LMDB
  }
}
layer {
  name: "conv1_1"
  type: "Convolution"
  bottom: "image"
  top: "conv1_1"
  param {
    lr_mult: 1
    decay_mult: 1
  }
  convolution_param {
    num_output: 8
    bias_term: false
    pad: 30
    kernel_size: 3
    stride: 1
    weight_filler {
      type: "gaussian"
      std: 0.01
    }
  }
}
layer {
  name: "pool1"
  type: "Pooling"
  bottom: "conv1_1"
  top: "pool1"
  pooling_param {
    pool: MAX
    kernel_size: 2
    stride: 2
  }
}
layer {
  name: "conv1_1_bn"
  type: "BatchNorm"
  bottom: "pool1"
  top: "conv1_1_bn"
  param {
    lr_mult: 0
  }
  param {
    lr_mult: 0
  }
  param {
    lr_mult: 0
  }
}
layer {
  name: "conv1_1_bn_scale"
  type: "Scale"
  bottom: "conv1_1_bn"
  top: "conv1_1_bn"
  scale_param {
    bias_term: true
  }
}
layer {
  name: "conv1_1_relu"
  type: "ReLU"
  bottom: "conv1_1_bn"
  top: "conv1_1_bn"
}
layer {
  name: "conv2_1"
  type: "Convolution"
  bottom: "conv1_1_bn"
  top: "conv2_1"
  param {
    lr_mult: 1
    decay_mult: 1
  }
  convolution_param {
    num_output: 16
    bias_term: false
    pad: 1
    kernel_size: 3
    stride: 1
    weight_filler {
      type: "gaussian"
      std: 0.01
    }
  }
}
layer {
  name: "pool2"
  type: "Pooling"
  bottom: "conv2_1"
  top: "pool2"
  pooling_param {
    pool: MAX
    kernel_size: 2
    stride: 2
  }
}
layer {
  name: "conv2_1_bn"
  type: "BatchNorm"
  bottom: "pool2"
  top: "conv2_1_bn"
  param {
    lr_mult: 0
  }
  param {
    lr_mult: 0
  }
  param {
    lr_mult: 0
  }
}
layer {
  name: "conv2_1_bn_scale"
  type: "Scale"
  bottom: "conv2_1_bn"
  top: "conv2_1_bn"
  scale_param {
    bias_term: true
  }
}
layer {
  name: "conv2_1_relu"
  type: "ReLU"
  bottom: "conv2_1_bn"
  top: "conv2_1_bn"
}
layer {
  name: "conv3_1"
  type: "Convolution"
  bottom: "conv2_1_bn"
  top: "conv3_1"
  param {
    lr_mult: 1
    decay_mult: 1
  }
  convolution_param {
    num_output: 32
    bias_term: false
    pad: 1
    kernel_size: 3
    stride: 1
    weight_filler {
      type: "gaussian"
      std: 0.01
    }
  }
}
layer {
  name: "pool3"
  type: "Pooling"
  bottom: "conv3_1"
  top: "pool3"
  pooling_param {
    pool: MAX
    kernel_size: 2
    stride: 2
  }
}
layer {
  name: "conv3_1_bn"
  type: "BatchNorm"
  bottom: "pool3"
  top: "conv3_1_bn"
  param {
    lr_mult: 0
  }
  param {
    lr_mult: 0
  }
  param {
    lr_mult: 0
  }
}
layer {
  name: "conv3_1_bn_scale"
  type: "Scale"
  bottom: "conv3_1_bn"
  top: "conv3_1_bn"
  scale_param {
    bias_term: true
  }
}
layer {
  name: "conv3_1_relu"
  type: "ReLU"
  bottom: "conv3_1_bn"
  top: "conv3_1_bn"
}
layer {
  name: "conv5_1"
  type: "Convolution"
  bottom: "conv3_1_bn"
  top: "conv5_1"
  param {
    lr_mult: 1
    decay_mult: 1
  }
  convolution_param {
    num_output: 64
    bias_term: false
    pad: 0
    kernel_size: 3
    stride: 1
    weight_filler {
      type: "gaussian"
      std: 0.01
    }
  }
}
layer {
  name: "conv5_1_bn"
  type: "BatchNorm"
  bottom: "conv5_1"
  top: "conv5_1_bn"
  param {
    lr_mult: 0
  }
  param {
    lr_mult: 0
  }
  param {
    lr_mult: 0
  }
}
layer {
  name: "conv5_1_bn_scale"
  type: "Scale"
  bottom: "conv5_1_bn"
  top: "conv5_1_bn"
  scale_param {
    bias_term: true
  }
}
layer {
  name: "conv5_1_relu"
  type: "ReLU"
  bottom: "conv5_1_bn"
  top: "conv5_1_bn"
}
layer {
  name: "conv6_1"
  type: "Convolution"
  bottom: "conv5_1_bn"
  top: "conv6_1"
  param {
    lr_mult: 1
    decay_mult: 1
  }
  convolution_param {
    num_output: 64
    bias_term: false
    pad: 0
    kernel_size: 3
    stride: 1
    weight_filler {
      type: "gaussian"
      std: 0.01
    }
  }
}
layer {
  name: "conv6_1_bn"
  type: "BatchNorm"
  bottom: "conv6_1"
  top: "conv6_1_bn"
  param {
    lr_mult: 0
  }
  param {
    lr_mult: 0
  }
  param {
    lr_mult: 0
  }
}
layer {
  name: "conv6_1_bn_scale"
  type: "Scale"
  bottom: "conv6_1_bn"
  top: "conv6_1_bn"
  scale_param {
    bias_term: true
  }
}
layer {
  name: "conv6_1_relu"
  type: "ReLU"
  bottom: "conv6_1_bn"
  top: "conv6_1_bn"
}
layer {
  name: "conv7_1"
  type: "Convolution"
  bottom: "conv6_1_bn"
  top: "conv7_1"
  param {
    lr_mult: 1
    decay_mult: 1
  }
  convolution_param {
    num_output: 128
    bias_term: false
    pad: 0
    kernel_size: 3
    stride: 1
    weight_filler {
      type: "gaussian"
      std: 0.01
    }
  }
}
layer {
  name: "conv7_1_bn"
  type: "BatchNorm"
  bottom: "conv7_1"
  top: "conv7_1_bn"
  param {
    lr_mult: 0
  }
  param {
    lr_mult: 0
  }
  param {
    lr_mult: 0
  }
}
layer {
  name: "conv7_1_bn_scale"
  type: "Scale"
  bottom: "conv7_1_bn"
  top: "conv7_1_bn"
  scale_param {
    bias_term: true
  }
}
layer {
  name: "conv7_1_relu"
  type: "ReLU"
  bottom: "conv7_1_bn"
  top: "conv7_1_bn"
}
layer {
  name: "score"
  type: "Convolution"
  bottom: "conv7_1_bn"
  top: "score"
  param {
    lr_mult: 1
    decay_mult: 1
  }
  param {
    lr_mult: 2
    decay_mult: 0
  }
  convolution_param {
    num_output: 4
    pad: 0
    kernel_size: 1
    stride: 1
    weight_filler {
      type: "gaussian"
      std: 0.01
    }
    bias_filler {
      type: "constant"
    }
  }
}
layer {
  name: "upscore"
  type: "Deconvolution"
  bottom: "score"
  top: "upscore"
  param {
    lr_mult: 1
    decay_mult: 1
  }
  convolution_param {
    num_output: 4
    bias_term: false
    pad: 0
    kernel_size: 16
    stride: 8
    weight_filler {
      type: "gaussian"
      std: 0.01
    }
  }
}
layer {
  name: "cropscore"
  type: "Crop"
  bottom: "upscore"
  bottom: "image"
  top: "cropscore"
  crop_param {
    axis: 2
    offset: 12
  }
}
layer {
  name: "loss"
  type: "SoftmaxWithLoss"
  bottom: "cropscore"
  bottom: "label"
  top: "loss"
  loss_weight: 1
  loss_param {
    normalize: false
  }
}
layer {
  name: "accuracy"
  type: "Accuracy"
  bottom: "cropscore"
  bottom: "label"
  top: "accuracy"
}
I0920 08:39:58.713503 22627 layer_factory.hpp:77] Creating layer data
I0920 08:39:58.714015 22627 net.cpp:100] Creating Layer data
I0920 08:39:58.714026 22627 net.cpp:408] data -> image
I0920 08:39:58.714042 22627 net.cpp:408] data -> label
I0920 08:39:58.715023 22631 db_lmdb.cpp:35] Opened lmdb /raid/xuehan/segmentation128_train_split
I0920 08:39:58.715147 22627 seg_data_layer.cpp:38] 128 128 4
I0920 08:39:58.722681 22627 seg_data_layer.cpp:51] output data size: 256,3,128,128
I0920 08:39:58.722743 22627 seg_data_layer.cpp:63] output label size: 256,1,128,128
I0920 08:39:58.809507 22627 net.cpp:150] Setting up data
I0920 08:39:58.809536 22627 net.cpp:157] Top shape: 256 3 128 128 (12582912)
I0920 08:39:58.809541 22627 net.cpp:157] Top shape: 256 1 128 128 (4194304)
I0920 08:39:58.809543 22627 net.cpp:165] Memory required for data: 67108864
I0920 08:39:58.809553 22627 layer_factory.hpp:77] Creating layer image_data_0_split
I0920 08:39:58.809569 22627 net.cpp:100] Creating Layer image_data_0_split
I0920 08:39:58.809574 22627 net.cpp:434] image_data_0_split <- image
I0920 08:39:58.809584 22627 net.cpp:408] image_data_0_split -> image_data_0_split_0
I0920 08:39:58.809600 22627 net.cpp:408] image_data_0_split -> image_data_0_split_1
I0920 08:39:58.809649 22627 net.cpp:150] Setting up image_data_0_split
I0920 08:39:58.809654 22627 net.cpp:157] Top shape: 256 3 128 128 (12582912)
I0920 08:39:58.809659 22627 net.cpp:157] Top shape: 256 3 128 128 (12582912)
I0920 08:39:58.809660 22627 net.cpp:165] Memory required for data: 167772160
I0920 08:39:58.809664 22627 layer_factory.hpp:77] Creating layer label_data_1_split
I0920 08:39:58.809669 22627 net.cpp:100] Creating Layer label_data_1_split
I0920 08:39:58.809672 22627 net.cpp:434] label_data_1_split <- label
I0920 08:39:58.809676 22627 net.cpp:408] label_data_1_split -> label_data_1_split_0
I0920 08:39:58.809680 22627 net.cpp:408] label_data_1_split -> label_data_1_split_1
I0920 08:39:58.809703 22627 net.cpp:150] Setting up label_data_1_split
I0920 08:39:58.809708 22627 net.cpp:157] Top shape: 256 1 128 128 (4194304)
I0920 08:39:58.809711 22627 net.cpp:157] Top shape: 256 1 128 128 (4194304)
I0920 08:39:58.809715 22627 net.cpp:165] Memory required for data: 201326592
I0920 08:39:58.809716 22627 layer_factory.hpp:77] Creating layer conv1_1
I0920 08:39:58.809731 22627 net.cpp:100] Creating Layer conv1_1
I0920 08:39:58.809733 22627 net.cpp:434] conv1_1 <- image_data_0_split_0
I0920 08:39:58.809739 22627 net.cpp:408] conv1_1 -> conv1_1
I0920 08:39:58.809891 22627 net.cpp:150] Setting up conv1_1
I0920 08:39:58.809898 22627 net.cpp:157] Top shape: 256 8 186 186 (70852608)
I0920 08:39:58.809900 22627 net.cpp:165] Memory required for data: 484737024
I0920 08:39:58.809911 22627 layer_factory.hpp:77] Creating layer pool1
I0920 08:39:58.809918 22627 net.cpp:100] Creating Layer pool1
I0920 08:39:58.809921 22627 net.cpp:434] pool1 <- conv1_1
I0920 08:39:58.809926 22627 net.cpp:408] pool1 -> pool1
I0920 08:39:58.809955 22627 net.cpp:150] Setting up pool1
I0920 08:39:58.809960 22627 net.cpp:157] Top shape: 256 8 93 93 (17713152)
I0920 08:39:58.809963 22627 net.cpp:165] Memory required for data: 555589632
I0920 08:39:58.809967 22627 layer_factory.hpp:77] Creating layer conv1_1_bn
I0920 08:39:58.809972 22627 net.cpp:100] Creating Layer conv1_1_bn
I0920 08:39:58.809974 22627 net.cpp:434] conv1_1_bn <- pool1
I0920 08:39:58.809978 22627 net.cpp:408] conv1_1_bn -> conv1_1_bn
I0920 08:39:58.810534 22627 net.cpp:150] Setting up conv1_1_bn
I0920 08:39:58.810545 22627 net.cpp:157] Top shape: 256 8 93 93 (17713152)
I0920 08:39:58.810549 22627 net.cpp:165] Memory required for data: 626442240
I0920 08:39:58.810557 22627 layer_factory.hpp:77] Creating layer conv1_1_bn_scale
I0920 08:39:58.810565 22627 net.cpp:100] Creating Layer conv1_1_bn_scale
I0920 08:39:58.810569 22627 net.cpp:434] conv1_1_bn_scale <- conv1_1_bn
I0920 08:39:58.810573 22627 net.cpp:395] conv1_1_bn_scale -> conv1_1_bn (in-place)
I0920 08:39:58.810607 22627 layer_factory.hpp:77] Creating layer conv1_1_bn_scale
I0920 08:39:58.810706 22627 net.cpp:150] Setting up conv1_1_bn_scale
I0920 08:39:58.810712 22627 net.cpp:157] Top shape: 256 8 93 93 (17713152)
I0920 08:39:58.810715 22627 net.cpp:165] Memory required for data: 697294848
I0920 08:39:58.810722 22627 layer_factory.hpp:77] Creating layer conv1_1_relu
I0920 08:39:58.810729 22627 net.cpp:100] Creating Layer conv1_1_relu
I0920 08:39:58.810732 22627 net.cpp:434] conv1_1_relu <- conv1_1_bn
I0920 08:39:58.810736 22627 net.cpp:395] conv1_1_relu -> conv1_1_bn (in-place)
I0920 08:39:58.810741 22627 net.cpp:150] Setting up conv1_1_relu
I0920 08:39:58.810745 22627 net.cpp:157] Top shape: 256 8 93 93 (17713152)
I0920 08:39:58.810747 22627 net.cpp:165] Memory required for data: 768147456
I0920 08:39:58.810750 22627 layer_factory.hpp:77] Creating layer conv2_1
I0920 08:39:58.810758 22627 net.cpp:100] Creating Layer conv2_1
I0920 08:39:58.810762 22627 net.cpp:434] conv2_1 <- conv1_1_bn
I0920 08:39:58.810768 22627 net.cpp:408] conv2_1 -> conv2_1
I0920 08:39:58.816743 22627 net.cpp:150] Setting up conv2_1
I0920 08:39:58.816756 22627 net.cpp:157] Top shape: 256 16 93 93 (35426304)
I0920 08:39:58.816759 22627 net.cpp:165] Memory required for data: 909852672
I0920 08:39:58.816768 22627 layer_factory.hpp:77] Creating layer pool2
I0920 08:39:58.816779 22627 net.cpp:100] Creating Layer pool2
I0920 08:39:58.816782 22627 net.cpp:434] pool2 <- conv2_1
I0920 08:39:58.816788 22627 net.cpp:408] pool2 -> pool2
I0920 08:39:58.816813 22627 net.cpp:150] Setting up pool2
I0920 08:39:58.816817 22627 net.cpp:157] Top shape: 256 16 47 47 (9048064)
I0920 08:39:58.816820 22627 net.cpp:165] Memory required for data: 946044928
I0920 08:39:58.816823 22627 layer_factory.hpp:77] Creating layer conv2_1_bn
I0920 08:39:58.816829 22627 net.cpp:100] Creating Layer conv2_1_bn
I0920 08:39:58.816833 22627 net.cpp:434] conv2_1_bn <- pool2
I0920 08:39:58.816838 22627 net.cpp:408] conv2_1_bn -> conv2_1_bn
I0920 08:39:58.816962 22627 net.cpp:150] Setting up conv2_1_bn
I0920 08:39:58.816968 22627 net.cpp:157] Top shape: 256 16 47 47 (9048064)
I0920 08:39:58.816972 22627 net.cpp:165] Memory required for data: 982237184
I0920 08:39:58.816979 22627 layer_factory.hpp:77] Creating layer conv2_1_bn_scale
I0920 08:39:58.816984 22627 net.cpp:100] Creating Layer conv2_1_bn_scale
I0920 08:39:58.816987 22627 net.cpp:434] conv2_1_bn_scale <- conv2_1_bn
I0920 08:39:58.816993 22627 net.cpp:395] conv2_1_bn_scale -> conv2_1_bn (in-place)
I0920 08:39:58.817018 22627 layer_factory.hpp:77] Creating layer conv2_1_bn_scale
I0920 08:39:58.817096 22627 net.cpp:150] Setting up conv2_1_bn_scale
I0920 08:39:58.817102 22627 net.cpp:157] Top shape: 256 16 47 47 (9048064)
I0920 08:39:58.817104 22627 net.cpp:165] Memory required for data: 1018429440
I0920 08:39:58.817109 22627 layer_factory.hpp:77] Creating layer conv2_1_relu
I0920 08:39:58.817114 22627 net.cpp:100] Creating Layer conv2_1_relu
I0920 08:39:58.817117 22627 net.cpp:434] conv2_1_relu <- conv2_1_bn
I0920 08:39:58.817121 22627 net.cpp:395] conv2_1_relu -> conv2_1_bn (in-place)
I0920 08:39:58.817126 22627 net.cpp:150] Setting up conv2_1_relu
I0920 08:39:58.817128 22627 net.cpp:157] Top shape: 256 16 47 47 (9048064)
I0920 08:39:58.817131 22627 net.cpp:165] Memory required for data: 1054621696
I0920 08:39:58.817133 22627 layer_factory.hpp:77] Creating layer conv3_1
I0920 08:39:58.817142 22627 net.cpp:100] Creating Layer conv3_1
I0920 08:39:58.817144 22627 net.cpp:434] conv3_1 <- conv2_1_bn
I0920 08:39:58.817149 22627 net.cpp:408] conv3_1 -> conv3_1
I0920 08:39:58.817364 22627 net.cpp:150] Setting up conv3_1
I0920 08:39:58.817370 22627 net.cpp:157] Top shape: 256 32 47 47 (18096128)
I0920 08:39:58.817373 22627 net.cpp:165] Memory required for data: 1127006208
I0920 08:39:58.817378 22627 layer_factory.hpp:77] Creating layer pool3
I0920 08:39:58.817383 22627 net.cpp:100] Creating Layer pool3
I0920 08:39:58.817384 22627 net.cpp:434] pool3 <- conv3_1
I0920 08:39:58.817389 22627 net.cpp:408] pool3 -> pool3
I0920 08:39:58.817411 22627 net.cpp:150] Setting up pool3
I0920 08:39:58.817415 22627 net.cpp:157] Top shape: 256 32 24 24 (4718592)
I0920 08:39:58.817419 22627 net.cpp:165] Memory required for data: 1145880576
I0920 08:39:58.817421 22627 layer_factory.hpp:77] Creating layer conv3_1_bn
I0920 08:39:58.817426 22627 net.cpp:100] Creating Layer conv3_1_bn
I0920 08:39:58.817430 22627 net.cpp:434] conv3_1_bn <- pool3
I0920 08:39:58.817435 22627 net.cpp:408] conv3_1_bn -> conv3_1_bn
I0920 08:39:58.817958 22627 net.cpp:150] Setting up conv3_1_bn
I0920 08:39:58.817968 22627 net.cpp:157] Top shape: 256 32 24 24 (4718592)
I0920 08:39:58.817971 22627 net.cpp:165] Memory required for data: 1164754944
I0920 08:39:58.817977 22627 layer_factory.hpp:77] Creating layer conv3_1_bn_scale
I0920 08:39:58.817986 22627 net.cpp:100] Creating Layer conv3_1_bn_scale
I0920 08:39:58.817989 22627 net.cpp:434] conv3_1_bn_scale <- conv3_1_bn
I0920 08:39:58.817994 22627 net.cpp:395] conv3_1_bn_scale -> conv3_1_bn (in-place)
I0920 08:39:58.818022 22627 layer_factory.hpp:77] Creating layer conv3_1_bn_scale
I0920 08:39:58.818096 22627 net.cpp:150] Setting up conv3_1_bn_scale
I0920 08:39:58.818102 22627 net.cpp:157] Top shape: 256 32 24 24 (4718592)
I0920 08:39:58.818104 22627 net.cpp:165] Memory required for data: 1183629312
I0920 08:39:58.818119 22627 layer_factory.hpp:77] Creating layer conv3_1_relu
I0920 08:39:58.818128 22627 net.cpp:100] Creating Layer conv3_1_relu
I0920 08:39:58.818131 22627 net.cpp:434] conv3_1_relu <- conv3_1_bn
I0920 08:39:58.818136 22627 net.cpp:395] conv3_1_relu -> conv3_1_bn (in-place)
I0920 08:39:58.818141 22627 net.cpp:150] Setting up conv3_1_relu
I0920 08:39:58.818145 22627 net.cpp:157] Top shape: 256 32 24 24 (4718592)
I0920 08:39:58.818147 22627 net.cpp:165] Memory required for data: 1202503680
I0920 08:39:58.818150 22627 layer_factory.hpp:77] Creating layer conv5_1
I0920 08:39:58.818156 22627 net.cpp:100] Creating Layer conv5_1
I0920 08:39:58.818159 22627 net.cpp:434] conv5_1 <- conv3_1_bn
I0920 08:39:58.818164 22627 net.cpp:408] conv5_1 -> conv5_1
I0920 08:39:58.819119 22627 net.cpp:150] Setting up conv5_1
I0920 08:39:58.819130 22627 net.cpp:157] Top shape: 256 64 22 22 (7929856)
I0920 08:39:58.819133 22627 net.cpp:165] Memory required for data: 1234223104
I0920 08:39:58.819138 22627 layer_factory.hpp:77] Creating layer conv5_1_bn
I0920 08:39:58.819142 22627 net.cpp:100] Creating Layer conv5_1_bn
I0920 08:39:58.819146 22627 net.cpp:434] conv5_1_bn <- conv5_1
I0920 08:39:58.819151 22627 net.cpp:408] conv5_1_bn -> conv5_1_bn
I0920 08:39:58.819284 22627 net.cpp:150] Setting up conv5_1_bn
I0920 08:39:58.819291 22627 net.cpp:157] Top shape: 256 64 22 22 (7929856)
I0920 08:39:58.819293 22627 net.cpp:165] Memory required for data: 1265942528
I0920 08:39:58.819299 22627 layer_factory.hpp:77] Creating layer conv5_1_bn_scale
I0920 08:39:58.819304 22627 net.cpp:100] Creating Layer conv5_1_bn_scale
I0920 08:39:58.819308 22627 net.cpp:434] conv5_1_bn_scale <- conv5_1_bn
I0920 08:39:58.819311 22627 net.cpp:395] conv5_1_bn_scale -> conv5_1_bn (in-place)
I0920 08:39:58.819334 22627 layer_factory.hpp:77] Creating layer conv5_1_bn_scale
I0920 08:39:58.819411 22627 net.cpp:150] Setting up conv5_1_bn_scale
I0920 08:39:58.819416 22627 net.cpp:157] Top shape: 256 64 22 22 (7929856)
I0920 08:39:58.819419 22627 net.cpp:165] Memory required for data: 1297661952
I0920 08:39:58.819424 22627 layer_factory.hpp:77] Creating layer conv5_1_relu
I0920 08:39:58.819428 22627 net.cpp:100] Creating Layer conv5_1_relu
I0920 08:39:58.819432 22627 net.cpp:434] conv5_1_relu <- conv5_1_bn
I0920 08:39:58.819435 22627 net.cpp:395] conv5_1_relu -> conv5_1_bn (in-place)
I0920 08:39:58.819439 22627 net.cpp:150] Setting up conv5_1_relu
I0920 08:39:58.819444 22627 net.cpp:157] Top shape: 256 64 22 22 (7929856)
I0920 08:39:58.819447 22627 net.cpp:165] Memory required for data: 1329381376
I0920 08:39:58.819449 22627 layer_factory.hpp:77] Creating layer conv6_1
I0920 08:39:58.819458 22627 net.cpp:100] Creating Layer conv6_1
I0920 08:39:58.819459 22627 net.cpp:434] conv6_1 <- conv5_1_bn
I0920 08:39:58.819464 22627 net.cpp:408] conv6_1 -> conv6_1
I0920 08:39:58.820353 22627 net.cpp:150] Setting up conv6_1
I0920 08:39:58.820359 22627 net.cpp:157] Top shape: 256 64 20 20 (6553600)
I0920 08:39:58.820363 22627 net.cpp:165] Memory required for data: 1355595776
I0920 08:39:58.820366 22627 layer_factory.hpp:77] Creating layer conv6_1_bn
I0920 08:39:58.820371 22627 net.cpp:100] Creating Layer conv6_1_bn
I0920 08:39:58.820374 22627 net.cpp:434] conv6_1_bn <- conv6_1
I0920 08:39:58.820377 22627 net.cpp:408] conv6_1_bn -> conv6_1_bn
I0920 08:39:58.820504 22627 net.cpp:150] Setting up conv6_1_bn
I0920 08:39:58.820510 22627 net.cpp:157] Top shape: 256 64 20 20 (6553600)
I0920 08:39:58.820513 22627 net.cpp:165] Memory required for data: 1381810176
I0920 08:39:58.820518 22627 layer_factory.hpp:77] Creating layer conv6_1_bn_scale
I0920 08:39:58.820523 22627 net.cpp:100] Creating Layer conv6_1_bn_scale
I0920 08:39:58.820526 22627 net.cpp:434] conv6_1_bn_scale <- conv6_1_bn
I0920 08:39:58.820531 22627 net.cpp:395] conv6_1_bn_scale -> conv6_1_bn (in-place)
I0920 08:39:58.820554 22627 layer_factory.hpp:77] Creating layer conv6_1_bn_scale
I0920 08:39:58.820628 22627 net.cpp:150] Setting up conv6_1_bn_scale
I0920 08:39:58.820633 22627 net.cpp:157] Top shape: 256 64 20 20 (6553600)
I0920 08:39:58.820641 22627 net.cpp:165] Memory required for data: 1408024576
I0920 08:39:58.820650 22627 layer_factory.hpp:77] Creating layer conv6_1_relu
I0920 08:39:58.820655 22627 net.cpp:100] Creating Layer conv6_1_relu
I0920 08:39:58.820658 22627 net.cpp:434] conv6_1_relu <- conv6_1_bn
I0920 08:39:58.820662 22627 net.cpp:395] conv6_1_relu -> conv6_1_bn (in-place)
I0920 08:39:58.820667 22627 net.cpp:150] Setting up conv6_1_relu
I0920 08:39:58.820672 22627 net.cpp:157] Top shape: 256 64 20 20 (6553600)
I0920 08:39:58.820673 22627 net.cpp:165] Memory required for data: 1434238976
I0920 08:39:58.820677 22627 layer_factory.hpp:77] Creating layer conv7_1
I0920 08:39:58.820684 22627 net.cpp:100] Creating Layer conv7_1
I0920 08:39:58.820688 22627 net.cpp:434] conv7_1 <- conv6_1_bn
I0920 08:39:58.820691 22627 net.cpp:408] conv7_1 -> conv7_1
I0920 08:39:58.822769 22627 net.cpp:150] Setting up conv7_1
I0920 08:39:58.822782 22627 net.cpp:157] Top shape: 256 128 18 18 (10616832)
I0920 08:39:58.822785 22627 net.cpp:165] Memory required for data: 1476706304
I0920 08:39:58.822789 22627 layer_factory.hpp:77] Creating layer conv7_1_bn
I0920 08:39:58.822796 22627 net.cpp:100] Creating Layer conv7_1_bn
I0920 08:39:58.822799 22627 net.cpp:434] conv7_1_bn <- conv7_1
I0920 08:39:58.822804 22627 net.cpp:408] conv7_1_bn -> conv7_1_bn
I0920 08:39:58.822931 22627 net.cpp:150] Setting up conv7_1_bn
I0920 08:39:58.822937 22627 net.cpp:157] Top shape: 256 128 18 18 (10616832)
I0920 08:39:58.822939 22627 net.cpp:165] Memory required for data: 1519173632
I0920 08:39:58.822949 22627 layer_factory.hpp:77] Creating layer conv7_1_bn_scale
I0920 08:39:58.822957 22627 net.cpp:100] Creating Layer conv7_1_bn_scale
I0920 08:39:58.822959 22627 net.cpp:434] conv7_1_bn_scale <- conv7_1_bn
I0920 08:39:58.822963 22627 net.cpp:395] conv7_1_bn_scale -> conv7_1_bn (in-place)
I0920 08:39:58.822988 22627 layer_factory.hpp:77] Creating layer conv7_1_bn_scale
I0920 08:39:58.823062 22627 net.cpp:150] Setting up conv7_1_bn_scale
I0920 08:39:58.823067 22627 net.cpp:157] Top shape: 256 128 18 18 (10616832)
I0920 08:39:58.823071 22627 net.cpp:165] Memory required for data: 1561640960
I0920 08:39:58.823076 22627 layer_factory.hpp:77] Creating layer conv7_1_relu
I0920 08:39:58.823079 22627 net.cpp:100] Creating Layer conv7_1_relu
I0920 08:39:58.823082 22627 net.cpp:434] conv7_1_relu <- conv7_1_bn
I0920 08:39:58.823086 22627 net.cpp:395] conv7_1_relu -> conv7_1_bn (in-place)
I0920 08:39:58.823089 22627 net.cpp:150] Setting up conv7_1_relu
I0920 08:39:58.823093 22627 net.cpp:157] Top shape: 256 128 18 18 (10616832)
I0920 08:39:58.823096 22627 net.cpp:165] Memory required for data: 1604108288
I0920 08:39:58.823098 22627 layer_factory.hpp:77] Creating layer score
I0920 08:39:58.823107 22627 net.cpp:100] Creating Layer score
I0920 08:39:58.823109 22627 net.cpp:434] score <- conv7_1_bn
I0920 08:39:58.823114 22627 net.cpp:408] score -> score
I0920 08:39:58.823269 22627 net.cpp:150] Setting up score
I0920 08:39:58.823277 22627 net.cpp:157] Top shape: 256 4 18 18 (331776)
I0920 08:39:58.823281 22627 net.cpp:165] Memory required for data: 1605435392
I0920 08:39:58.823284 22627 layer_factory.hpp:77] Creating layer upscore
I0920 08:39:58.823292 22627 net.cpp:100] Creating Layer upscore
I0920 08:39:58.823294 22627 net.cpp:434] upscore <- score
I0920 08:39:58.823298 22627 net.cpp:408] upscore -> upscore
I0920 08:39:58.823505 22627 net.cpp:150] Setting up upscore
I0920 08:39:58.823511 22627 net.cpp:157] Top shape: 256 4 152 152 (23658496)
I0920 08:39:58.823514 22627 net.cpp:165] Memory required for data: 1700069376
I0920 08:39:58.823518 22627 layer_factory.hpp:77] Creating layer cropscore
I0920 08:39:58.823526 22627 net.cpp:100] Creating Layer cropscore
I0920 08:39:58.823530 22627 net.cpp:434] cropscore <- upscore
I0920 08:39:58.823534 22627 net.cpp:434] cropscore <- image_data_0_split_1
I0920 08:39:58.823537 22627 net.cpp:408] cropscore -> cropscore
I0920 08:39:58.823556 22627 net.cpp:150] Setting up cropscore
I0920 08:39:58.823560 22627 net.cpp:157] Top shape: 256 4 128 128 (16777216)
I0920 08:39:58.823568 22627 net.cpp:165] Memory required for data: 1767178240
I0920 08:39:58.823576 22627 layer_factory.hpp:77] Creating layer cropscore_cropscore_0_split
I0920 08:39:58.823581 22627 net.cpp:100] Creating Layer cropscore_cropscore_0_split
I0920 08:39:58.823585 22627 net.cpp:434] cropscore_cropscore_0_split <- cropscore
I0920 08:39:58.823590 22627 net.cpp:408] cropscore_cropscore_0_split -> cropscore_cropscore_0_split_0
I0920 08:39:58.823595 22627 net.cpp:408] cropscore_cropscore_0_split -> cropscore_cropscore_0_split_1
I0920 08:39:58.823617 22627 net.cpp:150] Setting up cropscore_cropscore_0_split
I0920 08:39:58.823622 22627 net.cpp:157] Top shape: 256 4 128 128 (16777216)
I0920 08:39:58.823626 22627 net.cpp:157] Top shape: 256 4 128 128 (16777216)
I0920 08:39:58.823628 22627 net.cpp:165] Memory required for data: 1901395968
I0920 08:39:58.823632 22627 layer_factory.hpp:77] Creating layer loss
I0920 08:39:58.823637 22627 net.cpp:100] Creating Layer loss
I0920 08:39:58.823639 22627 net.cpp:434] loss <- cropscore_cropscore_0_split_0
I0920 08:39:58.823642 22627 net.cpp:434] loss <- label_data_1_split_0
I0920 08:39:58.823647 22627 net.cpp:408] loss -> loss
…
