…
I0826 17:59:16.672747  5239 solver.cpp:91] Creating training net from net file: portrait_train_test_one_stage.prototxt4
I0826 17:59:16.673311  5239 net.cpp:322] The NetState phase (0) differed from the phase (1) specified by a rule in layer data
I0826 17:59:16.673480  5239 net.cpp:58] Initializing net from parameters: 
name: "segmentation"
state {
  phase: TRAIN
  level: 0
  stage: ""
}
layer {
  name: "data"
  type: "SegData"
  top: "image"
  top: "label"
  include {
    phase: TRAIN
  }
  transform_param {
    mirror: true
    crop_size: 200
  }
  data_param {
    source: "/raid/xuehan/segmentation_train_split"
    batch_size: 128
    backend: LMDB
  }
}
layer {
  name: "conv1_1"
  type: "Convolution"
  bottom: "image"
  top: "conv1_1"
  param {
    lr_mult: 1
    decay_mult: 1
  }
  convolution_param {
    num_output: 8
    bias_term: false
    pad: 50
    kernel_size: 3
    stride: 1
    weight_filler {
      type: "gaussian"
      std: 0.01
    }
  }
}
layer {
  name: "pool1"
  type: "Pooling"
  bottom: "conv1_1"
  top: "pool1"
  pooling_param {
    pool: MAX
    kernel_size: 2
    stride: 2
  }
}
layer {
  name: "conv1_1_bn"
  type: "BatchNorm"
  bottom: "pool1"
  top: "conv1_1_bn"
  param {
    lr_mult: 0
  }
  param {
    lr_mult: 0
  }
  param {
    lr_mult: 0
  }
}
layer {
  name: "conv1_1_bn_scale"
  type: "Scale"
  bottom: "conv1_1_bn"
  top: "conv1_1_bn"
  scale_param {
    bias_term: true
  }
}
layer {
  name: "conv1_1_relu"
  type: "ReLU"
  bottom: "conv1_1_bn"
  top: "conv1_1_bn"
}
layer {
  name: "conv2_1"
  type: "Convolution"
  bottom: "conv1_1_bn"
  top: "conv2_1"
  param {
    lr_mult: 1
    decay_mult: 1
  }
  convolution_param {
    num_output: 16
    bias_term: false
    pad: 1
    kernel_size: 3
    stride: 1
    weight_filler {
      type: "gaussian"
      std: 0.01
    }
  }
}
layer {
  name: "pool2"
  type: "Pooling"
  bottom: "conv2_1"
  top: "pool2"
  pooling_param {
    pool: MAX
    kernel_size: 2
    stride: 2
  }
}
layer {
  name: "conv2_1_bn"
  type: "BatchNorm"
  bottom: "pool2"
  top: "conv2_1_bn"
  param {
    lr_mult: 0
  }
  param {
    lr_mult: 0
  }
  param {
    lr_mult: 0
  }
}
layer {
  name: "conv2_1_bn_scale"
  type: "Scale"
  bottom: "conv2_1_bn"
  top: "conv2_1_bn"
  scale_param {
    bias_term: true
  }
}
layer {
  name: "conv2_1_relu"
  type: "ReLU"
  bottom: "conv2_1_bn"
  top: "conv2_1_bn"
}
layer {
  name: "conv3_1"
  type: "Convolution"
  bottom: "conv2_1_bn"
  top: "conv3_1"
  param {
    lr_mult: 1
    decay_mult: 1
  }
  convolution_param {
    num_output: 32
    bias_term: false
    pad: 1
    kernel_size: 3
    stride: 1
    weight_filler {
      type: "gaussian"
      std: 0.01
    }
  }
}
layer {
  name: "pool3"
  type: "Pooling"
  bottom: "conv3_1"
  top: "pool3"
  pooling_param {
    pool: MAX
    kernel_size: 2
    stride: 2
  }
}
layer {
  name: "conv3_1_bn"
  type: "BatchNorm"
  bottom: "pool3"
  top: "conv3_1_bn"
  param {
    lr_mult: 0
  }
  param {
    lr_mult: 0
  }
  param {
    lr_mult: 0
  }
}
layer {
  name: "conv3_1_bn_scale"
  type: "Scale"
  bottom: "conv3_1_bn"
  top: "conv3_1_bn"
  scale_param {
    bias_term: true
  }
}
layer {
  name: "conv3_1_relu"
  type: "ReLU"
  bottom: "conv3_1_bn"
  top: "conv3_1_bn"
}
layer {
  name: "conv4_1"
  type: "Convolution"
  bottom: "conv3_1_bn"
  top: "conv4_1"
  param {
    lr_mult: 1
    decay_mult: 1
  }
  convolution_param {
    num_output: 64
    bias_term: false
    pad: 1
    kernel_size: 3
    stride: 1
    weight_filler {
      type: "gaussian"
      std: 0.01
    }
  }
}
layer {
  name: "pool4"
  type: "Pooling"
  bottom: "conv4_1"
  top: "pool4"
  pooling_param {
    pool: MAX
    kernel_size: 2
    stride: 2
  }
}
layer {
  name: "conv4_1_bn"
  type: "BatchNorm"
  bottom: "pool4"
  top: "conv4_1_bn"
  param {
    lr_mult: 0
  }
  param {
    lr_mult: 0
  }
  param {
    lr_mult: 0
  }
}
layer {
  name: "conv4_1_bn_scale"
  type: "Scale"
  bottom: "conv4_1_bn"
  top: "conv4_1_bn"
  scale_param {
    bias_term: true
  }
}
layer {
  name: "conv4_1_relu"
  type: "ReLU"
  bottom: "conv4_1_bn"
  top: "conv4_1_bn"
}
layer {
  name: "conv5_1"
  type: "Convolution"
  bottom: "conv4_1_bn"
  top: "conv5_1"
  param {
    lr_mult: 1
    decay_mult: 1
  }
  convolution_param {
    num_output: 64
    bias_term: false
    pad: 0
    kernel_size: 3
    stride: 1
    weight_filler {
      type: "gaussian"
      std: 0.01
    }
  }
}
layer {
  name: "conv5_1_bn"
  type: "BatchNorm"
  bottom: "conv5_1"
  top: "conv5_1_bn"
  param {
    lr_mult: 0
  }
  param {
    lr_mult: 0
  }
  param {
    lr_mult: 0
  }
}
layer {
  name: "conv5_1_bn_scale"
  type: "Scale"
  bottom: "conv5_1_bn"
  top: "conv5_1_bn"
  scale_param {
    bias_term: true
  }
}
layer {
  name: "conv5_1_relu"
  type: "ReLU"
  bottom: "conv5_1_bn"
  top: "conv5_1_bn"
}
layer {
  name: "conv6_1"
  type: "Convolution"
  bottom: "conv5_1_bn"
  top: "conv6_1"
  param {
    lr_mult: 1
    decay_mult: 1
  }
  convolution_param {
    num_output: 64
    bias_term: false
    pad: 0
    kernel_size: 3
    stride: 1
    weight_filler {
      type: "gaussian"
      std: 0.01
    }
  }
}
layer {
  name: "conv6_1_bn"
  type: "BatchNorm"
  bottom: "conv6_1"
  top: "conv6_1_bn"
  param {
    lr_mult: 0
  }
  param {
    lr_mult: 0
  }
  param {
    lr_mult: 0
  }
}
layer {
  name: "conv6_1_bn_scale"
  type: "Scale"
  bottom: "conv6_1_bn"
  top: "conv6_1_bn"
  scale_param {
    bias_term: true
  }
}
layer {
  name: "conv6_1_relu"
  type: "ReLU"
  bottom: "conv6_1_bn"
  top: "conv6_1_bn"
}
layer {
  name: "conv7_1"
  type: "Convolution"
  bottom: "conv6_1_bn"
  top: "conv7_1"
  param {
    lr_mult: 1
    decay_mult: 1
  }
  convolution_param {
    num_output: 128
    bias_term: false
    pad: 0
    kernel_size: 3
    stride: 1
    weight_filler {
      type: "gaussian"
      std: 0.01
    }
  }
}
layer {
  name: "conv7_1_bn"
  type: "BatchNorm"
  bottom: "conv7_1"
  top: "conv7_1_bn"
  param {
    lr_mult: 0
  }
  param {
    lr_mult: 0
  }
  param {
    lr_mult: 0
  }
}
layer {
  name: "conv7_1_bn_scale"
  type: "Scale"
  bottom: "conv7_1_bn"
  top: "conv7_1_bn"
  scale_param {
    bias_term: true
  }
}
layer {
  name: "conv7_1_relu"
  type: "ReLU"
  bottom: "conv7_1_bn"
  top: "conv7_1_bn"
}
layer {
  name: "score"
  type: "Convolution"
  bottom: "conv7_1_bn"
  top: "score"
  param {
    lr_mult: 1
    decay_mult: 1
  }
  param {
    lr_mult: 2
    decay_mult: 0
  }
  convolution_param {
    num_output: 4
    pad: 0
    kernel_size: 1
    stride: 1
    weight_filler {
      type: "gaussian"
      std: 0.01
    }
    bias_filler {
      type: "constant"
    }
  }
}
layer {
  name: "upscore1"
  type: "Deconvolution"
  bottom: "score"
  top: "upscore1"
  param {
    lr_mult: 1
    decay_mult: 1
  }
  convolution_param {
    num_output: 4
    bias_term: false
    pad: 0
    kernel_size: 8
    stride: 4
    weight_filler {
      type: "gaussian"
      std: 0.01
    }
  }
}
layer {
  name: "upscore2"
  type: "Deconvolution"
  bottom: "upscore1"
  top: "upscore2"
  param {
    lr_mult: 1
    decay_mult: 1
  }
  convolution_param {
    num_output: 4
    bias_term: false
    pad: 0
    kernel_size: 8
    stride: 4
    weight_filler {
      type: "gaussian"
      std: 0.01
    }
  }
}
layer {
  name: "cropscore"
  type: "Crop"
  bottom: "upscore2"
  bottom: "image"
  top: "cropscore"
  crop_param {
    axis: 2
    offset: 14
  }
}
layer {
  name: "loss"
  type: "SoftmaxWithLoss"
  bottom: "cropscore"
  bottom: "label"
  top: "loss"
  loss_weight: 1
  loss_param {
    normalize: false
  }
}
layer {
  name: "accuracy"
  type: "Accuracy"
  bottom: "cropscore"
  bottom: "label"
  top: "accuracy"
}
I0826 17:59:16.673655  5239 layer_factory.hpp:77] Creating layer data
I0826 17:59:16.674517  5239 net.cpp:100] Creating Layer data
I0826 17:59:16.674535  5239 net.cpp:408] data -> image
I0826 17:59:16.674552  5239 net.cpp:408] data -> label
I0826 17:59:16.675978  5243 db_lmdb.cpp:35] Opened lmdb /raid/xuehan/segmentation_train_split
I0826 17:59:16.676151  5239 seg_data_layer.cpp:38] 200 200 4
I0826 17:59:16.694092  5239 seg_data_layer.cpp:51] output data size: 128,3,200,200
I0826 17:59:16.694152  5239 seg_data_layer.cpp:63] output label size: 128,1,200,200
I0826 17:59:16.798938  5239 net.cpp:150] Setting up data
I0826 17:59:16.798977  5239 net.cpp:157] Top shape: 128 3 200 200 (15360000)
I0826 17:59:16.798986  5239 net.cpp:157] Top shape: 128 1 200 200 (5120000)
I0826 17:59:16.798991  5239 net.cpp:165] Memory required for data: 81920000
I0826 17:59:16.799006  5239 layer_factory.hpp:77] Creating layer image_data_0_split
I0826 17:59:16.799027  5239 net.cpp:100] Creating Layer image_data_0_split
I0826 17:59:16.799036  5239 net.cpp:434] image_data_0_split <- image
I0826 17:59:16.799052  5239 net.cpp:408] image_data_0_split -> image_data_0_split_0
I0826 17:59:16.799064  5239 net.cpp:408] image_data_0_split -> image_data_0_split_1
I0826 17:59:16.799125  5239 net.cpp:150] Setting up image_data_0_split
I0826 17:59:16.799139  5239 net.cpp:157] Top shape: 128 3 200 200 (15360000)
I0826 17:59:16.799145  5239 net.cpp:157] Top shape: 128 3 200 200 (15360000)
I0826 17:59:16.799149  5239 net.cpp:165] Memory required for data: 204800000
I0826 17:59:16.799154  5239 layer_factory.hpp:77] Creating layer label_data_1_split
I0826 17:59:16.799160  5239 net.cpp:100] Creating Layer label_data_1_split
I0826 17:59:16.799161  5239 net.cpp:434] label_data_1_split <- label
I0826 17:59:16.799167  5239 net.cpp:408] label_data_1_split -> label_data_1_split_0
I0826 17:59:16.799172  5239 net.cpp:408] label_data_1_split -> label_data_1_split_1
I0826 17:59:16.799201  5239 net.cpp:150] Setting up label_data_1_split
I0826 17:59:16.799211  5239 net.cpp:157] Top shape: 128 1 200 200 (5120000)
I0826 17:59:16.799216  5239 net.cpp:157] Top shape: 128 1 200 200 (5120000)
I0826 17:59:16.799221  5239 net.cpp:165] Memory required for data: 245760000
I0826 17:59:16.799224  5239 layer_factory.hpp:77] Creating layer conv1_1
I0826 17:59:16.799243  5239 net.cpp:100] Creating Layer conv1_1
I0826 17:59:16.799252  5239 net.cpp:434] conv1_1 <- image_data_0_split_0
I0826 17:59:16.799259  5239 net.cpp:408] conv1_1 -> conv1_1
I0826 17:59:16.799506  5239 net.cpp:150] Setting up conv1_1
I0826 17:59:16.799520  5239 net.cpp:157] Top shape: 128 8 298 298 (90935296)
I0826 17:59:16.799525  5239 net.cpp:165] Memory required for data: 609501184
I0826 17:59:16.799541  5239 layer_factory.hpp:77] Creating layer pool1
I0826 17:59:16.799553  5239 net.cpp:100] Creating Layer pool1
I0826 17:59:16.799561  5239 net.cpp:434] pool1 <- conv1_1
I0826 17:59:16.799566  5239 net.cpp:408] pool1 -> pool1
I0826 17:59:16.799614  5239 net.cpp:150] Setting up pool1
I0826 17:59:16.799624  5239 net.cpp:157] Top shape: 128 8 149 149 (22733824)
I0826 17:59:16.799628  5239 net.cpp:165] Memory required for data: 700436480
I0826 17:59:16.799633  5239 layer_factory.hpp:77] Creating layer conv1_1_bn
I0826 17:59:16.799641  5239 net.cpp:100] Creating Layer conv1_1_bn
I0826 17:59:16.799645  5239 net.cpp:434] conv1_1_bn <- pool1
I0826 17:59:16.799654  5239 net.cpp:408] conv1_1_bn -> conv1_1_bn
I0826 17:59:16.800405  5239 net.cpp:150] Setting up conv1_1_bn
I0826 17:59:16.800420  5239 net.cpp:157] Top shape: 128 8 149 149 (22733824)
I0826 17:59:16.800426  5239 net.cpp:165] Memory required for data: 791371776
I0826 17:59:16.800441  5239 layer_factory.hpp:77] Creating layer conv1_1_bn_scale
I0826 17:59:16.800454  5239 net.cpp:100] Creating Layer conv1_1_bn_scale
I0826 17:59:16.800460  5239 net.cpp:434] conv1_1_bn_scale <- conv1_1_bn
I0826 17:59:16.800469  5239 net.cpp:395] conv1_1_bn_scale -> conv1_1_bn (in-place)
I0826 17:59:16.807031  5239 layer_factory.hpp:77] Creating layer conv1_1_bn_scale
I0826 17:59:16.807153  5239 net.cpp:150] Setting up conv1_1_bn_scale
I0826 17:59:16.807175  5239 net.cpp:157] Top shape: 128 8 149 149 (22733824)
I0826 17:59:16.807178  5239 net.cpp:165] Memory required for data: 882307072
I0826 17:59:16.807188  5239 layer_factory.hpp:77] Creating layer conv1_1_relu
I0826 17:59:16.807193  5239 net.cpp:100] Creating Layer conv1_1_relu
I0826 17:59:16.807198  5239 net.cpp:434] conv1_1_relu <- conv1_1_bn
I0826 17:59:16.807202  5239 net.cpp:395] conv1_1_relu -> conv1_1_bn (in-place)
I0826 17:59:16.807209  5239 net.cpp:150] Setting up conv1_1_relu
I0826 17:59:16.807212  5239 net.cpp:157] Top shape: 128 8 149 149 (22733824)
I0826 17:59:16.807214  5239 net.cpp:165] Memory required for data: 973242368
I0826 17:59:16.807217  5239 layer_factory.hpp:77] Creating layer conv2_1
I0826 17:59:16.807226  5239 net.cpp:100] Creating Layer conv2_1
I0826 17:59:16.807229  5239 net.cpp:434] conv2_1 <- conv1_1_bn
I0826 17:59:16.807234  5239 net.cpp:408] conv2_1 -> conv2_1
I0826 17:59:16.807765  5239 net.cpp:150] Setting up conv2_1
I0826 17:59:16.807775  5239 net.cpp:157] Top shape: 128 16 149 149 (45467648)
I0826 17:59:16.807778  5239 net.cpp:165] Memory required for data: 1155112960
I0826 17:59:16.807782  5239 layer_factory.hpp:77] Creating layer pool2
I0826 17:59:16.807788  5239 net.cpp:100] Creating Layer pool2
I0826 17:59:16.807792  5239 net.cpp:434] pool2 <- conv2_1
I0826 17:59:16.807796  5239 net.cpp:408] pool2 -> pool2
I0826 17:59:16.807821  5239 net.cpp:150] Setting up pool2
I0826 17:59:16.807827  5239 net.cpp:157] Top shape: 128 16 75 75 (11520000)
I0826 17:59:16.807831  5239 net.cpp:165] Memory required for data: 1201192960
I0826 17:59:16.807833  5239 layer_factory.hpp:77] Creating layer conv2_1_bn
I0826 17:59:16.807838  5239 net.cpp:100] Creating Layer conv2_1_bn
I0826 17:59:16.807842  5239 net.cpp:434] conv2_1_bn <- pool2
I0826 17:59:16.807845  5239 net.cpp:408] conv2_1_bn -> conv2_1_bn
I0826 17:59:16.808322  5239 net.cpp:150] Setting up conv2_1_bn
I0826 17:59:16.808332  5239 net.cpp:157] Top shape: 128 16 75 75 (11520000)
I0826 17:59:16.808336  5239 net.cpp:165] Memory required for data: 1247272960
I0826 17:59:16.808343  5239 layer_factory.hpp:77] Creating layer conv2_1_bn_scale
I0826 17:59:16.808349  5239 net.cpp:100] Creating Layer conv2_1_bn_scale
I0826 17:59:16.808353  5239 net.cpp:434] conv2_1_bn_scale <- conv2_1_bn
I0826 17:59:16.808357  5239 net.cpp:395] conv2_1_bn_scale -> conv2_1_bn (in-place)
I0826 17:59:16.808383  5239 layer_factory.hpp:77] Creating layer conv2_1_bn_scale
I0826 17:59:16.808464  5239 net.cpp:150] Setting up conv2_1_bn_scale
I0826 17:59:16.808470  5239 net.cpp:157] Top shape: 128 16 75 75 (11520000)
I0826 17:59:16.808472  5239 net.cpp:165] Memory required for data: 1293352960
I0826 17:59:16.808477  5239 layer_factory.hpp:77] Creating layer conv2_1_relu
I0826 17:59:16.808481  5239 net.cpp:100] Creating Layer conv2_1_relu
I0826 17:59:16.808485  5239 net.cpp:434] conv2_1_relu <- conv2_1_bn
I0826 17:59:16.808488  5239 net.cpp:395] conv2_1_relu -> conv2_1_bn (in-place)
I0826 17:59:16.808492  5239 net.cpp:150] Setting up conv2_1_relu
I0826 17:59:16.808496  5239 net.cpp:157] Top shape: 128 16 75 75 (11520000)
I0826 17:59:16.808498  5239 net.cpp:165] Memory required for data: 1339432960
I0826 17:59:16.808501  5239 layer_factory.hpp:77] Creating layer conv3_1
I0826 17:59:16.808508  5239 net.cpp:100] Creating Layer conv3_1
I0826 17:59:16.808511  5239 net.cpp:434] conv3_1 <- conv2_1_bn
I0826 17:59:16.808516  5239 net.cpp:408] conv3_1 -> conv3_1
I0826 17:59:16.808730  5239 net.cpp:150] Setting up conv3_1
I0826 17:59:16.808737  5239 net.cpp:157] Top shape: 128 32 75 75 (23040000)
I0826 17:59:16.808738  5239 net.cpp:165] Memory required for data: 1431592960
I0826 17:59:16.808743  5239 layer_factory.hpp:77] Creating layer pool3
I0826 17:59:16.808749  5239 net.cpp:100] Creating Layer pool3
I0826 17:59:16.808754  5239 net.cpp:434] pool3 <- conv3_1
I0826 17:59:16.808760  5239 net.cpp:408] pool3 -> pool3
I0826 17:59:16.808794  5239 net.cpp:150] Setting up pool3
I0826 17:59:16.808800  5239 net.cpp:157] Top shape: 128 32 38 38 (5914624)
I0826 17:59:16.808806  5239 net.cpp:165] Memory required for data: 1455251456
I0826 17:59:16.808815  5239 layer_factory.hpp:77] Creating layer conv3_1_bn
I0826 17:59:16.808820  5239 net.cpp:100] Creating Layer conv3_1_bn
I0826 17:59:16.808823  5239 net.cpp:434] conv3_1_bn <- pool3
I0826 17:59:16.808828  5239 net.cpp:408] conv3_1_bn -> conv3_1_bn
I0826 17:59:16.808954  5239 net.cpp:150] Setting up conv3_1_bn
I0826 17:59:16.808960  5239 net.cpp:157] Top shape: 128 32 38 38 (5914624)
I0826 17:59:16.808962  5239 net.cpp:165] Memory required for data: 1478909952
I0826 17:59:16.808969  5239 layer_factory.hpp:77] Creating layer conv3_1_bn_scale
I0826 17:59:16.808975  5239 net.cpp:100] Creating Layer conv3_1_bn_scale
I0826 17:59:16.808979  5239 net.cpp:434] conv3_1_bn_scale <- conv3_1_bn
I0826 17:59:16.808982  5239 net.cpp:395] conv3_1_bn_scale -> conv3_1_bn (in-place)
I0826 17:59:16.809007  5239 layer_factory.hpp:77] Creating layer conv3_1_bn_scale
I0826 17:59:16.809082  5239 net.cpp:150] Setting up conv3_1_bn_scale
I0826 17:59:16.809089  5239 net.cpp:157] Top shape: 128 32 38 38 (5914624)
I0826 17:59:16.809092  5239 net.cpp:165] Memory required for data: 1502568448
I0826 17:59:16.809098  5239 layer_factory.hpp:77] Creating layer conv3_1_relu
I0826 17:59:16.809103  5239 net.cpp:100] Creating Layer conv3_1_relu
I0826 17:59:16.809106  5239 net.cpp:434] conv3_1_relu <- conv3_1_bn
I0826 17:59:16.809110  5239 net.cpp:395] conv3_1_relu -> conv3_1_bn (in-place)
I0826 17:59:16.809114  5239 net.cpp:150] Setting up conv3_1_relu
I0826 17:59:16.809118  5239 net.cpp:157] Top shape: 128 32 38 38 (5914624)
I0826 17:59:16.809120  5239 net.cpp:165] Memory required for data: 1526226944
I0826 17:59:16.809123  5239 layer_factory.hpp:77] Creating layer conv4_1
I0826 17:59:16.809130  5239 net.cpp:100] Creating Layer conv4_1
I0826 17:59:16.809134  5239 net.cpp:434] conv4_1 <- conv3_1_bn
I0826 17:59:16.809137  5239 net.cpp:408] conv4_1 -> conv4_1
I0826 17:59:16.809646  5239 net.cpp:150] Setting up conv4_1
I0826 17:59:16.809653  5239 net.cpp:157] Top shape: 128 64 38 38 (11829248)
I0826 17:59:16.809655  5239 net.cpp:165] Memory required for data: 1573543936
I0826 17:59:16.809659  5239 layer_factory.hpp:77] Creating layer pool4
I0826 17:59:16.809664  5239 net.cpp:100] Creating Layer pool4
I0826 17:59:16.809666  5239 net.cpp:434] pool4 <- conv4_1
I0826 17:59:16.809671  5239 net.cpp:408] pool4 -> pool4
I0826 17:59:16.809695  5239 net.cpp:150] Setting up pool4
I0826 17:59:16.809700  5239 net.cpp:157] Top shape: 128 64 19 19 (2957312)
I0826 17:59:16.809702  5239 net.cpp:165] Memory required for data: 1585373184
I0826 17:59:16.809705  5239 layer_factory.hpp:77] Creating layer conv4_1_bn
I0826 17:59:16.809711  5239 net.cpp:100] Creating Layer conv4_1_bn
I0826 17:59:16.809713  5239 net.cpp:434] conv4_1_bn <- pool4
I0826 17:59:16.809718  5239 net.cpp:408] conv4_1_bn -> conv4_1_bn
I0826 17:59:16.810204  5239 net.cpp:150] Setting up conv4_1_bn
I0826 17:59:16.810214  5239 net.cpp:157] Top shape: 128 64 19 19 (2957312)
I0826 17:59:16.810217  5239 net.cpp:165] Memory required for data: 1597202432
I0826 17:59:16.810223  5239 layer_factory.hpp:77] Creating layer conv4_1_bn_scale
I0826 17:59:16.810231  5239 net.cpp:100] Creating Layer conv4_1_bn_scale
I0826 17:59:16.810235  5239 net.cpp:434] conv4_1_bn_scale <- conv4_1_bn
I0826 17:59:16.810240  5239 net.cpp:395] conv4_1_bn_scale -> conv4_1_bn (in-place)
I0826 17:59:16.810266  5239 layer_factory.hpp:77] Creating layer conv4_1_bn_scale
I0826 17:59:16.810340  5239 net.cpp:150] Setting up conv4_1_bn_scale
I0826 17:59:16.810345  5239 net.cpp:157] Top shape: 128 64 19 19 (2957312)
I0826 17:59:16.810348  5239 net.cpp:165] Memory required for data: 1609031680
I0826 17:59:16.810353  5239 layer_factory.hpp:77] Creating layer conv4_1_relu
I0826 17:59:16.810359  5239 net.cpp:100] Creating Layer conv4_1_relu
I0826 17:59:16.810360  5239 net.cpp:434] conv4_1_relu <- conv4_1_bn
I0826 17:59:16.810364  5239 net.cpp:395] conv4_1_relu -> conv4_1_bn (in-place)
I0826 17:59:16.810379  5239 net.cpp:150] Setting up conv4_1_relu
I0826 17:59:16.810387  5239 net.cpp:157] Top shape: 128 64 19 19 (2957312)
I0826 17:59:16.810395  5239 net.cpp:165] Memory required for data: 1620860928
I0826 17:59:16.810398  5239 layer_factory.hpp:77] Creating layer conv5_1
I0826 17:59:16.810405  5239 net.cpp:100] Creating Layer conv5_1
I0826 17:59:16.810408  5239 net.cpp:434] conv5_1 <- conv4_1_bn
I0826 17:59:16.810413  5239 net.cpp:408] conv5_1 -> conv5_1
I0826 17:59:16.811444  5239 net.cpp:150] Setting up conv5_1
I0826 17:59:16.811455  5239 net.cpp:157] Top shape: 128 64 17 17 (2367488)
I0826 17:59:16.811458  5239 net.cpp:165] Memory required for data: 1630330880
I0826 17:59:16.811465  5239 layer_factory.hpp:77] Creating layer conv5_1_bn
I0826 17:59:16.811473  5239 net.cpp:100] Creating Layer conv5_1_bn
I0826 17:59:16.811478  5239 net.cpp:434] conv5_1_bn <- conv5_1
I0826 17:59:16.811485  5239 net.cpp:408] conv5_1_bn -> conv5_1_bn
I0826 17:59:16.811668  5239 net.cpp:150] Setting up conv5_1_bn
I0826 17:59:16.811676  5239 net.cpp:157] Top shape: 128 64 17 17 (2367488)
I0826 17:59:16.811681  5239 net.cpp:165] Memory required for data: 1639800832
I0826 17:59:16.811689  5239 layer_factory.hpp:77] Creating layer conv5_1_bn_scale
I0826 17:59:16.811697  5239 net.cpp:100] Creating Layer conv5_1_bn_scale
I0826 17:59:16.811702  5239 net.cpp:434] conv5_1_bn_scale <- conv5_1_bn
I0826 17:59:16.811707  5239 net.cpp:395] conv5_1_bn_scale -> conv5_1_bn (in-place)
I0826 17:59:16.811741  5239 layer_factory.hpp:77] Creating layer conv5_1_bn_scale
I0826 17:59:16.811843  5239 net.cpp:150] Setting up conv5_1_bn_scale
I0826 17:59:16.811853  5239 net.cpp:157] Top shape: 128 64 17 17 (2367488)
I0826 17:59:16.811857  5239 net.cpp:165] Memory required for data: 1649270784
I0826 17:59:16.811866  5239 layer_factory.hpp:77] Creating layer conv5_1_relu
I0826 17:59:16.811872  5239 net.cpp:100] Creating Layer conv5_1_relu
I0826 17:59:16.811877  5239 net.cpp:434] conv5_1_relu <- conv5_1_bn
I0826 17:59:16.811882  5239 net.cpp:395] conv5_1_relu -> conv5_1_bn (in-place)
I0826 17:59:16.811888  5239 net.cpp:150] Setting up conv5_1_relu
I0826 17:59:16.811893  5239 net.cpp:157] Top shape: 128 64 17 17 (2367488)
I0826 17:59:16.811897  5239 net.cpp:165] Memory required for data: 1658740736
I0826 17:59:16.811902  5239 layer_factory.hpp:77] Creating layer conv6_1
I0826 17:59:16.811913  5239 net.cpp:100] Creating Layer conv6_1
I0826 17:59:16.811916  5239 net.cpp:434] conv6_1 <- conv5_1_bn
I0826 17:59:16.811924  5239 net.cpp:408] conv6_1 -> conv6_1
I0826 17:59:16.813406  5239 net.cpp:150] Setting up conv6_1
I0826 17:59:16.813416  5239 net.cpp:157] Top shape: 128 64 15 15 (1843200)
I0826 17:59:16.813421  5239 net.cpp:165] Memory required for data: 1666113536
I0826 17:59:16.813426  5239 layer_factory.hpp:77] Creating layer conv6_1_bn
I0826 17:59:16.813433  5239 net.cpp:100] Creating Layer conv6_1_bn
I0826 17:59:16.813437  5239 net.cpp:434] conv6_1_bn <- conv6_1
I0826 17:59:16.813443  5239 net.cpp:408] conv6_1_bn -> conv6_1_bn
I0826 17:59:16.813626  5239 net.cpp:150] Setting up conv6_1_bn
I0826 17:59:16.813633  5239 net.cpp:157] Top shape: 128 64 15 15 (1843200)
I0826 17:59:16.813637  5239 net.cpp:165] Memory required for data: 1673486336
I0826 17:59:16.813657  5239 layer_factory.hpp:77] Creating layer conv6_1_bn_scale
I0826 17:59:16.813665  5239 net.cpp:100] Creating Layer conv6_1_bn_scale
I0826 17:59:16.813670  5239 net.cpp:434] conv6_1_bn_scale <- conv6_1_bn
I0826 17:59:16.813676  5239 net.cpp:395] conv6_1_bn_scale -> conv6_1_bn (in-place)
I0826 17:59:16.813722  5239 layer_factory.hpp:77] Creating layer conv6_1_bn_scale
I0826 17:59:16.813835  5239 net.cpp:150] Setting up conv6_1_bn_scale
I0826 17:59:16.813844  5239 net.cpp:157] Top shape: 128 64 15 15 (1843200)
I0826 17:59:16.813848  5239 net.cpp:165] Memory required for data: 1680859136
I0826 17:59:16.813856  5239 layer_factory.hpp:77] Creating layer conv6_1_relu
I0826 17:59:16.813864  5239 net.cpp:100] Creating Layer conv6_1_relu
I0826 17:59:16.813869  5239 net.cpp:434] conv6_1_relu <- conv6_1_bn
I0826 17:59:16.813875  5239 net.cpp:395] conv6_1_relu -> conv6_1_bn (in-place)
I0826 17:59:16.813889  5239 net.cpp:150] Setting up conv6_1_relu
I0826 17:59:16.813904  5239 net.cpp:157] Top shape: 128 64 15 15 (1843200)
I0826 17:59:16.813907  5239 net.cpp:165] Memory required for data: 1688231936
I0826 17:59:16.813912  5239 layer_factory.hpp:77] Creating layer conv7_1
I0826 17:59:16.813922  5239 net.cpp:100] Creating Layer conv7_1
I0826 17:59:16.813927  5239 net.cpp:434] conv7_1 <- conv6_1_bn
I0826 17:59:16.813933  5239 net.cpp:408] conv7_1 -> conv7_1
I0826 17:59:16.817365  5239 net.cpp:150] Setting up conv7_1
I0826 17:59:16.817397  5239 net.cpp:157] Top shape: 128 128 13 13 (2768896)
I0826 17:59:16.817402  5239 net.cpp:165] Memory required for data: 1699307520
I0826 17:59:16.817412  5239 layer_factory.hpp:77] Creating layer conv7_1_bn
I0826 17:59:16.817430  5239 net.cpp:100] Creating Layer conv7_1_bn
I0826 17:59:16.817436  5239 net.cpp:434] conv7_1_bn <- conv7_1
I0826 17:59:16.817445  5239 net.cpp:408] conv7_1_bn -> conv7_1_bn
I0826 17:59:16.817626  5239 net.cpp:150] Setting up conv7_1_bn
I0826 17:59:16.817634  5239 net.cpp:157] Top shape: 128 128 13 13 (2768896)
I0826 17:59:16.817638  5239 net.cpp:165] Memory required for data: 1710383104
I0826 17:59:16.817648  5239 layer_factory.hpp:77] Creating layer conv7_1_bn_scale
I0826 17:59:16.817656  5239 net.cpp:100] Creating Layer conv7_1_bn_scale
I0826 17:59:16.817661  5239 net.cpp:434] conv7_1_bn_scale <- conv7_1_bn
I0826 17:59:16.817667  5239 net.cpp:395] conv7_1_bn_scale -> conv7_1_bn (in-place)
I0826 17:59:16.817703  5239 layer_factory.hpp:77] Creating layer conv7_1_bn_scale
I0826 17:59:16.817800  5239 net.cpp:150] Setting up conv7_1_bn_scale
I0826 17:59:16.817809  5239 net.cpp:157] Top shape: 128 128 13 13 (2768896)
I0826 17:59:16.817813  5239 net.cpp:165] Memory required for data: 1721458688
I0826 17:59:16.817821  5239 layer_factory.hpp:77] Creating layer conv7_1_relu
I0826 17:59:16.817829  5239 net.cpp:100] Creating Layer conv7_1_relu
I0826 17:59:16.817834  5239 net.cpp:434] conv7_1_relu <- conv7_1_bn
I0826 17:59:16.817839  5239 net.cpp:395] conv7_1_relu -> conv7_1_bn (in-place)
I0826 17:59:16.817847  5239 net.cpp:150] Setting up conv7_1_relu
I0826 17:59:16.817852  5239 net.cpp:157] Top shape: 128 128 13 13 (2768896)
I0826 17:59:16.817857  5239 net.cpp:165] Memory required for data: 1732534272
I0826 17:59:16.817860  5239 layer_factory.hpp:77] Creating layer score
I0826 17:59:16.817873  5239 net.cpp:100] Creating Layer score
I0826 17:59:16.817878  5239 net.cpp:434] score <- conv7_1_bn
I0826 17:59:16.817885  5239 net.cpp:408] score -> score
I0826 17:59:16.818126  5239 net.cpp:150] Setting up score
I0826 17:59:16.818135  5239 net.cpp:157] Top shape: 128 4 13 13 (86528)
I0826 17:59:16.818140  5239 net.cpp:165] Memory required for data: 1732880384
I0826 17:59:16.818147  5239 layer_factory.hpp:77] Creating layer upscore1
I0826 17:59:16.818157  5239 net.cpp:100] Creating Layer upscore1
I0826 17:59:16.818162  5239 net.cpp:434] upscore1 <- score
I0826 17:59:16.818171  5239 net.cpp:408] upscore1 -> upscore1
I0826 17:59:16.818384  5239 net.cpp:150] Setting up upscore1
I0826 17:59:16.818397  5239 net.cpp:157] Top shape: 128 4 56 56 (1605632)
I0826 17:59:16.818403  5239 net.cpp:165] Memory required for data: 1739302912
I0826 17:59:16.818408  5239 layer_factory.hpp:77] Creating layer upscore2
I0826 17:59:16.818418  5239 net.cpp:100] Creating Layer upscore2
I0826 17:59:16.818423  5239 net.cpp:434] upscore2 <- upscore1
I0826 17:59:16.818430  5239 net.cpp:408] upscore2 -> upscore2
I0826 17:59:16.818661  5239 net.cpp:150] Setting up upscore2
I0826 17:59:16.818675  5239 net.cpp:157] Top shape: 128 4 228 228 (26615808)
I0826 17:59:16.818680  5239 net.cpp:165] Memory required for data: 1845766144
I0826 17:59:16.818686  5239 layer_factory.hpp:77] Creating layer cropscore
I0826 17:59:16.818694  5239 net.cpp:100] Creating Layer cropscore
I0826 17:59:16.818701  5239 net.cpp:434] cropscore <- upscore2
I0826 17:59:16.818706  5239 net.cpp:434] cropscore <- image_data_0_split_1
I0826 17:59:16.818714  5239 net.cpp:408] cropscore -> cropscore
I0826 17:59:16.818745  5239 net.cpp:150] Setting up cropscore
I0826 17:59:16.818775  5239 net.cpp:157] Top shape: 128 4 200 200 (20480000)
I0826 17:59:16.818780  5239 net.cpp:165] Memory required for data: 1927686144
I0826 17:59:16.818785  5239 layer_factory.hpp:77] Creating layer cropscore_cropscore_0_split
I0826 17:59:16.818794  5239 net.cpp:100] Creating Layer cropscore_cropscore_0_split
I0826 17:59:16.818799  5239 net.cpp:434] cropscore_cropscore_0_split <- cropscore
I0826 17:59:16.818805  5239 net.cpp:408] cropscore_cropscore_0_split -> cropscore_cropscore_0_split_0
I0826 17:59:16.818814  5239 net.cpp:408] cropscore_cropscore_0_split -> cropscore_cropscore_0_split_1
I0826 17:59:16.818852  5239 net.cpp:150] Setting up cropscore_cropscore_0_split
I0826 17:59:16.818861  5239 net.cpp:157] Top shape: 128 4 200 200 (20480000)
I0826 17:59:16.818867  5239 net.cpp:157] Top shape: 128 4 200 200 (20480000)
I0826 17:59:16.818871  5239 net.cpp:165] Memory required for data: 2091526144
I0826 17:59:16.818876  5239 layer_factory.hpp:77] Creating layer loss
I0826 17:59:16.818886  5239 net.cpp:100] Creating Layer loss
I0826 17:59:16.818892  5239 net.cpp:434] loss <- cropscore_cropscore_0_split_0
I0826 17:59:16.818897  5239 net.cpp:434] loss <- label_data_1_split_0
I0826 17:59:16.818904  5239 net.cpp:408] loss -> loss
…
I0826 17:59:16.858716  5239 solver.cpp:181] Creating test net (#0) specified by net file: portrait_train_test_one_stage.prototxt4
I0826 17:59:16.858763  5239 net.cpp:322] The NetState phase (1) differed from the phase (0) specified by a rule in layer data
I0826 17:59:16.858919  5239 net.cpp:58] Initializing net from parameters: 
name: "segmentation"
state {
  phase: TEST
}
layer {
  name: "data"
  type: "SegData"
  top: "image"
  top: "label"
  include {
    phase: TEST
  }
  transform_param {
    crop_size: 200
  }
  data_param {
    source: "/raid/xuehan/segmentation_test_split"
    batch_size: 64
    backend: LMDB
  }
}
layer {
  name: "conv1_1"
  type: "Convolution"
  bottom: "image"
  top: "conv1_1"
  param {
    lr_mult: 1
    decay_mult: 1
  }
  convolution_param {
    num_output: 8
    bias_term: false
    pad: 50
    kernel_size: 3
    stride: 1
    weight_filler {
      type: "gaussian"
      std: 0.01
    }
  }
}
layer {
  name: "pool1"
  type: "Pooling"
  bottom: "conv1_1"
  top: "pool1"
  pooling_param {
    pool: MAX
    kernel_size: 2
    stride: 2
  }
}
layer {
  name: "conv1_1_bn"
  type: "BatchNorm"
  bottom: "pool1"
  top: "conv1_1_bn"
  param {
    lr_mult: 0
  }
  param {
    lr_mult: 0
  }
  param {
    lr_mult: 0
  }
}
layer {
  name: "conv1_1_bn_scale"
  type: "Scale"
  bottom: "conv1_1_bn"
  top: "conv1_1_bn"
  scale_param {
    bias_term: true
  }
}
layer {
  name: "conv1_1_relu"
  type: "ReLU"
  bottom: "conv1_1_bn"
  top: "conv1_1_bn"
}
layer {
  name: "conv2_1"
  type: "Convolution"
  bottom: "conv1_1_bn"
  top: "conv2_1"
  param {
    lr_mult: 1
    decay_mult: 1
  }
  convolution_param {
    num_output: 16
    bias_term: false
    pad: 1
    kernel_size: 3
    stride: 1
    weight_filler {
      type: "gaussian"
      std: 0.01
    }
  }
}
layer {
  name: "pool2"
  type: "Pooling"
  bottom: "conv2_1"
  top: "pool2"
  pooling_param {
    pool: MAX
    kernel_size: 2
    stride: 2
  }
}
layer {
  name: "conv2_1_bn"
  type: "BatchNorm"
  bottom: "pool2"
  top: "conv2_1_bn"
  param {
    lr_mult: 0
  }
  param {
    lr_mult: 0
  }
  param {
    lr_mult: 0
  }
}
layer {
  name: "conv2_1_bn_scale"
  type: "Scale"
  bottom: "conv2_1_bn"
  top: "conv2_1_bn"
  scale_param {
    bias_term: true
  }
}
layer {
  name: "conv2_1_relu"
  type: "ReLU"
  bottom: "conv2_1_bn"
  top: "conv2_1_bn"
}
layer {
  name: "conv3_1"
  type: "Convolution"
  bottom: "conv2_1_bn"
  top: "conv3_1"
  param {
    lr_mult: 1
    decay_mult: 1
  }
  convolution_param {
    num_output: 32
    bias_term: false
    pad: 1
    kernel_size: 3
    stride: 1
    weight_filler {
      type: "gaussian"
      std: 0.01
    }
  }
}
layer {
  name: "pool3"
  type: "Pooling"
  bottom: "conv3_1"
  top: "pool3"
  pooling_param {
    pool: MAX
    kernel_size: 2
    stride: 2
  }
}
layer {
  name: "conv3_1_bn"
  type: "BatchNorm"
  bottom: "pool3"
  top: "conv3_1_bn"
  param {
    lr_mult: 0
  }
  param {
    lr_mult: 0
  }
  param {
    lr_mult: 0
  }
}
layer {
  name: "conv3_1_bn_scale"
  type: "Scale"
  bottom: "conv3_1_bn"
  top: "conv3_1_bn"
  scale_param {
    bias_term: true
  }
}
layer {
  name: "conv3_1_relu"
  type: "ReLU"
  bottom: "conv3_1_bn"
  top: "conv3_1_bn"
}
layer {
  name: "conv4_1"
  type: "Convolution"
  bottom: "conv3_1_bn"
  top: "conv4_1"
  param {
    lr_mult: 1
    decay_mult: 1
  }
  convolution_param {
    num_output: 64
    bias_term: false
    pad: 1
    kernel_size: 3
    stride: 1
    weight_filler {
      type: "gaussian"
      std: 0.01
    }
  }
}
layer {
  name: "pool4"
  type: "Pooling"
  bottom: "conv4_1"
  top: "pool4"
  pooling_param {
    pool: MAX
    kernel_size: 2
    stride: 2
  }
}
layer {
  name: "conv4_1_bn"
  type: "BatchNorm"
  bottom: "pool4"
  top: "conv4_1_bn"
  param {
    lr_mult: 0
  }
  param {
    lr_mult: 0
  }
  param {
    lr_mult: 0
  }
}
layer {
  name: "conv4_1_bn_scale"
  type: "Scale"
  bottom: "conv4_1_bn"
  top: "conv4_1_bn"
  scale_param {
    bias_term: true
  }
}
layer {
  name: "conv4_1_relu"
  type: "ReLU"
  bottom: "conv4_1_bn"
  top: "conv4_1_bn"
}
layer {
  name: "conv5_1"
  type: "Convolution"
  bottom: "conv4_1_bn"
  top: "conv5_1"
  param {
    lr_mult: 1
    decay_mult: 1
  }
  convolution_param {
    num_output: 64
    bias_term: false
    pad: 0
    kernel_size: 3
    stride: 1
    weight_filler {
      type: "gaussian"
      std: 0.01
    }
  }
}
layer {
  name: "conv5_1_bn"
  type: "BatchNorm"
  bottom: "conv5_1"
  top: "conv5_1_bn"
  param {
    lr_mult: 0
  }
  param {
    lr_mult: 0
  }
  param {
    lr_mult: 0
  }
}
layer {
  name: "conv5_1_bn_scale"
  type: "Scale"
  bottom: "conv5_1_bn"
  top: "conv5_1_bn"
  scale_param {
    bias_term: true
  }
}
layer {
  name: "conv5_1_relu"
  type: "ReLU"
  bottom: "conv5_1_bn"
  top: "conv5_1_bn"
}
layer {
  name: "conv6_1"
  type: "Convolution"
  bottom: "conv5_1_bn"
  top: "conv6_1"
  param {
    lr_mult: 1
    decay_mult: 1
  }
  convolution_param {
    num_output: 64
    bias_term: false
    pad: 0
    kernel_size: 3
    stride: 1
    weight_filler {
      type: "gaussian"
      std: 0.01
    }
  }
}
layer {
  name: "conv6_1_bn"
  type: "BatchNorm"
  bottom: "conv6_1"
  top: "conv6_1_bn"
  param {
    lr_mult: 0
  }
  param {
    lr_mult: 0
  }
  param {
    lr_mult: 0
  }
}
layer {
  name: "conv6_1_bn_scale"
  type: "Scale"
  bottom: "conv6_1_bn"
  top: "conv6_1_bn"
  scale_param {
    bias_term: true
  }
}
layer {
  name: "conv6_1_relu"
  type: "ReLU"
  bottom: "conv6_1_bn"
  top: "conv6_1_bn"
}
layer {
  name: "conv7_1"
  type: "Convolution"
  bottom: "conv6_1_bn"
  top: "conv7_1"
  param {
    lr_mult: 1
    decay_mult: 1
  }
  convolution_param {
    num_output: 128
    bias_term: false
    pad: 0
    kernel_size: 3
    stride: 1
    weight_filler {
      type: "gaussian"
      std: 0.01
    }
  }
}
layer {
  name: "conv7_1_bn"
  type: "BatchNorm"
  bottom: "conv7_1"
  top: "conv7_1_bn"
  param {
    lr_mult: 0
  }
  param {
    lr_mult: 0
  }
  param {
    lr_mult: 0
  }
}
layer {
  name: "conv7_1_bn_scale"
  type: "Scale"
  bottom: "conv7_1_bn"
  top: "conv7_1_bn"
  scale_param {
    bias_term: true
  }
}
layer {
  name: "conv7_1_relu"
  type: "ReLU"
  bottom: "conv7_1_bn"
  top: "conv7_1_bn"
}
layer {
  name: "score"
  type: "Convolution"
  bottom: "conv7_1_bn"
  top: "score"
  param {
    lr_mult: 1
    decay_mult: 1
  }
  param {
    lr_mult: 2
    decay_mult: 0
  }
  convolution_param {
    num_output: 4
    pad: 0
    kernel_size: 1
    stride: 1
    weight_filler {
      type: "gaussian"
      std: 0.01
    }
    bias_filler {
      type: "constant"
    }
  }
}
layer {
  name: "upscore1"
  type: "Deconvolution"
  bottom: "score"
  top: "upscore1"
  param {
    lr_mult: 1
    decay_mult: 1
  }
  convolution_param {
    num_output: 4
    bias_term: false
    pad: 0
    kernel_size: 8
    stride: 4
    weight_filler {
      type: "gaussian"
      std: 0.01
    }
  }
}
layer {
  name: "upscore2"
  type: "Deconvolution"
  bottom: "upscore1"
  top: "upscore2"
  param {
    lr_mult: 1
    decay_mult: 1
  }
  convolution_param {
    num_output: 4
    bias_term: false
    pad: 0
    kernel_size: 8
    stride: 4
    weight_filler {
      type: "gaussian"
      std: 0.01
    }
  }
}
layer {
  name: "cropscore"
  type: "Crop"
  bottom: "upscore2"
  bottom: "image"
  top: "cropscore"
  crop_param {
    axis: 2
    offset: 14
  }
}
layer {
  name: "loss"
  type: "SoftmaxWithLoss"
  bottom: "cropscore"
  bottom: "label"
  top: "loss"
  loss_weight: 1
  loss_param {
    normalize: false
  }
}
layer {
  name: "accuracy"
  type: "Accuracy"
  bottom: "cropscore"
  bottom: "label"
  top: "accuracy"
}
I0826 17:59:16.859040  5239 layer_factory.hpp:77] Creating layer data
I0826 17:59:16.859117  5239 net.cpp:100] Creating Layer data
I0826 17:59:16.859124  5239 net.cpp:408] data -> image
I0826 17:59:16.859132  5239 net.cpp:408] data -> label
I0826 17:59:16.860982  5245 db_lmdb.cpp:35] Opened lmdb /raid/xuehan/segmentation_test_split
I0826 17:59:16.861165  5239 seg_data_layer.cpp:38] 200 200 4
I0826 17:59:16.861295  5239 seg_data_layer.cpp:51] output data size: 64,3,200,200
I0826 17:59:16.861366  5239 seg_data_layer.cpp:63] output label size: 64,1,200,200
I0826 17:59:16.932874  5239 net.cpp:150] Setting up data
I0826 17:59:16.932911  5239 net.cpp:157] Top shape: 64 3 200 200 (7680000)
I0826 17:59:16.932920  5239 net.cpp:157] Top shape: 64 1 200 200 (2560000)
I0826 17:59:16.932924  5239 net.cpp:165] Memory required for data: 40960000
I0826 17:59:16.932931  5239 layer_factory.hpp:77] Creating layer image_data_0_split
I0826 17:59:16.932945  5239 net.cpp:100] Creating Layer image_data_0_split
I0826 17:59:16.932950  5239 net.cpp:434] image_data_0_split <- image
I0826 17:59:16.932961  5239 net.cpp:408] image_data_0_split -> image_data_0_split_0
I0826 17:59:16.932972  5239 net.cpp:408] image_data_0_split -> image_data_0_split_1
I0826 17:59:16.933042  5239 net.cpp:150] Setting up image_data_0_split
I0826 17:59:16.933051  5239 net.cpp:157] Top shape: 64 3 200 200 (7680000)
I0826 17:59:16.933058  5239 net.cpp:157] Top shape: 64 3 200 200 (7680000)
I0826 17:59:16.933061  5239 net.cpp:165] Memory required for data: 102400000
I0826 17:59:16.933066  5239 layer_factory.hpp:77] Creating layer label_data_1_split
I0826 17:59:16.933076  5239 net.cpp:100] Creating Layer label_data_1_split
I0826 17:59:16.933082  5239 net.cpp:434] label_data_1_split <- label
I0826 17:59:16.933091  5239 net.cpp:408] label_data_1_split -> label_data_1_split_0
I0826 17:59:16.933099  5239 net.cpp:408] label_data_1_split -> label_data_1_split_1
I0826 17:59:16.933132  5239 net.cpp:150] Setting up label_data_1_split
I0826 17:59:16.933140  5239 net.cpp:157] Top shape: 64 1 200 200 (2560000)
I0826 17:59:16.933148  5239 net.cpp:157] Top shape: 64 1 200 200 (2560000)
I0826 17:59:16.933153  5239 net.cpp:165] Memory required for data: 122880000
I0826 17:59:16.933159  5239 layer_factory.hpp:77] Creating layer conv1_1
I0826 17:59:16.933174  5239 net.cpp:100] Creating Layer conv1_1
I0826 17:59:16.933179  5239 net.cpp:434] conv1_1 <- image_data_0_split_0
I0826 17:59:16.933189  5239 net.cpp:408] conv1_1 -> conv1_1
I0826 17:59:16.933399  5239 net.cpp:150] Setting up conv1_1
I0826 17:59:16.933410  5239 net.cpp:157] Top shape: 64 8 298 298 (45467648)
I0826 17:59:16.933416  5239 net.cpp:165] Memory required for data: 304750592
I0826 17:59:16.933426  5239 layer_factory.hpp:77] Creating layer pool1
I0826 17:59:16.933435  5239 net.cpp:100] Creating Layer pool1
I0826 17:59:16.933440  5239 net.cpp:434] pool1 <- conv1_1
I0826 17:59:16.933454  5239 net.cpp:408] pool1 -> pool1
I0826 17:59:16.933503  5239 net.cpp:150] Setting up pool1
I0826 17:59:16.933511  5239 net.cpp:157] Top shape: 64 8 149 149 (11366912)
I0826 17:59:16.933516  5239 net.cpp:165] Memory required for data: 350218240
I0826 17:59:16.933522  5239 layer_factory.hpp:77] Creating layer conv1_1_bn
I0826 17:59:16.933531  5239 net.cpp:100] Creating Layer conv1_1_bn
I0826 17:59:16.933537  5239 net.cpp:434] conv1_1_bn <- pool1
I0826 17:59:16.933545  5239 net.cpp:408] conv1_1_bn -> conv1_1_bn
I0826 17:59:16.933773  5239 net.cpp:150] Setting up conv1_1_bn
I0826 17:59:16.933782  5239 net.cpp:157] Top shape: 64 8 149 149 (11366912)
I0826 17:59:16.933786  5239 net.cpp:165] Memory required for data: 395685888
I0826 17:59:16.933799  5239 layer_factory.hpp:77] Creating layer conv1_1_bn_scale
I0826 17:59:16.933807  5239 net.cpp:100] Creating Layer conv1_1_bn_scale
I0826 17:59:16.933812  5239 net.cpp:434] conv1_1_bn_scale <- conv1_1_bn
I0826 17:59:16.933818  5239 net.cpp:395] conv1_1_bn_scale -> conv1_1_bn (in-place)
I0826 17:59:16.933864  5239 layer_factory.hpp:77] Creating layer conv1_1_bn_scale
I0826 17:59:16.934022  5239 net.cpp:150] Setting up conv1_1_bn_scale
I0826 17:59:16.934036  5239 net.cpp:157] Top shape: 64 8 149 149 (11366912)
I0826 17:59:16.934041  5239 net.cpp:165] Memory required for data: 441153536
I0826 17:59:16.934051  5239 layer_factory.hpp:77] Creating layer conv1_1_relu
I0826 17:59:16.934061  5239 net.cpp:100] Creating Layer conv1_1_relu
I0826 17:59:16.934065  5239 net.cpp:434] conv1_1_relu <- conv1_1_bn
I0826 17:59:16.934070  5239 net.cpp:395] conv1_1_relu -> conv1_1_bn (in-place)
I0826 17:59:16.934077  5239 net.cpp:150] Setting up conv1_1_relu
I0826 17:59:16.934082  5239 net.cpp:157] Top shape: 64 8 149 149 (11366912)
I0826 17:59:16.934087  5239 net.cpp:165] Memory required for data: 486621184
I0826 17:59:16.934090  5239 layer_factory.hpp:77] Creating layer conv2_1
I0826 17:59:16.934101  5239 net.cpp:100] Creating Layer conv2_1
I0826 17:59:16.934105  5239 net.cpp:434] conv2_1 <- conv1_1_bn
I0826 17:59:16.934113  5239 net.cpp:408] conv2_1 -> conv2_1
I0826 17:59:16.934386  5239 net.cpp:150] Setting up conv2_1
I0826 17:59:16.934401  5239 net.cpp:157] Top shape: 64 16 149 149 (22733824)
I0826 17:59:16.934407  5239 net.cpp:165] Memory required for data: 577556480
I0826 17:59:16.934415  5239 layer_factory.hpp:77] Creating layer pool2
I0826 17:59:16.934424  5239 net.cpp:100] Creating Layer pool2
I0826 17:59:16.934429  5239 net.cpp:434] pool2 <- conv2_1
I0826 17:59:16.934434  5239 net.cpp:408] pool2 -> pool2
I0826 17:59:16.934471  5239 net.cpp:150] Setting up pool2
I0826 17:59:16.934479  5239 net.cpp:157] Top shape: 64 16 75 75 (5760000)
I0826 17:59:16.934484  5239 net.cpp:165] Memory required for data: 600596480
I0826 17:59:16.934489  5239 layer_factory.hpp:77] Creating layer conv2_1_bn
I0826 17:59:16.934495  5239 net.cpp:100] Creating Layer conv2_1_bn
I0826 17:59:16.934500  5239 net.cpp:434] conv2_1_bn <- pool2
I0826 17:59:16.934507  5239 net.cpp:408] conv2_1_bn -> conv2_1_bn
I0826 17:59:16.934717  5239 net.cpp:150] Setting up conv2_1_bn
I0826 17:59:16.934725  5239 net.cpp:157] Top shape: 64 16 75 75 (5760000)
I0826 17:59:16.934729  5239 net.cpp:165] Memory required for data: 623636480
I0826 17:59:16.934744  5239 layer_factory.hpp:77] Creating layer conv2_1_bn_scale
I0826 17:59:16.934752  5239 net.cpp:100] Creating Layer conv2_1_bn_scale
I0826 17:59:16.934757  5239 net.cpp:434] conv2_1_bn_scale <- conv2_1_bn
I0826 17:59:16.934762  5239 net.cpp:395] conv2_1_bn_scale -> conv2_1_bn (in-place)
I0826 17:59:16.934808  5239 layer_factory.hpp:77] Creating layer conv2_1_bn_scale
I0826 17:59:16.934936  5239 net.cpp:150] Setting up conv2_1_bn_scale
I0826 17:59:16.934945  5239 net.cpp:157] Top shape: 64 16 75 75 (5760000)
I0826 17:59:16.934948  5239 net.cpp:165] Memory required for data: 646676480
I0826 17:59:16.934955  5239 layer_factory.hpp:77] Creating layer conv2_1_relu
I0826 17:59:16.934963  5239 net.cpp:100] Creating Layer conv2_1_relu
I0826 17:59:16.934968  5239 net.cpp:434] conv2_1_relu <- conv2_1_bn
I0826 17:59:16.934979  5239 net.cpp:395] conv2_1_relu -> conv2_1_bn (in-place)
I0826 17:59:16.934996  5239 net.cpp:150] Setting up conv2_1_relu
I0826 17:59:16.935005  5239 net.cpp:157] Top shape: 64 16 75 75 (5760000)
I0826 17:59:16.935009  5239 net.cpp:165] Memory required for data: 669716480
I0826 17:59:16.935014  5239 layer_factory.hpp:77] Creating layer conv3_1
I0826 17:59:16.935024  5239 net.cpp:100] Creating Layer conv3_1
I0826 17:59:16.935029  5239 net.cpp:434] conv3_1 <- conv2_1_bn
I0826 17:59:16.935034  5239 net.cpp:408] conv3_1 -> conv3_1
I0826 17:59:16.935379  5239 net.cpp:150] Setting up conv3_1
I0826 17:59:16.935389  5239 net.cpp:157] Top shape: 64 32 75 75 (11520000)
I0826 17:59:16.935395  5239 net.cpp:165] Memory required for data: 715796480
I0826 17:59:16.935400  5239 layer_factory.hpp:77] Creating layer pool3
I0826 17:59:16.935406  5239 net.cpp:100] Creating Layer pool3
I0826 17:59:16.935410  5239 net.cpp:434] pool3 <- conv3_1
I0826 17:59:16.935416  5239 net.cpp:408] pool3 -> pool3
I0826 17:59:16.935452  5239 net.cpp:150] Setting up pool3
I0826 17:59:16.935461  5239 net.cpp:157] Top shape: 64 32 38 38 (2957312)
I0826 17:59:16.935467  5239 net.cpp:165] Memory required for data: 727625728
I0826 17:59:16.935472  5239 layer_factory.hpp:77] Creating layer conv3_1_bn
I0826 17:59:16.935480  5239 net.cpp:100] Creating Layer conv3_1_bn
I0826 17:59:16.935485  5239 net.cpp:434] conv3_1_bn <- pool3
I0826 17:59:16.935493  5239 net.cpp:408] conv3_1_bn -> conv3_1_bn
I0826 17:59:16.935698  5239 net.cpp:150] Setting up conv3_1_bn
I0826 17:59:16.935706  5239 net.cpp:157] Top shape: 64 32 38 38 (2957312)
I0826 17:59:16.935710  5239 net.cpp:165] Memory required for data: 739454976
I0826 17:59:16.935719  5239 layer_factory.hpp:77] Creating layer conv3_1_bn_scale
I0826 17:59:16.935729  5239 net.cpp:100] Creating Layer conv3_1_bn_scale
I0826 17:59:16.935734  5239 net.cpp:434] conv3_1_bn_scale <- conv3_1_bn
I0826 17:59:16.935739  5239 net.cpp:395] conv3_1_bn_scale -> conv3_1_bn (in-place)
I0826 17:59:16.935784  5239 layer_factory.hpp:77] Creating layer conv3_1_bn_scale
I0826 17:59:16.935905  5239 net.cpp:150] Setting up conv3_1_bn_scale
I0826 17:59:16.935914  5239 net.cpp:157] Top shape: 64 32 38 38 (2957312)
I0826 17:59:16.935919  5239 net.cpp:165] Memory required for data: 751284224
I0826 17:59:16.935931  5239 layer_factory.hpp:77] Creating layer conv3_1_relu
I0826 17:59:16.935938  5239 net.cpp:100] Creating Layer conv3_1_relu
I0826 17:59:16.935945  5239 net.cpp:434] conv3_1_relu <- conv3_1_bn
I0826 17:59:16.935952  5239 net.cpp:395] conv3_1_relu -> conv3_1_bn (in-place)
I0826 17:59:16.935961  5239 net.cpp:150] Setting up conv3_1_relu
I0826 17:59:16.935967  5239 net.cpp:157] Top shape: 64 32 38 38 (2957312)
I0826 17:59:16.935971  5239 net.cpp:165] Memory required for data: 763113472
I0826 17:59:16.935974  5239 layer_factory.hpp:77] Creating layer conv4_1
I0826 17:59:16.935984  5239 net.cpp:100] Creating Layer conv4_1
I0826 17:59:16.935988  5239 net.cpp:434] conv4_1 <- conv3_1_bn
I0826 17:59:16.935994  5239 net.cpp:408] conv4_1 -> conv4_1
I0826 17:59:16.936800  5239 net.cpp:150] Setting up conv4_1
I0826 17:59:16.936812  5239 net.cpp:157] Top shape: 64 64 38 38 (5914624)
I0826 17:59:16.936818  5239 net.cpp:165] Memory required for data: 786771968
I0826 17:59:16.936825  5239 layer_factory.hpp:77] Creating layer pool4
I0826 17:59:16.936832  5239 net.cpp:100] Creating Layer pool4
I0826 17:59:16.936836  5239 net.cpp:434] pool4 <- conv4_1
I0826 17:59:16.936843  5239 net.cpp:408] pool4 -> pool4
I0826 17:59:16.936882  5239 net.cpp:150] Setting up pool4
I0826 17:59:16.936892  5239 net.cpp:157] Top shape: 64 64 19 19 (1478656)
I0826 17:59:16.936897  5239 net.cpp:165] Memory required for data: 792686592
I0826 17:59:16.936902  5239 layer_factory.hpp:77] Creating layer conv4_1_bn
I0826 17:59:16.936910  5239 net.cpp:100] Creating Layer conv4_1_bn
I0826 17:59:16.936914  5239 net.cpp:434] conv4_1_bn <- pool4
I0826 17:59:16.936921  5239 net.cpp:408] conv4_1_bn -> conv4_1_bn
I0826 17:59:16.937120  5239 net.cpp:150] Setting up conv4_1_bn
I0826 17:59:16.937134  5239 net.cpp:157] Top shape: 64 64 19 19 (1478656)
I0826 17:59:16.937144  5239 net.cpp:165] Memory required for data: 798601216
I0826 17:59:16.937153  5239 layer_factory.hpp:77] Creating layer conv4_1_bn_scale
I0826 17:59:16.937160  5239 net.cpp:100] Creating Layer conv4_1_bn_scale
I0826 17:59:16.937165  5239 net.cpp:434] conv4_1_bn_scale <- conv4_1_bn
I0826 17:59:16.937171  5239 net.cpp:395] conv4_1_bn_scale -> conv4_1_bn (in-place)
I0826 17:59:16.937217  5239 layer_factory.hpp:77] Creating layer conv4_1_bn_scale
I0826 17:59:16.937337  5239 net.cpp:150] Setting up conv4_1_bn_scale
I0826 17:59:16.937346  5239 net.cpp:157] Top shape: 64 64 19 19 (1478656)
I0826 17:59:16.937350  5239 net.cpp:165] Memory required for data: 804515840
I0826 17:59:16.937357  5239 layer_factory.hpp:77] Creating layer conv4_1_relu
I0826 17:59:16.937366  5239 net.cpp:100] Creating Layer conv4_1_relu
I0826 17:59:16.937371  5239 net.cpp:434] conv4_1_relu <- conv4_1_bn
I0826 17:59:16.937378  5239 net.cpp:395] conv4_1_relu -> conv4_1_bn (in-place)
I0826 17:59:16.937386  5239 net.cpp:150] Setting up conv4_1_relu
I0826 17:59:16.937392  5239 net.cpp:157] Top shape: 64 64 19 19 (1478656)
I0826 17:59:16.937397  5239 net.cpp:165] Memory required for data: 810430464
I0826 17:59:16.937400  5239 layer_factory.hpp:77] Creating layer conv5_1
I0826 17:59:16.937409  5239 net.cpp:100] Creating Layer conv5_1
I0826 17:59:16.937413  5239 net.cpp:434] conv5_1 <- conv4_1_bn
I0826 17:59:16.937420  5239 net.cpp:408] conv5_1 -> conv5_1
I0826 17:59:16.940182  5239 net.cpp:150] Setting up conv5_1
I0826 17:59:16.940215  5239 net.cpp:157] Top shape: 64 64 17 17 (1183744)
I0826 17:59:16.940222  5239 net.cpp:165] Memory required for data: 815165440
I0826 17:59:16.940232  5239 layer_factory.hpp:77] Creating layer conv5_1_bn
I0826 17:59:16.940243  5239 net.cpp:100] Creating Layer conv5_1_bn
I0826 17:59:16.940249  5239 net.cpp:434] conv5_1_bn <- conv5_1
I0826 17:59:16.940258  5239 net.cpp:408] conv5_1_bn -> conv5_1_bn
I0826 17:59:16.944811  5239 net.cpp:150] Setting up conv5_1_bn
I0826 17:59:16.944844  5239 net.cpp:157] Top shape: 64 64 17 17 (1183744)
I0826 17:59:16.944849  5239 net.cpp:165] Memory required for data: 819900416
I0826 17:59:16.944864  5239 layer_factory.hpp:77] Creating layer conv5_1_bn_scale
I0826 17:59:16.944878  5239 net.cpp:100] Creating Layer conv5_1_bn_scale
I0826 17:59:16.944887  5239 net.cpp:434] conv5_1_bn_scale <- conv5_1_bn
I0826 17:59:16.944897  5239 net.cpp:395] conv5_1_bn_scale -> conv5_1_bn (in-place)
I0826 17:59:16.944947  5239 layer_factory.hpp:77] Creating layer conv5_1_bn_scale
I0826 17:59:16.945083  5239 net.cpp:150] Setting up conv5_1_bn_scale
I0826 17:59:16.945093  5239 net.cpp:157] Top shape: 64 64 17 17 (1183744)
I0826 17:59:16.945097  5239 net.cpp:165] Memory required for data: 824635392
I0826 17:59:16.945104  5239 layer_factory.hpp:77] Creating layer conv5_1_relu
I0826 17:59:16.945111  5239 net.cpp:100] Creating Layer conv5_1_relu
I0826 17:59:16.945116  5239 net.cpp:434] conv5_1_relu <- conv5_1_bn
I0826 17:59:16.945123  5239 net.cpp:395] conv5_1_relu -> conv5_1_bn (in-place)
I0826 17:59:16.945132  5239 net.cpp:150] Setting up conv5_1_relu
I0826 17:59:16.945138  5239 net.cpp:157] Top shape: 64 64 17 17 (1183744)
I0826 17:59:16.945143  5239 net.cpp:165] Memory required for data: 829370368
I0826 17:59:16.945149  5239 layer_factory.hpp:77] Creating layer conv6_1
I0826 17:59:16.945163  5239 net.cpp:100] Creating Layer conv6_1
I0826 17:59:16.945169  5239 net.cpp:434] conv6_1 <- conv5_1_bn
I0826 17:59:16.945175  5239 net.cpp:408] conv6_1 -> conv6_1
I0826 17:59:16.946727  5239 net.cpp:150] Setting up conv6_1
I0826 17:59:16.946751  5239 net.cpp:157] Top shape: 64 64 15 15 (921600)
I0826 17:59:16.946758  5239 net.cpp:165] Memory required for data: 833056768
I0826 17:59:16.946765  5239 layer_factory.hpp:77] Creating layer conv6_1_bn
I0826 17:59:16.946774  5239 net.cpp:100] Creating Layer conv6_1_bn
I0826 17:59:16.946780  5239 net.cpp:434] conv6_1_bn <- conv6_1
I0826 17:59:16.946789  5239 net.cpp:408] conv6_1_bn -> conv6_1_bn
I0826 17:59:16.947015  5239 net.cpp:150] Setting up conv6_1_bn
I0826 17:59:16.947036  5239 net.cpp:157] Top shape: 64 64 15 15 (921600)
I0826 17:59:16.947041  5239 net.cpp:165] Memory required for data: 836743168
I0826 17:59:16.947058  5239 layer_factory.hpp:77] Creating layer conv6_1_bn_scale
I0826 17:59:16.947067  5239 net.cpp:100] Creating Layer conv6_1_bn_scale
I0826 17:59:16.947072  5239 net.cpp:434] conv6_1_bn_scale <- conv6_1_bn
I0826 17:59:16.947080  5239 net.cpp:395] conv6_1_bn_scale -> conv6_1_bn (in-place)
I0826 17:59:16.947126  5239 layer_factory.hpp:77] Creating layer conv6_1_bn_scale
I0826 17:59:16.947262  5239 net.cpp:150] Setting up conv6_1_bn_scale
I0826 17:59:16.947271  5239 net.cpp:157] Top shape: 64 64 15 15 (921600)
I0826 17:59:16.947275  5239 net.cpp:165] Memory required for data: 840429568
I0826 17:59:16.947283  5239 layer_factory.hpp:77] Creating layer conv6_1_relu
I0826 17:59:16.947290  5239 net.cpp:100] Creating Layer conv6_1_relu
I0826 17:59:16.947295  5239 net.cpp:434] conv6_1_relu <- conv6_1_bn
I0826 17:59:16.947304  5239 net.cpp:395] conv6_1_relu -> conv6_1_bn (in-place)
I0826 17:59:16.947311  5239 net.cpp:150] Setting up conv6_1_relu
I0826 17:59:16.947317  5239 net.cpp:157] Top shape: 64 64 15 15 (921600)
I0826 17:59:16.947321  5239 net.cpp:165] Memory required for data: 844115968
I0826 17:59:16.947325  5239 layer_factory.hpp:77] Creating layer conv7_1
I0826 17:59:16.947335  5239 net.cpp:100] Creating Layer conv7_1
I0826 17:59:16.947340  5239 net.cpp:434] conv7_1 <- conv6_1_bn
I0826 17:59:16.947346  5239 net.cpp:408] conv7_1 -> conv7_1
I0826 17:59:16.950120  5239 net.cpp:150] Setting up conv7_1
I0826 17:59:16.950155  5239 net.cpp:157] Top shape: 64 128 13 13 (1384448)
I0826 17:59:16.950163  5239 net.cpp:165] Memory required for data: 849653760
I0826 17:59:16.950176  5239 layer_factory.hpp:77] Creating layer conv7_1_bn
I0826 17:59:16.950197  5239 net.cpp:100] Creating Layer conv7_1_bn
I0826 17:59:16.950207  5239 net.cpp:434] conv7_1_bn <- conv7_1
I0826 17:59:16.950218  5239 net.cpp:408] conv7_1_bn -> conv7_1_bn
I0826 17:59:16.951932  5239 net.cpp:150] Setting up conv7_1_bn
I0826 17:59:16.951963  5239 net.cpp:157] Top shape: 64 128 13 13 (1384448)
I0826 17:59:16.951967  5239 net.cpp:165] Memory required for data: 855191552
I0826 17:59:16.951982  5239 layer_factory.hpp:77] Creating layer conv7_1_bn_scale
I0826 17:59:16.951992  5239 net.cpp:100] Creating Layer conv7_1_bn_scale
I0826 17:59:16.951998  5239 net.cpp:434] conv7_1_bn_scale <- conv7_1_bn
I0826 17:59:16.952006  5239 net.cpp:395] conv7_1_bn_scale -> conv7_1_bn (in-place)
I0826 17:59:16.952057  5239 layer_factory.hpp:77] Creating layer conv7_1_bn_scale
I0826 17:59:16.952163  5239 net.cpp:150] Setting up conv7_1_bn_scale
I0826 17:59:16.952172  5239 net.cpp:157] Top shape: 64 128 13 13 (1384448)
I0826 17:59:16.952177  5239 net.cpp:165] Memory required for data: 860729344
I0826 17:59:16.952183  5239 layer_factory.hpp:77] Creating layer conv7_1_relu
I0826 17:59:16.952193  5239 net.cpp:100] Creating Layer conv7_1_relu
I0826 17:59:16.952198  5239 net.cpp:434] conv7_1_relu <- conv7_1_bn
I0826 17:59:16.952203  5239 net.cpp:395] conv7_1_relu -> conv7_1_bn (in-place)
I0826 17:59:16.952210  5239 net.cpp:150] Setting up conv7_1_relu
I0826 17:59:16.952216  5239 net.cpp:157] Top shape: 64 128 13 13 (1384448)
I0826 17:59:16.952220  5239 net.cpp:165] Memory required for data: 866267136
I0826 17:59:16.952225  5239 layer_factory.hpp:77] Creating layer score
I0826 17:59:16.952239  5239 net.cpp:100] Creating Layer score
I0826 17:59:16.952242  5239 net.cpp:434] score <- conv7_1_bn
I0826 17:59:16.952250  5239 net.cpp:408] score -> score
I0826 17:59:16.952517  5239 net.cpp:150] Setting up score
I0826 17:59:16.952527  5239 net.cpp:157] Top shape: 64 4 13 13 (43264)
I0826 17:59:16.952530  5239 net.cpp:165] Memory required for data: 866440192
I0826 17:59:16.952538  5239 layer_factory.hpp:77] Creating layer upscore1
I0826 17:59:16.952548  5239 net.cpp:100] Creating Layer upscore1
I0826 17:59:16.952553  5239 net.cpp:434] upscore1 <- score
I0826 17:59:16.952571  5239 net.cpp:408] upscore1 -> upscore1
I0826 17:59:16.952797  5239 net.cpp:150] Setting up upscore1
I0826 17:59:16.952807  5239 net.cpp:157] Top shape: 64 4 56 56 (802816)
I0826 17:59:16.952811  5239 net.cpp:165] Memory required for data: 869651456
I0826 17:59:16.952817  5239 layer_factory.hpp:77] Creating layer upscore2
I0826 17:59:16.952826  5239 net.cpp:100] Creating Layer upscore2
I0826 17:59:16.952829  5239 net.cpp:434] upscore2 <- upscore1
I0826 17:59:16.952839  5239 net.cpp:408] upscore2 -> upscore2
I0826 17:59:16.953060  5239 net.cpp:150] Setting up upscore2
I0826 17:59:16.953073  5239 net.cpp:157] Top shape: 64 4 228 228 (13307904)
I0826 17:59:16.953078  5239 net.cpp:165] Memory required for data: 922883072
I0826 17:59:16.953084  5239 layer_factory.hpp:77] Creating layer cropscore
I0826 17:59:16.953094  5239 net.cpp:100] Creating Layer cropscore
I0826 17:59:16.953100  5239 net.cpp:434] cropscore <- upscore2
I0826 17:59:16.953106  5239 net.cpp:434] cropscore <- image_data_0_split_1
I0826 17:59:16.953112  5239 net.cpp:408] cropscore -> cropscore
I0826 17:59:16.953138  5239 net.cpp:150] Setting up cropscore
I0826 17:59:16.953147  5239 net.cpp:157] Top shape: 64 4 200 200 (10240000)
I0826 17:59:16.953151  5239 net.cpp:165] Memory required for data: 963843072
I0826 17:59:16.953156  5239 layer_factory.hpp:77] Creating layer cropscore_cropscore_0_split
I0826 17:59:16.953164  5239 net.cpp:100] Creating Layer cropscore_cropscore_0_split
I0826 17:59:16.953169  5239 net.cpp:434] cropscore_cropscore_0_split <- cropscore
I0826 17:59:16.953178  5239 net.cpp:408] cropscore_cropscore_0_split -> cropscore_cropscore_0_split_0
I0826 17:59:16.953188  5239 net.cpp:408] cropscore_cropscore_0_split -> cropscore_cropscore_0_split_1
I0826 17:59:16.953230  5239 net.cpp:150] Setting up cropscore_cropscore_0_split
I0826 17:59:16.953243  5239 net.cpp:157] Top shape: 64 4 200 200 (10240000)
I0826 17:59:16.953248  5239 net.cpp:157] Top shape: 64 4 200 200 (10240000)
I0826 17:59:16.953253  5239 net.cpp:165] Memory required for data: 1045763072
I0826 17:59:16.953258  5239 layer_factory.hpp:77] Creating layer loss
I0826 17:59:16.953269  5239 net.cpp:100] Creating Layer loss
I0826 17:59:16.953275  5239 net.cpp:434] loss <- cropscore_cropscore_0_split_0
I0826 17:59:16.953281  5239 net.cpp:434] loss <- label_data_1_split_0
I0826 17:59:16.953289  5239 net.cpp:408] loss -> loss
…
