…
I0919 14:09:07.855558  2534 solver.cpp:91] Creating training net from net file: portrait_train_test_one_stage128.prototxt
I0919 14:09:07.856040  2534 net.cpp:322] The NetState phase (0) differed from the phase (1) specified by a rule in layer data
I0919 14:09:07.856183  2534 net.cpp:58] Initializing net from parameters: 
name: "segmentation"
state {
  phase: TRAIN
  level: 0
  stage: ""
}
layer {
  name: "data"
  type: "SegData"
  top: "image"
  top: "label"
  include {
    phase: TRAIN
  }
  transform_param {
    mirror: true
    crop_size: 128
  }
  data_param {
    source: "/raid/xuehan/segmentation128_train_split"
    batch_size: 256
    backend: LMDB
  }
}
layer {
  name: "conv1_1"
  type: "Convolution"
  bottom: "image"
  top: "conv1_1"
  param {
    lr_mult: 1
    decay_mult: 1
  }
  convolution_param {
    num_output: 8
    bias_term: false
    pad: 30
    kernel_size: 3
    stride: 1
    weight_filler {
      type: "gaussian"
      std: 0.01
    }
  }
}
layer {
  name: "pool1"
  type: "Pooling"
  bottom: "conv1_1"
  top: "pool1"
  pooling_param {
    pool: MAX
    kernel_size: 2
    stride: 2
  }
}
layer {
  name: "conv1_1_bn"
  type: "BatchNorm"
  bottom: "pool1"
  top: "conv1_1_bn"
  param {
    lr_mult: 0
  }
  param {
    lr_mult: 0
  }
  param {
    lr_mult: 0
  }
}
layer {
  name: "conv1_1_bn_scale"
  type: "Scale"
  bottom: "conv1_1_bn"
  top: "conv1_1_bn"
  scale_param {
    bias_term: true
  }
}
layer {
  name: "conv1_1_relu"
  type: "ReLU"
  bottom: "conv1_1_bn"
  top: "conv1_1_bn"
}
layer {
  name: "conv2_1"
  type: "Convolution"
  bottom: "conv1_1_bn"
  top: "conv2_1"
  param {
    lr_mult: 1
    decay_mult: 1
  }
  convolution_param {
    num_output: 16
    bias_term: false
    pad: 1
    kernel_size: 3
    stride: 1
    weight_filler {
      type: "gaussian"
      std: 0.01
    }
  }
}
layer {
  name: "pool2"
  type: "Pooling"
  bottom: "conv2_1"
  top: "pool2"
  pooling_param {
    pool: MAX
    kernel_size: 2
    stride: 2
  }
}
layer {
  name: "conv2_1_bn"
  type: "BatchNorm"
  bottom: "pool2"
  top: "conv2_1_bn"
  param {
    lr_mult: 0
  }
  param {
    lr_mult: 0
  }
  param {
    lr_mult: 0
  }
}
layer {
  name: "conv2_1_bn_scale"
  type: "Scale"
  bottom: "conv2_1_bn"
  top: "conv2_1_bn"
  scale_param {
    bias_term: true
  }
}
layer {
  name: "conv2_1_relu"
  type: "ReLU"
  bottom: "conv2_1_bn"
  top: "conv2_1_bn"
}
layer {
  name: "conv3_1"
  type: "Convolution"
  bottom: "conv2_1_bn"
  top: "conv3_1"
  param {
    lr_mult: 1
    decay_mult: 1
  }
  convolution_param {
    num_output: 32
    bias_term: false
    pad: 1
    kernel_size: 3
    stride: 1
    weight_filler {
      type: "gaussian"
      std: 0.01
    }
  }
}
layer {
  name: "pool3"
  type: "Pooling"
  bottom: "conv3_1"
  top: "pool3"
  pooling_param {
    pool: MAX
    kernel_size: 2
    stride: 2
  }
}
layer {
  name: "conv3_1_bn"
  type: "BatchNorm"
  bottom: "pool3"
  top: "conv3_1_bn"
  param {
    lr_mult: 0
  }
  param {
    lr_mult: 0
  }
  param {
    lr_mult: 0
  }
}
layer {
  name: "conv3_1_bn_scale"
  type: "Scale"
  bottom: "conv3_1_bn"
  top: "conv3_1_bn"
  scale_param {
    bias_term: true
  }
}
layer {
  name: "conv3_1_relu"
  type: "ReLU"
  bottom: "conv3_1_bn"
  top: "conv3_1_bn"
}
layer {
  name: "conv5_1"
  type: "Convolution"
  bottom: "conv3_1_bn"
  top: "conv5_1"
  param {
    lr_mult: 1
    decay_mult: 1
  }
  convolution_param {
    num_output: 64
    bias_term: false
    pad: 0
    kernel_size: 3
    stride: 1
    weight_filler {
      type: "gaussian"
      std: 0.01
    }
  }
}
layer {
  name: "conv5_1_bn"
  type: "BatchNorm"
  bottom: "conv5_1"
  top: "conv5_1_bn"
  param {
    lr_mult: 0
  }
  param {
    lr_mult: 0
  }
  param {
    lr_mult: 0
  }
}
layer {
  name: "conv5_1_bn_scale"
  type: "Scale"
  bottom: "conv5_1_bn"
  top: "conv5_1_bn"
  scale_param {
    bias_term: true
  }
}
layer {
  name: "conv5_1_relu"
  type: "ReLU"
  bottom: "conv5_1_bn"
  top: "conv5_1_bn"
}
layer {
  name: "conv6_1"
  type: "Convolution"
  bottom: "conv5_1_bn"
  top: "conv6_1"
  param {
    lr_mult: 1
    decay_mult: 1
  }
  convolution_param {
    num_output: 64
    bias_term: false
    pad: 0
    kernel_size: 3
    stride: 1
    weight_filler {
      type: "gaussian"
      std: 0.01
    }
  }
}
layer {
  name: "conv6_1_bn"
  type: "BatchNorm"
  bottom: "conv6_1"
  top: "conv6_1_bn"
  param {
    lr_mult: 0
  }
  param {
    lr_mult: 0
  }
  param {
    lr_mult: 0
  }
}
layer {
  name: "conv6_1_bn_scale"
  type: "Scale"
  bottom: "conv6_1_bn"
  top: "conv6_1_bn"
  scale_param {
    bias_term: true
  }
}
layer {
  name: "conv6_1_relu"
  type: "ReLU"
  bottom: "conv6_1_bn"
  top: "conv6_1_bn"
}
layer {
  name: "conv7_1"
  type: "Convolution"
  bottom: "conv6_1_bn"
  top: "conv7_1"
  param {
    lr_mult: 1
    decay_mult: 1
  }
  convolution_param {
    num_output: 128
    bias_term: false
    pad: 0
    kernel_size: 3
    stride: 1
    weight_filler {
      type: "gaussian"
      std: 0.01
    }
  }
}
layer {
  name: "conv7_1_bn"
  type: "BatchNorm"
  bottom: "conv7_1"
  top: "conv7_1_bn"
  param {
    lr_mult: 0
  }
  param {
    lr_mult: 0
  }
  param {
    lr_mult: 0
  }
}
layer {
  name: "conv7_1_bn_scale"
  type: "Scale"
  bottom: "conv7_1_bn"
  top: "conv7_1_bn"
  scale_param {
    bias_term: true
  }
}
layer {
  name: "conv7_1_relu"
  type: "ReLU"
  bottom: "conv7_1_bn"
  top: "conv7_1_bn"
}
layer {
  name: "score"
  type: "Convolution"
  bottom: "conv7_1_bn"
  top: "score"
  param {
    lr_mult: 1
    decay_mult: 1
  }
  param {
    lr_mult: 2
    decay_mult: 0
  }
  convolution_param {
    num_output: 4
    pad: 0
    kernel_size: 1
    stride: 1
    weight_filler {
      type: "gaussian"
      std: 0.01
    }
    bias_filler {
      type: "constant"
    }
  }
}
layer {
  name: "upscore"
  type: "Deconvolution"
  bottom: "score"
  top: "upscore"
  param {
    lr_mult: 1
    decay_mult: 1
  }
  convolution_param {
    num_output: 4
    bias_term: false
    pad: 0
    kernel_size: 16
    stride: 8
    weight_filler {
      type: "gaussian"
      std: 0.01
    }
  }
}
layer {
  name: "cropscore"
  type: "Crop"
  bottom: "upscore"
  bottom: "image"
  top: "cropscore"
  crop_param {
    axis: 2
    offset: 12
  }
}
layer {
  name: "loss"
  type: "SoftmaxWithLoss"
  bottom: "cropscore"
  bottom: "label"
  top: "loss"
  loss_weight: 1
  loss_param {
    normalize: false
  }
}
layer {
  name: "accuracy"
  type: "Accuracy"
  bottom: "cropscore"
  bottom: "label"
  top: "accuracy"
}
I0919 14:09:07.856312  2534 layer_factory.hpp:77] Creating layer data
I0919 14:09:07.856808  2534 net.cpp:100] Creating Layer data
I0919 14:09:07.856819  2534 net.cpp:408] data -> image
I0919 14:09:07.856848  2534 net.cpp:408] data -> label
I0919 14:09:07.857800  2539 db_lmdb.cpp:35] Opened lmdb /raid/xuehan/segmentation128_train_split
I0919 14:09:07.857920  2534 seg_data_layer.cpp:38] 128 128 4
I0919 14:09:07.865300  2534 seg_data_layer.cpp:51] output data size: 256,3,128,128
I0919 14:09:07.865360  2534 seg_data_layer.cpp:63] output label size: 256,1,128,128
I0919 14:09:07.952491  2534 net.cpp:150] Setting up data
I0919 14:09:07.952520  2534 net.cpp:157] Top shape: 256 3 128 128 (12582912)
I0919 14:09:07.952525  2534 net.cpp:157] Top shape: 256 1 128 128 (4194304)
I0919 14:09:07.952527  2534 net.cpp:165] Memory required for data: 67108864
I0919 14:09:07.952538  2534 layer_factory.hpp:77] Creating layer image_data_0_split
I0919 14:09:07.952548  2534 net.cpp:100] Creating Layer image_data_0_split
I0919 14:09:07.952553  2534 net.cpp:434] image_data_0_split <- image
I0919 14:09:07.952563  2534 net.cpp:408] image_data_0_split -> image_data_0_split_0
I0919 14:09:07.952579  2534 net.cpp:408] image_data_0_split -> image_data_0_split_1
I0919 14:09:07.952628  2534 net.cpp:150] Setting up image_data_0_split
I0919 14:09:07.952635  2534 net.cpp:157] Top shape: 256 3 128 128 (12582912)
I0919 14:09:07.952637  2534 net.cpp:157] Top shape: 256 3 128 128 (12582912)
I0919 14:09:07.952641  2534 net.cpp:165] Memory required for data: 167772160
I0919 14:09:07.952643  2534 layer_factory.hpp:77] Creating layer label_data_1_split
I0919 14:09:07.952647  2534 net.cpp:100] Creating Layer label_data_1_split
I0919 14:09:07.952651  2534 net.cpp:434] label_data_1_split <- label
I0919 14:09:07.952656  2534 net.cpp:408] label_data_1_split -> label_data_1_split_0
I0919 14:09:07.952661  2534 net.cpp:408] label_data_1_split -> label_data_1_split_1
I0919 14:09:07.952682  2534 net.cpp:150] Setting up label_data_1_split
I0919 14:09:07.952687  2534 net.cpp:157] Top shape: 256 1 128 128 (4194304)
I0919 14:09:07.952689  2534 net.cpp:157] Top shape: 256 1 128 128 (4194304)
I0919 14:09:07.952692  2534 net.cpp:165] Memory required for data: 201326592
I0919 14:09:07.952694  2534 layer_factory.hpp:77] Creating layer conv1_1
I0919 14:09:07.952708  2534 net.cpp:100] Creating Layer conv1_1
I0919 14:09:07.952711  2534 net.cpp:434] conv1_1 <- image_data_0_split_0
I0919 14:09:07.952715  2534 net.cpp:408] conv1_1 -> conv1_1
I0919 14:09:07.952868  2534 net.cpp:150] Setting up conv1_1
I0919 14:09:07.952874  2534 net.cpp:157] Top shape: 256 8 186 186 (70852608)
I0919 14:09:07.952877  2534 net.cpp:165] Memory required for data: 484737024
I0919 14:09:07.952888  2534 layer_factory.hpp:77] Creating layer pool1
I0919 14:09:07.952894  2534 net.cpp:100] Creating Layer pool1
I0919 14:09:07.952898  2534 net.cpp:434] pool1 <- conv1_1
I0919 14:09:07.952901  2534 net.cpp:408] pool1 -> pool1
I0919 14:09:07.952930  2534 net.cpp:150] Setting up pool1
I0919 14:09:07.952934  2534 net.cpp:157] Top shape: 256 8 93 93 (17713152)
I0919 14:09:07.952937  2534 net.cpp:165] Memory required for data: 555589632
I0919 14:09:07.952940  2534 layer_factory.hpp:77] Creating layer conv1_1_bn
I0919 14:09:07.952945  2534 net.cpp:100] Creating Layer conv1_1_bn
I0919 14:09:07.952949  2534 net.cpp:434] conv1_1_bn <- pool1
I0919 14:09:07.952952  2534 net.cpp:408] conv1_1_bn -> conv1_1_bn
I0919 14:09:07.953482  2534 net.cpp:150] Setting up conv1_1_bn
I0919 14:09:07.953492  2534 net.cpp:157] Top shape: 256 8 93 93 (17713152)
I0919 14:09:07.953495  2534 net.cpp:165] Memory required for data: 626442240
I0919 14:09:07.953505  2534 layer_factory.hpp:77] Creating layer conv1_1_bn_scale
I0919 14:09:07.953511  2534 net.cpp:100] Creating Layer conv1_1_bn_scale
I0919 14:09:07.953516  2534 net.cpp:434] conv1_1_bn_scale <- conv1_1_bn
I0919 14:09:07.953521  2534 net.cpp:395] conv1_1_bn_scale -> conv1_1_bn (in-place)
I0919 14:09:07.953552  2534 layer_factory.hpp:77] Creating layer conv1_1_bn_scale
I0919 14:09:07.953696  2534 net.cpp:150] Setting up conv1_1_bn_scale
I0919 14:09:07.953702  2534 net.cpp:157] Top shape: 256 8 93 93 (17713152)
I0919 14:09:07.953706  2534 net.cpp:165] Memory required for data: 697294848
I0919 14:09:07.953712  2534 layer_factory.hpp:77] Creating layer conv1_1_relu
I0919 14:09:07.953719  2534 net.cpp:100] Creating Layer conv1_1_relu
I0919 14:09:07.953722  2534 net.cpp:434] conv1_1_relu <- conv1_1_bn
I0919 14:09:07.953727  2534 net.cpp:395] conv1_1_relu -> conv1_1_bn (in-place)
I0919 14:09:07.953732  2534 net.cpp:150] Setting up conv1_1_relu
I0919 14:09:07.953735  2534 net.cpp:157] Top shape: 256 8 93 93 (17713152)
I0919 14:09:07.953738  2534 net.cpp:165] Memory required for data: 768147456
I0919 14:09:07.953742  2534 layer_factory.hpp:77] Creating layer conv2_1
I0919 14:09:07.953750  2534 net.cpp:100] Creating Layer conv2_1
I0919 14:09:07.953754  2534 net.cpp:434] conv2_1 <- conv1_1_bn
I0919 14:09:07.953758  2534 net.cpp:408] conv2_1 -> conv2_1
I0919 14:09:07.959830  2534 net.cpp:150] Setting up conv2_1
I0919 14:09:07.959842  2534 net.cpp:157] Top shape: 256 16 93 93 (35426304)
I0919 14:09:07.959846  2534 net.cpp:165] Memory required for data: 909852672
I0919 14:09:07.959854  2534 layer_factory.hpp:77] Creating layer pool2
I0919 14:09:07.959866  2534 net.cpp:100] Creating Layer pool2
I0919 14:09:07.959869  2534 net.cpp:434] pool2 <- conv2_1
I0919 14:09:07.959874  2534 net.cpp:408] pool2 -> pool2
I0919 14:09:07.959899  2534 net.cpp:150] Setting up pool2
I0919 14:09:07.959903  2534 net.cpp:157] Top shape: 256 16 47 47 (9048064)
I0919 14:09:07.959906  2534 net.cpp:165] Memory required for data: 946044928
I0919 14:09:07.959909  2534 layer_factory.hpp:77] Creating layer conv2_1_bn
I0919 14:09:07.959915  2534 net.cpp:100] Creating Layer conv2_1_bn
I0919 14:09:07.959918  2534 net.cpp:434] conv2_1_bn <- pool2
I0919 14:09:07.959923  2534 net.cpp:408] conv2_1_bn -> conv2_1_bn
I0919 14:09:07.960052  2534 net.cpp:150] Setting up conv2_1_bn
I0919 14:09:07.960057  2534 net.cpp:157] Top shape: 256 16 47 47 (9048064)
I0919 14:09:07.960059  2534 net.cpp:165] Memory required for data: 982237184
I0919 14:09:07.960067  2534 layer_factory.hpp:77] Creating layer conv2_1_bn_scale
I0919 14:09:07.960072  2534 net.cpp:100] Creating Layer conv2_1_bn_scale
I0919 14:09:07.960075  2534 net.cpp:434] conv2_1_bn_scale <- conv2_1_bn
I0919 14:09:07.960079  2534 net.cpp:395] conv2_1_bn_scale -> conv2_1_bn (in-place)
I0919 14:09:07.960104  2534 layer_factory.hpp:77] Creating layer conv2_1_bn_scale
I0919 14:09:07.960180  2534 net.cpp:150] Setting up conv2_1_bn_scale
I0919 14:09:07.960186  2534 net.cpp:157] Top shape: 256 16 47 47 (9048064)
I0919 14:09:07.960187  2534 net.cpp:165] Memory required for data: 1018429440
I0919 14:09:07.960192  2534 layer_factory.hpp:77] Creating layer conv2_1_relu
I0919 14:09:07.960197  2534 net.cpp:100] Creating Layer conv2_1_relu
I0919 14:09:07.960201  2534 net.cpp:434] conv2_1_relu <- conv2_1_bn
I0919 14:09:07.960203  2534 net.cpp:395] conv2_1_relu -> conv2_1_bn (in-place)
I0919 14:09:07.960208  2534 net.cpp:150] Setting up conv2_1_relu
I0919 14:09:07.960211  2534 net.cpp:157] Top shape: 256 16 47 47 (9048064)
I0919 14:09:07.960214  2534 net.cpp:165] Memory required for data: 1054621696
I0919 14:09:07.960217  2534 layer_factory.hpp:77] Creating layer conv3_1
I0919 14:09:07.960224  2534 net.cpp:100] Creating Layer conv3_1
I0919 14:09:07.960227  2534 net.cpp:434] conv3_1 <- conv2_1_bn
I0919 14:09:07.960232  2534 net.cpp:408] conv3_1 -> conv3_1
I0919 14:09:07.960451  2534 net.cpp:150] Setting up conv3_1
I0919 14:09:07.960458  2534 net.cpp:157] Top shape: 256 32 47 47 (18096128)
I0919 14:09:07.960460  2534 net.cpp:165] Memory required for data: 1127006208
I0919 14:09:07.960465  2534 layer_factory.hpp:77] Creating layer pool3
I0919 14:09:07.960470  2534 net.cpp:100] Creating Layer pool3
I0919 14:09:07.960474  2534 net.cpp:434] pool3 <- conv3_1
I0919 14:09:07.960476  2534 net.cpp:408] pool3 -> pool3
I0919 14:09:07.960501  2534 net.cpp:150] Setting up pool3
I0919 14:09:07.960506  2534 net.cpp:157] Top shape: 256 32 24 24 (4718592)
I0919 14:09:07.960510  2534 net.cpp:165] Memory required for data: 1145880576
I0919 14:09:07.960511  2534 layer_factory.hpp:77] Creating layer conv3_1_bn
I0919 14:09:07.960517  2534 net.cpp:100] Creating Layer conv3_1_bn
I0919 14:09:07.960520  2534 net.cpp:434] conv3_1_bn <- pool3
I0919 14:09:07.960525  2534 net.cpp:408] conv3_1_bn -> conv3_1_bn
I0919 14:09:07.961036  2534 net.cpp:150] Setting up conv3_1_bn
I0919 14:09:07.961046  2534 net.cpp:157] Top shape: 256 32 24 24 (4718592)
I0919 14:09:07.961050  2534 net.cpp:165] Memory required for data: 1164754944
I0919 14:09:07.961055  2534 layer_factory.hpp:77] Creating layer conv3_1_bn_scale
I0919 14:09:07.961063  2534 net.cpp:100] Creating Layer conv3_1_bn_scale
I0919 14:09:07.961066  2534 net.cpp:434] conv3_1_bn_scale <- conv3_1_bn
I0919 14:09:07.961071  2534 net.cpp:395] conv3_1_bn_scale -> conv3_1_bn (in-place)
I0919 14:09:07.961097  2534 layer_factory.hpp:77] Creating layer conv3_1_bn_scale
I0919 14:09:07.961174  2534 net.cpp:150] Setting up conv3_1_bn_scale
I0919 14:09:07.961179  2534 net.cpp:157] Top shape: 256 32 24 24 (4718592)
I0919 14:09:07.961181  2534 net.cpp:165] Memory required for data: 1183629312
I0919 14:09:07.961194  2534 layer_factory.hpp:77] Creating layer conv3_1_relu
I0919 14:09:07.961205  2534 net.cpp:100] Creating Layer conv3_1_relu
I0919 14:09:07.961207  2534 net.cpp:434] conv3_1_relu <- conv3_1_bn
I0919 14:09:07.961212  2534 net.cpp:395] conv3_1_relu -> conv3_1_bn (in-place)
I0919 14:09:07.961217  2534 net.cpp:150] Setting up conv3_1_relu
I0919 14:09:07.961221  2534 net.cpp:157] Top shape: 256 32 24 24 (4718592)
I0919 14:09:07.961223  2534 net.cpp:165] Memory required for data: 1202503680
I0919 14:09:07.961226  2534 layer_factory.hpp:77] Creating layer conv5_1
I0919 14:09:07.961232  2534 net.cpp:100] Creating Layer conv5_1
I0919 14:09:07.961236  2534 net.cpp:434] conv5_1 <- conv3_1_bn
I0919 14:09:07.961241  2534 net.cpp:408] conv5_1 -> conv5_1
I0919 14:09:07.962136  2534 net.cpp:150] Setting up conv5_1
I0919 14:09:07.962147  2534 net.cpp:157] Top shape: 256 64 22 22 (7929856)
I0919 14:09:07.962149  2534 net.cpp:165] Memory required for data: 1234223104
I0919 14:09:07.962154  2534 layer_factory.hpp:77] Creating layer conv5_1_bn
I0919 14:09:07.962159  2534 net.cpp:100] Creating Layer conv5_1_bn
I0919 14:09:07.962162  2534 net.cpp:434] conv5_1_bn <- conv5_1
I0919 14:09:07.962168  2534 net.cpp:408] conv5_1_bn -> conv5_1_bn
I0919 14:09:07.962299  2534 net.cpp:150] Setting up conv5_1_bn
I0919 14:09:07.962306  2534 net.cpp:157] Top shape: 256 64 22 22 (7929856)
I0919 14:09:07.962307  2534 net.cpp:165] Memory required for data: 1265942528
I0919 14:09:07.962313  2534 layer_factory.hpp:77] Creating layer conv5_1_bn_scale
I0919 14:09:07.962318  2534 net.cpp:100] Creating Layer conv5_1_bn_scale
I0919 14:09:07.962321  2534 net.cpp:434] conv5_1_bn_scale <- conv5_1_bn
I0919 14:09:07.962326  2534 net.cpp:395] conv5_1_bn_scale -> conv5_1_bn (in-place)
I0919 14:09:07.962349  2534 layer_factory.hpp:77] Creating layer conv5_1_bn_scale
I0919 14:09:07.962437  2534 net.cpp:150] Setting up conv5_1_bn_scale
I0919 14:09:07.962445  2534 net.cpp:157] Top shape: 256 64 22 22 (7929856)
I0919 14:09:07.962447  2534 net.cpp:165] Memory required for data: 1297661952
I0919 14:09:07.962452  2534 layer_factory.hpp:77] Creating layer conv5_1_relu
I0919 14:09:07.962457  2534 net.cpp:100] Creating Layer conv5_1_relu
I0919 14:09:07.962460  2534 net.cpp:434] conv5_1_relu <- conv5_1_bn
I0919 14:09:07.962465  2534 net.cpp:395] conv5_1_relu -> conv5_1_bn (in-place)
I0919 14:09:07.962469  2534 net.cpp:150] Setting up conv5_1_relu
I0919 14:09:07.962472  2534 net.cpp:157] Top shape: 256 64 22 22 (7929856)
I0919 14:09:07.962476  2534 net.cpp:165] Memory required for data: 1329381376
I0919 14:09:07.962478  2534 layer_factory.hpp:77] Creating layer conv6_1
I0919 14:09:07.962484  2534 net.cpp:100] Creating Layer conv6_1
I0919 14:09:07.962486  2534 net.cpp:434] conv6_1 <- conv5_1_bn
I0919 14:09:07.962492  2534 net.cpp:408] conv6_1 -> conv6_1
I0919 14:09:07.963382  2534 net.cpp:150] Setting up conv6_1
I0919 14:09:07.963389  2534 net.cpp:157] Top shape: 256 64 20 20 (6553600)
I0919 14:09:07.963392  2534 net.cpp:165] Memory required for data: 1355595776
I0919 14:09:07.963395  2534 layer_factory.hpp:77] Creating layer conv6_1_bn
I0919 14:09:07.963402  2534 net.cpp:100] Creating Layer conv6_1_bn
I0919 14:09:07.963404  2534 net.cpp:434] conv6_1_bn <- conv6_1
I0919 14:09:07.963408  2534 net.cpp:408] conv6_1_bn -> conv6_1_bn
I0919 14:09:07.963536  2534 net.cpp:150] Setting up conv6_1_bn
I0919 14:09:07.963541  2534 net.cpp:157] Top shape: 256 64 20 20 (6553600)
I0919 14:09:07.963544  2534 net.cpp:165] Memory required for data: 1381810176
I0919 14:09:07.963549  2534 layer_factory.hpp:77] Creating layer conv6_1_bn_scale
I0919 14:09:07.963554  2534 net.cpp:100] Creating Layer conv6_1_bn_scale
I0919 14:09:07.963557  2534 net.cpp:434] conv6_1_bn_scale <- conv6_1_bn
I0919 14:09:07.963562  2534 net.cpp:395] conv6_1_bn_scale -> conv6_1_bn (in-place)
I0919 14:09:07.963584  2534 layer_factory.hpp:77] Creating layer conv6_1_bn_scale
I0919 14:09:07.963660  2534 net.cpp:150] Setting up conv6_1_bn_scale
I0919 14:09:07.963665  2534 net.cpp:157] Top shape: 256 64 20 20 (6553600)
I0919 14:09:07.963671  2534 net.cpp:165] Memory required for data: 1408024576
I0919 14:09:07.963681  2534 layer_factory.hpp:77] Creating layer conv6_1_relu
I0919 14:09:07.963686  2534 net.cpp:100] Creating Layer conv6_1_relu
I0919 14:09:07.963690  2534 net.cpp:434] conv6_1_relu <- conv6_1_bn
I0919 14:09:07.963696  2534 net.cpp:395] conv6_1_relu -> conv6_1_bn (in-place)
I0919 14:09:07.963701  2534 net.cpp:150] Setting up conv6_1_relu
I0919 14:09:07.963704  2534 net.cpp:157] Top shape: 256 64 20 20 (6553600)
I0919 14:09:07.963706  2534 net.cpp:165] Memory required for data: 1434238976
I0919 14:09:07.963709  2534 layer_factory.hpp:77] Creating layer conv7_1
I0919 14:09:07.963717  2534 net.cpp:100] Creating Layer conv7_1
I0919 14:09:07.963719  2534 net.cpp:434] conv7_1 <- conv6_1_bn
I0919 14:09:07.963724  2534 net.cpp:408] conv7_1 -> conv7_1
I0919 14:09:07.965788  2534 net.cpp:150] Setting up conv7_1
I0919 14:09:07.965801  2534 net.cpp:157] Top shape: 256 128 18 18 (10616832)
I0919 14:09:07.965804  2534 net.cpp:165] Memory required for data: 1476706304
I0919 14:09:07.965809  2534 layer_factory.hpp:77] Creating layer conv7_1_bn
I0919 14:09:07.965816  2534 net.cpp:100] Creating Layer conv7_1_bn
I0919 14:09:07.965818  2534 net.cpp:434] conv7_1_bn <- conv7_1
I0919 14:09:07.965822  2534 net.cpp:408] conv7_1_bn -> conv7_1_bn
I0919 14:09:07.965950  2534 net.cpp:150] Setting up conv7_1_bn
I0919 14:09:07.965955  2534 net.cpp:157] Top shape: 256 128 18 18 (10616832)
I0919 14:09:07.965958  2534 net.cpp:165] Memory required for data: 1519173632
I0919 14:09:07.965968  2534 layer_factory.hpp:77] Creating layer conv7_1_bn_scale
I0919 14:09:07.965973  2534 net.cpp:100] Creating Layer conv7_1_bn_scale
I0919 14:09:07.965976  2534 net.cpp:434] conv7_1_bn_scale <- conv7_1_bn
I0919 14:09:07.965981  2534 net.cpp:395] conv7_1_bn_scale -> conv7_1_bn (in-place)
I0919 14:09:07.966006  2534 layer_factory.hpp:77] Creating layer conv7_1_bn_scale
I0919 14:09:07.966078  2534 net.cpp:150] Setting up conv7_1_bn_scale
I0919 14:09:07.966085  2534 net.cpp:157] Top shape: 256 128 18 18 (10616832)
I0919 14:09:07.966087  2534 net.cpp:165] Memory required for data: 1561640960
I0919 14:09:07.966092  2534 layer_factory.hpp:77] Creating layer conv7_1_relu
I0919 14:09:07.966097  2534 net.cpp:100] Creating Layer conv7_1_relu
I0919 14:09:07.966099  2534 net.cpp:434] conv7_1_relu <- conv7_1_bn
I0919 14:09:07.966104  2534 net.cpp:395] conv7_1_relu -> conv7_1_bn (in-place)
I0919 14:09:07.966107  2534 net.cpp:150] Setting up conv7_1_relu
I0919 14:09:07.966110  2534 net.cpp:157] Top shape: 256 128 18 18 (10616832)
I0919 14:09:07.966114  2534 net.cpp:165] Memory required for data: 1604108288
I0919 14:09:07.966116  2534 layer_factory.hpp:77] Creating layer score
I0919 14:09:07.966123  2534 net.cpp:100] Creating Layer score
I0919 14:09:07.966126  2534 net.cpp:434] score <- conv7_1_bn
I0919 14:09:07.966132  2534 net.cpp:408] score -> score
I0919 14:09:07.966290  2534 net.cpp:150] Setting up score
I0919 14:09:07.966296  2534 net.cpp:157] Top shape: 256 4 18 18 (331776)
I0919 14:09:07.966300  2534 net.cpp:165] Memory required for data: 1605435392
I0919 14:09:07.966303  2534 layer_factory.hpp:77] Creating layer upscore
I0919 14:09:07.966311  2534 net.cpp:100] Creating Layer upscore
I0919 14:09:07.966315  2534 net.cpp:434] upscore <- score
I0919 14:09:07.966318  2534 net.cpp:408] upscore -> upscore
I0919 14:09:07.966550  2534 net.cpp:150] Setting up upscore
I0919 14:09:07.966558  2534 net.cpp:157] Top shape: 256 4 152 152 (23658496)
I0919 14:09:07.966562  2534 net.cpp:165] Memory required for data: 1700069376
I0919 14:09:07.966565  2534 layer_factory.hpp:77] Creating layer cropscore
I0919 14:09:07.966574  2534 net.cpp:100] Creating Layer cropscore
I0919 14:09:07.966578  2534 net.cpp:434] cropscore <- upscore
I0919 14:09:07.966581  2534 net.cpp:434] cropscore <- image_data_0_split_1
I0919 14:09:07.966585  2534 net.cpp:408] cropscore -> cropscore
I0919 14:09:07.966606  2534 net.cpp:150] Setting up cropscore
I0919 14:09:07.966610  2534 net.cpp:157] Top shape: 256 4 128 128 (16777216)
I0919 14:09:07.966619  2534 net.cpp:165] Memory required for data: 1767178240
I0919 14:09:07.966626  2534 layer_factory.hpp:77] Creating layer cropscore_cropscore_0_split
I0919 14:09:07.966631  2534 net.cpp:100] Creating Layer cropscore_cropscore_0_split
I0919 14:09:07.966634  2534 net.cpp:434] cropscore_cropscore_0_split <- cropscore
I0919 14:09:07.966639  2534 net.cpp:408] cropscore_cropscore_0_split -> cropscore_cropscore_0_split_0
I0919 14:09:07.966645  2534 net.cpp:408] cropscore_cropscore_0_split -> cropscore_cropscore_0_split_1
I0919 14:09:07.966667  2534 net.cpp:150] Setting up cropscore_cropscore_0_split
I0919 14:09:07.966671  2534 net.cpp:157] Top shape: 256 4 128 128 (16777216)
I0919 14:09:07.966675  2534 net.cpp:157] Top shape: 256 4 128 128 (16777216)
I0919 14:09:07.966677  2534 net.cpp:165] Memory required for data: 1901395968
I0919 14:09:07.966681  2534 layer_factory.hpp:77] Creating layer loss
I0919 14:09:07.966686  2534 net.cpp:100] Creating Layer loss
I0919 14:09:07.966689  2534 net.cpp:434] loss <- cropscore_cropscore_0_split_0
I0919 14:09:07.966692  2534 net.cpp:434] loss <- label_data_1_split_0
I0919 14:09:07.966697  2534 net.cpp:408] loss -> loss
…
