name: "segmentation"
layer {
  name: "data"
  type: "SegData"
  top: "image"
  top: "label"
  transform_param {
    crop_size: 200
    mirror: true
  }
  data_param {
    source: "/raid/xuehan/segmentation_train_split"
    batch_size: 128
    backend: LMDB
  }
  include {
    phase: TRAIN
  }
}
layer {
  name: "data"
  type: "SegData"
  top: "image"
  top: "label"
  transform_param {
    crop_size: 200
  }
  data_param {
    source: "/raid/xuehan/segmentation_test_split"
    batch_size: 64
    backend: LMDB
  }
  include {
    phase: TEST
  }
}
layer {
  name: "conv1_1" 
  type: "Convolution"
  bottom: "image"
  top: "conv1_1"
  param {
    lr_mult: 1
    decay_mult: 1
  }
  convolution_param {
    num_output: 8
    pad: 50
    kernel_size: 3
    bias_term: false
    stride: 1
    weight_filler {
      type: "gaussian"
      std: 0.01
    }
  }
}
layer {
  name: "pool1"
  type: "Pooling"
  bottom: "conv1_1"
  top: "pool1"
  pooling_param {
    pool: MAX
    kernel_size: 2
    stride: 2
  }
}
layer {
  name: "conv1_1_bn"
  type: "BatchNorm"
  bottom: "pool1"
  top: "conv1_1_bn"
  param {lr_mult: 0}
  param {lr_mult: 0}
  param {lr_mult: 0}
}
layer {
  name: "conv1_1_bn_scale"
  type: "Scale"
  bottom: "conv1_1_bn"
  top: "conv1_1_bn"
  scale_param {bias_term: true}
}
layer {
  name: "conv1_1_relu"
  type: "ReLU"
  bottom: "conv1_1_bn"
  top: "conv1_1_bn"
}
layer {
  name: "conv2_1" 
  type: "Convolution"
  bottom: "conv1_1_bn"
  top: "conv2_1"
  param {
    lr_mult: 1
    decay_mult: 1
  }
  convolution_param {
    num_output: 16
    pad: 1
    kernel_size: 3
    bias_term: false
    stride: 1
    weight_filler {
      type: "gaussian"
      std: 0.01
    }
  }
}
layer {
  name: "pool2"
  type: "Pooling"
  bottom: "conv2_1"
  top: "pool2"
  pooling_param {
    pool: MAX
    kernel_size: 2
    stride: 2
  }
}
layer {
  name: "conv2_1_bn"
  type: "BatchNorm"
  bottom: "pool2"
  top: "conv2_1_bn"
  param {lr_mult: 0}
  param {lr_mult: 0}
  param {lr_mult: 0}
}
layer {
  name: "conv2_1_bn_scale"
  type: "Scale"
  bottom: "conv2_1_bn"
  top: "conv2_1_bn"
  scale_param {bias_term: true}
}
layer {
  name: "conv2_1_relu"
  type: "ReLU"
  bottom: "conv2_1_bn"
  top: "conv2_1_bn"
}
layer {
  name: "conv3_1" 
  type: "Convolution"
  bottom: "conv2_1_bn"
  top: "conv3_1"
  param {
    lr_mult: 1
    decay_mult: 1
  }
  convolution_param {
    num_output: 32
    pad: 1
    kernel_size: 3
    bias_term: false
    stride: 1
    weight_filler {
      type: "gaussian"
      std: 0.01
    }
  }
}
layer {
  name: "pool3"
  type: "Pooling"
  bottom: "conv3_1"
  top: "pool3"
  pooling_param {
    pool: MAX
    kernel_size: 2
    stride: 2
  }
}
layer {
  name: "conv3_1_bn"
  type: "BatchNorm"
  bottom: "pool3"
  top: "conv3_1_bn"
  param {lr_mult: 0}
  param {lr_mult: 0}
  param {lr_mult: 0}
}
layer {
  name: "conv3_1_bn_scale"
  type: "Scale"
  bottom: "conv3_1_bn"
  top: "conv3_1_bn"
  scale_param {bias_term: true}
}
layer {
  name: "conv3_1_relu"
  type: "ReLU"
  bottom: "conv3_1_bn"
  top: "conv3_1_bn"
}
layer {
  name: "conv3_2" 
  type: "Convolution"
  bottom: "conv3_1_bn"
  top: "conv3_2"
  param {
    lr_mult: 1
    decay_mult: 1
  }
  convolution_param {
    num_output: 32
    pad: 0
    kernel_size: 3
    bias_term: false
    stride: 1
    weight_filler {
      type: "gaussian"
      std: 0.01
    }
  }
}
layer {
  name: "conv3_2_bn"
  type: "BatchNorm"
  bottom: "conv3_2"
  top: "conv3_2_bn"
  param {lr_mult: 0}
  param {lr_mult: 0}
  param {lr_mult: 0}
}
layer {
  name: "conv3_2_bn_scale"
  type: "Scale"
  bottom: "conv3_2_bn"
  top: "conv3_2_bn"
  scale_param {bias_term: true}
}
layer {
  name: "conv3_2_relu"
  type: "ReLU"
  bottom: "conv3_2_bn"
  top: "conv3_2_bn"
}
layer {
  name: "conv3_3" 
  type: "Convolution"
  bottom: "conv3_2_bn"
  top: "conv3_3"
  param {
    lr_mult: 1
    decay_mult: 1
  }
  convolution_param {
    num_output: 32
    pad: 0
    kernel_size: 3
    bias_term: false
    stride: 1
    weight_filler {
      type: "gaussian"
      std: 0.01
    }
  }
}
layer {
  name: "conv3_3_bn"
  type: "BatchNorm"
  bottom: "conv3_3"
  top: "conv3_3_bn"
  param {lr_mult: 0}
  param {lr_mult: 0}
  param {lr_mult: 0}
}
layer {
  name: "conv3_3_bn_scale"
  type: "Scale"
  bottom: "conv3_3_bn"
  top: "conv3_3_bn"
  scale_param {bias_term: true}
}
layer {
  name: "conv3_3_relu"
  type: "ReLU"
  bottom: "conv3_3_bn"
  top: "conv3_3_bn"
}
layer {
  name: "conv3_4" 
  type: "Convolution"
  bottom: "conv3_3_bn"
  top: "conv3_4"
  param {
    lr_mult: 1
    decay_mult: 1
  }
  convolution_param {
    num_output: 64
    pad: 0
    kernel_size: 3
    bias_term: false
    stride: 1
    weight_filler {
      type: "gaussian"
      std: 0.01
    }
  }
}
layer {
  name: "conv3_4_bn"
  type: "BatchNorm"
  bottom: "conv3_4"
  top: "conv3_4_bn"
  param {lr_mult: 0}
  param {lr_mult: 0}
  param {lr_mult: 0}
}
layer {
  name: "conv3_4_bn_scale"
  type: "Scale"
  bottom: "conv3_4_bn"
  top: "conv3_4_bn"
  scale_param {bias_term: true}
}
layer {
  name: "conv3_4_relu"
  type: "ReLU"
  bottom: "conv3_4_bn"
  top: "conv3_4_bn"
}
layer {
  name: "score8" 
  type: "Convolution"
  bottom: "conv3_4_bn"
  top: "score8"
  param {
    lr_mult: 1
    decay_mult: 1
  }
  param {
    lr_mult: 2
    decay_mult: 0
  }
  convolution_param {
    num_output: 4
    pad: 0
    kernel_size: 1
    stride: 1
    weight_filler {
      type: "gaussian"
      std: 0.01
    }
    bias_filler {
      type: "constant"
    }
  }
}
layer {
  name: "conv4_1" 
  type: "Convolution"
  bottom: "conv3_1_bn"
  top: "conv4_1"
  param {
    lr_mult: 1
    decay_mult: 1
  }
  convolution_param {
    num_output: 64
    pad: 1
    kernel_size: 3
    bias_term: false
    stride: 1
    weight_filler {
      type: "gaussian"
      std: 0.01
    }
  }
}
layer {
  name: "pool4"
  type: "Pooling"
  bottom: "conv4_1"
  top: "pool4"
  pooling_param {
    pool: MAX
    kernel_size: 2
    stride: 2
  }
}
layer {
  name: "conv4_1_bn"
  type: "BatchNorm"
  bottom: "pool4"
  top: "conv4_1_bn"
  param {lr_mult: 0}
  param {lr_mult: 0}
  param {lr_mult: 0}
}
layer {
  name: "conv4_1_bn_scale"
  type: "Scale"
  bottom: "conv4_1_bn"
  top: "conv4_1_bn"
  scale_param {bias_term: true}
}
layer {
  name: "conv4_1_relu"
  type: "ReLU"
  bottom: "conv4_1_bn"
  top: "conv4_1_bn"
}
layer {
  name: "conv5_1" 
  type: "Convolution"
  bottom: "conv4_1_bn"
  top: "conv5_1"
  param {
    lr_mult: 1
    decay_mult: 1
  }
  convolution_param {
    num_output: 64
    pad: 0
    kernel_size: 3
    bias_term: false
    stride: 1
    weight_filler {
      type: "gaussian"
      std: 0.01
    }
  }
}
layer {
  name: "conv5_1_bn"
  type: "BatchNorm"
  bottom: "conv5_1"
  top: "conv5_1_bn"
  param {lr_mult: 0}
  param {lr_mult: 0}
  param {lr_mult: 0}
}
layer {
  name: "conv5_1_bn_scale"
  type: "Scale"
  bottom: "conv5_1_bn"
  top: "conv5_1_bn"
  scale_param {bias_term: true}
}
layer {
  name: "conv5_1_relu"
  type: "ReLU"
  bottom: "conv5_1_bn"
  top: "conv5_1_bn"
}
layer {
  name: "conv6_1" 
  type: "Convolution"
  bottom: "conv5_1_bn"
  top: "conv6_1"
  param {
    lr_mult: 1
    decay_mult: 1
  }
  convolution_param {
    num_output: 64
    pad: 0
    kernel_size: 3
    bias_term: false
    stride: 1
    weight_filler {
      type: "gaussian"
      std: 0.01
    }
  }
}
layer {
  name: "conv6_1_bn"
  type: "BatchNorm"
  bottom: "conv6_1"
  top: "conv6_1_bn"
  param {lr_mult: 0}
  param {lr_mult: 0}
  param {lr_mult: 0}
}
layer {
  name: "conv6_1_bn_scale"
  type: "Scale"
  bottom: "conv6_1_bn"
  top: "conv6_1_bn"
  scale_param {bias_term: true}
}
layer {
  name: "conv6_1_relu"
  type: "ReLU"
  bottom: "conv6_1_bn"
  top: "conv6_1_bn"
}
layer {
  name: "conv7_1" 
  type: "Convolution"
  bottom: "conv6_1_bn"
  top: "conv7_1"
  param {
    lr_mult: 1
    decay_mult: 1
  }
  convolution_param {
    num_output: 128
    pad: 0
    kernel_size: 3
    bias_term: false
    stride: 1
    weight_filler {
      type: "gaussian"
      std: 0.01
    }
  }
}
layer {
  name: "conv7_1_bn"
  type: "BatchNorm"
  bottom: "conv7_1"
  top: "conv7_1_bn"
  param {lr_mult: 0}
  param {lr_mult: 0}
  param {lr_mult: 0}
}
layer {
  name: "conv7_1_bn_scale"
  type: "Scale"
  bottom: "conv7_1_bn"
  top: "conv7_1_bn"
  scale_param {bias_term: true}
}
layer {
  name: "conv7_1_relu"
  type: "ReLU"
  bottom: "conv7_1_bn"
  top: "conv7_1_bn"
}

layer {
  name: "score" 
  type: "Convolution"
  bottom: "conv7_1_bn"
  top: "score"
  param {
    lr_mult: 1
    decay_mult: 1
  }
  param {
    lr_mult: 2
    decay_mult: 0
  }
  convolution_param {
    num_output: 4
    pad: 0
    kernel_size: 1
    stride: 1
    weight_filler {
      type: "gaussian"
      std: 0.01
    }
    bias_filler {
      type: "constant"
    }
  }
}
layer {
  name: "upscorex2" 
  type: "Deconvolution"
  bottom: "score"
  top: "upscorex2"
  param {
    lr_mult: 1
    decay_mult: 1
  }
  convolution_param {
    num_output: 4
    pad: 0
    kernel_size: 4
    bias_term: false
    stride: 2
    weight_filler {
      type: "gaussian"
      std: 0.01
    }
  }
}
layer {
  name: "cropscore1"
  type: "Crop"
  bottom: "score8"
  bottom: "upscorex2"
  top: "cropscore1"
  crop_param {
    axis: 2
    offset: 2
  }
}
layer {
  name: "fuse"
  type: "Eltwise"
  bottom: "cropscore1"
  bottom: "upscorex2"
  top: "score_fuse"
  eltwise_param {
    operation: SUM
  }
}
layer {
  name: "upscorex8" 
  type: "Deconvolution"
  bottom: "score_fuse"
  top: "upscorex8"
  param {
    lr_mult: 1
    decay_mult: 1
  }
  convolution_param {
    num_output: 4
    pad: 0
    kernel_size: 16
    bias_term: false
    stride: 8
    weight_filler {
      type: "gaussian"
      std: 0.01
    }
  }
}
layer {
  name: "cropscore2"
  type: "Crop"
  bottom: "upscorex8"
  bottom: "image"
  top: "cropscore2"
  crop_param {
    axis: 2
    offset: 16
  }
}
layer {
  name: "loss"
  type: "SoftmaxWithLoss"
  bottom: "cropscore2"
  bottom: "label"
  top: "loss"
  loss_weight: 1
  loss_param {
    normalize: false
  }
}
layer {
  name: "accuracy"
  type: "Accuracy"
  bottom: "cropscore2"
  bottom: "label"
  top: "accuracy"
}

